program(1.0)
[buildInfo = dict<tensor<string, []>, tensor<string, []>>({{"coremlc-component-MIL", "5.33.5"}, {"coremlc-version", "1877.40.3"}})]
{
    func main<ios17>(tensor<fp16, [1, 80, 1, 3000]> melspectrogram_features) {
            tensor<int32, [2]> var_90 = const()[name = tensor<string, []>("op_90"), val = tensor<int32, [2]>([1, 1])];
            tensor<int32, [2]> var_96 = const()[name = tensor<string, []>("op_96"), val = tensor<int32, [2]>([1, 1])];
            tensor<int32, []> var_101 = const()[name = tensor<string, []>("op_101"), val = tensor<int32, []>(1)];
            tensor<string, []> var_106_pad_type_0 = const()[name = tensor<string, []>("op_106_pad_type_0"), val = tensor<string, []>("custom")];
            tensor<int32, [4]> var_106_pad_0 = const()[name = tensor<string, []>("op_106_pad_0"), val = tensor<int32, [4]>([0, 0, 1, 1])];
            tensor<fp16, [1280, 80, 1, 3]> var_81_to_fp16 = const()[name = tensor<string, []>("op_81_to_fp16"), val = tensor<fp16, [1280, 80, 1, 3]>(BLOBFILE(path = tensor<string, []>("@model_path/weights/weight.bin"), offset = tensor<uint64, []>(64)))];
            tensor<fp16, [1280]> var_87_to_fp16 = const()[name = tensor<string, []>("op_87_to_fp16"), val = tensor<fp16, [1280]>(BLOBFILE(path = tensor<string, []>("@model_path/weights/weight.bin"), offset = tensor<uint64, []>(614528)))];
            tensor<fp16, [1, 1280, 1, 3000]> var_106_cast_fp16 = conv(bias = var_87_to_fp16, dilations = var_96, groups = var_101, pad = var_106_pad_0, pad_type = var_106_pad_type_0, strides = var_90, weight = var_81_to_fp16, x = melspectrogram_features)[name = tensor<string, []>("op_106_cast_fp16")];
            tensor<string, []> hidden_states_1_mode_0 = const()[name = tensor<string, []>("hidden_states_1_mode_0"), val = tensor<string, []>("EXACT")];
            tensor<fp16, [1, 1280, 1, 3000]> hidden_states_1_cast_fp16 = gelu(mode = hidden_states_1_mode_0, x = var_106_cast_fp16)[name = tensor<string, []>("hidden_states_1_cast_fp16")];
            tensor<int32, [2]> var_130 = const()[name = tensor<string, []>("op_130"), val = tensor<int32, [2]>([2, 2])];
            tensor<int32, [2]> var_136 = const()[name = tensor<string, []>("op_136"), val = tensor<int32, [2]>([1, 1])];
            tensor<int32, []> var_141 = const()[name = tensor<string, []>("op_141"), val = tensor<int32, []>(1)];
            tensor<string, []> var_146_pad_type_0 = const()[name = tensor<string, []>("op_146_pad_type_0"), val = tensor<string, []>("custom")];
            tensor<int32, [4]> var_146_pad_0 = const()[name = tensor<string, []>("op_146_pad_0"), val = tensor<int32, [4]>([0, 0, 1, 1])];
            tensor<fp16, [1280, 1280, 1, 3]> var_121_to_fp16 = const()[name = tensor<string, []>("op_121_to_fp16"), val = tensor<fp16, [1280, 1280, 1, 3]>(BLOBFILE(path = tensor<string, []>("@model_path/weights/weight.bin"), offset = tensor<uint64, []>(617152)))];
            tensor<fp16, [1280]> var_127_to_fp16 = const()[name = tensor<string, []>("op_127_to_fp16"), val = tensor<fp16, [1280]>(BLOBFILE(path = tensor<string, []>("@model_path/weights/weight.bin"), offset = tensor<uint64, []>(10447616)))];
            tensor<fp16, [1, 1280, 1, 1500]> var_146_cast_fp16 = conv(bias = var_127_to_fp16, dilations = var_136, groups = var_141, pad = var_146_pad_0, pad_type = var_146_pad_type_0, strides = var_130, weight = var_121_to_fp16, x = hidden_states_1_cast_fp16)[name = tensor<string, []>("op_146_cast_fp16")];
            tensor<string, []> hidden_states_3_mode_0 = const()[name = tensor<string, []>("hidden_states_3_mode_0"), val = tensor<string, []>("EXACT")];
            tensor<fp16, [1, 1280, 1, 1500]> hidden_states_3_cast_fp16 = gelu(mode = hidden_states_3_mode_0, x = var_146_cast_fp16)[name = tensor<string, []>("hidden_states_3_cast_fp16")];
            tensor<fp16, [1, 1280, 1, 1500]> var_164_to_fp16 = const()[name = tensor<string, []>("op_164_to_fp16"), val = tensor<fp16, [1, 1280, 1, 1500]>(BLOBFILE(path = tensor<string, []>("@model_path/weights/weight.bin"), offset = tensor<uint64, []>(10450240)))];
            tensor<fp16, [1, 1280, 1, 1500]> inputs_1_cast_fp16 = add(x = hidden_states_3_cast_fp16, y = var_164_to_fp16)[name = tensor<string, []>("inputs_1_cast_fp16")];
            tensor<int32, []> var_178 = const()[name = tensor<string, []>("op_178"), val = tensor<int32, []>(3)];
            tensor<int32, []> var_180 = const()[name = tensor<string, []>("op_180"), val = tensor<int32, []>(1)];
            tensor<bool, []> var_181 = const()[name = tensor<string, []>("op_181"), val = tensor<bool, []>(true)];
            tensor<int32, [1]> var_191 = const()[name = tensor<string, []>("op_191"), val = tensor<int32, [1]>([1])];
            tensor<fp16, [1, 1, 1, 1500]> channels_mean_1_cast_fp16 = reduce_mean(axes = var_191, keep_dims = var_181, x = inputs_1_cast_fp16)[name = tensor<string, []>("channels_mean_1_cast_fp16")];
            tensor<fp16, [1, 1280, 1, 1500]> zero_mean_1_cast_fp16 = sub(x = inputs_1_cast_fp16, y = channels_mean_1_cast_fp16)[name = tensor<string, []>("zero_mean_1_cast_fp16")];
            tensor<fp16, [1, 1280, 1, 1500]> zero_mean_sq_1_cast_fp16 = mul(x = zero_mean_1_cast_fp16, y = zero_mean_1_cast_fp16)[name = tensor<string, []>("zero_mean_sq_1_cast_fp16")];
            tensor<int32, [1]> var_195 = const()[name = tensor<string, []>("op_195"), val = tensor<int32, [1]>([1])];
            tensor<fp16, [1, 1, 1, 1500]> var_196_cast_fp16 = reduce_mean(axes = var_195, keep_dims = var_181, x = zero_mean_sq_1_cast_fp16)[name = tensor<string, []>("op_196_cast_fp16")];
            tensor<fp16, []> var_197_to_fp16 = const()[name = tensor<string, []>("op_197_to_fp16"), val = tensor<fp16, []>(0x1.5p-17)];
            tensor<fp16, [1, 1, 1, 1500]> var_198_cast_fp16 = add(x = var_196_cast_fp16, y = var_197_to_fp16)[name = tensor<string, []>("op_198_cast_fp16")];
            tensor<fp32, []> denom_1_epsilon_0 = const()[name = tensor<string, []>("denom_1_epsilon_0"), val = tensor<fp32, []>(0x1.197998p-40)];
            tensor<fp16, [1, 1, 1, 1500]> denom_1_cast_fp16 = rsqrt(epsilon = denom_1_epsilon_0, x = var_198_cast_fp16)[name = tensor<string, []>("denom_1_cast_fp16")];
            tensor<fp16, [1, 1280, 1, 1500]> out_1_cast_fp16 = mul(x = zero_mean_1_cast_fp16, y = denom_1_cast_fp16)[name = tensor<string, []>("out_1_cast_fp16")];
            tensor<fp16, [1280]> obj_1_mean_0_to_fp16 = const()[name = tensor<string, []>("obj_1_mean_0_to_fp16"), val = tensor<fp16, [1280]>(BLOBFILE(path = tensor<string, []>("@model_path/weights/weight.bin"), offset = tensor<uint64, []>(14290304)))];
            tensor<fp16, [1280]> obj_1_variance_0_to_fp16 = const()[name = tensor<string, []>("obj_1_variance_0_to_fp16"), val = tensor<fp16, [1280]>(BLOBFILE(path = tensor<string, []>("@model_path/weights/weight.bin"), offset = tensor<uint64, []>(14292928)))];
            tensor<fp16, [1280]> obj_1_gamma_0_to_fp16 = const()[name = tensor<string, []>("obj_1_gamma_0_to_fp16"), val = tensor<fp16, [1280]>(BLOBFILE(path = tensor<string, []>("@model_path/weights/weight.bin"), offset = tensor<uint64, []>(14295552)))];
            tensor<fp16, [1280]> obj_1_beta_0_to_fp16 = const()[name = tensor<string, []>("obj_1_beta_0_to_fp16"), val = tensor<fp16, [1280]>(BLOBFILE(path = tensor<string, []>("@model_path/weights/weight.bin"), offset = tensor<uint64, []>(14298176)))];
            tensor<fp16, []> obj_1_epsilon_0_to_fp16 = const()[name = tensor<string, []>("obj_1_epsilon_0_to_fp16"), val = tensor<fp16, []>(0x1.5p-17)];
            tensor<fp16, [1, 1280, 1, 1500]> obj_1_cast_fp16 = batch_norm(beta = obj_1_beta_0_to_fp16, epsilon = obj_1_epsilon_0_to_fp16, gamma = obj_1_gamma_0_to_fp16, mean = obj_1_mean_0_to_fp16, variance = obj_1_variance_0_to_fp16, x = out_1_cast_fp16)[name = tensor<string, []>("obj_1_cast_fp16")];
            tensor<int32, [2]> var_213 = const()[name = tensor<string, []>("op_213"), val = tensor<int32, [2]>([1, 1])];
            tensor<int32, [2]> var_215 = const()[name = tensor<string, []>("op_215"), val = tensor<int32, [2]>([1, 1])];
            tensor<string, []> query_1_pad_type_0 = const()[name = tensor<string, []>("query_1_pad_type_0"), val = tensor<string, []>("custom")];
            tensor<int32, [4]> query_1_pad_0 = const()[name = tensor<string, []>("query_1_pad_0"), val = tensor<int32, [4]>([0, 0, 0, 0])];
            tensor<fp16, [1280, 1280, 1, 1]> layers_0_self_attn_q_proj_weight_to_fp16_palettized = constexpr_lut_to_dense()[indices = tensor<uint8, [819200]>(BLOBFILE(path = tensor<string, []>("@model_path/weights/weight.bin"), offset = tensor<uint64, []>(14300800))), lut = tensor<fp16, [16]>(BLOBFILE(path = tensor<string, []>("@model_path/weights/weight.bin"), offset = tensor<uint64, []>(15120064))), name = tensor<string, []>("layers_0_self_attn_q_proj_weight_to_fp16_palettized"), shape = tensor<uint32, [4]>([1280, 1280, 1, 1])];
            tensor<fp16, [1280]> layers_0_self_attn_q_proj_bias_to_fp16 = const()[name = tensor<string, []>("layers_0_self_attn_q_proj_bias_to_fp16"), val = tensor<fp16, [1280]>(BLOBFILE(path = tensor<string, []>("@model_path/weights/weight.bin"), offset = tensor<uint64, []>(15120192)))];
            tensor<fp16, [1, 1280, 1, 1500]> query_1_cast_fp16 = conv(bias = layers_0_self_attn_q_proj_bias_to_fp16, dilations = var_215, groups = var_180, pad = query_1_pad_0, pad_type = query_1_pad_type_0, strides = var_213, weight = layers_0_self_attn_q_proj_weight_to_fp16_palettized, x = obj_1_cast_fp16)[name = tensor<string, []>("query_1_cast_fp16")];
            tensor<int32, [2]> var_219 = const()[name = tensor<string, []>("op_219"), val = tensor<int32, [2]>([1, 1])];
            tensor<int32, [2]> var_221 = const()[name = tensor<string, []>("op_221"), val = tensor<int32, [2]>([1, 1])];
            tensor<string, []> key_1_pad_type_0 = const()[name = tensor<string, []>("key_1_pad_type_0"), val = tensor<string, []>("custom")];
            tensor<int32, [4]> key_1_pad_0 = const()[name = tensor<string, []>("key_1_pad_0"), val = tensor<int32, [4]>([0, 0, 0, 0])];
            tensor<fp16, [1280, 1280, 1, 1]> layers_0_self_attn_k_proj_weight_to_fp16_palettized = constexpr_lut_to_dense()[indices = tensor<uint8, [819200]>(BLOBFILE(path = tensor<string, []>("@model_path/weights/weight.bin"), offset = tensor<uint64, []>(15122816))), lut = tensor<fp16, [16]>(BLOBFILE(path = tensor<string, []>("@model_path/weights/weight.bin"), offset = tensor<uint64, []>(15942080))), name = tensor<string, []>("layers_0_self_attn_k_proj_weight_to_fp16_palettized"), shape = tensor<uint32, [4]>([1280, 1280, 1, 1])];
            tensor<fp16, [1, 1280, 1, 1500]> key_1_cast_fp16 = conv(dilations = var_221, groups = var_180, pad = key_1_pad_0, pad_type = key_1_pad_type_0, strides = var_219, weight = layers_0_self_attn_k_proj_weight_to_fp16_palettized, x = obj_1_cast_fp16)[name = tensor<string, []>("key_1_cast_fp16")];
            tensor<int32, [2]> var_226 = const()[name = tensor<string, []>("op_226"), val = tensor<int32, [2]>([1, 1])];
            tensor<int32, [2]> var_228 = const()[name = tensor<string, []>("op_228"), val = tensor<int32, [2]>([1, 1])];
            tensor<string, []> value_1_pad_type_0 = const()[name = tensor<string, []>("value_1_pad_type_0"), val = tensor<string, []>("custom")];
            tensor<int32, [4]> value_1_pad_0 = const()[name = tensor<string, []>("value_1_pad_0"), val = tensor<int32, [4]>([0, 0, 0, 0])];
            tensor<fp16, [1280, 1280, 1, 1]> layers_0_self_attn_v_proj_weight_to_fp16_palettized = constexpr_lut_to_dense()[indices = tensor<uint8, [819200]>(BLOBFILE(path = tensor<string, []>("@model_path/weights/weight.bin"), offset = tensor<uint64, []>(15942208))), lut = tensor<fp16, [16]>(BLOBFILE(path = tensor<string, []>("@model_path/weights/weight.bin"), offset = tensor<uint64, []>(16761472))), name = tensor<string, []>("layers_0_self_attn_v_proj_weight_to_fp16_palettized"), shape = tensor<uint32, [4]>([1280, 1280, 1, 1])];
            tensor<fp16, [1280]> layers_0_self_attn_v_proj_bias_to_fp16 = const()[name = tensor<string, []>("layers_0_self_attn_v_proj_bias_to_fp16"), val = tensor<fp16, [1280]>(BLOBFILE(path = tensor<string, []>("@model_path/weights/weight.bin"), offset = tensor<uint64, []>(16761600)))];
            tensor<fp16, [1, 1280, 1, 1500]> value_1_cast_fp16 = conv(bias = layers_0_self_attn_v_proj_bias_to_fp16, dilations = var_228, groups = var_180, pad = value_1_pad_0, pad_type = value_1_pad_type_0, strides = var_226, weight = layers_0_self_attn_v_proj_weight_to_fp16_palettized, x = obj_1_cast_fp16)[name = tensor<string, []>("value_1_cast_fp16")];
            tensor<int32, [4]> var_232 = const()[name = tensor<string, []>("op_232"), val = tensor<int32, [4]>([1, 20, 64, -1])];
            tensor<fp16, [1, 20, 64, 1500]> var_233_cast_fp16 = reshape(shape = var_232, x = query_1_cast_fp16)[name = tensor<string, []>("op_233_cast_fp16")];
            tensor<fp16, []> var_234_to_fp16 = const()[name = tensor<string, []>("op_234_to_fp16"), val = tensor<fp16, []>(0x1p-3)];
            tensor<fp16, [1, 20, 64, 1500]> var_235_cast_fp16 = mul(x = var_233_cast_fp16, y = var_234_to_fp16)[name = tensor<string, []>("op_235_cast_fp16")];
            tensor<int32, [4]> var_236 = const()[name = tensor<string, []>("op_236"), val = tensor<int32, [4]>([1, 20, 64, -1])];
            tensor<fp16, [1, 20, 64, 1500]> var_237_cast_fp16 = reshape(shape = var_236, x = key_1_cast_fp16)[name = tensor<string, []>("op_237_cast_fp16")];
            tensor<bool, []> mh_w_1_transpose_x_0 = const()[name = tensor<string, []>("mh_w_1_transpose_x_0"), val = tensor<bool, []>(true)];
            tensor<bool, []> mh_w_1_transpose_y_0 = const()[name = tensor<string, []>("mh_w_1_transpose_y_0"), val = tensor<bool, []>(false)];
            tensor<fp16, [1, 20, 1500, 1500]> mh_w_1_cast_fp16 = matmul(transpose_x = mh_w_1_transpose_x_0, transpose_y = mh_w_1_transpose_y_0, x = var_235_cast_fp16, y = var_237_cast_fp16)[name = tensor<string, []>("mh_w_1_cast_fp16")];
            tensor<fp16, [1, 20, 1500, 1500]> var_240_cast_fp16 = softmax(axis = var_178, x = mh_w_1_cast_fp16)[name = tensor<string, []>("op_240_cast_fp16")];
            tensor<int32, [4]> var_241 = const()[name = tensor<string, []>("op_241"), val = tensor<int32, [4]>([1, 20, 64, -1])];
            tensor<fp16, [1, 20, 64, 1500]> var_242_cast_fp16 = reshape(shape = var_241, x = value_1_cast_fp16)[name = tensor<string, []>("op_242_cast_fp16")];
            tensor<bool, []> attn_1_transpose_x_0 = const()[name = tensor<string, []>("attn_1_transpose_x_0"), val = tensor<bool, []>(false)];
            tensor<bool, []> attn_1_transpose_y_0 = const()[name = tensor<string, []>("attn_1_transpose_y_0"), val = tensor<bool, []>(true)];
            tensor<fp16, [1, 20, 64, 1500]> attn_1_cast_fp16 = matmul(transpose_x = attn_1_transpose_x_0, transpose_y = attn_1_transpose_y_0, x = var_242_cast_fp16, y = var_240_cast_fp16)[name = tensor<string, []>("attn_1_cast_fp16")];
            tensor<int32, [4]> var_245 = const()[name = tensor<string, []>("op_245"), val = tensor<int32, [4]>([1, 1280, 1, -1])];
            tensor<fp16, [1, 1280, 1, 1500]> input_1_cast_fp16 = reshape(shape = var_245, x = attn_1_cast_fp16)[name = tensor<string, []>("input_1_cast_fp16")];
            tensor<int32, [2]> var_249 = const()[name = tensor<string, []>("op_249"), val = tensor<int32, [2]>([1, 1])];
            tensor<int32, [2]> var_251 = const()[name = tensor<string, []>("op_251"), val = tensor<int32, [2]>([1, 1])];
            tensor<string, []> obj_3_pad_type_0 = const()[name = tensor<string, []>("obj_3_pad_type_0"), val = tensor<string, []>("custom")];
            tensor<int32, [4]> obj_3_pad_0 = const()[name = tensor<string, []>("obj_3_pad_0"), val = tensor<int32, [4]>([0, 0, 0, 0])];
            tensor<fp16, [1280, 1280, 1, 1]> layers_0_self_attn_o_proj_weight_to_fp16_palettized = constexpr_lut_to_dense()[indices = tensor<uint8, [819200]>(BLOBFILE(path = tensor<string, []>("@model_path/weights/weight.bin"), offset = tensor<uint64, []>(16764224))), lut = tensor<fp16, [16]>(BLOBFILE(path = tensor<string, []>("@model_path/weights/weight.bin"), offset = tensor<uint64, []>(17583488))), name = tensor<string, []>("layers_0_self_attn_o_proj_weight_to_fp16_palettized"), shape = tensor<uint32, [4]>([1280, 1280, 1, 1])];
            tensor<fp16, [1280]> layers_0_self_attn_o_proj_bias_to_fp16 = const()[name = tensor<string, []>("layers_0_self_attn_o_proj_bias_to_fp16"), val = tensor<fp16, [1280]>(BLOBFILE(path = tensor<string, []>("@model_path/weights/weight.bin"), offset = tensor<uint64, []>(17583616)))];
            tensor<fp16, [1, 1280, 1, 1500]> obj_3_cast_fp16 = conv(bias = layers_0_self_attn_o_proj_bias_to_fp16, dilations = var_251, groups = var_180, pad = obj_3_pad_0, pad_type = obj_3_pad_type_0, strides = var_249, weight = layers_0_self_attn_o_proj_weight_to_fp16_palettized, x = input_1_cast_fp16)[name = tensor<string, []>("obj_3_cast_fp16")];
            tensor<fp16, [1, 1280, 1, 1500]> inputs_3_cast_fp16 = add(x = inputs_1_cast_fp16, y = obj_3_cast_fp16)[name = tensor<string, []>("inputs_3_cast_fp16")];
            tensor<int32, [1]> var_257 = const()[name = tensor<string, []>("op_257"), val = tensor<int32, [1]>([1])];
            tensor<fp16, [1, 1, 1, 1500]> channels_mean_3_cast_fp16 = reduce_mean(axes = var_257, keep_dims = var_181, x = inputs_3_cast_fp16)[name = tensor<string, []>("channels_mean_3_cast_fp16")];
            tensor<fp16, [1, 1280, 1, 1500]> zero_mean_3_cast_fp16 = sub(x = inputs_3_cast_fp16, y = channels_mean_3_cast_fp16)[name = tensor<string, []>("zero_mean_3_cast_fp16")];
            tensor<fp16, [1, 1280, 1, 1500]> zero_mean_sq_3_cast_fp16 = mul(x = zero_mean_3_cast_fp16, y = zero_mean_3_cast_fp16)[name = tensor<string, []>("zero_mean_sq_3_cast_fp16")];
            tensor<int32, [1]> var_261 = const()[name = tensor<string, []>("op_261"), val = tensor<int32, [1]>([1])];
            tensor<fp16, [1, 1, 1, 1500]> var_262_cast_fp16 = reduce_mean(axes = var_261, keep_dims = var_181, x = zero_mean_sq_3_cast_fp16)[name = tensor<string, []>("op_262_cast_fp16")];
            tensor<fp16, []> var_263_to_fp16 = const()[name = tensor<string, []>("op_263_to_fp16"), val = tensor<fp16, []>(0x1.5p-17)];
            tensor<fp16, [1, 1, 1, 1500]> var_264_cast_fp16 = add(x = var_262_cast_fp16, y = var_263_to_fp16)[name = tensor<string, []>("op_264_cast_fp16")];
            tensor<fp32, []> denom_3_epsilon_0 = const()[name = tensor<string, []>("denom_3_epsilon_0"), val = tensor<fp32, []>(0x1.197998p-40)];
            tensor<fp16, [1, 1, 1, 1500]> denom_3_cast_fp16 = rsqrt(epsilon = denom_3_epsilon_0, x = var_264_cast_fp16)[name = tensor<string, []>("denom_3_cast_fp16")];
            tensor<fp16, [1, 1280, 1, 1500]> out_3_cast_fp16 = mul(x = zero_mean_3_cast_fp16, y = denom_3_cast_fp16)[name = tensor<string, []>("out_3_cast_fp16")];
            tensor<fp16, [1280]> input_3_gamma_0_to_fp16 = const()[name = tensor<string, []>("input_3_gamma_0_to_fp16"), val = tensor<fp16, [1280]>(BLOBFILE(path = tensor<string, []>("@model_path/weights/weight.bin"), offset = tensor<uint64, []>(17586240)))];
            tensor<fp16, [1280]> input_3_beta_0_to_fp16 = const()[name = tensor<string, []>("input_3_beta_0_to_fp16"), val = tensor<fp16, [1280]>(BLOBFILE(path = tensor<string, []>("@model_path/weights/weight.bin"), offset = tensor<uint64, []>(17588864)))];
            tensor<fp16, []> input_3_epsilon_0_to_fp16 = const()[name = tensor<string, []>("input_3_epsilon_0_to_fp16"), val = tensor<fp16, []>(0x1.5p-17)];
            tensor<fp16, [1, 1280, 1, 1500]> input_3_cast_fp16 = batch_norm(beta = input_3_beta_0_to_fp16, epsilon = input_3_epsilon_0_to_fp16, gamma = input_3_gamma_0_to_fp16, mean = obj_1_mean_0_to_fp16, variance = obj_1_variance_0_to_fp16, x = out_3_cast_fp16)[name = tensor<string, []>("input_3_cast_fp16")];
            tensor<int32, [2]> var_275 = const()[name = tensor<string, []>("op_275"), val = tensor<int32, [2]>([1, 1])];
            tensor<int32, [2]> var_277 = const()[name = tensor<string, []>("op_277"), val = tensor<int32, [2]>([1, 1])];
            tensor<string, []> input_5_pad_type_0 = const()[name = tensor<string, []>("input_5_pad_type_0"), val = tensor<string, []>("custom")];
            tensor<int32, [4]> input_5_pad_0 = const()[name = tensor<string, []>("input_5_pad_0"), val = tensor<int32, [4]>([0, 0, 0, 0])];
            tensor<fp16, [5120, 1280, 1, 1]> layers_0_fc1_weight_to_fp16 = const()[name = tensor<string, []>("layers_0_fc1_weight_to_fp16"), val = tensor<fp16, [5120, 1280, 1, 1]>(BLOBFILE(path = tensor<string, []>("@model_path/weights/weight.bin"), offset = tensor<uint64, []>(17591488)))];
            tensor<fp16, [5120]> layers_0_fc1_bias_to_fp16 = const()[name = tensor<string, []>("layers_0_fc1_bias_to_fp16"), val = tensor<fp16, [5120]>(BLOBFILE(path = tensor<string, []>("@model_path/weights/weight.bin"), offset = tensor<uint64, []>(30698752)))];
            tensor<fp16, [1, 5120, 1, 1500]> input_5_cast_fp16 = conv(bias = layers_0_fc1_bias_to_fp16, dilations = var_277, groups = var_180, pad = input_5_pad_0, pad_type = input_5_pad_type_0, strides = var_275, weight = layers_0_fc1_weight_to_fp16, x = input_3_cast_fp16)[name = tensor<string, []>("input_5_cast_fp16")];
            tensor<string, []> input_7_mode_0 = const()[name = tensor<string, []>("input_7_mode_0"), val = tensor<string, []>("EXACT")];
            tensor<fp16, [1, 5120, 1, 1500]> input_7_cast_fp16 = gelu(mode = input_7_mode_0, x = input_5_cast_fp16)[name = tensor<string, []>("input_7_cast_fp16")];
            tensor<int32, [2]> var_283 = const()[name = tensor<string, []>("op_283"), val = tensor<int32, [2]>([1, 1])];
            tensor<int32, [2]> var_285 = const()[name = tensor<string, []>("op_285"), val = tensor<int32, [2]>([1, 1])];
            tensor<string, []> hidden_states_5_pad_type_0 = const()[name = tensor<string, []>("hidden_states_5_pad_type_0"), val = tensor<string, []>("custom")];
            tensor<int32, [4]> hidden_states_5_pad_0 = const()[name = tensor<string, []>("hidden_states_5_pad_0"), val = tensor<int32, [4]>([0, 0, 0, 0])];
            tensor<fp16, [1280, 5120, 1, 1]> layers_0_fc2_weight_to_fp16 = const()[name = tensor<string, []>("layers_0_fc2_weight_to_fp16"), val = tensor<fp16, [1280, 5120, 1, 1]>(BLOBFILE(path = tensor<string, []>("@model_path/weights/weight.bin"), offset = tensor<uint64, []>(30709056)))];
            tensor<fp16, [1280]> layers_0_fc2_bias_to_fp16 = const()[name = tensor<string, []>("layers_0_fc2_bias_to_fp16"), val = tensor<fp16, [1280]>(BLOBFILE(path = tensor<string, []>("@model_path/weights/weight.bin"), offset = tensor<uint64, []>(43816320)))];
            tensor<fp16, [1, 1280, 1, 1500]> hidden_states_5_cast_fp16 = conv(bias = layers_0_fc2_bias_to_fp16, dilations = var_285, groups = var_180, pad = hidden_states_5_pad_0, pad_type = hidden_states_5_pad_type_0, strides = var_283, weight = layers_0_fc2_weight_to_fp16, x = input_7_cast_fp16)[name = tensor<string, []>("hidden_states_5_cast_fp16")];
            tensor<fp16, [1, 1280, 1, 1500]> inputs_5_cast_fp16 = add(x = inputs_3_cast_fp16, y = hidden_states_5_cast_fp16)[name = tensor<string, []>("inputs_5_cast_fp16")];
            tensor<int32, []> var_296 = const()[name = tensor<string, []>("op_296"), val = tensor<int32, []>(3)];
            tensor<int32, []> var_298 = const()[name = tensor<string, []>("op_298"), val = tensor<int32, []>(1)];
            tensor<bool, []> var_299 = const()[name = tensor<string, []>("op_299"), val = tensor<bool, []>(true)];
            tensor<int32, [1]> var_309 = const()[name = tensor<string, []>("op_309"), val = tensor<int32, [1]>([1])];
            tensor<fp16, [1, 1, 1, 1500]> channels_mean_5_cast_fp16 = reduce_mean(axes = var_309, keep_dims = var_299, x = inputs_5_cast_fp16)[name = tensor<string, []>("channels_mean_5_cast_fp16")];
            tensor<fp16, [1, 1280, 1, 1500]> zero_mean_5_cast_fp16 = sub(x = inputs_5_cast_fp16, y = channels_mean_5_cast_fp16)[name = tensor<string, []>("zero_mean_5_cast_fp16")];
            tensor<fp16, [1, 1280, 1, 1500]> zero_mean_sq_5_cast_fp16 = mul(x = zero_mean_5_cast_fp16, y = zero_mean_5_cast_fp16)[name = tensor<string, []>("zero_mean_sq_5_cast_fp16")];
            tensor<int32, [1]> var_313 = const()[name = tensor<string, []>("op_313"), val = tensor<int32, [1]>([1])];
            tensor<fp16, [1, 1, 1, 1500]> var_314_cast_fp16 = reduce_mean(axes = var_313, keep_dims = var_299, x = zero_mean_sq_5_cast_fp16)[name = tensor<string, []>("op_314_cast_fp16")];
            tensor<fp16, []> var_315_to_fp16 = const()[name = tensor<string, []>("op_315_to_fp16"), val = tensor<fp16, []>(0x1.5p-17)];
            tensor<fp16, [1, 1, 1, 1500]> var_316_cast_fp16 = add(x = var_314_cast_fp16, y = var_315_to_fp16)[name = tensor<string, []>("op_316_cast_fp16")];
            tensor<fp32, []> denom_5_epsilon_0 = const()[name = tensor<string, []>("denom_5_epsilon_0"), val = tensor<fp32, []>(0x1.197998p-40)];
            tensor<fp16, [1, 1, 1, 1500]> denom_5_cast_fp16 = rsqrt(epsilon = denom_5_epsilon_0, x = var_316_cast_fp16)[name = tensor<string, []>("denom_5_cast_fp16")];
            tensor<fp16, [1, 1280, 1, 1500]> out_5_cast_fp16 = mul(x = zero_mean_5_cast_fp16, y = denom_5_cast_fp16)[name = tensor<string, []>("out_5_cast_fp16")];
            tensor<fp16, [1280]> obj_5_gamma_0_to_fp16 = const()[name = tensor<string, []>("obj_5_gamma_0_to_fp16"), val = tensor<fp16, [1280]>(BLOBFILE(path = tensor<string, []>("@model_path/weights/weight.bin"), offset = tensor<uint64, []>(43818944)))];
            tensor<fp16, [1280]> obj_5_beta_0_to_fp16 = const()[name = tensor<string, []>("obj_5_beta_0_to_fp16"), val = tensor<fp16, [1280]>(BLOBFILE(path = tensor<string, []>("@model_path/weights/weight.bin"), offset = tensor<uint64, []>(43821568)))];
            tensor<fp16, []> obj_5_epsilon_0_to_fp16 = const()[name = tensor<string, []>("obj_5_epsilon_0_to_fp16"), val = tensor<fp16, []>(0x1.5p-17)];
            tensor<fp16, [1, 1280, 1, 1500]> obj_5_cast_fp16 = batch_norm(beta = obj_5_beta_0_to_fp16, epsilon = obj_5_epsilon_0_to_fp16, gamma = obj_5_gamma_0_to_fp16, mean = obj_1_mean_0_to_fp16, variance = obj_1_variance_0_to_fp16, x = out_5_cast_fp16)[name = tensor<string, []>("obj_5_cast_fp16")];
            tensor<int32, [2]> var_331 = const()[name = tensor<string, []>("op_331"), val = tensor<int32, [2]>([1, 1])];
            tensor<int32, [2]> var_333 = const()[name = tensor<string, []>("op_333"), val = tensor<int32, [2]>([1, 1])];
            tensor<string, []> query_3_pad_type_0 = const()[name = tensor<string, []>("query_3_pad_type_0"), val = tensor<string, []>("custom")];
            tensor<int32, [4]> query_3_pad_0 = const()[name = tensor<string, []>("query_3_pad_0"), val = tensor<int32, [4]>([0, 0, 0, 0])];
            tensor<fp16, [1280, 1280, 1, 1]> layers_1_self_attn_q_proj_weight_to_fp16 = const()[name = tensor<string, []>("layers_1_self_attn_q_proj_weight_to_fp16"), val = tensor<fp16, [1280, 1280, 1, 1]>(BLOBFILE(path = tensor<string, []>("@model_path/weights/weight.bin"), offset = tensor<uint64, []>(43824192)))];
            tensor<fp16, [1280]> layers_1_self_attn_q_proj_bias_to_fp16 = const()[name = tensor<string, []>("layers_1_self_attn_q_proj_bias_to_fp16"), val = tensor<fp16, [1280]>(BLOBFILE(path = tensor<string, []>("@model_path/weights/weight.bin"), offset = tensor<uint64, []>(47101056)))];
            tensor<fp16, [1, 1280, 1, 1500]> query_3_cast_fp16 = conv(bias = layers_1_self_attn_q_proj_bias_to_fp16, dilations = var_333, groups = var_298, pad = query_3_pad_0, pad_type = query_3_pad_type_0, strides = var_331, weight = layers_1_self_attn_q_proj_weight_to_fp16, x = obj_5_cast_fp16)[name = tensor<string, []>("query_3_cast_fp16")];
            tensor<int32, [2]> var_337 = const()[name = tensor<string, []>("op_337"), val = tensor<int32, [2]>([1, 1])];
            tensor<int32, [2]> var_339 = const()[name = tensor<string, []>("op_339"), val = tensor<int32, [2]>([1, 1])];
            tensor<string, []> key_3_pad_type_0 = const()[name = tensor<string, []>("key_3_pad_type_0"), val = tensor<string, []>("custom")];
            tensor<int32, [4]> key_3_pad_0 = const()[name = tensor<string, []>("key_3_pad_0"), val = tensor<int32, [4]>([0, 0, 0, 0])];
            tensor<fp16, [1280, 1280, 1, 1]> layers_1_self_attn_k_proj_weight_to_fp16_palettized = constexpr_lut_to_dense()[indices = tensor<uint8, [819200]>(BLOBFILE(path = tensor<string, []>("@model_path/weights/weight.bin"), offset = tensor<uint64, []>(47103680))), lut = tensor<fp16, [16]>(BLOBFILE(path = tensor<string, []>("@model_path/weights/weight.bin"), offset = tensor<uint64, []>(47922944))), name = tensor<string, []>("layers_1_self_attn_k_proj_weight_to_fp16_palettized"), shape = tensor<uint32, [4]>([1280, 1280, 1, 1])];
            tensor<fp16, [1, 1280, 1, 1500]> key_3_cast_fp16 = conv(dilations = var_339, groups = var_298, pad = key_3_pad_0, pad_type = key_3_pad_type_0, strides = var_337, weight = layers_1_self_attn_k_proj_weight_to_fp16_palettized, x = obj_5_cast_fp16)[name = tensor<string, []>("key_3_cast_fp16")];
            tensor<int32, [2]> var_344 = const()[name = tensor<string, []>("op_344"), val = tensor<int32, [2]>([1, 1])];
            tensor<int32, [2]> var_346 = const()[name = tensor<string, []>("op_346"), val = tensor<int32, [2]>([1, 1])];
            tensor<string, []> value_3_pad_type_0 = const()[name = tensor<string, []>("value_3_pad_type_0"), val = tensor<string, []>("custom")];
            tensor<int32, [4]> value_3_pad_0 = const()[name = tensor<string, []>("value_3_pad_0"), val = tensor<int32, [4]>([0, 0, 0, 0])];
            tensor<fp16, [1280, 1280, 1, 1]> layers_1_self_attn_v_proj_weight_to_fp16_palettized = constexpr_lut_to_dense()[indices = tensor<uint8, [819200]>(BLOBFILE(path = tensor<string, []>("@model_path/weights/weight.bin"), offset = tensor<uint64, []>(47923072))), lut = tensor<fp16, [16]>(BLOBFILE(path = tensor<string, []>("@model_path/weights/weight.bin"), offset = tensor<uint64, []>(48742336))), name = tensor<string, []>("layers_1_self_attn_v_proj_weight_to_fp16_palettized"), shape = tensor<uint32, [4]>([1280, 1280, 1, 1])];
            tensor<fp16, [1280]> layers_1_self_attn_v_proj_bias_to_fp16 = const()[name = tensor<string, []>("layers_1_self_attn_v_proj_bias_to_fp16"), val = tensor<fp16, [1280]>(BLOBFILE(path = tensor<string, []>("@model_path/weights/weight.bin"), offset = tensor<uint64, []>(48742464)))];
            tensor<fp16, [1, 1280, 1, 1500]> value_3_cast_fp16 = conv(bias = layers_1_self_attn_v_proj_bias_to_fp16, dilations = var_346, groups = var_298, pad = value_3_pad_0, pad_type = value_3_pad_type_0, strides = var_344, weight = layers_1_self_attn_v_proj_weight_to_fp16_palettized, x = obj_5_cast_fp16)[name = tensor<string, []>("value_3_cast_fp16")];
            tensor<int32, [4]> var_350 = const()[name = tensor<string, []>("op_350"), val = tensor<int32, [4]>([1, 20, 64, -1])];
            tensor<fp16, [1, 20, 64, 1500]> var_351_cast_fp16 = reshape(shape = var_350, x = query_3_cast_fp16)[name = tensor<string, []>("op_351_cast_fp16")];
            tensor<fp16, []> var_352_to_fp16 = const()[name = tensor<string, []>("op_352_to_fp16"), val = tensor<fp16, []>(0x1p-3)];
            tensor<fp16, [1, 20, 64, 1500]> var_353_cast_fp16 = mul(x = var_351_cast_fp16, y = var_352_to_fp16)[name = tensor<string, []>("op_353_cast_fp16")];
            tensor<int32, [4]> var_354 = const()[name = tensor<string, []>("op_354"), val = tensor<int32, [4]>([1, 20, 64, -1])];
            tensor<fp16, [1, 20, 64, 1500]> var_355_cast_fp16 = reshape(shape = var_354, x = key_3_cast_fp16)[name = tensor<string, []>("op_355_cast_fp16")];
            tensor<bool, []> mh_w_3_transpose_x_0 = const()[name = tensor<string, []>("mh_w_3_transpose_x_0"), val = tensor<bool, []>(true)];
            tensor<bool, []> mh_w_3_transpose_y_0 = const()[name = tensor<string, []>("mh_w_3_transpose_y_0"), val = tensor<bool, []>(false)];
            tensor<fp16, [1, 20, 1500, 1500]> mh_w_3_cast_fp16 = matmul(transpose_x = mh_w_3_transpose_x_0, transpose_y = mh_w_3_transpose_y_0, x = var_353_cast_fp16, y = var_355_cast_fp16)[name = tensor<string, []>("mh_w_3_cast_fp16")];
            tensor<fp16, [1, 20, 1500, 1500]> var_358_cast_fp16 = softmax(axis = var_296, x = mh_w_3_cast_fp16)[name = tensor<string, []>("op_358_cast_fp16")];
            tensor<int32, [4]> var_359 = const()[name = tensor<string, []>("op_359"), val = tensor<int32, [4]>([1, 20, 64, -1])];
            tensor<fp16, [1, 20, 64, 1500]> var_360_cast_fp16 = reshape(shape = var_359, x = value_3_cast_fp16)[name = tensor<string, []>("op_360_cast_fp16")];
            tensor<bool, []> attn_3_transpose_x_0 = const()[name = tensor<string, []>("attn_3_transpose_x_0"), val = tensor<bool, []>(false)];
            tensor<bool, []> attn_3_transpose_y_0 = const()[name = tensor<string, []>("attn_3_transpose_y_0"), val = tensor<bool, []>(true)];
            tensor<fp16, [1, 20, 64, 1500]> attn_3_cast_fp16 = matmul(transpose_x = attn_3_transpose_x_0, transpose_y = attn_3_transpose_y_0, x = var_360_cast_fp16, y = var_358_cast_fp16)[name = tensor<string, []>("attn_3_cast_fp16")];
            tensor<int32, [4]> var_363 = const()[name = tensor<string, []>("op_363"), val = tensor<int32, [4]>([1, 1280, 1, -1])];
            tensor<fp16, [1, 1280, 1, 1500]> input_9_cast_fp16 = reshape(shape = var_363, x = attn_3_cast_fp16)[name = tensor<string, []>("input_9_cast_fp16")];
            tensor<int32, [2]> var_367 = const()[name = tensor<string, []>("op_367"), val = tensor<int32, [2]>([1, 1])];
            tensor<int32, [2]> var_369 = const()[name = tensor<string, []>("op_369"), val = tensor<int32, [2]>([1, 1])];
            tensor<string, []> obj_7_pad_type_0 = const()[name = tensor<string, []>("obj_7_pad_type_0"), val = tensor<string, []>("custom")];
            tensor<int32, [4]> obj_7_pad_0 = const()[name = tensor<string, []>("obj_7_pad_0"), val = tensor<int32, [4]>([0, 0, 0, 0])];
            tensor<fp16, [1280, 1280, 1, 1]> layers_1_self_attn_o_proj_weight_to_fp16 = const()[name = tensor<string, []>("layers_1_self_attn_o_proj_weight_to_fp16"), val = tensor<fp16, [1280, 1280, 1, 1]>(BLOBFILE(path = tensor<string, []>("@model_path/weights/weight.bin"), offset = tensor<uint64, []>(48745088)))];
            tensor<fp16, [1280]> layers_1_self_attn_o_proj_bias_to_fp16 = const()[name = tensor<string, []>("layers_1_self_attn_o_proj_bias_to_fp16"), val = tensor<fp16, [1280]>(BLOBFILE(path = tensor<string, []>("@model_path/weights/weight.bin"), offset = tensor<uint64, []>(52021952)))];
            tensor<fp16, [1, 1280, 1, 1500]> obj_7_cast_fp16 = conv(bias = layers_1_self_attn_o_proj_bias_to_fp16, dilations = var_369, groups = var_298, pad = obj_7_pad_0, pad_type = obj_7_pad_type_0, strides = var_367, weight = layers_1_self_attn_o_proj_weight_to_fp16, x = input_9_cast_fp16)[name = tensor<string, []>("obj_7_cast_fp16")];
            tensor<fp16, [1, 1280, 1, 1500]> inputs_7_cast_fp16 = add(x = inputs_5_cast_fp16, y = obj_7_cast_fp16)[name = tensor<string, []>("inputs_7_cast_fp16")];
            tensor<int32, [1]> var_375 = const()[name = tensor<string, []>("op_375"), val = tensor<int32, [1]>([1])];
            tensor<fp16, [1, 1, 1, 1500]> channels_mean_7_cast_fp16 = reduce_mean(axes = var_375, keep_dims = var_299, x = inputs_7_cast_fp16)[name = tensor<string, []>("channels_mean_7_cast_fp16")];
            tensor<fp16, [1, 1280, 1, 1500]> zero_mean_7_cast_fp16 = sub(x = inputs_7_cast_fp16, y = channels_mean_7_cast_fp16)[name = tensor<string, []>("zero_mean_7_cast_fp16")];
            tensor<fp16, [1, 1280, 1, 1500]> zero_mean_sq_7_cast_fp16 = mul(x = zero_mean_7_cast_fp16, y = zero_mean_7_cast_fp16)[name = tensor<string, []>("zero_mean_sq_7_cast_fp16")];
            tensor<int32, [1]> var_379 = const()[name = tensor<string, []>("op_379"), val = tensor<int32, [1]>([1])];
            tensor<fp16, [1, 1, 1, 1500]> var_380_cast_fp16 = reduce_mean(axes = var_379, keep_dims = var_299, x = zero_mean_sq_7_cast_fp16)[name = tensor<string, []>("op_380_cast_fp16")];
            tensor<fp16, []> var_381_to_fp16 = const()[name = tensor<string, []>("op_381_to_fp16"), val = tensor<fp16, []>(0x1.5p-17)];
            tensor<fp16, [1, 1, 1, 1500]> var_382_cast_fp16 = add(x = var_380_cast_fp16, y = var_381_to_fp16)[name = tensor<string, []>("op_382_cast_fp16")];
            tensor<fp32, []> denom_7_epsilon_0 = const()[name = tensor<string, []>("denom_7_epsilon_0"), val = tensor<fp32, []>(0x1.197998p-40)];
            tensor<fp16, [1, 1, 1, 1500]> denom_7_cast_fp16 = rsqrt(epsilon = denom_7_epsilon_0, x = var_382_cast_fp16)[name = tensor<string, []>("denom_7_cast_fp16")];
            tensor<fp16, [1, 1280, 1, 1500]> out_7_cast_fp16 = mul(x = zero_mean_7_cast_fp16, y = denom_7_cast_fp16)[name = tensor<string, []>("out_7_cast_fp16")];
            tensor<fp16, [1280]> input_11_gamma_0_to_fp16 = const()[name = tensor<string, []>("input_11_gamma_0_to_fp16"), val = tensor<fp16, [1280]>(BLOBFILE(path = tensor<string, []>("@model_path/weights/weight.bin"), offset = tensor<uint64, []>(52024576)))];
            tensor<fp16, [1280]> input_11_beta_0_to_fp16 = const()[name = tensor<string, []>("input_11_beta_0_to_fp16"), val = tensor<fp16, [1280]>(BLOBFILE(path = tensor<string, []>("@model_path/weights/weight.bin"), offset = tensor<uint64, []>(52027200)))];
            tensor<fp16, []> input_11_epsilon_0_to_fp16 = const()[name = tensor<string, []>("input_11_epsilon_0_to_fp16"), val = tensor<fp16, []>(0x1.5p-17)];
            tensor<fp16, [1, 1280, 1, 1500]> input_11_cast_fp16 = batch_norm(beta = input_11_beta_0_to_fp16, epsilon = input_11_epsilon_0_to_fp16, gamma = input_11_gamma_0_to_fp16, mean = obj_1_mean_0_to_fp16, variance = obj_1_variance_0_to_fp16, x = out_7_cast_fp16)[name = tensor<string, []>("input_11_cast_fp16")];
            tensor<int32, [2]> var_393 = const()[name = tensor<string, []>("op_393"), val = tensor<int32, [2]>([1, 1])];
            tensor<int32, [2]> var_395 = const()[name = tensor<string, []>("op_395"), val = tensor<int32, [2]>([1, 1])];
            tensor<string, []> input_13_pad_type_0 = const()[name = tensor<string, []>("input_13_pad_type_0"), val = tensor<string, []>("custom")];
            tensor<int32, [4]> input_13_pad_0 = const()[name = tensor<string, []>("input_13_pad_0"), val = tensor<int32, [4]>([0, 0, 0, 0])];
            tensor<fp16, [5120, 1280, 1, 1]> layers_1_fc1_weight_to_fp16_palettized = constexpr_lut_to_dense()[indices = tensor<uint8, [3276800]>(BLOBFILE(path = tensor<string, []>("@model_path/weights/weight.bin"), offset = tensor<uint64, []>(52029824))), lut = tensor<fp16, [16]>(BLOBFILE(path = tensor<string, []>("@model_path/weights/weight.bin"), offset = tensor<uint64, []>(55306688))), name = tensor<string, []>("layers_1_fc1_weight_to_fp16_palettized"), shape = tensor<uint32, [4]>([5120, 1280, 1, 1])];
            tensor<fp16, [5120]> layers_1_fc1_bias_to_fp16 = const()[name = tensor<string, []>("layers_1_fc1_bias_to_fp16"), val = tensor<fp16, [5120]>(BLOBFILE(path = tensor<string, []>("@model_path/weights/weight.bin"), offset = tensor<uint64, []>(55306816)))];
            tensor<fp16, [1, 5120, 1, 1500]> input_13_cast_fp16 = conv(bias = layers_1_fc1_bias_to_fp16, dilations = var_395, groups = var_298, pad = input_13_pad_0, pad_type = input_13_pad_type_0, strides = var_393, weight = layers_1_fc1_weight_to_fp16_palettized, x = input_11_cast_fp16)[name = tensor<string, []>("input_13_cast_fp16")];
            tensor<string, []> input_15_mode_0 = const()[name = tensor<string, []>("input_15_mode_0"), val = tensor<string, []>("EXACT")];
            tensor<fp16, [1, 5120, 1, 1500]> input_15_cast_fp16 = gelu(mode = input_15_mode_0, x = input_13_cast_fp16)[name = tensor<string, []>("input_15_cast_fp16")];
            tensor<int32, [2]> var_401 = const()[name = tensor<string, []>("op_401"), val = tensor<int32, [2]>([1, 1])];
            tensor<int32, [2]> var_403 = const()[name = tensor<string, []>("op_403"), val = tensor<int32, [2]>([1, 1])];
            tensor<string, []> hidden_states_7_pad_type_0 = const()[name = tensor<string, []>("hidden_states_7_pad_type_0"), val = tensor<string, []>("custom")];
            tensor<int32, [4]> hidden_states_7_pad_0 = const()[name = tensor<string, []>("hidden_states_7_pad_0"), val = tensor<int32, [4]>([0, 0, 0, 0])];
            tensor<fp16, [1280, 5120, 1, 1]> layers_1_fc2_weight_to_fp16_palettized = constexpr_lut_to_dense()[indices = tensor<uint8, [3276800]>(BLOBFILE(path = tensor<string, []>("@model_path/weights/weight.bin"), offset = tensor<uint64, []>(55317120))), lut = tensor<fp16, [16]>(BLOBFILE(path = tensor<string, []>("@model_path/weights/weight.bin"), offset = tensor<uint64, []>(58593984))), name = tensor<string, []>("layers_1_fc2_weight_to_fp16_palettized"), shape = tensor<uint32, [4]>([1280, 5120, 1, 1])];
            tensor<fp16, [1280]> layers_1_fc2_bias_to_fp16 = const()[name = tensor<string, []>("layers_1_fc2_bias_to_fp16"), val = tensor<fp16, [1280]>(BLOBFILE(path = tensor<string, []>("@model_path/weights/weight.bin"), offset = tensor<uint64, []>(58594112)))];
            tensor<fp16, [1, 1280, 1, 1500]> hidden_states_7_cast_fp16 = conv(bias = layers_1_fc2_bias_to_fp16, dilations = var_403, groups = var_298, pad = hidden_states_7_pad_0, pad_type = hidden_states_7_pad_type_0, strides = var_401, weight = layers_1_fc2_weight_to_fp16_palettized, x = input_15_cast_fp16)[name = tensor<string, []>("hidden_states_7_cast_fp16")];
            tensor<fp16, [1, 1280, 1, 1500]> inputs_9_cast_fp16 = add(x = inputs_7_cast_fp16, y = hidden_states_7_cast_fp16)[name = tensor<string, []>("inputs_9_cast_fp16")];
            tensor<int32, []> var_414 = const()[name = tensor<string, []>("op_414"), val = tensor<int32, []>(3)];
            tensor<int32, []> var_416 = const()[name = tensor<string, []>("op_416"), val = tensor<int32, []>(1)];
            tensor<bool, []> var_417 = const()[name = tensor<string, []>("op_417"), val = tensor<bool, []>(true)];
            tensor<int32, [1]> var_427 = const()[name = tensor<string, []>("op_427"), val = tensor<int32, [1]>([1])];
            tensor<fp16, [1, 1, 1, 1500]> channels_mean_9_cast_fp16 = reduce_mean(axes = var_427, keep_dims = var_417, x = inputs_9_cast_fp16)[name = tensor<string, []>("channels_mean_9_cast_fp16")];
            tensor<fp16, [1, 1280, 1, 1500]> zero_mean_9_cast_fp16 = sub(x = inputs_9_cast_fp16, y = channels_mean_9_cast_fp16)[name = tensor<string, []>("zero_mean_9_cast_fp16")];
            tensor<fp16, [1, 1280, 1, 1500]> zero_mean_sq_9_cast_fp16 = mul(x = zero_mean_9_cast_fp16, y = zero_mean_9_cast_fp16)[name = tensor<string, []>("zero_mean_sq_9_cast_fp16")];
            tensor<int32, [1]> var_431 = const()[name = tensor<string, []>("op_431"), val = tensor<int32, [1]>([1])];
            tensor<fp16, [1, 1, 1, 1500]> var_432_cast_fp16 = reduce_mean(axes = var_431, keep_dims = var_417, x = zero_mean_sq_9_cast_fp16)[name = tensor<string, []>("op_432_cast_fp16")];
            tensor<fp16, []> var_433_to_fp16 = const()[name = tensor<string, []>("op_433_to_fp16"), val = tensor<fp16, []>(0x1.5p-17)];
            tensor<fp16, [1, 1, 1, 1500]> var_434_cast_fp16 = add(x = var_432_cast_fp16, y = var_433_to_fp16)[name = tensor<string, []>("op_434_cast_fp16")];
            tensor<fp32, []> denom_9_epsilon_0 = const()[name = tensor<string, []>("denom_9_epsilon_0"), val = tensor<fp32, []>(0x1.197998p-40)];
            tensor<fp16, [1, 1, 1, 1500]> denom_9_cast_fp16 = rsqrt(epsilon = denom_9_epsilon_0, x = var_434_cast_fp16)[name = tensor<string, []>("denom_9_cast_fp16")];
            tensor<fp16, [1, 1280, 1, 1500]> out_9_cast_fp16 = mul(x = zero_mean_9_cast_fp16, y = denom_9_cast_fp16)[name = tensor<string, []>("out_9_cast_fp16")];
            tensor<fp16, [1280]> obj_9_gamma_0_to_fp16 = const()[name = tensor<string, []>("obj_9_gamma_0_to_fp16"), val = tensor<fp16, [1280]>(BLOBFILE(path = tensor<string, []>("@model_path/weights/weight.bin"), offset = tensor<uint64, []>(58596736)))];
            tensor<fp16, [1280]> obj_9_beta_0_to_fp16 = const()[name = tensor<string, []>("obj_9_beta_0_to_fp16"), val = tensor<fp16, [1280]>(BLOBFILE(path = tensor<string, []>("@model_path/weights/weight.bin"), offset = tensor<uint64, []>(58599360)))];
            tensor<fp16, []> obj_9_epsilon_0_to_fp16 = const()[name = tensor<string, []>("obj_9_epsilon_0_to_fp16"), val = tensor<fp16, []>(0x1.5p-17)];
            tensor<fp16, [1, 1280, 1, 1500]> obj_9_cast_fp16 = batch_norm(beta = obj_9_beta_0_to_fp16, epsilon = obj_9_epsilon_0_to_fp16, gamma = obj_9_gamma_0_to_fp16, mean = obj_1_mean_0_to_fp16, variance = obj_1_variance_0_to_fp16, x = out_9_cast_fp16)[name = tensor<string, []>("obj_9_cast_fp16")];
            tensor<int32, [2]> var_449 = const()[name = tensor<string, []>("op_449"), val = tensor<int32, [2]>([1, 1])];
            tensor<int32, [2]> var_451 = const()[name = tensor<string, []>("op_451"), val = tensor<int32, [2]>([1, 1])];
            tensor<string, []> query_5_pad_type_0 = const()[name = tensor<string, []>("query_5_pad_type_0"), val = tensor<string, []>("custom")];
            tensor<int32, [4]> query_5_pad_0 = const()[name = tensor<string, []>("query_5_pad_0"), val = tensor<int32, [4]>([0, 0, 0, 0])];
            tensor<fp16, [1280, 1280, 1, 1]> layers_2_self_attn_q_proj_weight_to_fp16_palettized = constexpr_lut_to_dense()[indices = tensor<uint8, [819200]>(BLOBFILE(path = tensor<string, []>("@model_path/weights/weight.bin"), offset = tensor<uint64, []>(58601984))), lut = tensor<fp16, [16]>(BLOBFILE(path = tensor<string, []>("@model_path/weights/weight.bin"), offset = tensor<uint64, []>(59421248))), name = tensor<string, []>("layers_2_self_attn_q_proj_weight_to_fp16_palettized"), shape = tensor<uint32, [4]>([1280, 1280, 1, 1])];
            tensor<fp16, [1280]> layers_2_self_attn_q_proj_bias_to_fp16 = const()[name = tensor<string, []>("layers_2_self_attn_q_proj_bias_to_fp16"), val = tensor<fp16, [1280]>(BLOBFILE(path = tensor<string, []>("@model_path/weights/weight.bin"), offset = tensor<uint64, []>(59421376)))];
            tensor<fp16, [1, 1280, 1, 1500]> query_5_cast_fp16 = conv(bias = layers_2_self_attn_q_proj_bias_to_fp16, dilations = var_451, groups = var_416, pad = query_5_pad_0, pad_type = query_5_pad_type_0, strides = var_449, weight = layers_2_self_attn_q_proj_weight_to_fp16_palettized, x = obj_9_cast_fp16)[name = tensor<string, []>("query_5_cast_fp16")];
            tensor<int32, [2]> var_455 = const()[name = tensor<string, []>("op_455"), val = tensor<int32, [2]>([1, 1])];
            tensor<int32, [2]> var_457 = const()[name = tensor<string, []>("op_457"), val = tensor<int32, [2]>([1, 1])];
            tensor<string, []> key_5_pad_type_0 = const()[name = tensor<string, []>("key_5_pad_type_0"), val = tensor<string, []>("custom")];
            tensor<int32, [4]> key_5_pad_0 = const()[name = tensor<string, []>("key_5_pad_0"), val = tensor<int32, [4]>([0, 0, 0, 0])];
            tensor<fp16, [1280, 1280, 1, 1]> layers_2_self_attn_k_proj_weight_to_fp16_palettized = constexpr_lut_to_dense()[indices = tensor<uint8, [819200]>(BLOBFILE(path = tensor<string, []>("@model_path/weights/weight.bin"), offset = tensor<uint64, []>(59424000))), lut = tensor<fp16, [16]>(BLOBFILE(path = tensor<string, []>("@model_path/weights/weight.bin"), offset = tensor<uint64, []>(60243264))), name = tensor<string, []>("layers_2_self_attn_k_proj_weight_to_fp16_palettized"), shape = tensor<uint32, [4]>([1280, 1280, 1, 1])];
            tensor<fp16, [1, 1280, 1, 1500]> key_5_cast_fp16 = conv(dilations = var_457, groups = var_416, pad = key_5_pad_0, pad_type = key_5_pad_type_0, strides = var_455, weight = layers_2_self_attn_k_proj_weight_to_fp16_palettized, x = obj_9_cast_fp16)[name = tensor<string, []>("key_5_cast_fp16")];
            tensor<int32, [2]> var_462 = const()[name = tensor<string, []>("op_462"), val = tensor<int32, [2]>([1, 1])];
            tensor<int32, [2]> var_464 = const()[name = tensor<string, []>("op_464"), val = tensor<int32, [2]>([1, 1])];
            tensor<string, []> value_5_pad_type_0 = const()[name = tensor<string, []>("value_5_pad_type_0"), val = tensor<string, []>("custom")];
            tensor<int32, [4]> value_5_pad_0 = const()[name = tensor<string, []>("value_5_pad_0"), val = tensor<int32, [4]>([0, 0, 0, 0])];
            tensor<fp16, [1280, 1280, 1, 1]> layers_2_self_attn_v_proj_weight_to_fp16_palettized = constexpr_lut_to_dense()[indices = tensor<uint8, [819200]>(BLOBFILE(path = tensor<string, []>("@model_path/weights/weight.bin"), offset = tensor<uint64, []>(60243392))), lut = tensor<fp16, [16]>(BLOBFILE(path = tensor<string, []>("@model_path/weights/weight.bin"), offset = tensor<uint64, []>(61062656))), name = tensor<string, []>("layers_2_self_attn_v_proj_weight_to_fp16_palettized"), shape = tensor<uint32, [4]>([1280, 1280, 1, 1])];
            tensor<fp16, [1280]> layers_2_self_attn_v_proj_bias_to_fp16 = const()[name = tensor<string, []>("layers_2_self_attn_v_proj_bias_to_fp16"), val = tensor<fp16, [1280]>(BLOBFILE(path = tensor<string, []>("@model_path/weights/weight.bin"), offset = tensor<uint64, []>(61062784)))];
            tensor<fp16, [1, 1280, 1, 1500]> value_5_cast_fp16 = conv(bias = layers_2_self_attn_v_proj_bias_to_fp16, dilations = var_464, groups = var_416, pad = value_5_pad_0, pad_type = value_5_pad_type_0, strides = var_462, weight = layers_2_self_attn_v_proj_weight_to_fp16_palettized, x = obj_9_cast_fp16)[name = tensor<string, []>("value_5_cast_fp16")];
            tensor<int32, [4]> var_468 = const()[name = tensor<string, []>("op_468"), val = tensor<int32, [4]>([1, 20, 64, -1])];
            tensor<fp16, [1, 20, 64, 1500]> var_469_cast_fp16 = reshape(shape = var_468, x = query_5_cast_fp16)[name = tensor<string, []>("op_469_cast_fp16")];
            tensor<fp16, []> var_470_to_fp16 = const()[name = tensor<string, []>("op_470_to_fp16"), val = tensor<fp16, []>(0x1p-3)];
            tensor<fp16, [1, 20, 64, 1500]> var_471_cast_fp16 = mul(x = var_469_cast_fp16, y = var_470_to_fp16)[name = tensor<string, []>("op_471_cast_fp16")];
            tensor<int32, [4]> var_472 = const()[name = tensor<string, []>("op_472"), val = tensor<int32, [4]>([1, 20, 64, -1])];
            tensor<fp16, [1, 20, 64, 1500]> var_473_cast_fp16 = reshape(shape = var_472, x = key_5_cast_fp16)[name = tensor<string, []>("op_473_cast_fp16")];
            tensor<bool, []> mh_w_5_transpose_x_0 = const()[name = tensor<string, []>("mh_w_5_transpose_x_0"), val = tensor<bool, []>(true)];
            tensor<bool, []> mh_w_5_transpose_y_0 = const()[name = tensor<string, []>("mh_w_5_transpose_y_0"), val = tensor<bool, []>(false)];
            tensor<fp16, [1, 20, 1500, 1500]> mh_w_5_cast_fp16 = matmul(transpose_x = mh_w_5_transpose_x_0, transpose_y = mh_w_5_transpose_y_0, x = var_471_cast_fp16, y = var_473_cast_fp16)[name = tensor<string, []>("mh_w_5_cast_fp16")];
            tensor<fp16, [1, 20, 1500, 1500]> var_476_cast_fp16 = softmax(axis = var_414, x = mh_w_5_cast_fp16)[name = tensor<string, []>("op_476_cast_fp16")];
            tensor<int32, [4]> var_477 = const()[name = tensor<string, []>("op_477"), val = tensor<int32, [4]>([1, 20, 64, -1])];
            tensor<fp16, [1, 20, 64, 1500]> var_478_cast_fp16 = reshape(shape = var_477, x = value_5_cast_fp16)[name = tensor<string, []>("op_478_cast_fp16")];
            tensor<bool, []> attn_5_transpose_x_0 = const()[name = tensor<string, []>("attn_5_transpose_x_0"), val = tensor<bool, []>(false)];
            tensor<bool, []> attn_5_transpose_y_0 = const()[name = tensor<string, []>("attn_5_transpose_y_0"), val = tensor<bool, []>(true)];
            tensor<fp16, [1, 20, 64, 1500]> attn_5_cast_fp16 = matmul(transpose_x = attn_5_transpose_x_0, transpose_y = attn_5_transpose_y_0, x = var_478_cast_fp16, y = var_476_cast_fp16)[name = tensor<string, []>("attn_5_cast_fp16")];
            tensor<int32, [4]> var_481 = const()[name = tensor<string, []>("op_481"), val = tensor<int32, [4]>([1, 1280, 1, -1])];
            tensor<fp16, [1, 1280, 1, 1500]> input_17_cast_fp16 = reshape(shape = var_481, x = attn_5_cast_fp16)[name = tensor<string, []>("input_17_cast_fp16")];
            tensor<int32, [2]> var_485 = const()[name = tensor<string, []>("op_485"), val = tensor<int32, [2]>([1, 1])];
            tensor<int32, [2]> var_487 = const()[name = tensor<string, []>("op_487"), val = tensor<int32, [2]>([1, 1])];
            tensor<string, []> obj_11_pad_type_0 = const()[name = tensor<string, []>("obj_11_pad_type_0"), val = tensor<string, []>("custom")];
            tensor<int32, [4]> obj_11_pad_0 = const()[name = tensor<string, []>("obj_11_pad_0"), val = tensor<int32, [4]>([0, 0, 0, 0])];
            tensor<fp16, [1280, 1280, 1, 1]> layers_2_self_attn_o_proj_weight_to_fp16_palettized = constexpr_lut_to_dense()[indices = tensor<uint8, [819200]>(BLOBFILE(path = tensor<string, []>("@model_path/weights/weight.bin"), offset = tensor<uint64, []>(61065408))), lut = tensor<fp16, [16]>(BLOBFILE(path = tensor<string, []>("@model_path/weights/weight.bin"), offset = tensor<uint64, []>(61884672))), name = tensor<string, []>("layers_2_self_attn_o_proj_weight_to_fp16_palettized"), shape = tensor<uint32, [4]>([1280, 1280, 1, 1])];
            tensor<fp16, [1280]> layers_2_self_attn_o_proj_bias_to_fp16 = const()[name = tensor<string, []>("layers_2_self_attn_o_proj_bias_to_fp16"), val = tensor<fp16, [1280]>(BLOBFILE(path = tensor<string, []>("@model_path/weights/weight.bin"), offset = tensor<uint64, []>(61884800)))];
            tensor<fp16, [1, 1280, 1, 1500]> obj_11_cast_fp16 = conv(bias = layers_2_self_attn_o_proj_bias_to_fp16, dilations = var_487, groups = var_416, pad = obj_11_pad_0, pad_type = obj_11_pad_type_0, strides = var_485, weight = layers_2_self_attn_o_proj_weight_to_fp16_palettized, x = input_17_cast_fp16)[name = tensor<string, []>("obj_11_cast_fp16")];
            tensor<fp16, [1, 1280, 1, 1500]> inputs_11_cast_fp16 = add(x = inputs_9_cast_fp16, y = obj_11_cast_fp16)[name = tensor<string, []>("inputs_11_cast_fp16")];
            tensor<int32, [1]> var_493 = const()[name = tensor<string, []>("op_493"), val = tensor<int32, [1]>([1])];
            tensor<fp16, [1, 1, 1, 1500]> channels_mean_11_cast_fp16 = reduce_mean(axes = var_493, keep_dims = var_417, x = inputs_11_cast_fp16)[name = tensor<string, []>("channels_mean_11_cast_fp16")];
            tensor<fp16, [1, 1280, 1, 1500]> zero_mean_11_cast_fp16 = sub(x = inputs_11_cast_fp16, y = channels_mean_11_cast_fp16)[name = tensor<string, []>("zero_mean_11_cast_fp16")];
            tensor<fp16, [1, 1280, 1, 1500]> zero_mean_sq_11_cast_fp16 = mul(x = zero_mean_11_cast_fp16, y = zero_mean_11_cast_fp16)[name = tensor<string, []>("zero_mean_sq_11_cast_fp16")];
            tensor<int32, [1]> var_497 = const()[name = tensor<string, []>("op_497"), val = tensor<int32, [1]>([1])];
            tensor<fp16, [1, 1, 1, 1500]> var_498_cast_fp16 = reduce_mean(axes = var_497, keep_dims = var_417, x = zero_mean_sq_11_cast_fp16)[name = tensor<string, []>("op_498_cast_fp16")];
            tensor<fp16, []> var_499_to_fp16 = const()[name = tensor<string, []>("op_499_to_fp16"), val = tensor<fp16, []>(0x1.5p-17)];
            tensor<fp16, [1, 1, 1, 1500]> var_500_cast_fp16 = add(x = var_498_cast_fp16, y = var_499_to_fp16)[name = tensor<string, []>("op_500_cast_fp16")];
            tensor<fp32, []> denom_11_epsilon_0 = const()[name = tensor<string, []>("denom_11_epsilon_0"), val = tensor<fp32, []>(0x1.197998p-40)];
            tensor<fp16, [1, 1, 1, 1500]> denom_11_cast_fp16 = rsqrt(epsilon = denom_11_epsilon_0, x = var_500_cast_fp16)[name = tensor<string, []>("denom_11_cast_fp16")];
            tensor<fp16, [1, 1280, 1, 1500]> out_11_cast_fp16 = mul(x = zero_mean_11_cast_fp16, y = denom_11_cast_fp16)[name = tensor<string, []>("out_11_cast_fp16")];
            tensor<fp16, [1280]> input_19_gamma_0_to_fp16 = const()[name = tensor<string, []>("input_19_gamma_0_to_fp16"), val = tensor<fp16, [1280]>(BLOBFILE(path = tensor<string, []>("@model_path/weights/weight.bin"), offset = tensor<uint64, []>(61887424)))];
            tensor<fp16, [1280]> input_19_beta_0_to_fp16 = const()[name = tensor<string, []>("input_19_beta_0_to_fp16"), val = tensor<fp16, [1280]>(BLOBFILE(path = tensor<string, []>("@model_path/weights/weight.bin"), offset = tensor<uint64, []>(61890048)))];
            tensor<fp16, []> input_19_epsilon_0_to_fp16 = const()[name = tensor<string, []>("input_19_epsilon_0_to_fp16"), val = tensor<fp16, []>(0x1.5p-17)];
            tensor<fp16, [1, 1280, 1, 1500]> input_19_cast_fp16 = batch_norm(beta = input_19_beta_0_to_fp16, epsilon = input_19_epsilon_0_to_fp16, gamma = input_19_gamma_0_to_fp16, mean = obj_1_mean_0_to_fp16, variance = obj_1_variance_0_to_fp16, x = out_11_cast_fp16)[name = tensor<string, []>("input_19_cast_fp16")];
            tensor<int32, [2]> var_511 = const()[name = tensor<string, []>("op_511"), val = tensor<int32, [2]>([1, 1])];
            tensor<int32, [2]> var_513 = const()[name = tensor<string, []>("op_513"), val = tensor<int32, [2]>([1, 1])];
            tensor<string, []> input_21_pad_type_0 = const()[name = tensor<string, []>("input_21_pad_type_0"), val = tensor<string, []>("custom")];
            tensor<int32, [4]> input_21_pad_0 = const()[name = tensor<string, []>("input_21_pad_0"), val = tensor<int32, [4]>([0, 0, 0, 0])];
            tensor<fp16, [5120, 1280, 1, 1]> layers_2_fc1_weight_to_fp16_palettized = constexpr_lut_to_dense()[indices = tensor<uint8, [3276800]>(BLOBFILE(path = tensor<string, []>("@model_path/weights/weight.bin"), offset = tensor<uint64, []>(61892672))), lut = tensor<fp16, [16]>(BLOBFILE(path = tensor<string, []>("@model_path/weights/weight.bin"), offset = tensor<uint64, []>(65169536))), name = tensor<string, []>("layers_2_fc1_weight_to_fp16_palettized"), shape = tensor<uint32, [4]>([5120, 1280, 1, 1])];
            tensor<fp16, [5120]> layers_2_fc1_bias_to_fp16 = const()[name = tensor<string, []>("layers_2_fc1_bias_to_fp16"), val = tensor<fp16, [5120]>(BLOBFILE(path = tensor<string, []>("@model_path/weights/weight.bin"), offset = tensor<uint64, []>(65169664)))];
            tensor<fp16, [1, 5120, 1, 1500]> input_21_cast_fp16 = conv(bias = layers_2_fc1_bias_to_fp16, dilations = var_513, groups = var_416, pad = input_21_pad_0, pad_type = input_21_pad_type_0, strides = var_511, weight = layers_2_fc1_weight_to_fp16_palettized, x = input_19_cast_fp16)[name = tensor<string, []>("input_21_cast_fp16")];
            tensor<string, []> input_23_mode_0 = const()[name = tensor<string, []>("input_23_mode_0"), val = tensor<string, []>("EXACT")];
            tensor<fp16, [1, 5120, 1, 1500]> input_23_cast_fp16 = gelu(mode = input_23_mode_0, x = input_21_cast_fp16)[name = tensor<string, []>("input_23_cast_fp16")];
            tensor<int32, [2]> var_519 = const()[name = tensor<string, []>("op_519"), val = tensor<int32, [2]>([1, 1])];
            tensor<int32, [2]> var_521 = const()[name = tensor<string, []>("op_521"), val = tensor<int32, [2]>([1, 1])];
            tensor<string, []> hidden_states_9_pad_type_0 = const()[name = tensor<string, []>("hidden_states_9_pad_type_0"), val = tensor<string, []>("custom")];
            tensor<int32, [4]> hidden_states_9_pad_0 = const()[name = tensor<string, []>("hidden_states_9_pad_0"), val = tensor<int32, [4]>([0, 0, 0, 0])];
            tensor<fp16, [1280, 5120, 1, 1]> layers_2_fc2_weight_to_fp16_palettized = constexpr_lut_to_dense()[indices = tensor<uint8, [3276800]>(BLOBFILE(path = tensor<string, []>("@model_path/weights/weight.bin"), offset = tensor<uint64, []>(65179968))), lut = tensor<fp16, [16]>(BLOBFILE(path = tensor<string, []>("@model_path/weights/weight.bin"), offset = tensor<uint64, []>(68456832))), name = tensor<string, []>("layers_2_fc2_weight_to_fp16_palettized"), shape = tensor<uint32, [4]>([1280, 5120, 1, 1])];
            tensor<fp16, [1280]> layers_2_fc2_bias_to_fp16 = const()[name = tensor<string, []>("layers_2_fc2_bias_to_fp16"), val = tensor<fp16, [1280]>(BLOBFILE(path = tensor<string, []>("@model_path/weights/weight.bin"), offset = tensor<uint64, []>(68456960)))];
            tensor<fp16, [1, 1280, 1, 1500]> hidden_states_9_cast_fp16 = conv(bias = layers_2_fc2_bias_to_fp16, dilations = var_521, groups = var_416, pad = hidden_states_9_pad_0, pad_type = hidden_states_9_pad_type_0, strides = var_519, weight = layers_2_fc2_weight_to_fp16_palettized, x = input_23_cast_fp16)[name = tensor<string, []>("hidden_states_9_cast_fp16")];
            tensor<fp16, [1, 1280, 1, 1500]> inputs_13_cast_fp16 = add(x = inputs_11_cast_fp16, y = hidden_states_9_cast_fp16)[name = tensor<string, []>("inputs_13_cast_fp16")];
            tensor<int32, []> var_532 = const()[name = tensor<string, []>("op_532"), val = tensor<int32, []>(3)];
            tensor<int32, []> var_534 = const()[name = tensor<string, []>("op_534"), val = tensor<int32, []>(1)];
            tensor<bool, []> var_535 = const()[name = tensor<string, []>("op_535"), val = tensor<bool, []>(true)];
            tensor<int32, [1]> var_545 = const()[name = tensor<string, []>("op_545"), val = tensor<int32, [1]>([1])];
            tensor<fp16, [1, 1, 1, 1500]> channels_mean_13_cast_fp16 = reduce_mean(axes = var_545, keep_dims = var_535, x = inputs_13_cast_fp16)[name = tensor<string, []>("channels_mean_13_cast_fp16")];
            tensor<fp16, [1, 1280, 1, 1500]> zero_mean_13_cast_fp16 = sub(x = inputs_13_cast_fp16, y = channels_mean_13_cast_fp16)[name = tensor<string, []>("zero_mean_13_cast_fp16")];
            tensor<fp16, [1, 1280, 1, 1500]> zero_mean_sq_13_cast_fp16 = mul(x = zero_mean_13_cast_fp16, y = zero_mean_13_cast_fp16)[name = tensor<string, []>("zero_mean_sq_13_cast_fp16")];
            tensor<int32, [1]> var_549 = const()[name = tensor<string, []>("op_549"), val = tensor<int32, [1]>([1])];
            tensor<fp16, [1, 1, 1, 1500]> var_550_cast_fp16 = reduce_mean(axes = var_549, keep_dims = var_535, x = zero_mean_sq_13_cast_fp16)[name = tensor<string, []>("op_550_cast_fp16")];
            tensor<fp16, []> var_551_to_fp16 = const()[name = tensor<string, []>("op_551_to_fp16"), val = tensor<fp16, []>(0x1.5p-17)];
            tensor<fp16, [1, 1, 1, 1500]> var_552_cast_fp16 = add(x = var_550_cast_fp16, y = var_551_to_fp16)[name = tensor<string, []>("op_552_cast_fp16")];
            tensor<fp32, []> denom_13_epsilon_0 = const()[name = tensor<string, []>("denom_13_epsilon_0"), val = tensor<fp32, []>(0x1.197998p-40)];
            tensor<fp16, [1, 1, 1, 1500]> denom_13_cast_fp16 = rsqrt(epsilon = denom_13_epsilon_0, x = var_552_cast_fp16)[name = tensor<string, []>("denom_13_cast_fp16")];
            tensor<fp16, [1, 1280, 1, 1500]> out_13_cast_fp16 = mul(x = zero_mean_13_cast_fp16, y = denom_13_cast_fp16)[name = tensor<string, []>("out_13_cast_fp16")];
            tensor<fp16, [1280]> obj_13_gamma_0_to_fp16 = const()[name = tensor<string, []>("obj_13_gamma_0_to_fp16"), val = tensor<fp16, [1280]>(BLOBFILE(path = tensor<string, []>("@model_path/weights/weight.bin"), offset = tensor<uint64, []>(68459584)))];
            tensor<fp16, [1280]> obj_13_beta_0_to_fp16 = const()[name = tensor<string, []>("obj_13_beta_0_to_fp16"), val = tensor<fp16, [1280]>(BLOBFILE(path = tensor<string, []>("@model_path/weights/weight.bin"), offset = tensor<uint64, []>(68462208)))];
            tensor<fp16, []> obj_13_epsilon_0_to_fp16 = const()[name = tensor<string, []>("obj_13_epsilon_0_to_fp16"), val = tensor<fp16, []>(0x1.5p-17)];
            tensor<fp16, [1, 1280, 1, 1500]> obj_13_cast_fp16 = batch_norm(beta = obj_13_beta_0_to_fp16, epsilon = obj_13_epsilon_0_to_fp16, gamma = obj_13_gamma_0_to_fp16, mean = obj_1_mean_0_to_fp16, variance = obj_1_variance_0_to_fp16, x = out_13_cast_fp16)[name = tensor<string, []>("obj_13_cast_fp16")];
            tensor<int32, [2]> var_567 = const()[name = tensor<string, []>("op_567"), val = tensor<int32, [2]>([1, 1])];
            tensor<int32, [2]> var_569 = const()[name = tensor<string, []>("op_569"), val = tensor<int32, [2]>([1, 1])];
            tensor<string, []> query_7_pad_type_0 = const()[name = tensor<string, []>("query_7_pad_type_0"), val = tensor<string, []>("custom")];
            tensor<int32, [4]> query_7_pad_0 = const()[name = tensor<string, []>("query_7_pad_0"), val = tensor<int32, [4]>([0, 0, 0, 0])];
            tensor<fp16, [1280, 1280, 1, 1]> layers_3_self_attn_q_proj_weight_to_fp16_palettized = constexpr_lut_to_dense()[indices = tensor<uint8, [819200]>(BLOBFILE(path = tensor<string, []>("@model_path/weights/weight.bin"), offset = tensor<uint64, []>(68464832))), lut = tensor<fp16, [16]>(BLOBFILE(path = tensor<string, []>("@model_path/weights/weight.bin"), offset = tensor<uint64, []>(69284096))), name = tensor<string, []>("layers_3_self_attn_q_proj_weight_to_fp16_palettized"), shape = tensor<uint32, [4]>([1280, 1280, 1, 1])];
            tensor<fp16, [1280]> layers_3_self_attn_q_proj_bias_to_fp16 = const()[name = tensor<string, []>("layers_3_self_attn_q_proj_bias_to_fp16"), val = tensor<fp16, [1280]>(BLOBFILE(path = tensor<string, []>("@model_path/weights/weight.bin"), offset = tensor<uint64, []>(69284224)))];
            tensor<fp16, [1, 1280, 1, 1500]> query_7_cast_fp16 = conv(bias = layers_3_self_attn_q_proj_bias_to_fp16, dilations = var_569, groups = var_534, pad = query_7_pad_0, pad_type = query_7_pad_type_0, strides = var_567, weight = layers_3_self_attn_q_proj_weight_to_fp16_palettized, x = obj_13_cast_fp16)[name = tensor<string, []>("query_7_cast_fp16")];
            tensor<int32, [2]> var_573 = const()[name = tensor<string, []>("op_573"), val = tensor<int32, [2]>([1, 1])];
            tensor<int32, [2]> var_575 = const()[name = tensor<string, []>("op_575"), val = tensor<int32, [2]>([1, 1])];
            tensor<string, []> key_7_pad_type_0 = const()[name = tensor<string, []>("key_7_pad_type_0"), val = tensor<string, []>("custom")];
            tensor<int32, [4]> key_7_pad_0 = const()[name = tensor<string, []>("key_7_pad_0"), val = tensor<int32, [4]>([0, 0, 0, 0])];
            tensor<fp16, [1280, 1280, 1, 1]> layers_3_self_attn_k_proj_weight_to_fp16 = const()[name = tensor<string, []>("layers_3_self_attn_k_proj_weight_to_fp16"), val = tensor<fp16, [1280, 1280, 1, 1]>(BLOBFILE(path = tensor<string, []>("@model_path/weights/weight.bin"), offset = tensor<uint64, []>(69286848)))];
            tensor<fp16, [1, 1280, 1, 1500]> key_7_cast_fp16 = conv(dilations = var_575, groups = var_534, pad = key_7_pad_0, pad_type = key_7_pad_type_0, strides = var_573, weight = layers_3_self_attn_k_proj_weight_to_fp16, x = obj_13_cast_fp16)[name = tensor<string, []>("key_7_cast_fp16")];
            tensor<int32, [2]> var_580 = const()[name = tensor<string, []>("op_580"), val = tensor<int32, [2]>([1, 1])];
            tensor<int32, [2]> var_582 = const()[name = tensor<string, []>("op_582"), val = tensor<int32, [2]>([1, 1])];
            tensor<string, []> value_7_pad_type_0 = const()[name = tensor<string, []>("value_7_pad_type_0"), val = tensor<string, []>("custom")];
            tensor<int32, [4]> value_7_pad_0 = const()[name = tensor<string, []>("value_7_pad_0"), val = tensor<int32, [4]>([0, 0, 0, 0])];
            tensor<fp16, [1280, 1280, 1, 1]> layers_3_self_attn_v_proj_weight_to_fp16_palettized = constexpr_lut_to_dense()[indices = tensor<uint8, [819200]>(BLOBFILE(path = tensor<string, []>("@model_path/weights/weight.bin"), offset = tensor<uint64, []>(72563712))), lut = tensor<fp16, [16]>(BLOBFILE(path = tensor<string, []>("@model_path/weights/weight.bin"), offset = tensor<uint64, []>(73382976))), name = tensor<string, []>("layers_3_self_attn_v_proj_weight_to_fp16_palettized"), shape = tensor<uint32, [4]>([1280, 1280, 1, 1])];
            tensor<fp16, [1280]> layers_3_self_attn_v_proj_bias_to_fp16 = const()[name = tensor<string, []>("layers_3_self_attn_v_proj_bias_to_fp16"), val = tensor<fp16, [1280]>(BLOBFILE(path = tensor<string, []>("@model_path/weights/weight.bin"), offset = tensor<uint64, []>(73383104)))];
            tensor<fp16, [1, 1280, 1, 1500]> value_7_cast_fp16 = conv(bias = layers_3_self_attn_v_proj_bias_to_fp16, dilations = var_582, groups = var_534, pad = value_7_pad_0, pad_type = value_7_pad_type_0, strides = var_580, weight = layers_3_self_attn_v_proj_weight_to_fp16_palettized, x = obj_13_cast_fp16)[name = tensor<string, []>("value_7_cast_fp16")];
            tensor<int32, [4]> var_586 = const()[name = tensor<string, []>("op_586"), val = tensor<int32, [4]>([1, 20, 64, -1])];
            tensor<fp16, [1, 20, 64, 1500]> var_587_cast_fp16 = reshape(shape = var_586, x = query_7_cast_fp16)[name = tensor<string, []>("op_587_cast_fp16")];
            tensor<fp16, []> var_588_to_fp16 = const()[name = tensor<string, []>("op_588_to_fp16"), val = tensor<fp16, []>(0x1p-3)];
            tensor<fp16, [1, 20, 64, 1500]> var_589_cast_fp16 = mul(x = var_587_cast_fp16, y = var_588_to_fp16)[name = tensor<string, []>("op_589_cast_fp16")];
            tensor<int32, [4]> var_590 = const()[name = tensor<string, []>("op_590"), val = tensor<int32, [4]>([1, 20, 64, -1])];
            tensor<fp16, [1, 20, 64, 1500]> var_591_cast_fp16 = reshape(shape = var_590, x = key_7_cast_fp16)[name = tensor<string, []>("op_591_cast_fp16")];
            tensor<bool, []> mh_w_7_transpose_x_0 = const()[name = tensor<string, []>("mh_w_7_transpose_x_0"), val = tensor<bool, []>(true)];
            tensor<bool, []> mh_w_7_transpose_y_0 = const()[name = tensor<string, []>("mh_w_7_transpose_y_0"), val = tensor<bool, []>(false)];
            tensor<fp16, [1, 20, 1500, 1500]> mh_w_7_cast_fp16 = matmul(transpose_x = mh_w_7_transpose_x_0, transpose_y = mh_w_7_transpose_y_0, x = var_589_cast_fp16, y = var_591_cast_fp16)[name = tensor<string, []>("mh_w_7_cast_fp16")];
            tensor<fp16, [1, 20, 1500, 1500]> var_594_cast_fp16 = softmax(axis = var_532, x = mh_w_7_cast_fp16)[name = tensor<string, []>("op_594_cast_fp16")];
            tensor<int32, [4]> var_595 = const()[name = tensor<string, []>("op_595"), val = tensor<int32, [4]>([1, 20, 64, -1])];
            tensor<fp16, [1, 20, 64, 1500]> var_596_cast_fp16 = reshape(shape = var_595, x = value_7_cast_fp16)[name = tensor<string, []>("op_596_cast_fp16")];
            tensor<bool, []> attn_7_transpose_x_0 = const()[name = tensor<string, []>("attn_7_transpose_x_0"), val = tensor<bool, []>(false)];
            tensor<bool, []> attn_7_transpose_y_0 = const()[name = tensor<string, []>("attn_7_transpose_y_0"), val = tensor<bool, []>(true)];
            tensor<fp16, [1, 20, 64, 1500]> attn_7_cast_fp16 = matmul(transpose_x = attn_7_transpose_x_0, transpose_y = attn_7_transpose_y_0, x = var_596_cast_fp16, y = var_594_cast_fp16)[name = tensor<string, []>("attn_7_cast_fp16")];
            tensor<int32, [4]> var_599 = const()[name = tensor<string, []>("op_599"), val = tensor<int32, [4]>([1, 1280, 1, -1])];
            tensor<fp16, [1, 1280, 1, 1500]> input_25_cast_fp16 = reshape(shape = var_599, x = attn_7_cast_fp16)[name = tensor<string, []>("input_25_cast_fp16")];
            tensor<int32, [2]> var_603 = const()[name = tensor<string, []>("op_603"), val = tensor<int32, [2]>([1, 1])];
            tensor<int32, [2]> var_605 = const()[name = tensor<string, []>("op_605"), val = tensor<int32, [2]>([1, 1])];
            tensor<string, []> obj_15_pad_type_0 = const()[name = tensor<string, []>("obj_15_pad_type_0"), val = tensor<string, []>("custom")];
            tensor<int32, [4]> obj_15_pad_0 = const()[name = tensor<string, []>("obj_15_pad_0"), val = tensor<int32, [4]>([0, 0, 0, 0])];
            tensor<fp16, [1280, 1280, 1, 1]> layers_3_self_attn_o_proj_weight_to_fp16_palettized = constexpr_lut_to_dense()[indices = tensor<uint8, [819200]>(BLOBFILE(path = tensor<string, []>("@model_path/weights/weight.bin"), offset = tensor<uint64, []>(73385728))), lut = tensor<fp16, [16]>(BLOBFILE(path = tensor<string, []>("@model_path/weights/weight.bin"), offset = tensor<uint64, []>(74204992))), name = tensor<string, []>("layers_3_self_attn_o_proj_weight_to_fp16_palettized"), shape = tensor<uint32, [4]>([1280, 1280, 1, 1])];
            tensor<fp16, [1280]> layers_3_self_attn_o_proj_bias_to_fp16 = const()[name = tensor<string, []>("layers_3_self_attn_o_proj_bias_to_fp16"), val = tensor<fp16, [1280]>(BLOBFILE(path = tensor<string, []>("@model_path/weights/weight.bin"), offset = tensor<uint64, []>(74205120)))];
            tensor<fp16, [1, 1280, 1, 1500]> obj_15_cast_fp16 = conv(bias = layers_3_self_attn_o_proj_bias_to_fp16, dilations = var_605, groups = var_534, pad = obj_15_pad_0, pad_type = obj_15_pad_type_0, strides = var_603, weight = layers_3_self_attn_o_proj_weight_to_fp16_palettized, x = input_25_cast_fp16)[name = tensor<string, []>("obj_15_cast_fp16")];
            tensor<fp16, [1, 1280, 1, 1500]> inputs_15_cast_fp16 = add(x = inputs_13_cast_fp16, y = obj_15_cast_fp16)[name = tensor<string, []>("inputs_15_cast_fp16")];
            tensor<int32, [1]> var_611 = const()[name = tensor<string, []>("op_611"), val = tensor<int32, [1]>([1])];
            tensor<fp16, [1, 1, 1, 1500]> channels_mean_15_cast_fp16 = reduce_mean(axes = var_611, keep_dims = var_535, x = inputs_15_cast_fp16)[name = tensor<string, []>("channels_mean_15_cast_fp16")];
            tensor<fp16, [1, 1280, 1, 1500]> zero_mean_15_cast_fp16 = sub(x = inputs_15_cast_fp16, y = channels_mean_15_cast_fp16)[name = tensor<string, []>("zero_mean_15_cast_fp16")];
            tensor<fp16, [1, 1280, 1, 1500]> zero_mean_sq_15_cast_fp16 = mul(x = zero_mean_15_cast_fp16, y = zero_mean_15_cast_fp16)[name = tensor<string, []>("zero_mean_sq_15_cast_fp16")];
            tensor<int32, [1]> var_615 = const()[name = tensor<string, []>("op_615"), val = tensor<int32, [1]>([1])];
            tensor<fp16, [1, 1, 1, 1500]> var_616_cast_fp16 = reduce_mean(axes = var_615, keep_dims = var_535, x = zero_mean_sq_15_cast_fp16)[name = tensor<string, []>("op_616_cast_fp16")];
            tensor<fp16, []> var_617_to_fp16 = const()[name = tensor<string, []>("op_617_to_fp16"), val = tensor<fp16, []>(0x1.5p-17)];
            tensor<fp16, [1, 1, 1, 1500]> var_618_cast_fp16 = add(x = var_616_cast_fp16, y = var_617_to_fp16)[name = tensor<string, []>("op_618_cast_fp16")];
            tensor<fp32, []> denom_15_epsilon_0 = const()[name = tensor<string, []>("denom_15_epsilon_0"), val = tensor<fp32, []>(0x1.197998p-40)];
            tensor<fp16, [1, 1, 1, 1500]> denom_15_cast_fp16 = rsqrt(epsilon = denom_15_epsilon_0, x = var_618_cast_fp16)[name = tensor<string, []>("denom_15_cast_fp16")];
            tensor<fp16, [1, 1280, 1, 1500]> out_15_cast_fp16 = mul(x = zero_mean_15_cast_fp16, y = denom_15_cast_fp16)[name = tensor<string, []>("out_15_cast_fp16")];
            tensor<fp16, [1280]> input_27_gamma_0_to_fp16 = const()[name = tensor<string, []>("input_27_gamma_0_to_fp16"), val = tensor<fp16, [1280]>(BLOBFILE(path = tensor<string, []>("@model_path/weights/weight.bin"), offset = tensor<uint64, []>(74207744)))];
            tensor<fp16, [1280]> input_27_beta_0_to_fp16 = const()[name = tensor<string, []>("input_27_beta_0_to_fp16"), val = tensor<fp16, [1280]>(BLOBFILE(path = tensor<string, []>("@model_path/weights/weight.bin"), offset = tensor<uint64, []>(74210368)))];
            tensor<fp16, []> input_27_epsilon_0_to_fp16 = const()[name = tensor<string, []>("input_27_epsilon_0_to_fp16"), val = tensor<fp16, []>(0x1.5p-17)];
            tensor<fp16, [1, 1280, 1, 1500]> input_27_cast_fp16 = batch_norm(beta = input_27_beta_0_to_fp16, epsilon = input_27_epsilon_0_to_fp16, gamma = input_27_gamma_0_to_fp16, mean = obj_1_mean_0_to_fp16, variance = obj_1_variance_0_to_fp16, x = out_15_cast_fp16)[name = tensor<string, []>("input_27_cast_fp16")];
            tensor<int32, [2]> var_629 = const()[name = tensor<string, []>("op_629"), val = tensor<int32, [2]>([1, 1])];
            tensor<int32, [2]> var_631 = const()[name = tensor<string, []>("op_631"), val = tensor<int32, [2]>([1, 1])];
            tensor<string, []> input_29_pad_type_0 = const()[name = tensor<string, []>("input_29_pad_type_0"), val = tensor<string, []>("custom")];
            tensor<int32, [4]> input_29_pad_0 = const()[name = tensor<string, []>("input_29_pad_0"), val = tensor<int32, [4]>([0, 0, 0, 0])];
            tensor<fp16, [5120, 1280, 1, 1]> layers_3_fc1_weight_to_fp16_palettized = constexpr_lut_to_dense()[indices = tensor<uint8, [3276800]>(BLOBFILE(path = tensor<string, []>("@model_path/weights/weight.bin"), offset = tensor<uint64, []>(74212992))), lut = tensor<fp16, [16]>(BLOBFILE(path = tensor<string, []>("@model_path/weights/weight.bin"), offset = tensor<uint64, []>(77489856))), name = tensor<string, []>("layers_3_fc1_weight_to_fp16_palettized"), shape = tensor<uint32, [4]>([5120, 1280, 1, 1])];
            tensor<fp16, [5120]> layers_3_fc1_bias_to_fp16 = const()[name = tensor<string, []>("layers_3_fc1_bias_to_fp16"), val = tensor<fp16, [5120]>(BLOBFILE(path = tensor<string, []>("@model_path/weights/weight.bin"), offset = tensor<uint64, []>(77489984)))];
            tensor<fp16, [1, 5120, 1, 1500]> input_29_cast_fp16 = conv(bias = layers_3_fc1_bias_to_fp16, dilations = var_631, groups = var_534, pad = input_29_pad_0, pad_type = input_29_pad_type_0, strides = var_629, weight = layers_3_fc1_weight_to_fp16_palettized, x = input_27_cast_fp16)[name = tensor<string, []>("input_29_cast_fp16")];
            tensor<string, []> input_31_mode_0 = const()[name = tensor<string, []>("input_31_mode_0"), val = tensor<string, []>("EXACT")];
            tensor<fp16, [1, 5120, 1, 1500]> input_31_cast_fp16 = gelu(mode = input_31_mode_0, x = input_29_cast_fp16)[name = tensor<string, []>("input_31_cast_fp16")];
            tensor<int32, [2]> var_637 = const()[name = tensor<string, []>("op_637"), val = tensor<int32, [2]>([1, 1])];
            tensor<int32, [2]> var_639 = const()[name = tensor<string, []>("op_639"), val = tensor<int32, [2]>([1, 1])];
            tensor<string, []> hidden_states_11_pad_type_0 = const()[name = tensor<string, []>("hidden_states_11_pad_type_0"), val = tensor<string, []>("custom")];
            tensor<int32, [4]> hidden_states_11_pad_0 = const()[name = tensor<string, []>("hidden_states_11_pad_0"), val = tensor<int32, [4]>([0, 0, 0, 0])];
            tensor<fp16, [1280, 5120, 1, 1]> layers_3_fc2_weight_to_fp16 = const()[name = tensor<string, []>("layers_3_fc2_weight_to_fp16"), val = tensor<fp16, [1280, 5120, 1, 1]>(BLOBFILE(path = tensor<string, []>("@model_path/weights/weight.bin"), offset = tensor<uint64, []>(77500288)))];
            tensor<fp16, [1280]> layers_3_fc2_bias_to_fp16 = const()[name = tensor<string, []>("layers_3_fc2_bias_to_fp16"), val = tensor<fp16, [1280]>(BLOBFILE(path = tensor<string, []>("@model_path/weights/weight.bin"), offset = tensor<uint64, []>(90607552)))];
            tensor<fp16, [1, 1280, 1, 1500]> hidden_states_11_cast_fp16 = conv(bias = layers_3_fc2_bias_to_fp16, dilations = var_639, groups = var_534, pad = hidden_states_11_pad_0, pad_type = hidden_states_11_pad_type_0, strides = var_637, weight = layers_3_fc2_weight_to_fp16, x = input_31_cast_fp16)[name = tensor<string, []>("hidden_states_11_cast_fp16")];
            tensor<fp16, [1, 1280, 1, 1500]> inputs_17_cast_fp16 = add(x = inputs_15_cast_fp16, y = hidden_states_11_cast_fp16)[name = tensor<string, []>("inputs_17_cast_fp16")];
            tensor<int32, []> var_650 = const()[name = tensor<string, []>("op_650"), val = tensor<int32, []>(3)];
            tensor<int32, []> var_652 = const()[name = tensor<string, []>("op_652"), val = tensor<int32, []>(1)];
            tensor<bool, []> var_653 = const()[name = tensor<string, []>("op_653"), val = tensor<bool, []>(true)];
            tensor<int32, [1]> var_663 = const()[name = tensor<string, []>("op_663"), val = tensor<int32, [1]>([1])];
            tensor<fp16, [1, 1, 1, 1500]> channels_mean_17_cast_fp16 = reduce_mean(axes = var_663, keep_dims = var_653, x = inputs_17_cast_fp16)[name = tensor<string, []>("channels_mean_17_cast_fp16")];
            tensor<fp16, [1, 1280, 1, 1500]> zero_mean_17_cast_fp16 = sub(x = inputs_17_cast_fp16, y = channels_mean_17_cast_fp16)[name = tensor<string, []>("zero_mean_17_cast_fp16")];
            tensor<fp16, [1, 1280, 1, 1500]> zero_mean_sq_17_cast_fp16 = mul(x = zero_mean_17_cast_fp16, y = zero_mean_17_cast_fp16)[name = tensor<string, []>("zero_mean_sq_17_cast_fp16")];
            tensor<int32, [1]> var_667 = const()[name = tensor<string, []>("op_667"), val = tensor<int32, [1]>([1])];
            tensor<fp16, [1, 1, 1, 1500]> var_668_cast_fp16 = reduce_mean(axes = var_667, keep_dims = var_653, x = zero_mean_sq_17_cast_fp16)[name = tensor<string, []>("op_668_cast_fp16")];
            tensor<fp16, []> var_669_to_fp16 = const()[name = tensor<string, []>("op_669_to_fp16"), val = tensor<fp16, []>(0x1.5p-17)];
            tensor<fp16, [1, 1, 1, 1500]> var_670_cast_fp16 = add(x = var_668_cast_fp16, y = var_669_to_fp16)[name = tensor<string, []>("op_670_cast_fp16")];
            tensor<fp32, []> denom_17_epsilon_0 = const()[name = tensor<string, []>("denom_17_epsilon_0"), val = tensor<fp32, []>(0x1.197998p-40)];
            tensor<fp16, [1, 1, 1, 1500]> denom_17_cast_fp16 = rsqrt(epsilon = denom_17_epsilon_0, x = var_670_cast_fp16)[name = tensor<string, []>("denom_17_cast_fp16")];
            tensor<fp16, [1, 1280, 1, 1500]> out_17_cast_fp16 = mul(x = zero_mean_17_cast_fp16, y = denom_17_cast_fp16)[name = tensor<string, []>("out_17_cast_fp16")];
            tensor<fp16, [1280]> obj_17_gamma_0_to_fp16 = const()[name = tensor<string, []>("obj_17_gamma_0_to_fp16"), val = tensor<fp16, [1280]>(BLOBFILE(path = tensor<string, []>("@model_path/weights/weight.bin"), offset = tensor<uint64, []>(90610176)))];
            tensor<fp16, [1280]> obj_17_beta_0_to_fp16 = const()[name = tensor<string, []>("obj_17_beta_0_to_fp16"), val = tensor<fp16, [1280]>(BLOBFILE(path = tensor<string, []>("@model_path/weights/weight.bin"), offset = tensor<uint64, []>(90612800)))];
            tensor<fp16, []> obj_17_epsilon_0_to_fp16 = const()[name = tensor<string, []>("obj_17_epsilon_0_to_fp16"), val = tensor<fp16, []>(0x1.5p-17)];
            tensor<fp16, [1, 1280, 1, 1500]> obj_17_cast_fp16 = batch_norm(beta = obj_17_beta_0_to_fp16, epsilon = obj_17_epsilon_0_to_fp16, gamma = obj_17_gamma_0_to_fp16, mean = obj_1_mean_0_to_fp16, variance = obj_1_variance_0_to_fp16, x = out_17_cast_fp16)[name = tensor<string, []>("obj_17_cast_fp16")];
            tensor<int32, [2]> var_685 = const()[name = tensor<string, []>("op_685"), val = tensor<int32, [2]>([1, 1])];
            tensor<int32, [2]> var_687 = const()[name = tensor<string, []>("op_687"), val = tensor<int32, [2]>([1, 1])];
            tensor<string, []> query_9_pad_type_0 = const()[name = tensor<string, []>("query_9_pad_type_0"), val = tensor<string, []>("custom")];
            tensor<int32, [4]> query_9_pad_0 = const()[name = tensor<string, []>("query_9_pad_0"), val = tensor<int32, [4]>([0, 0, 0, 0])];
            tensor<fp16, [1280, 1280, 1, 1]> layers_4_self_attn_q_proj_weight_to_fp16_palettized = constexpr_lut_to_dense()[indices = tensor<uint8, [819200]>(BLOBFILE(path = tensor<string, []>("@model_path/weights/weight.bin"), offset = tensor<uint64, []>(90615424))), lut = tensor<fp16, [16]>(BLOBFILE(path = tensor<string, []>("@model_path/weights/weight.bin"), offset = tensor<uint64, []>(91434688))), name = tensor<string, []>("layers_4_self_attn_q_proj_weight_to_fp16_palettized"), shape = tensor<uint32, [4]>([1280, 1280, 1, 1])];
            tensor<fp16, [1280]> layers_4_self_attn_q_proj_bias_to_fp16 = const()[name = tensor<string, []>("layers_4_self_attn_q_proj_bias_to_fp16"), val = tensor<fp16, [1280]>(BLOBFILE(path = tensor<string, []>("@model_path/weights/weight.bin"), offset = tensor<uint64, []>(91434816)))];
            tensor<fp16, [1, 1280, 1, 1500]> query_9_cast_fp16 = conv(bias = layers_4_self_attn_q_proj_bias_to_fp16, dilations = var_687, groups = var_652, pad = query_9_pad_0, pad_type = query_9_pad_type_0, strides = var_685, weight = layers_4_self_attn_q_proj_weight_to_fp16_palettized, x = obj_17_cast_fp16)[name = tensor<string, []>("query_9_cast_fp16")];
            tensor<int32, [2]> var_691 = const()[name = tensor<string, []>("op_691"), val = tensor<int32, [2]>([1, 1])];
            tensor<int32, [2]> var_693 = const()[name = tensor<string, []>("op_693"), val = tensor<int32, [2]>([1, 1])];
            tensor<string, []> key_9_pad_type_0 = const()[name = tensor<string, []>("key_9_pad_type_0"), val = tensor<string, []>("custom")];
            tensor<int32, [4]> key_9_pad_0 = const()[name = tensor<string, []>("key_9_pad_0"), val = tensor<int32, [4]>([0, 0, 0, 0])];
            tensor<fp16, [1280, 1280, 1, 1]> layers_4_self_attn_k_proj_weight_to_fp16_palettized = constexpr_lut_to_dense()[indices = tensor<uint8, [819200]>(BLOBFILE(path = tensor<string, []>("@model_path/weights/weight.bin"), offset = tensor<uint64, []>(91437440))), lut = tensor<fp16, [16]>(BLOBFILE(path = tensor<string, []>("@model_path/weights/weight.bin"), offset = tensor<uint64, []>(92256704))), name = tensor<string, []>("layers_4_self_attn_k_proj_weight_to_fp16_palettized"), shape = tensor<uint32, [4]>([1280, 1280, 1, 1])];
            tensor<fp16, [1, 1280, 1, 1500]> key_9_cast_fp16 = conv(dilations = var_693, groups = var_652, pad = key_9_pad_0, pad_type = key_9_pad_type_0, strides = var_691, weight = layers_4_self_attn_k_proj_weight_to_fp16_palettized, x = obj_17_cast_fp16)[name = tensor<string, []>("key_9_cast_fp16")];
            tensor<int32, [2]> var_698 = const()[name = tensor<string, []>("op_698"), val = tensor<int32, [2]>([1, 1])];
            tensor<int32, [2]> var_700 = const()[name = tensor<string, []>("op_700"), val = tensor<int32, [2]>([1, 1])];
            tensor<string, []> value_9_pad_type_0 = const()[name = tensor<string, []>("value_9_pad_type_0"), val = tensor<string, []>("custom")];
            tensor<int32, [4]> value_9_pad_0 = const()[name = tensor<string, []>("value_9_pad_0"), val = tensor<int32, [4]>([0, 0, 0, 0])];
            tensor<fp16, [1280, 1280, 1, 1]> layers_4_self_attn_v_proj_weight_to_fp16_palettized = constexpr_lut_to_dense()[indices = tensor<uint8, [819200]>(BLOBFILE(path = tensor<string, []>("@model_path/weights/weight.bin"), offset = tensor<uint64, []>(92256832))), lut = tensor<fp16, [16]>(BLOBFILE(path = tensor<string, []>("@model_path/weights/weight.bin"), offset = tensor<uint64, []>(93076096))), name = tensor<string, []>("layers_4_self_attn_v_proj_weight_to_fp16_palettized"), shape = tensor<uint32, [4]>([1280, 1280, 1, 1])];
            tensor<fp16, [1280]> layers_4_self_attn_v_proj_bias_to_fp16 = const()[name = tensor<string, []>("layers_4_self_attn_v_proj_bias_to_fp16"), val = tensor<fp16, [1280]>(BLOBFILE(path = tensor<string, []>("@model_path/weights/weight.bin"), offset = tensor<uint64, []>(93076224)))];
            tensor<fp16, [1, 1280, 1, 1500]> value_9_cast_fp16 = conv(bias = layers_4_self_attn_v_proj_bias_to_fp16, dilations = var_700, groups = var_652, pad = value_9_pad_0, pad_type = value_9_pad_type_0, strides = var_698, weight = layers_4_self_attn_v_proj_weight_to_fp16_palettized, x = obj_17_cast_fp16)[name = tensor<string, []>("value_9_cast_fp16")];
            tensor<int32, [4]> var_704 = const()[name = tensor<string, []>("op_704"), val = tensor<int32, [4]>([1, 20, 64, -1])];
            tensor<fp16, [1, 20, 64, 1500]> var_705_cast_fp16 = reshape(shape = var_704, x = query_9_cast_fp16)[name = tensor<string, []>("op_705_cast_fp16")];
            tensor<fp16, []> var_706_to_fp16 = const()[name = tensor<string, []>("op_706_to_fp16"), val = tensor<fp16, []>(0x1p-3)];
            tensor<fp16, [1, 20, 64, 1500]> var_707_cast_fp16 = mul(x = var_705_cast_fp16, y = var_706_to_fp16)[name = tensor<string, []>("op_707_cast_fp16")];
            tensor<int32, [4]> var_708 = const()[name = tensor<string, []>("op_708"), val = tensor<int32, [4]>([1, 20, 64, -1])];
            tensor<fp16, [1, 20, 64, 1500]> var_709_cast_fp16 = reshape(shape = var_708, x = key_9_cast_fp16)[name = tensor<string, []>("op_709_cast_fp16")];
            tensor<bool, []> mh_w_9_transpose_x_0 = const()[name = tensor<string, []>("mh_w_9_transpose_x_0"), val = tensor<bool, []>(true)];
            tensor<bool, []> mh_w_9_transpose_y_0 = const()[name = tensor<string, []>("mh_w_9_transpose_y_0"), val = tensor<bool, []>(false)];
            tensor<fp16, [1, 20, 1500, 1500]> mh_w_9_cast_fp16 = matmul(transpose_x = mh_w_9_transpose_x_0, transpose_y = mh_w_9_transpose_y_0, x = var_707_cast_fp16, y = var_709_cast_fp16)[name = tensor<string, []>("mh_w_9_cast_fp16")];
            tensor<fp16, [1, 20, 1500, 1500]> var_712_cast_fp16 = softmax(axis = var_650, x = mh_w_9_cast_fp16)[name = tensor<string, []>("op_712_cast_fp16")];
            tensor<int32, [4]> var_713 = const()[name = tensor<string, []>("op_713"), val = tensor<int32, [4]>([1, 20, 64, -1])];
            tensor<fp16, [1, 20, 64, 1500]> var_714_cast_fp16 = reshape(shape = var_713, x = value_9_cast_fp16)[name = tensor<string, []>("op_714_cast_fp16")];
            tensor<bool, []> attn_9_transpose_x_0 = const()[name = tensor<string, []>("attn_9_transpose_x_0"), val = tensor<bool, []>(false)];
            tensor<bool, []> attn_9_transpose_y_0 = const()[name = tensor<string, []>("attn_9_transpose_y_0"), val = tensor<bool, []>(true)];
            tensor<fp16, [1, 20, 64, 1500]> attn_9_cast_fp16 = matmul(transpose_x = attn_9_transpose_x_0, transpose_y = attn_9_transpose_y_0, x = var_714_cast_fp16, y = var_712_cast_fp16)[name = tensor<string, []>("attn_9_cast_fp16")];
            tensor<int32, [4]> var_717 = const()[name = tensor<string, []>("op_717"), val = tensor<int32, [4]>([1, 1280, 1, -1])];
            tensor<fp16, [1, 1280, 1, 1500]> input_33_cast_fp16 = reshape(shape = var_717, x = attn_9_cast_fp16)[name = tensor<string, []>("input_33_cast_fp16")];
            tensor<int32, [2]> var_721 = const()[name = tensor<string, []>("op_721"), val = tensor<int32, [2]>([1, 1])];
            tensor<int32, [2]> var_723 = const()[name = tensor<string, []>("op_723"), val = tensor<int32, [2]>([1, 1])];
            tensor<string, []> obj_19_pad_type_0 = const()[name = tensor<string, []>("obj_19_pad_type_0"), val = tensor<string, []>("custom")];
            tensor<int32, [4]> obj_19_pad_0 = const()[name = tensor<string, []>("obj_19_pad_0"), val = tensor<int32, [4]>([0, 0, 0, 0])];
            tensor<fp16, [1280, 1280, 1, 1]> layers_4_self_attn_o_proj_weight_to_fp16_palettized = constexpr_lut_to_dense()[indices = tensor<uint8, [819200]>(BLOBFILE(path = tensor<string, []>("@model_path/weights/weight.bin"), offset = tensor<uint64, []>(93078848))), lut = tensor<fp16, [16]>(BLOBFILE(path = tensor<string, []>("@model_path/weights/weight.bin"), offset = tensor<uint64, []>(93898112))), name = tensor<string, []>("layers_4_self_attn_o_proj_weight_to_fp16_palettized"), shape = tensor<uint32, [4]>([1280, 1280, 1, 1])];
            tensor<fp16, [1280]> layers_4_self_attn_o_proj_bias_to_fp16 = const()[name = tensor<string, []>("layers_4_self_attn_o_proj_bias_to_fp16"), val = tensor<fp16, [1280]>(BLOBFILE(path = tensor<string, []>("@model_path/weights/weight.bin"), offset = tensor<uint64, []>(93898240)))];
            tensor<fp16, [1, 1280, 1, 1500]> obj_19_cast_fp16 = conv(bias = layers_4_self_attn_o_proj_bias_to_fp16, dilations = var_723, groups = var_652, pad = obj_19_pad_0, pad_type = obj_19_pad_type_0, strides = var_721, weight = layers_4_self_attn_o_proj_weight_to_fp16_palettized, x = input_33_cast_fp16)[name = tensor<string, []>("obj_19_cast_fp16")];
            tensor<fp16, [1, 1280, 1, 1500]> inputs_19_cast_fp16 = add(x = inputs_17_cast_fp16, y = obj_19_cast_fp16)[name = tensor<string, []>("inputs_19_cast_fp16")];
            tensor<int32, [1]> var_729 = const()[name = tensor<string, []>("op_729"), val = tensor<int32, [1]>([1])];
            tensor<fp16, [1, 1, 1, 1500]> channels_mean_19_cast_fp16 = reduce_mean(axes = var_729, keep_dims = var_653, x = inputs_19_cast_fp16)[name = tensor<string, []>("channels_mean_19_cast_fp16")];
            tensor<fp16, [1, 1280, 1, 1500]> zero_mean_19_cast_fp16 = sub(x = inputs_19_cast_fp16, y = channels_mean_19_cast_fp16)[name = tensor<string, []>("zero_mean_19_cast_fp16")];
            tensor<fp16, [1, 1280, 1, 1500]> zero_mean_sq_19_cast_fp16 = mul(x = zero_mean_19_cast_fp16, y = zero_mean_19_cast_fp16)[name = tensor<string, []>("zero_mean_sq_19_cast_fp16")];
            tensor<int32, [1]> var_733 = const()[name = tensor<string, []>("op_733"), val = tensor<int32, [1]>([1])];
            tensor<fp16, [1, 1, 1, 1500]> var_734_cast_fp16 = reduce_mean(axes = var_733, keep_dims = var_653, x = zero_mean_sq_19_cast_fp16)[name = tensor<string, []>("op_734_cast_fp16")];
            tensor<fp16, []> var_735_to_fp16 = const()[name = tensor<string, []>("op_735_to_fp16"), val = tensor<fp16, []>(0x1.5p-17)];
            tensor<fp16, [1, 1, 1, 1500]> var_736_cast_fp16 = add(x = var_734_cast_fp16, y = var_735_to_fp16)[name = tensor<string, []>("op_736_cast_fp16")];
            tensor<fp32, []> denom_19_epsilon_0 = const()[name = tensor<string, []>("denom_19_epsilon_0"), val = tensor<fp32, []>(0x1.197998p-40)];
            tensor<fp16, [1, 1, 1, 1500]> denom_19_cast_fp16 = rsqrt(epsilon = denom_19_epsilon_0, x = var_736_cast_fp16)[name = tensor<string, []>("denom_19_cast_fp16")];
            tensor<fp16, [1, 1280, 1, 1500]> out_19_cast_fp16 = mul(x = zero_mean_19_cast_fp16, y = denom_19_cast_fp16)[name = tensor<string, []>("out_19_cast_fp16")];
            tensor<fp16, [1280]> input_35_gamma_0_to_fp16 = const()[name = tensor<string, []>("input_35_gamma_0_to_fp16"), val = tensor<fp16, [1280]>(BLOBFILE(path = tensor<string, []>("@model_path/weights/weight.bin"), offset = tensor<uint64, []>(93900864)))];
            tensor<fp16, [1280]> input_35_beta_0_to_fp16 = const()[name = tensor<string, []>("input_35_beta_0_to_fp16"), val = tensor<fp16, [1280]>(BLOBFILE(path = tensor<string, []>("@model_path/weights/weight.bin"), offset = tensor<uint64, []>(93903488)))];
            tensor<fp16, []> input_35_epsilon_0_to_fp16 = const()[name = tensor<string, []>("input_35_epsilon_0_to_fp16"), val = tensor<fp16, []>(0x1.5p-17)];
            tensor<fp16, [1, 1280, 1, 1500]> input_35_cast_fp16 = batch_norm(beta = input_35_beta_0_to_fp16, epsilon = input_35_epsilon_0_to_fp16, gamma = input_35_gamma_0_to_fp16, mean = obj_1_mean_0_to_fp16, variance = obj_1_variance_0_to_fp16, x = out_19_cast_fp16)[name = tensor<string, []>("input_35_cast_fp16")];
            tensor<int32, [2]> var_747 = const()[name = tensor<string, []>("op_747"), val = tensor<int32, [2]>([1, 1])];
            tensor<int32, [2]> var_749 = const()[name = tensor<string, []>("op_749"), val = tensor<int32, [2]>([1, 1])];
            tensor<string, []> input_37_pad_type_0 = const()[name = tensor<string, []>("input_37_pad_type_0"), val = tensor<string, []>("custom")];
            tensor<int32, [4]> input_37_pad_0 = const()[name = tensor<string, []>("input_37_pad_0"), val = tensor<int32, [4]>([0, 0, 0, 0])];
            tensor<fp16, [5120, 1280, 1, 1]> layers_4_fc1_weight_to_fp16_palettized = constexpr_lut_to_dense()[indices = tensor<uint8, [3276800]>(BLOBFILE(path = tensor<string, []>("@model_path/weights/weight.bin"), offset = tensor<uint64, []>(93906112))), lut = tensor<fp16, [16]>(BLOBFILE(path = tensor<string, []>("@model_path/weights/weight.bin"), offset = tensor<uint64, []>(97182976))), name = tensor<string, []>("layers_4_fc1_weight_to_fp16_palettized"), shape = tensor<uint32, [4]>([5120, 1280, 1, 1])];
            tensor<fp16, [5120]> layers_4_fc1_bias_to_fp16 = const()[name = tensor<string, []>("layers_4_fc1_bias_to_fp16"), val = tensor<fp16, [5120]>(BLOBFILE(path = tensor<string, []>("@model_path/weights/weight.bin"), offset = tensor<uint64, []>(97183104)))];
            tensor<fp16, [1, 5120, 1, 1500]> input_37_cast_fp16 = conv(bias = layers_4_fc1_bias_to_fp16, dilations = var_749, groups = var_652, pad = input_37_pad_0, pad_type = input_37_pad_type_0, strides = var_747, weight = layers_4_fc1_weight_to_fp16_palettized, x = input_35_cast_fp16)[name = tensor<string, []>("input_37_cast_fp16")];
            tensor<string, []> input_39_mode_0 = const()[name = tensor<string, []>("input_39_mode_0"), val = tensor<string, []>("EXACT")];
            tensor<fp16, [1, 5120, 1, 1500]> input_39_cast_fp16 = gelu(mode = input_39_mode_0, x = input_37_cast_fp16)[name = tensor<string, []>("input_39_cast_fp16")];
            tensor<int32, [2]> var_755 = const()[name = tensor<string, []>("op_755"), val = tensor<int32, [2]>([1, 1])];
            tensor<int32, [2]> var_757 = const()[name = tensor<string, []>("op_757"), val = tensor<int32, [2]>([1, 1])];
            tensor<string, []> hidden_states_13_pad_type_0 = const()[name = tensor<string, []>("hidden_states_13_pad_type_0"), val = tensor<string, []>("custom")];
            tensor<int32, [4]> hidden_states_13_pad_0 = const()[name = tensor<string, []>("hidden_states_13_pad_0"), val = tensor<int32, [4]>([0, 0, 0, 0])];
            tensor<fp16, [1280, 5120, 1, 1]> layers_4_fc2_weight_to_fp16 = const()[name = tensor<string, []>("layers_4_fc2_weight_to_fp16"), val = tensor<fp16, [1280, 5120, 1, 1]>(BLOBFILE(path = tensor<string, []>("@model_path/weights/weight.bin"), offset = tensor<uint64, []>(97193408)))];
            tensor<fp16, [1280]> layers_4_fc2_bias_to_fp16 = const()[name = tensor<string, []>("layers_4_fc2_bias_to_fp16"), val = tensor<fp16, [1280]>(BLOBFILE(path = tensor<string, []>("@model_path/weights/weight.bin"), offset = tensor<uint64, []>(110300672)))];
            tensor<fp16, [1, 1280, 1, 1500]> hidden_states_13_cast_fp16 = conv(bias = layers_4_fc2_bias_to_fp16, dilations = var_757, groups = var_652, pad = hidden_states_13_pad_0, pad_type = hidden_states_13_pad_type_0, strides = var_755, weight = layers_4_fc2_weight_to_fp16, x = input_39_cast_fp16)[name = tensor<string, []>("hidden_states_13_cast_fp16")];
            tensor<fp16, [1, 1280, 1, 1500]> inputs_21_cast_fp16 = add(x = inputs_19_cast_fp16, y = hidden_states_13_cast_fp16)[name = tensor<string, []>("inputs_21_cast_fp16")];
            tensor<int32, []> var_768 = const()[name = tensor<string, []>("op_768"), val = tensor<int32, []>(3)];
            tensor<int32, []> var_770 = const()[name = tensor<string, []>("op_770"), val = tensor<int32, []>(1)];
            tensor<bool, []> var_771 = const()[name = tensor<string, []>("op_771"), val = tensor<bool, []>(true)];
            tensor<int32, [1]> var_781 = const()[name = tensor<string, []>("op_781"), val = tensor<int32, [1]>([1])];
            tensor<fp16, [1, 1, 1, 1500]> channels_mean_21_cast_fp16 = reduce_mean(axes = var_781, keep_dims = var_771, x = inputs_21_cast_fp16)[name = tensor<string, []>("channels_mean_21_cast_fp16")];
            tensor<fp16, [1, 1280, 1, 1500]> zero_mean_21_cast_fp16 = sub(x = inputs_21_cast_fp16, y = channels_mean_21_cast_fp16)[name = tensor<string, []>("zero_mean_21_cast_fp16")];
            tensor<fp16, [1, 1280, 1, 1500]> zero_mean_sq_21_cast_fp16 = mul(x = zero_mean_21_cast_fp16, y = zero_mean_21_cast_fp16)[name = tensor<string, []>("zero_mean_sq_21_cast_fp16")];
            tensor<int32, [1]> var_785 = const()[name = tensor<string, []>("op_785"), val = tensor<int32, [1]>([1])];
            tensor<fp16, [1, 1, 1, 1500]> var_786_cast_fp16 = reduce_mean(axes = var_785, keep_dims = var_771, x = zero_mean_sq_21_cast_fp16)[name = tensor<string, []>("op_786_cast_fp16")];
            tensor<fp16, []> var_787_to_fp16 = const()[name = tensor<string, []>("op_787_to_fp16"), val = tensor<fp16, []>(0x1.5p-17)];
            tensor<fp16, [1, 1, 1, 1500]> var_788_cast_fp16 = add(x = var_786_cast_fp16, y = var_787_to_fp16)[name = tensor<string, []>("op_788_cast_fp16")];
            tensor<fp32, []> denom_21_epsilon_0 = const()[name = tensor<string, []>("denom_21_epsilon_0"), val = tensor<fp32, []>(0x1.197998p-40)];
            tensor<fp16, [1, 1, 1, 1500]> denom_21_cast_fp16 = rsqrt(epsilon = denom_21_epsilon_0, x = var_788_cast_fp16)[name = tensor<string, []>("denom_21_cast_fp16")];
            tensor<fp16, [1, 1280, 1, 1500]> out_21_cast_fp16 = mul(x = zero_mean_21_cast_fp16, y = denom_21_cast_fp16)[name = tensor<string, []>("out_21_cast_fp16")];
            tensor<fp16, [1280]> obj_21_gamma_0_to_fp16 = const()[name = tensor<string, []>("obj_21_gamma_0_to_fp16"), val = tensor<fp16, [1280]>(BLOBFILE(path = tensor<string, []>("@model_path/weights/weight.bin"), offset = tensor<uint64, []>(110303296)))];
            tensor<fp16, [1280]> obj_21_beta_0_to_fp16 = const()[name = tensor<string, []>("obj_21_beta_0_to_fp16"), val = tensor<fp16, [1280]>(BLOBFILE(path = tensor<string, []>("@model_path/weights/weight.bin"), offset = tensor<uint64, []>(110305920)))];
            tensor<fp16, []> obj_21_epsilon_0_to_fp16 = const()[name = tensor<string, []>("obj_21_epsilon_0_to_fp16"), val = tensor<fp16, []>(0x1.5p-17)];
            tensor<fp16, [1, 1280, 1, 1500]> obj_21_cast_fp16 = batch_norm(beta = obj_21_beta_0_to_fp16, epsilon = obj_21_epsilon_0_to_fp16, gamma = obj_21_gamma_0_to_fp16, mean = obj_1_mean_0_to_fp16, variance = obj_1_variance_0_to_fp16, x = out_21_cast_fp16)[name = tensor<string, []>("obj_21_cast_fp16")];
            tensor<int32, [2]> var_803 = const()[name = tensor<string, []>("op_803"), val = tensor<int32, [2]>([1, 1])];
            tensor<int32, [2]> var_805 = const()[name = tensor<string, []>("op_805"), val = tensor<int32, [2]>([1, 1])];
            tensor<string, []> query_11_pad_type_0 = const()[name = tensor<string, []>("query_11_pad_type_0"), val = tensor<string, []>("custom")];
            tensor<int32, [4]> query_11_pad_0 = const()[name = tensor<string, []>("query_11_pad_0"), val = tensor<int32, [4]>([0, 0, 0, 0])];
            tensor<fp16, [1280, 1280, 1, 1]> layers_5_self_attn_q_proj_weight_to_fp16_palettized = constexpr_lut_to_dense()[indices = tensor<uint8, [819200]>(BLOBFILE(path = tensor<string, []>("@model_path/weights/weight.bin"), offset = tensor<uint64, []>(110308544))), lut = tensor<fp16, [16]>(BLOBFILE(path = tensor<string, []>("@model_path/weights/weight.bin"), offset = tensor<uint64, []>(111127808))), name = tensor<string, []>("layers_5_self_attn_q_proj_weight_to_fp16_palettized"), shape = tensor<uint32, [4]>([1280, 1280, 1, 1])];
            tensor<fp16, [1280]> layers_5_self_attn_q_proj_bias_to_fp16 = const()[name = tensor<string, []>("layers_5_self_attn_q_proj_bias_to_fp16"), val = tensor<fp16, [1280]>(BLOBFILE(path = tensor<string, []>("@model_path/weights/weight.bin"), offset = tensor<uint64, []>(111127936)))];
            tensor<fp16, [1, 1280, 1, 1500]> query_11_cast_fp16 = conv(bias = layers_5_self_attn_q_proj_bias_to_fp16, dilations = var_805, groups = var_770, pad = query_11_pad_0, pad_type = query_11_pad_type_0, strides = var_803, weight = layers_5_self_attn_q_proj_weight_to_fp16_palettized, x = obj_21_cast_fp16)[name = tensor<string, []>("query_11_cast_fp16")];
            tensor<int32, [2]> var_809 = const()[name = tensor<string, []>("op_809"), val = tensor<int32, [2]>([1, 1])];
            tensor<int32, [2]> var_811 = const()[name = tensor<string, []>("op_811"), val = tensor<int32, [2]>([1, 1])];
            tensor<string, []> key_11_pad_type_0 = const()[name = tensor<string, []>("key_11_pad_type_0"), val = tensor<string, []>("custom")];
            tensor<int32, [4]> key_11_pad_0 = const()[name = tensor<string, []>("key_11_pad_0"), val = tensor<int32, [4]>([0, 0, 0, 0])];
            tensor<fp16, [1280, 1280, 1, 1]> layers_5_self_attn_k_proj_weight_to_fp16_palettized = constexpr_lut_to_dense()[indices = tensor<uint8, [819200]>(BLOBFILE(path = tensor<string, []>("@model_path/weights/weight.bin"), offset = tensor<uint64, []>(111130560))), lut = tensor<fp16, [16]>(BLOBFILE(path = tensor<string, []>("@model_path/weights/weight.bin"), offset = tensor<uint64, []>(111949824))), name = tensor<string, []>("layers_5_self_attn_k_proj_weight_to_fp16_palettized"), shape = tensor<uint32, [4]>([1280, 1280, 1, 1])];
            tensor<fp16, [1, 1280, 1, 1500]> key_11_cast_fp16 = conv(dilations = var_811, groups = var_770, pad = key_11_pad_0, pad_type = key_11_pad_type_0, strides = var_809, weight = layers_5_self_attn_k_proj_weight_to_fp16_palettized, x = obj_21_cast_fp16)[name = tensor<string, []>("key_11_cast_fp16")];
            tensor<int32, [2]> var_816 = const()[name = tensor<string, []>("op_816"), val = tensor<int32, [2]>([1, 1])];
            tensor<int32, [2]> var_818 = const()[name = tensor<string, []>("op_818"), val = tensor<int32, [2]>([1, 1])];
            tensor<string, []> value_11_pad_type_0 = const()[name = tensor<string, []>("value_11_pad_type_0"), val = tensor<string, []>("custom")];
            tensor<int32, [4]> value_11_pad_0 = const()[name = tensor<string, []>("value_11_pad_0"), val = tensor<int32, [4]>([0, 0, 0, 0])];
            tensor<fp16, [1280, 1280, 1, 1]> layers_5_self_attn_v_proj_weight_to_fp16_palettized = constexpr_lut_to_dense()[indices = tensor<uint8, [819200]>(BLOBFILE(path = tensor<string, []>("@model_path/weights/weight.bin"), offset = tensor<uint64, []>(111949952))), lut = tensor<fp16, [16]>(BLOBFILE(path = tensor<string, []>("@model_path/weights/weight.bin"), offset = tensor<uint64, []>(112769216))), name = tensor<string, []>("layers_5_self_attn_v_proj_weight_to_fp16_palettized"), shape = tensor<uint32, [4]>([1280, 1280, 1, 1])];
            tensor<fp16, [1280]> layers_5_self_attn_v_proj_bias_to_fp16 = const()[name = tensor<string, []>("layers_5_self_attn_v_proj_bias_to_fp16"), val = tensor<fp16, [1280]>(BLOBFILE(path = tensor<string, []>("@model_path/weights/weight.bin"), offset = tensor<uint64, []>(112769344)))];
            tensor<fp16, [1, 1280, 1, 1500]> value_11_cast_fp16 = conv(bias = layers_5_self_attn_v_proj_bias_to_fp16, dilations = var_818, groups = var_770, pad = value_11_pad_0, pad_type = value_11_pad_type_0, strides = var_816, weight = layers_5_self_attn_v_proj_weight_to_fp16_palettized, x = obj_21_cast_fp16)[name = tensor<string, []>("value_11_cast_fp16")];
            tensor<int32, [4]> var_822 = const()[name = tensor<string, []>("op_822"), val = tensor<int32, [4]>([1, 20, 64, -1])];
            tensor<fp16, [1, 20, 64, 1500]> var_823_cast_fp16 = reshape(shape = var_822, x = query_11_cast_fp16)[name = tensor<string, []>("op_823_cast_fp16")];
            tensor<fp16, []> var_824_to_fp16 = const()[name = tensor<string, []>("op_824_to_fp16"), val = tensor<fp16, []>(0x1p-3)];
            tensor<fp16, [1, 20, 64, 1500]> var_825_cast_fp16 = mul(x = var_823_cast_fp16, y = var_824_to_fp16)[name = tensor<string, []>("op_825_cast_fp16")];
            tensor<int32, [4]> var_826 = const()[name = tensor<string, []>("op_826"), val = tensor<int32, [4]>([1, 20, 64, -1])];
            tensor<fp16, [1, 20, 64, 1500]> var_827_cast_fp16 = reshape(shape = var_826, x = key_11_cast_fp16)[name = tensor<string, []>("op_827_cast_fp16")];
            tensor<bool, []> mh_w_11_transpose_x_0 = const()[name = tensor<string, []>("mh_w_11_transpose_x_0"), val = tensor<bool, []>(true)];
            tensor<bool, []> mh_w_11_transpose_y_0 = const()[name = tensor<string, []>("mh_w_11_transpose_y_0"), val = tensor<bool, []>(false)];
            tensor<fp16, [1, 20, 1500, 1500]> mh_w_11_cast_fp16 = matmul(transpose_x = mh_w_11_transpose_x_0, transpose_y = mh_w_11_transpose_y_0, x = var_825_cast_fp16, y = var_827_cast_fp16)[name = tensor<string, []>("mh_w_11_cast_fp16")];
            tensor<fp16, [1, 20, 1500, 1500]> var_830_cast_fp16 = softmax(axis = var_768, x = mh_w_11_cast_fp16)[name = tensor<string, []>("op_830_cast_fp16")];
            tensor<int32, [4]> var_831 = const()[name = tensor<string, []>("op_831"), val = tensor<int32, [4]>([1, 20, 64, -1])];
            tensor<fp16, [1, 20, 64, 1500]> var_832_cast_fp16 = reshape(shape = var_831, x = value_11_cast_fp16)[name = tensor<string, []>("op_832_cast_fp16")];
            tensor<bool, []> attn_11_transpose_x_0 = const()[name = tensor<string, []>("attn_11_transpose_x_0"), val = tensor<bool, []>(false)];
            tensor<bool, []> attn_11_transpose_y_0 = const()[name = tensor<string, []>("attn_11_transpose_y_0"), val = tensor<bool, []>(true)];
            tensor<fp16, [1, 20, 64, 1500]> attn_11_cast_fp16 = matmul(transpose_x = attn_11_transpose_x_0, transpose_y = attn_11_transpose_y_0, x = var_832_cast_fp16, y = var_830_cast_fp16)[name = tensor<string, []>("attn_11_cast_fp16")];
            tensor<int32, [4]> var_835 = const()[name = tensor<string, []>("op_835"), val = tensor<int32, [4]>([1, 1280, 1, -1])];
            tensor<fp16, [1, 1280, 1, 1500]> input_41_cast_fp16 = reshape(shape = var_835, x = attn_11_cast_fp16)[name = tensor<string, []>("input_41_cast_fp16")];
            tensor<int32, [2]> var_839 = const()[name = tensor<string, []>("op_839"), val = tensor<int32, [2]>([1, 1])];
            tensor<int32, [2]> var_841 = const()[name = tensor<string, []>("op_841"), val = tensor<int32, [2]>([1, 1])];
            tensor<string, []> obj_23_pad_type_0 = const()[name = tensor<string, []>("obj_23_pad_type_0"), val = tensor<string, []>("custom")];
            tensor<int32, [4]> obj_23_pad_0 = const()[name = tensor<string, []>("obj_23_pad_0"), val = tensor<int32, [4]>([0, 0, 0, 0])];
            tensor<fp16, [1280, 1280, 1, 1]> layers_5_self_attn_o_proj_weight_to_fp16_palettized = constexpr_lut_to_dense()[indices = tensor<uint8, [819200]>(BLOBFILE(path = tensor<string, []>("@model_path/weights/weight.bin"), offset = tensor<uint64, []>(112771968))), lut = tensor<fp16, [16]>(BLOBFILE(path = tensor<string, []>("@model_path/weights/weight.bin"), offset = tensor<uint64, []>(113591232))), name = tensor<string, []>("layers_5_self_attn_o_proj_weight_to_fp16_palettized"), shape = tensor<uint32, [4]>([1280, 1280, 1, 1])];
            tensor<fp16, [1280]> layers_5_self_attn_o_proj_bias_to_fp16 = const()[name = tensor<string, []>("layers_5_self_attn_o_proj_bias_to_fp16"), val = tensor<fp16, [1280]>(BLOBFILE(path = tensor<string, []>("@model_path/weights/weight.bin"), offset = tensor<uint64, []>(113591360)))];
            tensor<fp16, [1, 1280, 1, 1500]> obj_23_cast_fp16 = conv(bias = layers_5_self_attn_o_proj_bias_to_fp16, dilations = var_841, groups = var_770, pad = obj_23_pad_0, pad_type = obj_23_pad_type_0, strides = var_839, weight = layers_5_self_attn_o_proj_weight_to_fp16_palettized, x = input_41_cast_fp16)[name = tensor<string, []>("obj_23_cast_fp16")];
            tensor<fp16, [1, 1280, 1, 1500]> inputs_23_cast_fp16 = add(x = inputs_21_cast_fp16, y = obj_23_cast_fp16)[name = tensor<string, []>("inputs_23_cast_fp16")];
            tensor<int32, [1]> var_847 = const()[name = tensor<string, []>("op_847"), val = tensor<int32, [1]>([1])];
            tensor<fp16, [1, 1, 1, 1500]> channels_mean_23_cast_fp16 = reduce_mean(axes = var_847, keep_dims = var_771, x = inputs_23_cast_fp16)[name = tensor<string, []>("channels_mean_23_cast_fp16")];
            tensor<fp16, [1, 1280, 1, 1500]> zero_mean_23_cast_fp16 = sub(x = inputs_23_cast_fp16, y = channels_mean_23_cast_fp16)[name = tensor<string, []>("zero_mean_23_cast_fp16")];
            tensor<fp16, [1, 1280, 1, 1500]> zero_mean_sq_23_cast_fp16 = mul(x = zero_mean_23_cast_fp16, y = zero_mean_23_cast_fp16)[name = tensor<string, []>("zero_mean_sq_23_cast_fp16")];
            tensor<int32, [1]> var_851 = const()[name = tensor<string, []>("op_851"), val = tensor<int32, [1]>([1])];
            tensor<fp16, [1, 1, 1, 1500]> var_852_cast_fp16 = reduce_mean(axes = var_851, keep_dims = var_771, x = zero_mean_sq_23_cast_fp16)[name = tensor<string, []>("op_852_cast_fp16")];
            tensor<fp16, []> var_853_to_fp16 = const()[name = tensor<string, []>("op_853_to_fp16"), val = tensor<fp16, []>(0x1.5p-17)];
            tensor<fp16, [1, 1, 1, 1500]> var_854_cast_fp16 = add(x = var_852_cast_fp16, y = var_853_to_fp16)[name = tensor<string, []>("op_854_cast_fp16")];
            tensor<fp32, []> denom_23_epsilon_0 = const()[name = tensor<string, []>("denom_23_epsilon_0"), val = tensor<fp32, []>(0x1.197998p-40)];
            tensor<fp16, [1, 1, 1, 1500]> denom_23_cast_fp16 = rsqrt(epsilon = denom_23_epsilon_0, x = var_854_cast_fp16)[name = tensor<string, []>("denom_23_cast_fp16")];
            tensor<fp16, [1, 1280, 1, 1500]> out_23_cast_fp16 = mul(x = zero_mean_23_cast_fp16, y = denom_23_cast_fp16)[name = tensor<string, []>("out_23_cast_fp16")];
            tensor<fp16, [1280]> input_43_gamma_0_to_fp16 = const()[name = tensor<string, []>("input_43_gamma_0_to_fp16"), val = tensor<fp16, [1280]>(BLOBFILE(path = tensor<string, []>("@model_path/weights/weight.bin"), offset = tensor<uint64, []>(113593984)))];
            tensor<fp16, [1280]> input_43_beta_0_to_fp16 = const()[name = tensor<string, []>("input_43_beta_0_to_fp16"), val = tensor<fp16, [1280]>(BLOBFILE(path = tensor<string, []>("@model_path/weights/weight.bin"), offset = tensor<uint64, []>(113596608)))];
            tensor<fp16, []> input_43_epsilon_0_to_fp16 = const()[name = tensor<string, []>("input_43_epsilon_0_to_fp16"), val = tensor<fp16, []>(0x1.5p-17)];
            tensor<fp16, [1, 1280, 1, 1500]> input_43_cast_fp16 = batch_norm(beta = input_43_beta_0_to_fp16, epsilon = input_43_epsilon_0_to_fp16, gamma = input_43_gamma_0_to_fp16, mean = obj_1_mean_0_to_fp16, variance = obj_1_variance_0_to_fp16, x = out_23_cast_fp16)[name = tensor<string, []>("input_43_cast_fp16")];
            tensor<int32, [2]> var_865 = const()[name = tensor<string, []>("op_865"), val = tensor<int32, [2]>([1, 1])];
            tensor<int32, [2]> var_867 = const()[name = tensor<string, []>("op_867"), val = tensor<int32, [2]>([1, 1])];
            tensor<string, []> input_45_pad_type_0 = const()[name = tensor<string, []>("input_45_pad_type_0"), val = tensor<string, []>("custom")];
            tensor<int32, [4]> input_45_pad_0 = const()[name = tensor<string, []>("input_45_pad_0"), val = tensor<int32, [4]>([0, 0, 0, 0])];
            tensor<fp16, [5120, 1280, 1, 1]> layers_5_fc1_weight_to_fp16_palettized = constexpr_lut_to_dense()[indices = tensor<uint8, [3276800]>(BLOBFILE(path = tensor<string, []>("@model_path/weights/weight.bin"), offset = tensor<uint64, []>(113599232))), lut = tensor<fp16, [16]>(BLOBFILE(path = tensor<string, []>("@model_path/weights/weight.bin"), offset = tensor<uint64, []>(116876096))), name = tensor<string, []>("layers_5_fc1_weight_to_fp16_palettized"), shape = tensor<uint32, [4]>([5120, 1280, 1, 1])];
            tensor<fp16, [5120]> layers_5_fc1_bias_to_fp16 = const()[name = tensor<string, []>("layers_5_fc1_bias_to_fp16"), val = tensor<fp16, [5120]>(BLOBFILE(path = tensor<string, []>("@model_path/weights/weight.bin"), offset = tensor<uint64, []>(116876224)))];
            tensor<fp16, [1, 5120, 1, 1500]> input_45_cast_fp16 = conv(bias = layers_5_fc1_bias_to_fp16, dilations = var_867, groups = var_770, pad = input_45_pad_0, pad_type = input_45_pad_type_0, strides = var_865, weight = layers_5_fc1_weight_to_fp16_palettized, x = input_43_cast_fp16)[name = tensor<string, []>("input_45_cast_fp16")];
            tensor<string, []> input_47_mode_0 = const()[name = tensor<string, []>("input_47_mode_0"), val = tensor<string, []>("EXACT")];
            tensor<fp16, [1, 5120, 1, 1500]> input_47_cast_fp16 = gelu(mode = input_47_mode_0, x = input_45_cast_fp16)[name = tensor<string, []>("input_47_cast_fp16")];
            tensor<int32, [2]> var_873 = const()[name = tensor<string, []>("op_873"), val = tensor<int32, [2]>([1, 1])];
            tensor<int32, [2]> var_875 = const()[name = tensor<string, []>("op_875"), val = tensor<int32, [2]>([1, 1])];
            tensor<string, []> hidden_states_15_pad_type_0 = const()[name = tensor<string, []>("hidden_states_15_pad_type_0"), val = tensor<string, []>("custom")];
            tensor<int32, [4]> hidden_states_15_pad_0 = const()[name = tensor<string, []>("hidden_states_15_pad_0"), val = tensor<int32, [4]>([0, 0, 0, 0])];
            tensor<fp16, [1280, 5120, 1, 1]> layers_5_fc2_weight_to_fp16_palettized = constexpr_lut_to_dense()[indices = tensor<uint8, [3276800]>(BLOBFILE(path = tensor<string, []>("@model_path/weights/weight.bin"), offset = tensor<uint64, []>(116886528))), lut = tensor<fp16, [16]>(BLOBFILE(path = tensor<string, []>("@model_path/weights/weight.bin"), offset = tensor<uint64, []>(120163392))), name = tensor<string, []>("layers_5_fc2_weight_to_fp16_palettized"), shape = tensor<uint32, [4]>([1280, 5120, 1, 1])];
            tensor<fp16, [1280]> layers_5_fc2_bias_to_fp16 = const()[name = tensor<string, []>("layers_5_fc2_bias_to_fp16"), val = tensor<fp16, [1280]>(BLOBFILE(path = tensor<string, []>("@model_path/weights/weight.bin"), offset = tensor<uint64, []>(120163520)))];
            tensor<fp16, [1, 1280, 1, 1500]> hidden_states_15_cast_fp16 = conv(bias = layers_5_fc2_bias_to_fp16, dilations = var_875, groups = var_770, pad = hidden_states_15_pad_0, pad_type = hidden_states_15_pad_type_0, strides = var_873, weight = layers_5_fc2_weight_to_fp16_palettized, x = input_47_cast_fp16)[name = tensor<string, []>("hidden_states_15_cast_fp16")];
            tensor<fp16, [1, 1280, 1, 1500]> inputs_25_cast_fp16 = add(x = inputs_23_cast_fp16, y = hidden_states_15_cast_fp16)[name = tensor<string, []>("inputs_25_cast_fp16")];
            tensor<int32, []> var_886 = const()[name = tensor<string, []>("op_886"), val = tensor<int32, []>(3)];
            tensor<int32, []> var_888 = const()[name = tensor<string, []>("op_888"), val = tensor<int32, []>(1)];
            tensor<bool, []> var_889 = const()[name = tensor<string, []>("op_889"), val = tensor<bool, []>(true)];
            tensor<int32, [1]> var_899 = const()[name = tensor<string, []>("op_899"), val = tensor<int32, [1]>([1])];
            tensor<fp16, [1, 1, 1, 1500]> channels_mean_25_cast_fp16 = reduce_mean(axes = var_899, keep_dims = var_889, x = inputs_25_cast_fp16)[name = tensor<string, []>("channels_mean_25_cast_fp16")];
            tensor<fp16, [1, 1280, 1, 1500]> zero_mean_25_cast_fp16 = sub(x = inputs_25_cast_fp16, y = channels_mean_25_cast_fp16)[name = tensor<string, []>("zero_mean_25_cast_fp16")];
            tensor<fp16, [1, 1280, 1, 1500]> zero_mean_sq_25_cast_fp16 = mul(x = zero_mean_25_cast_fp16, y = zero_mean_25_cast_fp16)[name = tensor<string, []>("zero_mean_sq_25_cast_fp16")];
            tensor<int32, [1]> var_903 = const()[name = tensor<string, []>("op_903"), val = tensor<int32, [1]>([1])];
            tensor<fp16, [1, 1, 1, 1500]> var_904_cast_fp16 = reduce_mean(axes = var_903, keep_dims = var_889, x = zero_mean_sq_25_cast_fp16)[name = tensor<string, []>("op_904_cast_fp16")];
            tensor<fp16, []> var_905_to_fp16 = const()[name = tensor<string, []>("op_905_to_fp16"), val = tensor<fp16, []>(0x1.5p-17)];
            tensor<fp16, [1, 1, 1, 1500]> var_906_cast_fp16 = add(x = var_904_cast_fp16, y = var_905_to_fp16)[name = tensor<string, []>("op_906_cast_fp16")];
            tensor<fp32, []> denom_25_epsilon_0 = const()[name = tensor<string, []>("denom_25_epsilon_0"), val = tensor<fp32, []>(0x1.197998p-40)];
            tensor<fp16, [1, 1, 1, 1500]> denom_25_cast_fp16 = rsqrt(epsilon = denom_25_epsilon_0, x = var_906_cast_fp16)[name = tensor<string, []>("denom_25_cast_fp16")];
            tensor<fp16, [1, 1280, 1, 1500]> out_25_cast_fp16 = mul(x = zero_mean_25_cast_fp16, y = denom_25_cast_fp16)[name = tensor<string, []>("out_25_cast_fp16")];
            tensor<fp16, [1280]> obj_25_gamma_0_to_fp16 = const()[name = tensor<string, []>("obj_25_gamma_0_to_fp16"), val = tensor<fp16, [1280]>(BLOBFILE(path = tensor<string, []>("@model_path/weights/weight.bin"), offset = tensor<uint64, []>(120166144)))];
            tensor<fp16, [1280]> obj_25_beta_0_to_fp16 = const()[name = tensor<string, []>("obj_25_beta_0_to_fp16"), val = tensor<fp16, [1280]>(BLOBFILE(path = tensor<string, []>("@model_path/weights/weight.bin"), offset = tensor<uint64, []>(120168768)))];
            tensor<fp16, []> obj_25_epsilon_0_to_fp16 = const()[name = tensor<string, []>("obj_25_epsilon_0_to_fp16"), val = tensor<fp16, []>(0x1.5p-17)];
            tensor<fp16, [1, 1280, 1, 1500]> obj_25_cast_fp16 = batch_norm(beta = obj_25_beta_0_to_fp16, epsilon = obj_25_epsilon_0_to_fp16, gamma = obj_25_gamma_0_to_fp16, mean = obj_1_mean_0_to_fp16, variance = obj_1_variance_0_to_fp16, x = out_25_cast_fp16)[name = tensor<string, []>("obj_25_cast_fp16")];
            tensor<int32, [2]> var_921 = const()[name = tensor<string, []>("op_921"), val = tensor<int32, [2]>([1, 1])];
            tensor<int32, [2]> var_923 = const()[name = tensor<string, []>("op_923"), val = tensor<int32, [2]>([1, 1])];
            tensor<string, []> query_13_pad_type_0 = const()[name = tensor<string, []>("query_13_pad_type_0"), val = tensor<string, []>("custom")];
            tensor<int32, [4]> query_13_pad_0 = const()[name = tensor<string, []>("query_13_pad_0"), val = tensor<int32, [4]>([0, 0, 0, 0])];
            tensor<fp16, [1280, 1280, 1, 1]> layers_6_self_attn_q_proj_weight_to_fp16_palettized = constexpr_lut_to_dense()[indices = tensor<uint8, [819200]>(BLOBFILE(path = tensor<string, []>("@model_path/weights/weight.bin"), offset = tensor<uint64, []>(120171392))), lut = tensor<fp16, [16]>(BLOBFILE(path = tensor<string, []>("@model_path/weights/weight.bin"), offset = tensor<uint64, []>(120990656))), name = tensor<string, []>("layers_6_self_attn_q_proj_weight_to_fp16_palettized"), shape = tensor<uint32, [4]>([1280, 1280, 1, 1])];
            tensor<fp16, [1280]> layers_6_self_attn_q_proj_bias_to_fp16 = const()[name = tensor<string, []>("layers_6_self_attn_q_proj_bias_to_fp16"), val = tensor<fp16, [1280]>(BLOBFILE(path = tensor<string, []>("@model_path/weights/weight.bin"), offset = tensor<uint64, []>(120990784)))];
            tensor<fp16, [1, 1280, 1, 1500]> query_13_cast_fp16 = conv(bias = layers_6_self_attn_q_proj_bias_to_fp16, dilations = var_923, groups = var_888, pad = query_13_pad_0, pad_type = query_13_pad_type_0, strides = var_921, weight = layers_6_self_attn_q_proj_weight_to_fp16_palettized, x = obj_25_cast_fp16)[name = tensor<string, []>("query_13_cast_fp16")];
            tensor<int32, [2]> var_927 = const()[name = tensor<string, []>("op_927"), val = tensor<int32, [2]>([1, 1])];
            tensor<int32, [2]> var_929 = const()[name = tensor<string, []>("op_929"), val = tensor<int32, [2]>([1, 1])];
            tensor<string, []> key_13_pad_type_0 = const()[name = tensor<string, []>("key_13_pad_type_0"), val = tensor<string, []>("custom")];
            tensor<int32, [4]> key_13_pad_0 = const()[name = tensor<string, []>("key_13_pad_0"), val = tensor<int32, [4]>([0, 0, 0, 0])];
            tensor<fp16, [1280, 1280, 1, 1]> layers_6_self_attn_k_proj_weight_to_fp16_palettized = constexpr_lut_to_dense()[indices = tensor<uint8, [819200]>(BLOBFILE(path = tensor<string, []>("@model_path/weights/weight.bin"), offset = tensor<uint64, []>(120993408))), lut = tensor<fp16, [16]>(BLOBFILE(path = tensor<string, []>("@model_path/weights/weight.bin"), offset = tensor<uint64, []>(121812672))), name = tensor<string, []>("layers_6_self_attn_k_proj_weight_to_fp16_palettized"), shape = tensor<uint32, [4]>([1280, 1280, 1, 1])];
            tensor<fp16, [1, 1280, 1, 1500]> key_13_cast_fp16 = conv(dilations = var_929, groups = var_888, pad = key_13_pad_0, pad_type = key_13_pad_type_0, strides = var_927, weight = layers_6_self_attn_k_proj_weight_to_fp16_palettized, x = obj_25_cast_fp16)[name = tensor<string, []>("key_13_cast_fp16")];
            tensor<int32, [2]> var_934 = const()[name = tensor<string, []>("op_934"), val = tensor<int32, [2]>([1, 1])];
            tensor<int32, [2]> var_936 = const()[name = tensor<string, []>("op_936"), val = tensor<int32, [2]>([1, 1])];
            tensor<string, []> value_13_pad_type_0 = const()[name = tensor<string, []>("value_13_pad_type_0"), val = tensor<string, []>("custom")];
            tensor<int32, [4]> value_13_pad_0 = const()[name = tensor<string, []>("value_13_pad_0"), val = tensor<int32, [4]>([0, 0, 0, 0])];
            tensor<fp16, [1280, 1280, 1, 1]> layers_6_self_attn_v_proj_weight_to_fp16_palettized = constexpr_lut_to_dense()[indices = tensor<uint8, [819200]>(BLOBFILE(path = tensor<string, []>("@model_path/weights/weight.bin"), offset = tensor<uint64, []>(121812800))), lut = tensor<fp16, [16]>(BLOBFILE(path = tensor<string, []>("@model_path/weights/weight.bin"), offset = tensor<uint64, []>(122632064))), name = tensor<string, []>("layers_6_self_attn_v_proj_weight_to_fp16_palettized"), shape = tensor<uint32, [4]>([1280, 1280, 1, 1])];
            tensor<fp16, [1280]> layers_6_self_attn_v_proj_bias_to_fp16 = const()[name = tensor<string, []>("layers_6_self_attn_v_proj_bias_to_fp16"), val = tensor<fp16, [1280]>(BLOBFILE(path = tensor<string, []>("@model_path/weights/weight.bin"), offset = tensor<uint64, []>(122632192)))];
            tensor<fp16, [1, 1280, 1, 1500]> value_13_cast_fp16 = conv(bias = layers_6_self_attn_v_proj_bias_to_fp16, dilations = var_936, groups = var_888, pad = value_13_pad_0, pad_type = value_13_pad_type_0, strides = var_934, weight = layers_6_self_attn_v_proj_weight_to_fp16_palettized, x = obj_25_cast_fp16)[name = tensor<string, []>("value_13_cast_fp16")];
            tensor<int32, [4]> var_940 = const()[name = tensor<string, []>("op_940"), val = tensor<int32, [4]>([1, 20, 64, -1])];
            tensor<fp16, [1, 20, 64, 1500]> var_941_cast_fp16 = reshape(shape = var_940, x = query_13_cast_fp16)[name = tensor<string, []>("op_941_cast_fp16")];
            tensor<fp16, []> var_942_to_fp16 = const()[name = tensor<string, []>("op_942_to_fp16"), val = tensor<fp16, []>(0x1p-3)];
            tensor<fp16, [1, 20, 64, 1500]> var_943_cast_fp16 = mul(x = var_941_cast_fp16, y = var_942_to_fp16)[name = tensor<string, []>("op_943_cast_fp16")];
            tensor<int32, [4]> var_944 = const()[name = tensor<string, []>("op_944"), val = tensor<int32, [4]>([1, 20, 64, -1])];
            tensor<fp16, [1, 20, 64, 1500]> var_945_cast_fp16 = reshape(shape = var_944, x = key_13_cast_fp16)[name = tensor<string, []>("op_945_cast_fp16")];
            tensor<bool, []> mh_w_13_transpose_x_0 = const()[name = tensor<string, []>("mh_w_13_transpose_x_0"), val = tensor<bool, []>(true)];
            tensor<bool, []> mh_w_13_transpose_y_0 = const()[name = tensor<string, []>("mh_w_13_transpose_y_0"), val = tensor<bool, []>(false)];
            tensor<fp16, [1, 20, 1500, 1500]> mh_w_13_cast_fp16 = matmul(transpose_x = mh_w_13_transpose_x_0, transpose_y = mh_w_13_transpose_y_0, x = var_943_cast_fp16, y = var_945_cast_fp16)[name = tensor<string, []>("mh_w_13_cast_fp16")];
            tensor<fp16, [1, 20, 1500, 1500]> var_948_cast_fp16 = softmax(axis = var_886, x = mh_w_13_cast_fp16)[name = tensor<string, []>("op_948_cast_fp16")];
            tensor<int32, [4]> var_949 = const()[name = tensor<string, []>("op_949"), val = tensor<int32, [4]>([1, 20, 64, -1])];
            tensor<fp16, [1, 20, 64, 1500]> var_950_cast_fp16 = reshape(shape = var_949, x = value_13_cast_fp16)[name = tensor<string, []>("op_950_cast_fp16")];
            tensor<bool, []> attn_13_transpose_x_0 = const()[name = tensor<string, []>("attn_13_transpose_x_0"), val = tensor<bool, []>(false)];
            tensor<bool, []> attn_13_transpose_y_0 = const()[name = tensor<string, []>("attn_13_transpose_y_0"), val = tensor<bool, []>(true)];
            tensor<fp16, [1, 20, 64, 1500]> attn_13_cast_fp16 = matmul(transpose_x = attn_13_transpose_x_0, transpose_y = attn_13_transpose_y_0, x = var_950_cast_fp16, y = var_948_cast_fp16)[name = tensor<string, []>("attn_13_cast_fp16")];
            tensor<int32, [4]> var_953 = const()[name = tensor<string, []>("op_953"), val = tensor<int32, [4]>([1, 1280, 1, -1])];
            tensor<fp16, [1, 1280, 1, 1500]> input_49_cast_fp16 = reshape(shape = var_953, x = attn_13_cast_fp16)[name = tensor<string, []>("input_49_cast_fp16")];
            tensor<int32, [2]> var_957 = const()[name = tensor<string, []>("op_957"), val = tensor<int32, [2]>([1, 1])];
            tensor<int32, [2]> var_959 = const()[name = tensor<string, []>("op_959"), val = tensor<int32, [2]>([1, 1])];
            tensor<string, []> obj_27_pad_type_0 = const()[name = tensor<string, []>("obj_27_pad_type_0"), val = tensor<string, []>("custom")];
            tensor<int32, [4]> obj_27_pad_0 = const()[name = tensor<string, []>("obj_27_pad_0"), val = tensor<int32, [4]>([0, 0, 0, 0])];
            tensor<fp16, [1280, 1280, 1, 1]> layers_6_self_attn_o_proj_weight_to_fp16_palettized = constexpr_lut_to_dense()[indices = tensor<uint8, [819200]>(BLOBFILE(path = tensor<string, []>("@model_path/weights/weight.bin"), offset = tensor<uint64, []>(122634816))), lut = tensor<fp16, [16]>(BLOBFILE(path = tensor<string, []>("@model_path/weights/weight.bin"), offset = tensor<uint64, []>(123454080))), name = tensor<string, []>("layers_6_self_attn_o_proj_weight_to_fp16_palettized"), shape = tensor<uint32, [4]>([1280, 1280, 1, 1])];
            tensor<fp16, [1280]> layers_6_self_attn_o_proj_bias_to_fp16 = const()[name = tensor<string, []>("layers_6_self_attn_o_proj_bias_to_fp16"), val = tensor<fp16, [1280]>(BLOBFILE(path = tensor<string, []>("@model_path/weights/weight.bin"), offset = tensor<uint64, []>(123454208)))];
            tensor<fp16, [1, 1280, 1, 1500]> obj_27_cast_fp16 = conv(bias = layers_6_self_attn_o_proj_bias_to_fp16, dilations = var_959, groups = var_888, pad = obj_27_pad_0, pad_type = obj_27_pad_type_0, strides = var_957, weight = layers_6_self_attn_o_proj_weight_to_fp16_palettized, x = input_49_cast_fp16)[name = tensor<string, []>("obj_27_cast_fp16")];
            tensor<fp16, [1, 1280, 1, 1500]> inputs_27_cast_fp16 = add(x = inputs_25_cast_fp16, y = obj_27_cast_fp16)[name = tensor<string, []>("inputs_27_cast_fp16")];
            tensor<int32, [1]> var_965 = const()[name = tensor<string, []>("op_965"), val = tensor<int32, [1]>([1])];
            tensor<fp16, [1, 1, 1, 1500]> channels_mean_27_cast_fp16 = reduce_mean(axes = var_965, keep_dims = var_889, x = inputs_27_cast_fp16)[name = tensor<string, []>("channels_mean_27_cast_fp16")];
            tensor<fp16, [1, 1280, 1, 1500]> zero_mean_27_cast_fp16 = sub(x = inputs_27_cast_fp16, y = channels_mean_27_cast_fp16)[name = tensor<string, []>("zero_mean_27_cast_fp16")];
            tensor<fp16, [1, 1280, 1, 1500]> zero_mean_sq_27_cast_fp16 = mul(x = zero_mean_27_cast_fp16, y = zero_mean_27_cast_fp16)[name = tensor<string, []>("zero_mean_sq_27_cast_fp16")];
            tensor<int32, [1]> var_969 = const()[name = tensor<string, []>("op_969"), val = tensor<int32, [1]>([1])];
            tensor<fp16, [1, 1, 1, 1500]> var_970_cast_fp16 = reduce_mean(axes = var_969, keep_dims = var_889, x = zero_mean_sq_27_cast_fp16)[name = tensor<string, []>("op_970_cast_fp16")];
            tensor<fp16, []> var_971_to_fp16 = const()[name = tensor<string, []>("op_971_to_fp16"), val = tensor<fp16, []>(0x1.5p-17)];
            tensor<fp16, [1, 1, 1, 1500]> var_972_cast_fp16 = add(x = var_970_cast_fp16, y = var_971_to_fp16)[name = tensor<string, []>("op_972_cast_fp16")];
            tensor<fp32, []> denom_27_epsilon_0 = const()[name = tensor<string, []>("denom_27_epsilon_0"), val = tensor<fp32, []>(0x1.197998p-40)];
            tensor<fp16, [1, 1, 1, 1500]> denom_27_cast_fp16 = rsqrt(epsilon = denom_27_epsilon_0, x = var_972_cast_fp16)[name = tensor<string, []>("denom_27_cast_fp16")];
            tensor<fp16, [1, 1280, 1, 1500]> out_27_cast_fp16 = mul(x = zero_mean_27_cast_fp16, y = denom_27_cast_fp16)[name = tensor<string, []>("out_27_cast_fp16")];
            tensor<fp16, [1280]> input_51_gamma_0_to_fp16 = const()[name = tensor<string, []>("input_51_gamma_0_to_fp16"), val = tensor<fp16, [1280]>(BLOBFILE(path = tensor<string, []>("@model_path/weights/weight.bin"), offset = tensor<uint64, []>(123456832)))];
            tensor<fp16, [1280]> input_51_beta_0_to_fp16 = const()[name = tensor<string, []>("input_51_beta_0_to_fp16"), val = tensor<fp16, [1280]>(BLOBFILE(path = tensor<string, []>("@model_path/weights/weight.bin"), offset = tensor<uint64, []>(123459456)))];
            tensor<fp16, []> input_51_epsilon_0_to_fp16 = const()[name = tensor<string, []>("input_51_epsilon_0_to_fp16"), val = tensor<fp16, []>(0x1.5p-17)];
            tensor<fp16, [1, 1280, 1, 1500]> input_51_cast_fp16 = batch_norm(beta = input_51_beta_0_to_fp16, epsilon = input_51_epsilon_0_to_fp16, gamma = input_51_gamma_0_to_fp16, mean = obj_1_mean_0_to_fp16, variance = obj_1_variance_0_to_fp16, x = out_27_cast_fp16)[name = tensor<string, []>("input_51_cast_fp16")];
            tensor<int32, [2]> var_983 = const()[name = tensor<string, []>("op_983"), val = tensor<int32, [2]>([1, 1])];
            tensor<int32, [2]> var_985 = const()[name = tensor<string, []>("op_985"), val = tensor<int32, [2]>([1, 1])];
            tensor<string, []> input_53_pad_type_0 = const()[name = tensor<string, []>("input_53_pad_type_0"), val = tensor<string, []>("custom")];
            tensor<int32, [4]> input_53_pad_0 = const()[name = tensor<string, []>("input_53_pad_0"), val = tensor<int32, [4]>([0, 0, 0, 0])];
            tensor<fp16, [5120, 1280, 1, 1]> layers_6_fc1_weight_to_fp16_palettized = constexpr_lut_to_dense()[indices = tensor<uint8, [3276800]>(BLOBFILE(path = tensor<string, []>("@model_path/weights/weight.bin"), offset = tensor<uint64, []>(123462080))), lut = tensor<fp16, [16]>(BLOBFILE(path = tensor<string, []>("@model_path/weights/weight.bin"), offset = tensor<uint64, []>(126738944))), name = tensor<string, []>("layers_6_fc1_weight_to_fp16_palettized"), shape = tensor<uint32, [4]>([5120, 1280, 1, 1])];
            tensor<fp16, [5120]> layers_6_fc1_bias_to_fp16 = const()[name = tensor<string, []>("layers_6_fc1_bias_to_fp16"), val = tensor<fp16, [5120]>(BLOBFILE(path = tensor<string, []>("@model_path/weights/weight.bin"), offset = tensor<uint64, []>(126739072)))];
            tensor<fp16, [1, 5120, 1, 1500]> input_53_cast_fp16 = conv(bias = layers_6_fc1_bias_to_fp16, dilations = var_985, groups = var_888, pad = input_53_pad_0, pad_type = input_53_pad_type_0, strides = var_983, weight = layers_6_fc1_weight_to_fp16_palettized, x = input_51_cast_fp16)[name = tensor<string, []>("input_53_cast_fp16")];
            tensor<string, []> input_55_mode_0 = const()[name = tensor<string, []>("input_55_mode_0"), val = tensor<string, []>("EXACT")];
            tensor<fp16, [1, 5120, 1, 1500]> input_55_cast_fp16 = gelu(mode = input_55_mode_0, x = input_53_cast_fp16)[name = tensor<string, []>("input_55_cast_fp16")];
            tensor<int32, [2]> var_991 = const()[name = tensor<string, []>("op_991"), val = tensor<int32, [2]>([1, 1])];
            tensor<int32, [2]> var_993 = const()[name = tensor<string, []>("op_993"), val = tensor<int32, [2]>([1, 1])];
            tensor<string, []> hidden_states_17_pad_type_0 = const()[name = tensor<string, []>("hidden_states_17_pad_type_0"), val = tensor<string, []>("custom")];
            tensor<int32, [4]> hidden_states_17_pad_0 = const()[name = tensor<string, []>("hidden_states_17_pad_0"), val = tensor<int32, [4]>([0, 0, 0, 0])];
            tensor<fp16, [1280, 5120, 1, 1]> layers_6_fc2_weight_to_fp16_palettized = constexpr_lut_to_dense()[indices = tensor<uint8, [3276800]>(BLOBFILE(path = tensor<string, []>("@model_path/weights/weight.bin"), offset = tensor<uint64, []>(126749376))), lut = tensor<fp16, [16]>(BLOBFILE(path = tensor<string, []>("@model_path/weights/weight.bin"), offset = tensor<uint64, []>(130026240))), name = tensor<string, []>("layers_6_fc2_weight_to_fp16_palettized"), shape = tensor<uint32, [4]>([1280, 5120, 1, 1])];
            tensor<fp16, [1280]> layers_6_fc2_bias_to_fp16 = const()[name = tensor<string, []>("layers_6_fc2_bias_to_fp16"), val = tensor<fp16, [1280]>(BLOBFILE(path = tensor<string, []>("@model_path/weights/weight.bin"), offset = tensor<uint64, []>(130026368)))];
            tensor<fp16, [1, 1280, 1, 1500]> hidden_states_17_cast_fp16 = conv(bias = layers_6_fc2_bias_to_fp16, dilations = var_993, groups = var_888, pad = hidden_states_17_pad_0, pad_type = hidden_states_17_pad_type_0, strides = var_991, weight = layers_6_fc2_weight_to_fp16_palettized, x = input_55_cast_fp16)[name = tensor<string, []>("hidden_states_17_cast_fp16")];
            tensor<fp16, [1, 1280, 1, 1500]> inputs_29_cast_fp16 = add(x = inputs_27_cast_fp16, y = hidden_states_17_cast_fp16)[name = tensor<string, []>("inputs_29_cast_fp16")];
            tensor<int32, []> var_1004 = const()[name = tensor<string, []>("op_1004"), val = tensor<int32, []>(3)];
            tensor<int32, []> var_1006 = const()[name = tensor<string, []>("op_1006"), val = tensor<int32, []>(1)];
            tensor<bool, []> var_1007 = const()[name = tensor<string, []>("op_1007"), val = tensor<bool, []>(true)];
            tensor<int32, [1]> var_1017 = const()[name = tensor<string, []>("op_1017"), val = tensor<int32, [1]>([1])];
            tensor<fp16, [1, 1, 1, 1500]> channels_mean_29_cast_fp16 = reduce_mean(axes = var_1017, keep_dims = var_1007, x = inputs_29_cast_fp16)[name = tensor<string, []>("channels_mean_29_cast_fp16")];
            tensor<fp16, [1, 1280, 1, 1500]> zero_mean_29_cast_fp16 = sub(x = inputs_29_cast_fp16, y = channels_mean_29_cast_fp16)[name = tensor<string, []>("zero_mean_29_cast_fp16")];
            tensor<fp16, [1, 1280, 1, 1500]> zero_mean_sq_29_cast_fp16 = mul(x = zero_mean_29_cast_fp16, y = zero_mean_29_cast_fp16)[name = tensor<string, []>("zero_mean_sq_29_cast_fp16")];
            tensor<int32, [1]> var_1021 = const()[name = tensor<string, []>("op_1021"), val = tensor<int32, [1]>([1])];
            tensor<fp16, [1, 1, 1, 1500]> var_1022_cast_fp16 = reduce_mean(axes = var_1021, keep_dims = var_1007, x = zero_mean_sq_29_cast_fp16)[name = tensor<string, []>("op_1022_cast_fp16")];
            tensor<fp16, []> var_1023_to_fp16 = const()[name = tensor<string, []>("op_1023_to_fp16"), val = tensor<fp16, []>(0x1.5p-17)];
            tensor<fp16, [1, 1, 1, 1500]> var_1024_cast_fp16 = add(x = var_1022_cast_fp16, y = var_1023_to_fp16)[name = tensor<string, []>("op_1024_cast_fp16")];
            tensor<fp32, []> denom_29_epsilon_0 = const()[name = tensor<string, []>("denom_29_epsilon_0"), val = tensor<fp32, []>(0x1.197998p-40)];
            tensor<fp16, [1, 1, 1, 1500]> denom_29_cast_fp16 = rsqrt(epsilon = denom_29_epsilon_0, x = var_1024_cast_fp16)[name = tensor<string, []>("denom_29_cast_fp16")];
            tensor<fp16, [1, 1280, 1, 1500]> out_29_cast_fp16 = mul(x = zero_mean_29_cast_fp16, y = denom_29_cast_fp16)[name = tensor<string, []>("out_29_cast_fp16")];
            tensor<fp16, [1280]> obj_29_gamma_0_to_fp16 = const()[name = tensor<string, []>("obj_29_gamma_0_to_fp16"), val = tensor<fp16, [1280]>(BLOBFILE(path = tensor<string, []>("@model_path/weights/weight.bin"), offset = tensor<uint64, []>(130028992)))];
            tensor<fp16, [1280]> obj_29_beta_0_to_fp16 = const()[name = tensor<string, []>("obj_29_beta_0_to_fp16"), val = tensor<fp16, [1280]>(BLOBFILE(path = tensor<string, []>("@model_path/weights/weight.bin"), offset = tensor<uint64, []>(130031616)))];
            tensor<fp16, []> obj_29_epsilon_0_to_fp16 = const()[name = tensor<string, []>("obj_29_epsilon_0_to_fp16"), val = tensor<fp16, []>(0x1.5p-17)];
            tensor<fp16, [1, 1280, 1, 1500]> obj_29_cast_fp16 = batch_norm(beta = obj_29_beta_0_to_fp16, epsilon = obj_29_epsilon_0_to_fp16, gamma = obj_29_gamma_0_to_fp16, mean = obj_1_mean_0_to_fp16, variance = obj_1_variance_0_to_fp16, x = out_29_cast_fp16)[name = tensor<string, []>("obj_29_cast_fp16")];
            tensor<int32, [2]> var_1039 = const()[name = tensor<string, []>("op_1039"), val = tensor<int32, [2]>([1, 1])];
            tensor<int32, [2]> var_1041 = const()[name = tensor<string, []>("op_1041"), val = tensor<int32, [2]>([1, 1])];
            tensor<string, []> query_15_pad_type_0 = const()[name = tensor<string, []>("query_15_pad_type_0"), val = tensor<string, []>("custom")];
            tensor<int32, [4]> query_15_pad_0 = const()[name = tensor<string, []>("query_15_pad_0"), val = tensor<int32, [4]>([0, 0, 0, 0])];
            tensor<fp16, [1280, 1280, 1, 1]> layers_7_self_attn_q_proj_weight_to_fp16_palettized = constexpr_lut_to_dense()[indices = tensor<uint8, [819200]>(BLOBFILE(path = tensor<string, []>("@model_path/weights/weight.bin"), offset = tensor<uint64, []>(130034240))), lut = tensor<fp16, [16]>(BLOBFILE(path = tensor<string, []>("@model_path/weights/weight.bin"), offset = tensor<uint64, []>(130853504))), name = tensor<string, []>("layers_7_self_attn_q_proj_weight_to_fp16_palettized"), shape = tensor<uint32, [4]>([1280, 1280, 1, 1])];
            tensor<fp16, [1280]> layers_7_self_attn_q_proj_bias_to_fp16 = const()[name = tensor<string, []>("layers_7_self_attn_q_proj_bias_to_fp16"), val = tensor<fp16, [1280]>(BLOBFILE(path = tensor<string, []>("@model_path/weights/weight.bin"), offset = tensor<uint64, []>(130853632)))];
            tensor<fp16, [1, 1280, 1, 1500]> query_15_cast_fp16 = conv(bias = layers_7_self_attn_q_proj_bias_to_fp16, dilations = var_1041, groups = var_1006, pad = query_15_pad_0, pad_type = query_15_pad_type_0, strides = var_1039, weight = layers_7_self_attn_q_proj_weight_to_fp16_palettized, x = obj_29_cast_fp16)[name = tensor<string, []>("query_15_cast_fp16")];
            tensor<int32, [2]> var_1045 = const()[name = tensor<string, []>("op_1045"), val = tensor<int32, [2]>([1, 1])];
            tensor<int32, [2]> var_1047 = const()[name = tensor<string, []>("op_1047"), val = tensor<int32, [2]>([1, 1])];
            tensor<string, []> key_15_pad_type_0 = const()[name = tensor<string, []>("key_15_pad_type_0"), val = tensor<string, []>("custom")];
            tensor<int32, [4]> key_15_pad_0 = const()[name = tensor<string, []>("key_15_pad_0"), val = tensor<int32, [4]>([0, 0, 0, 0])];
            tensor<fp16, [1280, 1280, 1, 1]> layers_7_self_attn_k_proj_weight_to_fp16_palettized = constexpr_lut_to_dense()[indices = tensor<uint8, [819200]>(BLOBFILE(path = tensor<string, []>("@model_path/weights/weight.bin"), offset = tensor<uint64, []>(130856256))), lut = tensor<fp16, [16]>(BLOBFILE(path = tensor<string, []>("@model_path/weights/weight.bin"), offset = tensor<uint64, []>(131675520))), name = tensor<string, []>("layers_7_self_attn_k_proj_weight_to_fp16_palettized"), shape = tensor<uint32, [4]>([1280, 1280, 1, 1])];
            tensor<fp16, [1, 1280, 1, 1500]> key_15_cast_fp16 = conv(dilations = var_1047, groups = var_1006, pad = key_15_pad_0, pad_type = key_15_pad_type_0, strides = var_1045, weight = layers_7_self_attn_k_proj_weight_to_fp16_palettized, x = obj_29_cast_fp16)[name = tensor<string, []>("key_15_cast_fp16")];
            tensor<int32, [2]> var_1052 = const()[name = tensor<string, []>("op_1052"), val = tensor<int32, [2]>([1, 1])];
            tensor<int32, [2]> var_1054 = const()[name = tensor<string, []>("op_1054"), val = tensor<int32, [2]>([1, 1])];
            tensor<string, []> value_15_pad_type_0 = const()[name = tensor<string, []>("value_15_pad_type_0"), val = tensor<string, []>("custom")];
            tensor<int32, [4]> value_15_pad_0 = const()[name = tensor<string, []>("value_15_pad_0"), val = tensor<int32, [4]>([0, 0, 0, 0])];
            tensor<fp16, [1280, 1280, 1, 1]> layers_7_self_attn_v_proj_weight_to_fp16_palettized = constexpr_lut_to_dense()[indices = tensor<uint8, [819200]>(BLOBFILE(path = tensor<string, []>("@model_path/weights/weight.bin"), offset = tensor<uint64, []>(131675648))), lut = tensor<fp16, [16]>(BLOBFILE(path = tensor<string, []>("@model_path/weights/weight.bin"), offset = tensor<uint64, []>(132494912))), name = tensor<string, []>("layers_7_self_attn_v_proj_weight_to_fp16_palettized"), shape = tensor<uint32, [4]>([1280, 1280, 1, 1])];
            tensor<fp16, [1280]> layers_7_self_attn_v_proj_bias_to_fp16 = const()[name = tensor<string, []>("layers_7_self_attn_v_proj_bias_to_fp16"), val = tensor<fp16, [1280]>(BLOBFILE(path = tensor<string, []>("@model_path/weights/weight.bin"), offset = tensor<uint64, []>(132495040)))];
            tensor<fp16, [1, 1280, 1, 1500]> value_15_cast_fp16 = conv(bias = layers_7_self_attn_v_proj_bias_to_fp16, dilations = var_1054, groups = var_1006, pad = value_15_pad_0, pad_type = value_15_pad_type_0, strides = var_1052, weight = layers_7_self_attn_v_proj_weight_to_fp16_palettized, x = obj_29_cast_fp16)[name = tensor<string, []>("value_15_cast_fp16")];
            tensor<int32, [4]> var_1058 = const()[name = tensor<string, []>("op_1058"), val = tensor<int32, [4]>([1, 20, 64, -1])];
            tensor<fp16, [1, 20, 64, 1500]> var_1059_cast_fp16 = reshape(shape = var_1058, x = query_15_cast_fp16)[name = tensor<string, []>("op_1059_cast_fp16")];
            tensor<fp16, []> var_1060_to_fp16 = const()[name = tensor<string, []>("op_1060_to_fp16"), val = tensor<fp16, []>(0x1p-3)];
            tensor<fp16, [1, 20, 64, 1500]> var_1061_cast_fp16 = mul(x = var_1059_cast_fp16, y = var_1060_to_fp16)[name = tensor<string, []>("op_1061_cast_fp16")];
            tensor<int32, [4]> var_1062 = const()[name = tensor<string, []>("op_1062"), val = tensor<int32, [4]>([1, 20, 64, -1])];
            tensor<fp16, [1, 20, 64, 1500]> var_1063_cast_fp16 = reshape(shape = var_1062, x = key_15_cast_fp16)[name = tensor<string, []>("op_1063_cast_fp16")];
            tensor<bool, []> mh_w_15_transpose_x_0 = const()[name = tensor<string, []>("mh_w_15_transpose_x_0"), val = tensor<bool, []>(true)];
            tensor<bool, []> mh_w_15_transpose_y_0 = const()[name = tensor<string, []>("mh_w_15_transpose_y_0"), val = tensor<bool, []>(false)];
            tensor<fp16, [1, 20, 1500, 1500]> mh_w_15_cast_fp16 = matmul(transpose_x = mh_w_15_transpose_x_0, transpose_y = mh_w_15_transpose_y_0, x = var_1061_cast_fp16, y = var_1063_cast_fp16)[name = tensor<string, []>("mh_w_15_cast_fp16")];
            tensor<fp16, [1, 20, 1500, 1500]> var_1066_cast_fp16 = softmax(axis = var_1004, x = mh_w_15_cast_fp16)[name = tensor<string, []>("op_1066_cast_fp16")];
            tensor<int32, [4]> var_1067 = const()[name = tensor<string, []>("op_1067"), val = tensor<int32, [4]>([1, 20, 64, -1])];
            tensor<fp16, [1, 20, 64, 1500]> var_1068_cast_fp16 = reshape(shape = var_1067, x = value_15_cast_fp16)[name = tensor<string, []>("op_1068_cast_fp16")];
            tensor<bool, []> attn_15_transpose_x_0 = const()[name = tensor<string, []>("attn_15_transpose_x_0"), val = tensor<bool, []>(false)];
            tensor<bool, []> attn_15_transpose_y_0 = const()[name = tensor<string, []>("attn_15_transpose_y_0"), val = tensor<bool, []>(true)];
            tensor<fp16, [1, 20, 64, 1500]> attn_15_cast_fp16 = matmul(transpose_x = attn_15_transpose_x_0, transpose_y = attn_15_transpose_y_0, x = var_1068_cast_fp16, y = var_1066_cast_fp16)[name = tensor<string, []>("attn_15_cast_fp16")];
            tensor<int32, [4]> var_1071 = const()[name = tensor<string, []>("op_1071"), val = tensor<int32, [4]>([1, 1280, 1, -1])];
            tensor<fp16, [1, 1280, 1, 1500]> input_57_cast_fp16 = reshape(shape = var_1071, x = attn_15_cast_fp16)[name = tensor<string, []>("input_57_cast_fp16")];
            tensor<int32, [2]> var_1075 = const()[name = tensor<string, []>("op_1075"), val = tensor<int32, [2]>([1, 1])];
            tensor<int32, [2]> var_1077 = const()[name = tensor<string, []>("op_1077"), val = tensor<int32, [2]>([1, 1])];
            tensor<string, []> obj_31_pad_type_0 = const()[name = tensor<string, []>("obj_31_pad_type_0"), val = tensor<string, []>("custom")];
            tensor<int32, [4]> obj_31_pad_0 = const()[name = tensor<string, []>("obj_31_pad_0"), val = tensor<int32, [4]>([0, 0, 0, 0])];
            tensor<fp16, [1280, 1280, 1, 1]> layers_7_self_attn_o_proj_weight_to_fp16_palettized = constexpr_lut_to_dense()[indices = tensor<uint8, [819200]>(BLOBFILE(path = tensor<string, []>("@model_path/weights/weight.bin"), offset = tensor<uint64, []>(132497664))), lut = tensor<fp16, [16]>(BLOBFILE(path = tensor<string, []>("@model_path/weights/weight.bin"), offset = tensor<uint64, []>(133316928))), name = tensor<string, []>("layers_7_self_attn_o_proj_weight_to_fp16_palettized"), shape = tensor<uint32, [4]>([1280, 1280, 1, 1])];
            tensor<fp16, [1280]> layers_7_self_attn_o_proj_bias_to_fp16 = const()[name = tensor<string, []>("layers_7_self_attn_o_proj_bias_to_fp16"), val = tensor<fp16, [1280]>(BLOBFILE(path = tensor<string, []>("@model_path/weights/weight.bin"), offset = tensor<uint64, []>(133317056)))];
            tensor<fp16, [1, 1280, 1, 1500]> obj_31_cast_fp16 = conv(bias = layers_7_self_attn_o_proj_bias_to_fp16, dilations = var_1077, groups = var_1006, pad = obj_31_pad_0, pad_type = obj_31_pad_type_0, strides = var_1075, weight = layers_7_self_attn_o_proj_weight_to_fp16_palettized, x = input_57_cast_fp16)[name = tensor<string, []>("obj_31_cast_fp16")];
            tensor<fp16, [1, 1280, 1, 1500]> inputs_31_cast_fp16 = add(x = inputs_29_cast_fp16, y = obj_31_cast_fp16)[name = tensor<string, []>("inputs_31_cast_fp16")];
            tensor<int32, [1]> var_1083 = const()[name = tensor<string, []>("op_1083"), val = tensor<int32, [1]>([1])];
            tensor<fp16, [1, 1, 1, 1500]> channels_mean_31_cast_fp16 = reduce_mean(axes = var_1083, keep_dims = var_1007, x = inputs_31_cast_fp16)[name = tensor<string, []>("channels_mean_31_cast_fp16")];
            tensor<fp16, [1, 1280, 1, 1500]> zero_mean_31_cast_fp16 = sub(x = inputs_31_cast_fp16, y = channels_mean_31_cast_fp16)[name = tensor<string, []>("zero_mean_31_cast_fp16")];
            tensor<fp16, [1, 1280, 1, 1500]> zero_mean_sq_31_cast_fp16 = mul(x = zero_mean_31_cast_fp16, y = zero_mean_31_cast_fp16)[name = tensor<string, []>("zero_mean_sq_31_cast_fp16")];
            tensor<int32, [1]> var_1087 = const()[name = tensor<string, []>("op_1087"), val = tensor<int32, [1]>([1])];
…
            tensor<bool, []> attn_59_transpose_y_0 = const()[name = tensor<string, []>("attn_59_transpose_y_0"), val = tensor<bool, []>(true)];
            tensor<fp16, [1, 20, 64, 1500]> attn_59_cast_fp16 = matmul(transpose_x = attn_59_transpose_x_0, transpose_y = attn_59_transpose_y_0, x = var_3664_cast_fp16, y = var_3662_cast_fp16)[name = tensor<string, []>("attn_59_cast_fp16")];
            tensor<int32, [4]> var_3667 = const()[name = tensor<string, []>("op_3667"), val = tensor<int32, [4]>([1, 1280, 1, -1])];
            tensor<fp16, [1, 1280, 1, 1500]> input_233_cast_fp16 = reshape(shape = var_3667, x = attn_59_cast_fp16)[name = tensor<string, []>("input_233_cast_fp16")];
            tensor<int32, [2]> var_3671 = const()[name = tensor<string, []>("op_3671"), val = tensor<int32, [2]>([1, 1])];
            tensor<int32, [2]> var_3673 = const()[name = tensor<string, []>("op_3673"), val = tensor<int32, [2]>([1, 1])];
            tensor<string, []> obj_119_pad_type_0 = const()[name = tensor<string, []>("obj_119_pad_type_0"), val = tensor<string, []>("custom")];
            tensor<int32, [4]> obj_119_pad_0 = const()[name = tensor<string, []>("obj_119_pad_0"), val = tensor<int32, [4]>([0, 0, 0, 0])];
            tensor<fp16, [1280, 1280, 1, 1]> layers_29_self_attn_o_proj_weight_to_fp16_palettized = constexpr_lut_to_dense()[indices = tensor<uint8, [819200]>(BLOBFILE(path = tensor<string, []>("@model_path/weights/weight.bin"), offset = tensor<uint64, []>(388801408))), lut = tensor<fp16, [16]>(BLOBFILE(path = tensor<string, []>("@model_path/weights/weight.bin"), offset = tensor<uint64, []>(389620672))), name = tensor<string, []>("layers_29_self_attn_o_proj_weight_to_fp16_palettized"), shape = tensor<uint32, [4]>([1280, 1280, 1, 1])];
            tensor<fp16, [1280]> layers_29_self_attn_o_proj_bias_to_fp16 = const()[name = tensor<string, []>("layers_29_self_attn_o_proj_bias_to_fp16"), val = tensor<fp16, [1280]>(BLOBFILE(path = tensor<string, []>("@model_path/weights/weight.bin"), offset = tensor<uint64, []>(389620800)))];
            tensor<fp16, [1, 1280, 1, 1500]> obj_119_cast_fp16 = conv(bias = layers_29_self_attn_o_proj_bias_to_fp16, dilations = var_3673, groups = var_3602, pad = obj_119_pad_0, pad_type = obj_119_pad_type_0, strides = var_3671, weight = layers_29_self_attn_o_proj_weight_to_fp16_palettized, x = input_233_cast_fp16)[name = tensor<string, []>("obj_119_cast_fp16")];
            tensor<fp16, [1, 1280, 1, 1500]> inputs_119_cast_fp16 = add(x = inputs_117_cast_fp16, y = obj_119_cast_fp16)[name = tensor<string, []>("inputs_119_cast_fp16")];
            tensor<int32, [1]> var_3679 = const()[name = tensor<string, []>("op_3679"), val = tensor<int32, [1]>([1])];
            tensor<fp16, [1, 1, 1, 1500]> channels_mean_119_cast_fp16 = reduce_mean(axes = var_3679, keep_dims = var_3603, x = inputs_119_cast_fp16)[name = tensor<string, []>("channels_mean_119_cast_fp16")];
            tensor<fp16, [1, 1280, 1, 1500]> zero_mean_119_cast_fp16 = sub(x = inputs_119_cast_fp16, y = channels_mean_119_cast_fp16)[name = tensor<string, []>("zero_mean_119_cast_fp16")];
            tensor<fp16, [1, 1280, 1, 1500]> zero_mean_sq_119_cast_fp16 = mul(x = zero_mean_119_cast_fp16, y = zero_mean_119_cast_fp16)[name = tensor<string, []>("zero_mean_sq_119_cast_fp16")];
            tensor<int32, [1]> var_3683 = const()[name = tensor<string, []>("op_3683"), val = tensor<int32, [1]>([1])];
            tensor<fp16, [1, 1, 1, 1500]> var_3684_cast_fp16 = reduce_mean(axes = var_3683, keep_dims = var_3603, x = zero_mean_sq_119_cast_fp16)[name = tensor<string, []>("op_3684_cast_fp16")];
            tensor<fp16, []> var_3685_to_fp16 = const()[name = tensor<string, []>("op_3685_to_fp16"), val = tensor<fp16, []>(0x1.5p-17)];
            tensor<fp16, [1, 1, 1, 1500]> var_3686_cast_fp16 = add(x = var_3684_cast_fp16, y = var_3685_to_fp16)[name = tensor<string, []>("op_3686_cast_fp16")];
            tensor<fp32, []> denom_119_epsilon_0 = const()[name = tensor<string, []>("denom_119_epsilon_0"), val = tensor<fp32, []>(0x1.197998p-40)];
            tensor<fp16, [1, 1, 1, 1500]> denom_119_cast_fp16 = rsqrt(epsilon = denom_119_epsilon_0, x = var_3686_cast_fp16)[name = tensor<string, []>("denom_119_cast_fp16")];
            tensor<fp16, [1, 1280, 1, 1500]> out_119_cast_fp16 = mul(x = zero_mean_119_cast_fp16, y = denom_119_cast_fp16)[name = tensor<string, []>("out_119_cast_fp16")];
            tensor<fp16, [1280]> input_235_gamma_0_to_fp16 = const()[name = tensor<string, []>("input_235_gamma_0_to_fp16"), val = tensor<fp16, [1280]>(BLOBFILE(path = tensor<string, []>("@model_path/weights/weight.bin"), offset = tensor<uint64, []>(389623424)))];
            tensor<fp16, [1280]> input_235_beta_0_to_fp16 = const()[name = tensor<string, []>("input_235_beta_0_to_fp16"), val = tensor<fp16, [1280]>(BLOBFILE(path = tensor<string, []>("@model_path/weights/weight.bin"), offset = tensor<uint64, []>(389626048)))];
            tensor<fp16, []> input_235_epsilon_0_to_fp16 = const()[name = tensor<string, []>("input_235_epsilon_0_to_fp16"), val = tensor<fp16, []>(0x1.5p-17)];
            tensor<fp16, [1, 1280, 1, 1500]> input_235_cast_fp16 = batch_norm(beta = input_235_beta_0_to_fp16, epsilon = input_235_epsilon_0_to_fp16, gamma = input_235_gamma_0_to_fp16, mean = obj_1_mean_0_to_fp16, variance = obj_1_variance_0_to_fp16, x = out_119_cast_fp16)[name = tensor<string, []>("input_235_cast_fp16")];
            tensor<int32, [2]> var_3697 = const()[name = tensor<string, []>("op_3697"), val = tensor<int32, [2]>([1, 1])];
            tensor<int32, [2]> var_3699 = const()[name = tensor<string, []>("op_3699"), val = tensor<int32, [2]>([1, 1])];
            tensor<string, []> input_237_pad_type_0 = const()[name = tensor<string, []>("input_237_pad_type_0"), val = tensor<string, []>("custom")];
            tensor<int32, [4]> input_237_pad_0 = const()[name = tensor<string, []>("input_237_pad_0"), val = tensor<int32, [4]>([0, 0, 0, 0])];
            tensor<fp16, [5120, 1280, 1, 1]> layers_29_fc1_weight_to_fp16 = const()[name = tensor<string, []>("layers_29_fc1_weight_to_fp16"), val = tensor<fp16, [5120, 1280, 1, 1]>(BLOBFILE(path = tensor<string, []>("@model_path/weights/weight.bin"), offset = tensor<uint64, []>(389628672)))];
            tensor<fp16, [5120]> layers_29_fc1_bias_to_fp16 = const()[name = tensor<string, []>("layers_29_fc1_bias_to_fp16"), val = tensor<fp16, [5120]>(BLOBFILE(path = tensor<string, []>("@model_path/weights/weight.bin"), offset = tensor<uint64, []>(402735936)))];
            tensor<fp16, [1, 5120, 1, 1500]> input_237_cast_fp16 = conv(bias = layers_29_fc1_bias_to_fp16, dilations = var_3699, groups = var_3602, pad = input_237_pad_0, pad_type = input_237_pad_type_0, strides = var_3697, weight = layers_29_fc1_weight_to_fp16, x = input_235_cast_fp16)[name = tensor<string, []>("input_237_cast_fp16")];
            tensor<string, []> input_239_mode_0 = const()[name = tensor<string, []>("input_239_mode_0"), val = tensor<string, []>("EXACT")];
            tensor<fp16, [1, 5120, 1, 1500]> input_239_cast_fp16 = gelu(mode = input_239_mode_0, x = input_237_cast_fp16)[name = tensor<string, []>("input_239_cast_fp16")];
            tensor<int32, [2]> var_3705 = const()[name = tensor<string, []>("op_3705"), val = tensor<int32, [2]>([1, 1])];
            tensor<int32, [2]> var_3707 = const()[name = tensor<string, []>("op_3707"), val = tensor<int32, [2]>([1, 1])];
            tensor<string, []> hidden_states_63_pad_type_0 = const()[name = tensor<string, []>("hidden_states_63_pad_type_0"), val = tensor<string, []>("custom")];
            tensor<int32, [4]> hidden_states_63_pad_0 = const()[name = tensor<string, []>("hidden_states_63_pad_0"), val = tensor<int32, [4]>([0, 0, 0, 0])];
            tensor<fp16, [1280, 5120, 1, 1]> layers_29_fc2_weight_to_fp16_palettized = constexpr_lut_to_dense()[indices = tensor<uint8, [3276800]>(BLOBFILE(path = tensor<string, []>("@model_path/weights/weight.bin"), offset = tensor<uint64, []>(402746240))), lut = tensor<fp16, [16]>(BLOBFILE(path = tensor<string, []>("@model_path/weights/weight.bin"), offset = tensor<uint64, []>(406023104))), name = tensor<string, []>("layers_29_fc2_weight_to_fp16_palettized"), shape = tensor<uint32, [4]>([1280, 5120, 1, 1])];
            tensor<fp16, [1280]> layers_29_fc2_bias_to_fp16 = const()[name = tensor<string, []>("layers_29_fc2_bias_to_fp16"), val = tensor<fp16, [1280]>(BLOBFILE(path = tensor<string, []>("@model_path/weights/weight.bin"), offset = tensor<uint64, []>(406023232)))];
            tensor<fp16, [1, 1280, 1, 1500]> hidden_states_63_cast_fp16 = conv(bias = layers_29_fc2_bias_to_fp16, dilations = var_3707, groups = var_3602, pad = hidden_states_63_pad_0, pad_type = hidden_states_63_pad_type_0, strides = var_3705, weight = layers_29_fc2_weight_to_fp16_palettized, x = input_239_cast_fp16)[name = tensor<string, []>("hidden_states_63_cast_fp16")];
            tensor<fp16, [1, 1280, 1, 1500]> inputs_121_cast_fp16 = add(x = inputs_119_cast_fp16, y = hidden_states_63_cast_fp16)[name = tensor<string, []>("inputs_121_cast_fp16")];
            tensor<int32, []> var_3718 = const()[name = tensor<string, []>("op_3718"), val = tensor<int32, []>(3)];
            tensor<int32, []> var_3720 = const()[name = tensor<string, []>("op_3720"), val = tensor<int32, []>(1)];
            tensor<bool, []> var_3721 = const()[name = tensor<string, []>("op_3721"), val = tensor<bool, []>(true)];
            tensor<int32, [1]> var_3731 = const()[name = tensor<string, []>("op_3731"), val = tensor<int32, [1]>([1])];
            tensor<fp16, [1, 1, 1, 1500]> channels_mean_121_cast_fp16 = reduce_mean(axes = var_3731, keep_dims = var_3721, x = inputs_121_cast_fp16)[name = tensor<string, []>("channels_mean_121_cast_fp16")];
            tensor<fp16, [1, 1280, 1, 1500]> zero_mean_121_cast_fp16 = sub(x = inputs_121_cast_fp16, y = channels_mean_121_cast_fp16)[name = tensor<string, []>("zero_mean_121_cast_fp16")];
            tensor<fp16, [1, 1280, 1, 1500]> zero_mean_sq_121_cast_fp16 = mul(x = zero_mean_121_cast_fp16, y = zero_mean_121_cast_fp16)[name = tensor<string, []>("zero_mean_sq_121_cast_fp16")];
            tensor<int32, [1]> var_3735 = const()[name = tensor<string, []>("op_3735"), val = tensor<int32, [1]>([1])];
            tensor<fp16, [1, 1, 1, 1500]> var_3736_cast_fp16 = reduce_mean(axes = var_3735, keep_dims = var_3721, x = zero_mean_sq_121_cast_fp16)[name = tensor<string, []>("op_3736_cast_fp16")];
            tensor<fp16, []> var_3737_to_fp16 = const()[name = tensor<string, []>("op_3737_to_fp16"), val = tensor<fp16, []>(0x1.5p-17)];
            tensor<fp16, [1, 1, 1, 1500]> var_3738_cast_fp16 = add(x = var_3736_cast_fp16, y = var_3737_to_fp16)[name = tensor<string, []>("op_3738_cast_fp16")];
            tensor<fp32, []> denom_121_epsilon_0 = const()[name = tensor<string, []>("denom_121_epsilon_0"), val = tensor<fp32, []>(0x1.197998p-40)];
            tensor<fp16, [1, 1, 1, 1500]> denom_121_cast_fp16 = rsqrt(epsilon = denom_121_epsilon_0, x = var_3738_cast_fp16)[name = tensor<string, []>("denom_121_cast_fp16")];
            tensor<fp16, [1, 1280, 1, 1500]> out_121_cast_fp16 = mul(x = zero_mean_121_cast_fp16, y = denom_121_cast_fp16)[name = tensor<string, []>("out_121_cast_fp16")];
            tensor<fp16, [1280]> obj_121_gamma_0_to_fp16 = const()[name = tensor<string, []>("obj_121_gamma_0_to_fp16"), val = tensor<fp16, [1280]>(BLOBFILE(path = tensor<string, []>("@model_path/weights/weight.bin"), offset = tensor<uint64, []>(406025856)))];
            tensor<fp16, [1280]> obj_121_beta_0_to_fp16 = const()[name = tensor<string, []>("obj_121_beta_0_to_fp16"), val = tensor<fp16, [1280]>(BLOBFILE(path = tensor<string, []>("@model_path/weights/weight.bin"), offset = tensor<uint64, []>(406028480)))];
            tensor<fp16, []> obj_121_epsilon_0_to_fp16 = const()[name = tensor<string, []>("obj_121_epsilon_0_to_fp16"), val = tensor<fp16, []>(0x1.5p-17)];
            tensor<fp16, [1, 1280, 1, 1500]> obj_121_cast_fp16 = batch_norm(beta = obj_121_beta_0_to_fp16, epsilon = obj_121_epsilon_0_to_fp16, gamma = obj_121_gamma_0_to_fp16, mean = obj_1_mean_0_to_fp16, variance = obj_1_variance_0_to_fp16, x = out_121_cast_fp16)[name = tensor<string, []>("obj_121_cast_fp16")];
            tensor<int32, [2]> var_3753 = const()[name = tensor<string, []>("op_3753"), val = tensor<int32, [2]>([1, 1])];
            tensor<int32, [2]> var_3755 = const()[name = tensor<string, []>("op_3755"), val = tensor<int32, [2]>([1, 1])];
            tensor<string, []> query_61_pad_type_0 = const()[name = tensor<string, []>("query_61_pad_type_0"), val = tensor<string, []>("custom")];
            tensor<int32, [4]> query_61_pad_0 = const()[name = tensor<string, []>("query_61_pad_0"), val = tensor<int32, [4]>([0, 0, 0, 0])];
            tensor<fp16, [1280, 1280, 1, 1]> layers_30_self_attn_q_proj_weight_to_fp16_palettized = constexpr_lut_to_dense()[indices = tensor<uint8, [819200]>(BLOBFILE(path = tensor<string, []>("@model_path/weights/weight.bin"), offset = tensor<uint64, []>(406031104))), lut = tensor<fp16, [16]>(BLOBFILE(path = tensor<string, []>("@model_path/weights/weight.bin"), offset = tensor<uint64, []>(406850368))), name = tensor<string, []>("layers_30_self_attn_q_proj_weight_to_fp16_palettized"), shape = tensor<uint32, [4]>([1280, 1280, 1, 1])];
            tensor<fp16, [1280]> layers_30_self_attn_q_proj_bias_to_fp16 = const()[name = tensor<string, []>("layers_30_self_attn_q_proj_bias_to_fp16"), val = tensor<fp16, [1280]>(BLOBFILE(path = tensor<string, []>("@model_path/weights/weight.bin"), offset = tensor<uint64, []>(406850496)))];
            tensor<fp16, [1, 1280, 1, 1500]> query_61_cast_fp16 = conv(bias = layers_30_self_attn_q_proj_bias_to_fp16, dilations = var_3755, groups = var_3720, pad = query_61_pad_0, pad_type = query_61_pad_type_0, strides = var_3753, weight = layers_30_self_attn_q_proj_weight_to_fp16_palettized, x = obj_121_cast_fp16)[name = tensor<string, []>("query_61_cast_fp16")];
            tensor<int32, [2]> var_3759 = const()[name = tensor<string, []>("op_3759"), val = tensor<int32, [2]>([1, 1])];
            tensor<int32, [2]> var_3761 = const()[name = tensor<string, []>("op_3761"), val = tensor<int32, [2]>([1, 1])];
            tensor<string, []> key_61_pad_type_0 = const()[name = tensor<string, []>("key_61_pad_type_0"), val = tensor<string, []>("custom")];
            tensor<int32, [4]> key_61_pad_0 = const()[name = tensor<string, []>("key_61_pad_0"), val = tensor<int32, [4]>([0, 0, 0, 0])];
            tensor<fp16, [1280, 1280, 1, 1]> layers_30_self_attn_k_proj_weight_to_fp16_palettized = constexpr_lut_to_dense()[indices = tensor<uint8, [819200]>(BLOBFILE(path = tensor<string, []>("@model_path/weights/weight.bin"), offset = tensor<uint64, []>(406853120))), lut = tensor<fp16, [16]>(BLOBFILE(path = tensor<string, []>("@model_path/weights/weight.bin"), offset = tensor<uint64, []>(407672384))), name = tensor<string, []>("layers_30_self_attn_k_proj_weight_to_fp16_palettized"), shape = tensor<uint32, [4]>([1280, 1280, 1, 1])];
            tensor<fp16, [1, 1280, 1, 1500]> key_61_cast_fp16 = conv(dilations = var_3761, groups = var_3720, pad = key_61_pad_0, pad_type = key_61_pad_type_0, strides = var_3759, weight = layers_30_self_attn_k_proj_weight_to_fp16_palettized, x = obj_121_cast_fp16)[name = tensor<string, []>("key_61_cast_fp16")];
            tensor<int32, [2]> var_3766 = const()[name = tensor<string, []>("op_3766"), val = tensor<int32, [2]>([1, 1])];
            tensor<int32, [2]> var_3768 = const()[name = tensor<string, []>("op_3768"), val = tensor<int32, [2]>([1, 1])];
            tensor<string, []> value_61_pad_type_0 = const()[name = tensor<string, []>("value_61_pad_type_0"), val = tensor<string, []>("custom")];
            tensor<int32, [4]> value_61_pad_0 = const()[name = tensor<string, []>("value_61_pad_0"), val = tensor<int32, [4]>([0, 0, 0, 0])];
            tensor<fp16, [1280, 1280, 1, 1]> layers_30_self_attn_v_proj_weight_to_fp16_palettized = constexpr_lut_to_dense()[indices = tensor<uint8, [819200]>(BLOBFILE(path = tensor<string, []>("@model_path/weights/weight.bin"), offset = tensor<uint64, []>(407672512))), lut = tensor<fp16, [16]>(BLOBFILE(path = tensor<string, []>("@model_path/weights/weight.bin"), offset = tensor<uint64, []>(408491776))), name = tensor<string, []>("layers_30_self_attn_v_proj_weight_to_fp16_palettized"), shape = tensor<uint32, [4]>([1280, 1280, 1, 1])];
            tensor<fp16, [1280]> layers_30_self_attn_v_proj_bias_to_fp16 = const()[name = tensor<string, []>("layers_30_self_attn_v_proj_bias_to_fp16"), val = tensor<fp16, [1280]>(BLOBFILE(path = tensor<string, []>("@model_path/weights/weight.bin"), offset = tensor<uint64, []>(408491904)))];
            tensor<fp16, [1, 1280, 1, 1500]> value_61_cast_fp16 = conv(bias = layers_30_self_attn_v_proj_bias_to_fp16, dilations = var_3768, groups = var_3720, pad = value_61_pad_0, pad_type = value_61_pad_type_0, strides = var_3766, weight = layers_30_self_attn_v_proj_weight_to_fp16_palettized, x = obj_121_cast_fp16)[name = tensor<string, []>("value_61_cast_fp16")];
            tensor<int32, [4]> var_3772 = const()[name = tensor<string, []>("op_3772"), val = tensor<int32, [4]>([1, 20, 64, -1])];
            tensor<fp16, [1, 20, 64, 1500]> var_3773_cast_fp16 = reshape(shape = var_3772, x = query_61_cast_fp16)[name = tensor<string, []>("op_3773_cast_fp16")];
            tensor<fp16, []> var_3774_to_fp16 = const()[name = tensor<string, []>("op_3774_to_fp16"), val = tensor<fp16, []>(0x1p-3)];
            tensor<fp16, [1, 20, 64, 1500]> var_3775_cast_fp16 = mul(x = var_3773_cast_fp16, y = var_3774_to_fp16)[name = tensor<string, []>("op_3775_cast_fp16")];
            tensor<int32, [4]> var_3776 = const()[name = tensor<string, []>("op_3776"), val = tensor<int32, [4]>([1, 20, 64, -1])];
            tensor<fp16, [1, 20, 64, 1500]> var_3777_cast_fp16 = reshape(shape = var_3776, x = key_61_cast_fp16)[name = tensor<string, []>("op_3777_cast_fp16")];
            tensor<bool, []> mh_w_61_transpose_x_0 = const()[name = tensor<string, []>("mh_w_61_transpose_x_0"), val = tensor<bool, []>(true)];
            tensor<bool, []> mh_w_61_transpose_y_0 = const()[name = tensor<string, []>("mh_w_61_transpose_y_0"), val = tensor<bool, []>(false)];
            tensor<fp16, [1, 20, 1500, 1500]> mh_w_61_cast_fp16 = matmul(transpose_x = mh_w_61_transpose_x_0, transpose_y = mh_w_61_transpose_y_0, x = var_3775_cast_fp16, y = var_3777_cast_fp16)[name = tensor<string, []>("mh_w_61_cast_fp16")];
            tensor<fp16, [1, 20, 1500, 1500]> var_3780_cast_fp16 = softmax(axis = var_3718, x = mh_w_61_cast_fp16)[name = tensor<string, []>("op_3780_cast_fp16")];
            tensor<int32, [4]> var_3781 = const()[name = tensor<string, []>("op_3781"), val = tensor<int32, [4]>([1, 20, 64, -1])];
            tensor<fp16, [1, 20, 64, 1500]> var_3782_cast_fp16 = reshape(shape = var_3781, x = value_61_cast_fp16)[name = tensor<string, []>("op_3782_cast_fp16")];
            tensor<bool, []> attn_61_transpose_x_0 = const()[name = tensor<string, []>("attn_61_transpose_x_0"), val = tensor<bool, []>(false)];
            tensor<bool, []> attn_61_transpose_y_0 = const()[name = tensor<string, []>("attn_61_transpose_y_0"), val = tensor<bool, []>(true)];
            tensor<fp16, [1, 20, 64, 1500]> attn_61_cast_fp16 = matmul(transpose_x = attn_61_transpose_x_0, transpose_y = attn_61_transpose_y_0, x = var_3782_cast_fp16, y = var_3780_cast_fp16)[name = tensor<string, []>("attn_61_cast_fp16")];
            tensor<int32, [4]> var_3785 = const()[name = tensor<string, []>("op_3785"), val = tensor<int32, [4]>([1, 1280, 1, -1])];
            tensor<fp16, [1, 1280, 1, 1500]> input_241_cast_fp16 = reshape(shape = var_3785, x = attn_61_cast_fp16)[name = tensor<string, []>("input_241_cast_fp16")];
            tensor<int32, [2]> var_3789 = const()[name = tensor<string, []>("op_3789"), val = tensor<int32, [2]>([1, 1])];
            tensor<int32, [2]> var_3791 = const()[name = tensor<string, []>("op_3791"), val = tensor<int32, [2]>([1, 1])];
            tensor<string, []> obj_123_pad_type_0 = const()[name = tensor<string, []>("obj_123_pad_type_0"), val = tensor<string, []>("custom")];
            tensor<int32, [4]> obj_123_pad_0 = const()[name = tensor<string, []>("obj_123_pad_0"), val = tensor<int32, [4]>([0, 0, 0, 0])];
            tensor<fp16, [1280, 1280, 1, 1]> layers_30_self_attn_o_proj_weight_to_fp16_palettized = constexpr_lut_to_dense()[indices = tensor<uint8, [819200]>(BLOBFILE(path = tensor<string, []>("@model_path/weights/weight.bin"), offset = tensor<uint64, []>(408494528))), lut = tensor<fp16, [16]>(BLOBFILE(path = tensor<string, []>("@model_path/weights/weight.bin"), offset = tensor<uint64, []>(409313792))), name = tensor<string, []>("layers_30_self_attn_o_proj_weight_to_fp16_palettized"), shape = tensor<uint32, [4]>([1280, 1280, 1, 1])];
            tensor<fp16, [1280]> layers_30_self_attn_o_proj_bias_to_fp16 = const()[name = tensor<string, []>("layers_30_self_attn_o_proj_bias_to_fp16"), val = tensor<fp16, [1280]>(BLOBFILE(path = tensor<string, []>("@model_path/weights/weight.bin"), offset = tensor<uint64, []>(409313920)))];
            tensor<fp16, [1, 1280, 1, 1500]> obj_123_cast_fp16 = conv(bias = layers_30_self_attn_o_proj_bias_to_fp16, dilations = var_3791, groups = var_3720, pad = obj_123_pad_0, pad_type = obj_123_pad_type_0, strides = var_3789, weight = layers_30_self_attn_o_proj_weight_to_fp16_palettized, x = input_241_cast_fp16)[name = tensor<string, []>("obj_123_cast_fp16")];
            tensor<fp16, [1, 1280, 1, 1500]> inputs_123_cast_fp16 = add(x = inputs_121_cast_fp16, y = obj_123_cast_fp16)[name = tensor<string, []>("inputs_123_cast_fp16")];
            tensor<int32, [1]> var_3797 = const()[name = tensor<string, []>("op_3797"), val = tensor<int32, [1]>([1])];
            tensor<fp16, [1, 1, 1, 1500]> channels_mean_123_cast_fp16 = reduce_mean(axes = var_3797, keep_dims = var_3721, x = inputs_123_cast_fp16)[name = tensor<string, []>("channels_mean_123_cast_fp16")];
            tensor<fp16, [1, 1280, 1, 1500]> zero_mean_123_cast_fp16 = sub(x = inputs_123_cast_fp16, y = channels_mean_123_cast_fp16)[name = tensor<string, []>("zero_mean_123_cast_fp16")];
            tensor<fp16, [1, 1280, 1, 1500]> zero_mean_sq_123_cast_fp16 = mul(x = zero_mean_123_cast_fp16, y = zero_mean_123_cast_fp16)[name = tensor<string, []>("zero_mean_sq_123_cast_fp16")];
            tensor<int32, [1]> var_3801 = const()[name = tensor<string, []>("op_3801"), val = tensor<int32, [1]>([1])];
            tensor<fp16, [1, 1, 1, 1500]> var_3802_cast_fp16 = reduce_mean(axes = var_3801, keep_dims = var_3721, x = zero_mean_sq_123_cast_fp16)[name = tensor<string, []>("op_3802_cast_fp16")];
            tensor<fp16, []> var_3803_to_fp16 = const()[name = tensor<string, []>("op_3803_to_fp16"), val = tensor<fp16, []>(0x1.5p-17)];
            tensor<fp16, [1, 1, 1, 1500]> var_3804_cast_fp16 = add(x = var_3802_cast_fp16, y = var_3803_to_fp16)[name = tensor<string, []>("op_3804_cast_fp16")];
            tensor<fp32, []> denom_123_epsilon_0 = const()[name = tensor<string, []>("denom_123_epsilon_0"), val = tensor<fp32, []>(0x1.197998p-40)];
            tensor<fp16, [1, 1, 1, 1500]> denom_123_cast_fp16 = rsqrt(epsilon = denom_123_epsilon_0, x = var_3804_cast_fp16)[name = tensor<string, []>("denom_123_cast_fp16")];
            tensor<fp16, [1, 1280, 1, 1500]> out_123_cast_fp16 = mul(x = zero_mean_123_cast_fp16, y = denom_123_cast_fp16)[name = tensor<string, []>("out_123_cast_fp16")];
            tensor<fp16, [1280]> input_243_gamma_0_to_fp16 = const()[name = tensor<string, []>("input_243_gamma_0_to_fp16"), val = tensor<fp16, [1280]>(BLOBFILE(path = tensor<string, []>("@model_path/weights/weight.bin"), offset = tensor<uint64, []>(409316544)))];
            tensor<fp16, [1280]> input_243_beta_0_to_fp16 = const()[name = tensor<string, []>("input_243_beta_0_to_fp16"), val = tensor<fp16, [1280]>(BLOBFILE(path = tensor<string, []>("@model_path/weights/weight.bin"), offset = tensor<uint64, []>(409319168)))];
            tensor<fp16, []> input_243_epsilon_0_to_fp16 = const()[name = tensor<string, []>("input_243_epsilon_0_to_fp16"), val = tensor<fp16, []>(0x1.5p-17)];
            tensor<fp16, [1, 1280, 1, 1500]> input_243_cast_fp16 = batch_norm(beta = input_243_beta_0_to_fp16, epsilon = input_243_epsilon_0_to_fp16, gamma = input_243_gamma_0_to_fp16, mean = obj_1_mean_0_to_fp16, variance = obj_1_variance_0_to_fp16, x = out_123_cast_fp16)[name = tensor<string, []>("input_243_cast_fp16")];
            tensor<int32, [2]> var_3815 = const()[name = tensor<string, []>("op_3815"), val = tensor<int32, [2]>([1, 1])];
            tensor<int32, [2]> var_3817 = const()[name = tensor<string, []>("op_3817"), val = tensor<int32, [2]>([1, 1])];
            tensor<string, []> input_245_pad_type_0 = const()[name = tensor<string, []>("input_245_pad_type_0"), val = tensor<string, []>("custom")];
            tensor<int32, [4]> input_245_pad_0 = const()[name = tensor<string, []>("input_245_pad_0"), val = tensor<int32, [4]>([0, 0, 0, 0])];
            tensor<fp16, [5120, 1280, 1, 1]> layers_30_fc1_weight_to_fp16 = const()[name = tensor<string, []>("layers_30_fc1_weight_to_fp16"), val = tensor<fp16, [5120, 1280, 1, 1]>(BLOBFILE(path = tensor<string, []>("@model_path/weights/weight.bin"), offset = tensor<uint64, []>(409321792)))];
            tensor<fp16, [5120]> layers_30_fc1_bias_to_fp16 = const()[name = tensor<string, []>("layers_30_fc1_bias_to_fp16"), val = tensor<fp16, [5120]>(BLOBFILE(path = tensor<string, []>("@model_path/weights/weight.bin"), offset = tensor<uint64, []>(422429056)))];
            tensor<fp16, [1, 5120, 1, 1500]> input_245_cast_fp16 = conv(bias = layers_30_fc1_bias_to_fp16, dilations = var_3817, groups = var_3720, pad = input_245_pad_0, pad_type = input_245_pad_type_0, strides = var_3815, weight = layers_30_fc1_weight_to_fp16, x = input_243_cast_fp16)[name = tensor<string, []>("input_245_cast_fp16")];
            tensor<string, []> input_247_mode_0 = const()[name = tensor<string, []>("input_247_mode_0"), val = tensor<string, []>("EXACT")];
            tensor<fp16, [1, 5120, 1, 1500]> input_247_cast_fp16 = gelu(mode = input_247_mode_0, x = input_245_cast_fp16)[name = tensor<string, []>("input_247_cast_fp16")];
            tensor<int32, [2]> var_3823 = const()[name = tensor<string, []>("op_3823"), val = tensor<int32, [2]>([1, 1])];
            tensor<int32, [2]> var_3825 = const()[name = tensor<string, []>("op_3825"), val = tensor<int32, [2]>([1, 1])];
            tensor<string, []> hidden_states_65_pad_type_0 = const()[name = tensor<string, []>("hidden_states_65_pad_type_0"), val = tensor<string, []>("custom")];
            tensor<int32, [4]> hidden_states_65_pad_0 = const()[name = tensor<string, []>("hidden_states_65_pad_0"), val = tensor<int32, [4]>([0, 0, 0, 0])];
            tensor<fp16, [1280, 5120, 1, 1]> layers_30_fc2_weight_to_fp16 = const()[name = tensor<string, []>("layers_30_fc2_weight_to_fp16"), val = tensor<fp16, [1280, 5120, 1, 1]>(BLOBFILE(path = tensor<string, []>("@model_path/weights/weight.bin"), offset = tensor<uint64, []>(422439360)))];
            tensor<fp16, [1280]> layers_30_fc2_bias_to_fp16 = const()[name = tensor<string, []>("layers_30_fc2_bias_to_fp16"), val = tensor<fp16, [1280]>(BLOBFILE(path = tensor<string, []>("@model_path/weights/weight.bin"), offset = tensor<uint64, []>(435546624)))];
            tensor<fp16, [1, 1280, 1, 1500]> hidden_states_65_cast_fp16 = conv(bias = layers_30_fc2_bias_to_fp16, dilations = var_3825, groups = var_3720, pad = hidden_states_65_pad_0, pad_type = hidden_states_65_pad_type_0, strides = var_3823, weight = layers_30_fc2_weight_to_fp16, x = input_247_cast_fp16)[name = tensor<string, []>("hidden_states_65_cast_fp16")];
            tensor<fp16, [1, 1280, 1, 1500]> inputs_125_cast_fp16 = add(x = inputs_123_cast_fp16, y = hidden_states_65_cast_fp16)[name = tensor<string, []>("inputs_125_cast_fp16")];
            tensor<int32, []> var_3836 = const()[name = tensor<string, []>("op_3836"), val = tensor<int32, []>(3)];
            tensor<int32, []> var_3838 = const()[name = tensor<string, []>("op_3838"), val = tensor<int32, []>(1)];
            tensor<bool, []> var_3839 = const()[name = tensor<string, []>("op_3839"), val = tensor<bool, []>(true)];
            tensor<int32, [1]> var_3849 = const()[name = tensor<string, []>("op_3849"), val = tensor<int32, [1]>([1])];
            tensor<fp16, [1, 1, 1, 1500]> channels_mean_125_cast_fp16 = reduce_mean(axes = var_3849, keep_dims = var_3839, x = inputs_125_cast_fp16)[name = tensor<string, []>("channels_mean_125_cast_fp16")];
            tensor<fp16, [1, 1280, 1, 1500]> zero_mean_125_cast_fp16 = sub(x = inputs_125_cast_fp16, y = channels_mean_125_cast_fp16)[name = tensor<string, []>("zero_mean_125_cast_fp16")];
            tensor<fp16, [1, 1280, 1, 1500]> zero_mean_sq_125_cast_fp16 = mul(x = zero_mean_125_cast_fp16, y = zero_mean_125_cast_fp16)[name = tensor<string, []>("zero_mean_sq_125_cast_fp16")];
            tensor<int32, [1]> var_3853 = const()[name = tensor<string, []>("op_3853"), val = tensor<int32, [1]>([1])];
            tensor<fp16, [1, 1, 1, 1500]> var_3854_cast_fp16 = reduce_mean(axes = var_3853, keep_dims = var_3839, x = zero_mean_sq_125_cast_fp16)[name = tensor<string, []>("op_3854_cast_fp16")];
            tensor<fp16, []> var_3855_to_fp16 = const()[name = tensor<string, []>("op_3855_to_fp16"), val = tensor<fp16, []>(0x1.5p-17)];
            tensor<fp16, [1, 1, 1, 1500]> var_3856_cast_fp16 = add(x = var_3854_cast_fp16, y = var_3855_to_fp16)[name = tensor<string, []>("op_3856_cast_fp16")];
            tensor<fp32, []> denom_125_epsilon_0 = const()[name = tensor<string, []>("denom_125_epsilon_0"), val = tensor<fp32, []>(0x1.197998p-40)];
            tensor<fp16, [1, 1, 1, 1500]> denom_125_cast_fp16 = rsqrt(epsilon = denom_125_epsilon_0, x = var_3856_cast_fp16)[name = tensor<string, []>("denom_125_cast_fp16")];
            tensor<fp16, [1, 1280, 1, 1500]> out_125_cast_fp16 = mul(x = zero_mean_125_cast_fp16, y = denom_125_cast_fp16)[name = tensor<string, []>("out_125_cast_fp16")];
            tensor<fp16, [1280]> obj_125_gamma_0_to_fp16 = const()[name = tensor<string, []>("obj_125_gamma_0_to_fp16"), val = tensor<fp16, [1280]>(BLOBFILE(path = tensor<string, []>("@model_path/weights/weight.bin"), offset = tensor<uint64, []>(435549248)))];
            tensor<fp16, [1280]> obj_125_beta_0_to_fp16 = const()[name = tensor<string, []>("obj_125_beta_0_to_fp16"), val = tensor<fp16, [1280]>(BLOBFILE(path = tensor<string, []>("@model_path/weights/weight.bin"), offset = tensor<uint64, []>(435551872)))];
            tensor<fp16, []> obj_125_epsilon_0_to_fp16 = const()[name = tensor<string, []>("obj_125_epsilon_0_to_fp16"), val = tensor<fp16, []>(0x1.5p-17)];
            tensor<fp16, [1, 1280, 1, 1500]> obj_125_cast_fp16 = batch_norm(beta = obj_125_beta_0_to_fp16, epsilon = obj_125_epsilon_0_to_fp16, gamma = obj_125_gamma_0_to_fp16, mean = obj_1_mean_0_to_fp16, variance = obj_1_variance_0_to_fp16, x = out_125_cast_fp16)[name = tensor<string, []>("obj_125_cast_fp16")];
            tensor<int32, [2]> var_3871 = const()[name = tensor<string, []>("op_3871"), val = tensor<int32, [2]>([1, 1])];
            tensor<int32, [2]> var_3873 = const()[name = tensor<string, []>("op_3873"), val = tensor<int32, [2]>([1, 1])];
            tensor<string, []> query_pad_type_0 = const()[name = tensor<string, []>("query_pad_type_0"), val = tensor<string, []>("custom")];
            tensor<int32, [4]> query_pad_0 = const()[name = tensor<string, []>("query_pad_0"), val = tensor<int32, [4]>([0, 0, 0, 0])];
            tensor<fp16, [1280, 1280, 1, 1]> layers_31_self_attn_q_proj_weight_to_fp16_palettized = constexpr_lut_to_dense()[indices = tensor<uint8, [819200]>(BLOBFILE(path = tensor<string, []>("@model_path/weights/weight.bin"), offset = tensor<uint64, []>(435554496))), lut = tensor<fp16, [16]>(BLOBFILE(path = tensor<string, []>("@model_path/weights/weight.bin"), offset = tensor<uint64, []>(436373760))), name = tensor<string, []>("layers_31_self_attn_q_proj_weight_to_fp16_palettized"), shape = tensor<uint32, [4]>([1280, 1280, 1, 1])];
            tensor<fp16, [1280]> layers_31_self_attn_q_proj_bias_to_fp16 = const()[name = tensor<string, []>("layers_31_self_attn_q_proj_bias_to_fp16"), val = tensor<fp16, [1280]>(BLOBFILE(path = tensor<string, []>("@model_path/weights/weight.bin"), offset = tensor<uint64, []>(436373888)))];
            tensor<fp16, [1, 1280, 1, 1500]> query_cast_fp16 = conv(bias = layers_31_self_attn_q_proj_bias_to_fp16, dilations = var_3873, groups = var_3838, pad = query_pad_0, pad_type = query_pad_type_0, strides = var_3871, weight = layers_31_self_attn_q_proj_weight_to_fp16_palettized, x = obj_125_cast_fp16)[name = tensor<string, []>("query_cast_fp16")];
            tensor<int32, [2]> var_3877 = const()[name = tensor<string, []>("op_3877"), val = tensor<int32, [2]>([1, 1])];
            tensor<int32, [2]> var_3879 = const()[name = tensor<string, []>("op_3879"), val = tensor<int32, [2]>([1, 1])];
            tensor<string, []> key_pad_type_0 = const()[name = tensor<string, []>("key_pad_type_0"), val = tensor<string, []>("custom")];
            tensor<int32, [4]> key_pad_0 = const()[name = tensor<string, []>("key_pad_0"), val = tensor<int32, [4]>([0, 0, 0, 0])];
            tensor<fp16, [1280, 1280, 1, 1]> layers_31_self_attn_k_proj_weight_to_fp16_palettized = constexpr_lut_to_dense()[indices = tensor<uint8, [819200]>(BLOBFILE(path = tensor<string, []>("@model_path/weights/weight.bin"), offset = tensor<uint64, []>(436376512))), lut = tensor<fp16, [16]>(BLOBFILE(path = tensor<string, []>("@model_path/weights/weight.bin"), offset = tensor<uint64, []>(437195776))), name = tensor<string, []>("layers_31_self_attn_k_proj_weight_to_fp16_palettized"), shape = tensor<uint32, [4]>([1280, 1280, 1, 1])];
            tensor<fp16, [1, 1280, 1, 1500]> key_cast_fp16 = conv(dilations = var_3879, groups = var_3838, pad = key_pad_0, pad_type = key_pad_type_0, strides = var_3877, weight = layers_31_self_attn_k_proj_weight_to_fp16_palettized, x = obj_125_cast_fp16)[name = tensor<string, []>("key_cast_fp16")];
            tensor<int32, [2]> var_3884 = const()[name = tensor<string, []>("op_3884"), val = tensor<int32, [2]>([1, 1])];
            tensor<int32, [2]> var_3886 = const()[name = tensor<string, []>("op_3886"), val = tensor<int32, [2]>([1, 1])];
            tensor<string, []> value_pad_type_0 = const()[name = tensor<string, []>("value_pad_type_0"), val = tensor<string, []>("custom")];
            tensor<int32, [4]> value_pad_0 = const()[name = tensor<string, []>("value_pad_0"), val = tensor<int32, [4]>([0, 0, 0, 0])];
            tensor<fp16, [1280, 1280, 1, 1]> layers_31_self_attn_v_proj_weight_to_fp16_palettized = constexpr_lut_to_dense()[indices = tensor<uint8, [819200]>(BLOBFILE(path = tensor<string, []>("@model_path/weights/weight.bin"), offset = tensor<uint64, []>(437195904))), lut = tensor<fp16, [16]>(BLOBFILE(path = tensor<string, []>("@model_path/weights/weight.bin"), offset = tensor<uint64, []>(438015168))), name = tensor<string, []>("layers_31_self_attn_v_proj_weight_to_fp16_palettized"), shape = tensor<uint32, [4]>([1280, 1280, 1, 1])];
            tensor<fp16, [1280]> layers_31_self_attn_v_proj_bias_to_fp16 = const()[name = tensor<string, []>("layers_31_self_attn_v_proj_bias_to_fp16"), val = tensor<fp16, [1280]>(BLOBFILE(path = tensor<string, []>("@model_path/weights/weight.bin"), offset = tensor<uint64, []>(438015296)))];
            tensor<fp16, [1, 1280, 1, 1500]> value_cast_fp16 = conv(bias = layers_31_self_attn_v_proj_bias_to_fp16, dilations = var_3886, groups = var_3838, pad = value_pad_0, pad_type = value_pad_type_0, strides = var_3884, weight = layers_31_self_attn_v_proj_weight_to_fp16_palettized, x = obj_125_cast_fp16)[name = tensor<string, []>("value_cast_fp16")];
            tensor<int32, [4]> var_3890 = const()[name = tensor<string, []>("op_3890"), val = tensor<int32, [4]>([1, 20, 64, -1])];
            tensor<fp16, [1, 20, 64, 1500]> var_3891_cast_fp16 = reshape(shape = var_3890, x = query_cast_fp16)[name = tensor<string, []>("op_3891_cast_fp16")];
            tensor<fp16, []> var_3892_to_fp16 = const()[name = tensor<string, []>("op_3892_to_fp16"), val = tensor<fp16, []>(0x1p-3)];
            tensor<fp16, [1, 20, 64, 1500]> var_3893_cast_fp16 = mul(x = var_3891_cast_fp16, y = var_3892_to_fp16)[name = tensor<string, []>("op_3893_cast_fp16")];
            tensor<int32, [4]> var_3894 = const()[name = tensor<string, []>("op_3894"), val = tensor<int32, [4]>([1, 20, 64, -1])];
            tensor<fp16, [1, 20, 64, 1500]> var_3895_cast_fp16 = reshape(shape = var_3894, x = key_cast_fp16)[name = tensor<string, []>("op_3895_cast_fp16")];
            tensor<bool, []> mh_w_transpose_x_0 = const()[name = tensor<string, []>("mh_w_transpose_x_0"), val = tensor<bool, []>(true)];
            tensor<bool, []> mh_w_transpose_y_0 = const()[name = tensor<string, []>("mh_w_transpose_y_0"), val = tensor<bool, []>(false)];
            tensor<fp16, [1, 20, 1500, 1500]> mh_w_cast_fp16 = matmul(transpose_x = mh_w_transpose_x_0, transpose_y = mh_w_transpose_y_0, x = var_3893_cast_fp16, y = var_3895_cast_fp16)[name = tensor<string, []>("mh_w_cast_fp16")];
            tensor<fp16, [1, 20, 1500, 1500]> var_3898_cast_fp16 = softmax(axis = var_3836, x = mh_w_cast_fp16)[name = tensor<string, []>("op_3898_cast_fp16")];
            tensor<int32, [4]> var_3899 = const()[name = tensor<string, []>("op_3899"), val = tensor<int32, [4]>([1, 20, 64, -1])];
            tensor<fp16, [1, 20, 64, 1500]> var_3900_cast_fp16 = reshape(shape = var_3899, x = value_cast_fp16)[name = tensor<string, []>("op_3900_cast_fp16")];
            tensor<bool, []> attn_transpose_x_0 = const()[name = tensor<string, []>("attn_transpose_x_0"), val = tensor<bool, []>(false)];
            tensor<bool, []> attn_transpose_y_0 = const()[name = tensor<string, []>("attn_transpose_y_0"), val = tensor<bool, []>(true)];
            tensor<fp16, [1, 20, 64, 1500]> attn_cast_fp16 = matmul(transpose_x = attn_transpose_x_0, transpose_y = attn_transpose_y_0, x = var_3900_cast_fp16, y = var_3898_cast_fp16)[name = tensor<string, []>("attn_cast_fp16")];
            tensor<int32, [4]> var_3903 = const()[name = tensor<string, []>("op_3903"), val = tensor<int32, [4]>([1, 1280, 1, -1])];
            tensor<fp16, [1, 1280, 1, 1500]> input_249_cast_fp16 = reshape(shape = var_3903, x = attn_cast_fp16)[name = tensor<string, []>("input_249_cast_fp16")];
            tensor<int32, [2]> var_3907 = const()[name = tensor<string, []>("op_3907"), val = tensor<int32, [2]>([1, 1])];
            tensor<int32, [2]> var_3909 = const()[name = tensor<string, []>("op_3909"), val = tensor<int32, [2]>([1, 1])];
            tensor<string, []> obj_pad_type_0 = const()[name = tensor<string, []>("obj_pad_type_0"), val = tensor<string, []>("custom")];
            tensor<int32, [4]> obj_pad_0 = const()[name = tensor<string, []>("obj_pad_0"), val = tensor<int32, [4]>([0, 0, 0, 0])];
            tensor<fp16, [1280, 1280, 1, 1]> layers_31_self_attn_o_proj_weight_to_fp16_palettized = constexpr_lut_to_dense()[indices = tensor<uint8, [819200]>(BLOBFILE(path = tensor<string, []>("@model_path/weights/weight.bin"), offset = tensor<uint64, []>(438017920))), lut = tensor<fp16, [16]>(BLOBFILE(path = tensor<string, []>("@model_path/weights/weight.bin"), offset = tensor<uint64, []>(438837184))), name = tensor<string, []>("layers_31_self_attn_o_proj_weight_to_fp16_palettized"), shape = tensor<uint32, [4]>([1280, 1280, 1, 1])];
            tensor<fp16, [1280]> layers_31_self_attn_o_proj_bias_to_fp16 = const()[name = tensor<string, []>("layers_31_self_attn_o_proj_bias_to_fp16"), val = tensor<fp16, [1280]>(BLOBFILE(path = tensor<string, []>("@model_path/weights/weight.bin"), offset = tensor<uint64, []>(438837312)))];
            tensor<fp16, [1, 1280, 1, 1500]> obj_cast_fp16 = conv(bias = layers_31_self_attn_o_proj_bias_to_fp16, dilations = var_3909, groups = var_3838, pad = obj_pad_0, pad_type = obj_pad_type_0, strides = var_3907, weight = layers_31_self_attn_o_proj_weight_to_fp16_palettized, x = input_249_cast_fp16)[name = tensor<string, []>("obj_cast_fp16")];
            tensor<fp16, [1, 1280, 1, 1500]> inputs_127_cast_fp16 = add(x = inputs_125_cast_fp16, y = obj_cast_fp16)[name = tensor<string, []>("inputs_127_cast_fp16")];
            tensor<int32, [1]> var_3915 = const()[name = tensor<string, []>("op_3915"), val = tensor<int32, [1]>([1])];
            tensor<fp16, [1, 1, 1, 1500]> channels_mean_127_cast_fp16 = reduce_mean(axes = var_3915, keep_dims = var_3839, x = inputs_127_cast_fp16)[name = tensor<string, []>("channels_mean_127_cast_fp16")];
            tensor<fp16, [1, 1280, 1, 1500]> zero_mean_127_cast_fp16 = sub(x = inputs_127_cast_fp16, y = channels_mean_127_cast_fp16)[name = tensor<string, []>("zero_mean_127_cast_fp16")];
            tensor<fp16, [1, 1280, 1, 1500]> zero_mean_sq_127_cast_fp16 = mul(x = zero_mean_127_cast_fp16, y = zero_mean_127_cast_fp16)[name = tensor<string, []>("zero_mean_sq_127_cast_fp16")];
            tensor<int32, [1]> var_3919 = const()[name = tensor<string, []>("op_3919"), val = tensor<int32, [1]>([1])];
            tensor<fp16, [1, 1, 1, 1500]> var_3920_cast_fp16 = reduce_mean(axes = var_3919, keep_dims = var_3839, x = zero_mean_sq_127_cast_fp16)[name = tensor<string, []>("op_3920_cast_fp16")];
            tensor<fp16, []> var_3921_to_fp16 = const()[name = tensor<string, []>("op_3921_to_fp16"), val = tensor<fp16, []>(0x1.5p-17)];
            tensor<fp16, [1, 1, 1, 1500]> var_3922_cast_fp16 = add(x = var_3920_cast_fp16, y = var_3921_to_fp16)[name = tensor<string, []>("op_3922_cast_fp16")];
            tensor<fp32, []> denom_127_epsilon_0 = const()[name = tensor<string, []>("denom_127_epsilon_0"), val = tensor<fp32, []>(0x1.197998p-40)];
            tensor<fp16, [1, 1, 1, 1500]> denom_127_cast_fp16 = rsqrt(epsilon = denom_127_epsilon_0, x = var_3922_cast_fp16)[name = tensor<string, []>("denom_127_cast_fp16")];
            tensor<fp16, [1, 1280, 1, 1500]> out_127_cast_fp16 = mul(x = zero_mean_127_cast_fp16, y = denom_127_cast_fp16)[name = tensor<string, []>("out_127_cast_fp16")];
            tensor<fp16, [1280]> input_251_gamma_0_to_fp16 = const()[name = tensor<string, []>("input_251_gamma_0_to_fp16"), val = tensor<fp16, [1280]>(BLOBFILE(path = tensor<string, []>("@model_path/weights/weight.bin"), offset = tensor<uint64, []>(438839936)))];
            tensor<fp16, [1280]> input_251_beta_0_to_fp16 = const()[name = tensor<string, []>("input_251_beta_0_to_fp16"), val = tensor<fp16, [1280]>(BLOBFILE(path = tensor<string, []>("@model_path/weights/weight.bin"), offset = tensor<uint64, []>(438842560)))];
            tensor<fp16, []> input_251_epsilon_0_to_fp16 = const()[name = tensor<string, []>("input_251_epsilon_0_to_fp16"), val = tensor<fp16, []>(0x1.5p-17)];
            tensor<fp16, [1, 1280, 1, 1500]> input_251_cast_fp16 = batch_norm(beta = input_251_beta_0_to_fp16, epsilon = input_251_epsilon_0_to_fp16, gamma = input_251_gamma_0_to_fp16, mean = obj_1_mean_0_to_fp16, variance = obj_1_variance_0_to_fp16, x = out_127_cast_fp16)[name = tensor<string, []>("input_251_cast_fp16")];
            tensor<int32, [2]> var_3933 = const()[name = tensor<string, []>("op_3933"), val = tensor<int32, [2]>([1, 1])];
            tensor<int32, [2]> var_3935 = const()[name = tensor<string, []>("op_3935"), val = tensor<int32, [2]>([1, 1])];
            tensor<string, []> input_253_pad_type_0 = const()[name = tensor<string, []>("input_253_pad_type_0"), val = tensor<string, []>("custom")];
            tensor<int32, [4]> input_253_pad_0 = const()[name = tensor<string, []>("input_253_pad_0"), val = tensor<int32, [4]>([0, 0, 0, 0])];
            tensor<fp16, [5120, 1280, 1, 1]> layers_31_fc1_weight_to_fp16_palettized = constexpr_lut_to_dense()[indices = tensor<uint8, [3276800]>(BLOBFILE(path = tensor<string, []>("@model_path/weights/weight.bin"), offset = tensor<uint64, []>(438845184))), lut = tensor<fp16, [16]>(BLOBFILE(path = tensor<string, []>("@model_path/weights/weight.bin"), offset = tensor<uint64, []>(442122048))), name = tensor<string, []>("layers_31_fc1_weight_to_fp16_palettized"), shape = tensor<uint32, [4]>([5120, 1280, 1, 1])];
            tensor<fp16, [5120]> layers_31_fc1_bias_to_fp16 = const()[name = tensor<string, []>("layers_31_fc1_bias_to_fp16"), val = tensor<fp16, [5120]>(BLOBFILE(path = tensor<string, []>("@model_path/weights/weight.bin"), offset = tensor<uint64, []>(442122176)))];
            tensor<fp16, [1, 5120, 1, 1500]> input_253_cast_fp16 = conv(bias = layers_31_fc1_bias_to_fp16, dilations = var_3935, groups = var_3838, pad = input_253_pad_0, pad_type = input_253_pad_type_0, strides = var_3933, weight = layers_31_fc1_weight_to_fp16_palettized, x = input_251_cast_fp16)[name = tensor<string, []>("input_253_cast_fp16")];
            tensor<string, []> input_mode_0 = const()[name = tensor<string, []>("input_mode_0"), val = tensor<string, []>("EXACT")];
            tensor<fp16, [1, 5120, 1, 1500]> input_cast_fp16 = gelu(mode = input_mode_0, x = input_253_cast_fp16)[name = tensor<string, []>("input_cast_fp16")];
            tensor<int32, [2]> var_3941 = const()[name = tensor<string, []>("op_3941"), val = tensor<int32, [2]>([1, 1])];
            tensor<int32, [2]> var_3943 = const()[name = tensor<string, []>("op_3943"), val = tensor<int32, [2]>([1, 1])];
            tensor<string, []> hidden_states_pad_type_0 = const()[name = tensor<string, []>("hidden_states_pad_type_0"), val = tensor<string, []>("custom")];
            tensor<int32, [4]> hidden_states_pad_0 = const()[name = tensor<string, []>("hidden_states_pad_0"), val = tensor<int32, [4]>([0, 0, 0, 0])];
            tensor<fp16, [1280, 5120, 1, 1]> layers_31_fc2_weight_to_fp16 = const()[name = tensor<string, []>("layers_31_fc2_weight_to_fp16"), val = tensor<fp16, [1280, 5120, 1, 1]>(BLOBFILE(path = tensor<string, []>("@model_path/weights/weight.bin"), offset = tensor<uint64, []>(442132480)))];
            tensor<fp16, [1280]> layers_31_fc2_bias_to_fp16 = const()[name = tensor<string, []>("layers_31_fc2_bias_to_fp16"), val = tensor<fp16, [1280]>(BLOBFILE(path = tensor<string, []>("@model_path/weights/weight.bin"), offset = tensor<uint64, []>(455239744)))];
            tensor<fp16, [1, 1280, 1, 1500]> hidden_states_cast_fp16 = conv(bias = layers_31_fc2_bias_to_fp16, dilations = var_3943, groups = var_3838, pad = hidden_states_pad_0, pad_type = hidden_states_pad_type_0, strides = var_3941, weight = layers_31_fc2_weight_to_fp16, x = input_cast_fp16)[name = tensor<string, []>("hidden_states_cast_fp16")];
            tensor<fp16, [1, 1280, 1, 1500]> inputs_cast_fp16 = add(x = inputs_127_cast_fp16, y = hidden_states_cast_fp16)[name = tensor<string, []>("inputs_cast_fp16")];
            tensor<bool, []> var_3949 = const()[name = tensor<string, []>("op_3949"), val = tensor<bool, []>(true)];
            tensor<int32, [1]> var_3953 = const()[name = tensor<string, []>("op_3953"), val = tensor<int32, [1]>([1])];
            tensor<fp16, [1, 1, 1, 1500]> channels_mean_cast_fp16 = reduce_mean(axes = var_3953, keep_dims = var_3949, x = inputs_cast_fp16)[name = tensor<string, []>("channels_mean_cast_fp16")];
            tensor<fp16, [1, 1280, 1, 1500]> zero_mean_cast_fp16 = sub(x = inputs_cast_fp16, y = channels_mean_cast_fp16)[name = tensor<string, []>("zero_mean_cast_fp16")];
            tensor<fp16, [1, 1280, 1, 1500]> zero_mean_sq_cast_fp16 = mul(x = zero_mean_cast_fp16, y = zero_mean_cast_fp16)[name = tensor<string, []>("zero_mean_sq_cast_fp16")];
            tensor<int32, [1]> var_3957 = const()[name = tensor<string, []>("op_3957"), val = tensor<int32, [1]>([1])];
            tensor<fp16, [1, 1, 1, 1500]> var_3958_cast_fp16 = reduce_mean(axes = var_3957, keep_dims = var_3949, x = zero_mean_sq_cast_fp16)[name = tensor<string, []>("op_3958_cast_fp16")];
            tensor<fp16, []> var_3959_to_fp16 = const()[name = tensor<string, []>("op_3959_to_fp16"), val = tensor<fp16, []>(0x1.5p-17)];
            tensor<fp16, [1, 1, 1, 1500]> var_3960_cast_fp16 = add(x = var_3958_cast_fp16, y = var_3959_to_fp16)[name = tensor<string, []>("op_3960_cast_fp16")];
            tensor<fp32, []> denom_epsilon_0 = const()[name = tensor<string, []>("denom_epsilon_0"), val = tensor<fp32, []>(0x1.197998p-40)];
            tensor<fp16, [1, 1, 1, 1500]> denom_cast_fp16 = rsqrt(epsilon = denom_epsilon_0, x = var_3960_cast_fp16)[name = tensor<string, []>("denom_cast_fp16")];
            tensor<fp16, [1, 1280, 1, 1500]> out_cast_fp16 = mul(x = zero_mean_cast_fp16, y = denom_cast_fp16)[name = tensor<string, []>("out_cast_fp16")];
            tensor<fp16, [1280]> encoder_output_embeds_type_fp32_gamma_0_to_fp16 = const()[name = tensor<string, []>("encoder_output_embeds_type_fp32_gamma_0_to_fp16"), val = tensor<fp16, [1280]>(BLOBFILE(path = tensor<string, []>("@model_path/weights/weight.bin"), offset = tensor<uint64, []>(455242368)))];
            tensor<fp16, [1280]> encoder_output_embeds_type_fp32_beta_0_to_fp16 = const()[name = tensor<string, []>("encoder_output_embeds_type_fp32_beta_0_to_fp16"), val = tensor<fp16, [1280]>(BLOBFILE(path = tensor<string, []>("@model_path/weights/weight.bin"), offset = tensor<uint64, []>(455244992)))];
            tensor<fp16, []> encoder_output_embeds_type_fp32_epsilon_0_to_fp16 = const()[name = tensor<string, []>("encoder_output_embeds_type_fp32_epsilon_0_to_fp16"), val = tensor<fp16, []>(0x1.5p-17)];
            tensor<fp16, [1, 1280, 1, 1500]> encoder_output_embeds = batch_norm(beta = encoder_output_embeds_type_fp32_beta_0_to_fp16, epsilon = encoder_output_embeds_type_fp32_epsilon_0_to_fp16, gamma = encoder_output_embeds_type_fp32_gamma_0_to_fp16, mean = obj_1_mean_0_to_fp16, variance = obj_1_variance_0_to_fp16, x = out_cast_fp16)[name = tensor<string, []>("encoder_output_embeds_type_fp32_cast_fp16")];
        } -> (encoder_output_embeds);
}