program(1.0)
[buildInfo = dict<tensor<string, []>, tensor<string, []>>({{"coremlc-component-MIL", "5.33.5"}, {"coremlc-version", "1877.40.3"}})]
{
    func main<ios17>(tensor<int32, [1]> cache_length, tensor<fp16, [1, 224]> decoder_key_padding_mask, tensor<fp16, [1, 1280, 1, 1500]> encoder_output_embeds, tensor<int32, [1]> input_ids, tensor<fp16, [1, 40960, 1, 224]> key_cache, tensor<fp16, [1, 224]> kv_cache_update_mask, tensor<fp16, [1, 40960, 1, 224]> value_cache) {
            tensor<int32, []> var_80_axis_0 = const()[name = tensor<string, []>("op_80_axis_0"), val = tensor<int32, []>(0)];
            tensor<int32, []> var_80_batch_dims_0 = const()[name = tensor<string, []>("op_80_batch_dims_0"), val = tensor<int32, []>(0)];
            tensor<bool, []> var_80_validate_indices_0 = const()[name = tensor<string, []>("op_80_validate_indices_0"), val = tensor<bool, []>(false)];
            tensor<fp16, [51865, 1280]> embed_tokens_weight_to_fp16 = const()[name = tensor<string, []>("embed_tokens_weight_to_fp16"), val = tensor<fp16, [51865, 1280]>(BLOBFILE(path = tensor<string, []>("@model_path/weights/weight.bin"), offset = tensor<uint64, []>(64)))];
            tensor<fp16, [1, 1280]> var_80_cast_fp16 = gather(axis = var_80_axis_0, batch_dims = var_80_batch_dims_0, indices = input_ids, validate_indices = var_80_validate_indices_0, x = embed_tokens_weight_to_fp16)[name = tensor<string, []>("op_80_cast_fp16")];
            tensor<int32, []> var_84_axis_0 = const()[name = tensor<string, []>("op_84_axis_0"), val = tensor<int32, []>(0)];
            tensor<int32, []> var_84_batch_dims_0 = const()[name = tensor<string, []>("op_84_batch_dims_0"), val = tensor<int32, []>(0)];
            tensor<bool, []> var_84_validate_indices_0 = const()[name = tensor<string, []>("op_84_validate_indices_0"), val = tensor<bool, []>(false)];
            tensor<fp16, [448, 1280]> embed_positions_weight_to_fp16 = const()[name = tensor<string, []>("embed_positions_weight_to_fp16"), val = tensor<fp16, [448, 1280]>(BLOBFILE(path = tensor<string, []>("@model_path/weights/weight.bin"), offset = tensor<uint64, []>(132774528)))];
            tensor<string, []> cache_length_to_int16_dtype_0 = const()[name = tensor<string, []>("cache_length_to_int16_dtype_0"), val = tensor<string, []>("int16")];
            tensor<int16, [1]> cast_0 = cast(dtype = cache_length_to_int16_dtype_0, x = cache_length)[name = tensor<string, []>("cast_0")];
            tensor<fp16, [1, 1280]> var_84_cast_fp16_cast_int16 = gather(axis = var_84_axis_0, batch_dims = var_84_batch_dims_0, indices = cast_0, validate_indices = var_84_validate_indices_0, x = embed_positions_weight_to_fp16)[name = tensor<string, []>("op_84_cast_fp16_cast_int16")];
            tensor<fp16, [1, 1280]> hidden_states_1_cast_fp16 = add(x = var_80_cast_fp16, y = var_84_cast_fp16_cast_int16)[name = tensor<string, []>("hidden_states_1_cast_fp16")];
            tensor<int32, [1]> var_98_axes_0 = const()[name = tensor<string, []>("op_98_axes_0"), val = tensor<int32, [1]>([2])];
            tensor<fp16, [1, 1280, 1]> var_98_cast_fp16 = expand_dims(axes = var_98_axes_0, x = hidden_states_1_cast_fp16)[name = tensor<string, []>("op_98_cast_fp16")];
            tensor<int32, [1]> inputs_1_axes_0 = const()[name = tensor<string, []>("inputs_1_axes_0"), val = tensor<int32, [1]>([3])];
            tensor<fp16, [1, 1280, 1, 1]> inputs_1_cast_fp16 = expand_dims(axes = inputs_1_axes_0, x = var_98_cast_fp16)[name = tensor<string, []>("inputs_1_cast_fp16")];
            tensor<int32, [32]> tile_0 = const()[name = tensor<string, []>("tile_0"), val = tensor<int32, [32]>([1280, 1280, 1280, 1280, 1280, 1280, 1280, 1280, 1280, 1280, 1280, 1280, 1280, 1280, 1280, 1280, 1280, 1280, 1280, 1280, 1280, 1280, 1280, 1280, 1280, 1280, 1280, 1280, 1280, 1280, 1280, 1280])];
            tensor<int32, []> var_103_axis_0 = const()[name = tensor<string, []>("op_103_axis_0"), val = tensor<int32, []>(1)];
            tensor<fp16, [1, 1280, 1, 224]> var_103_cast_fp16_0, tensor<fp16, [1, 1280, 1, 224]> var_103_cast_fp16_1, tensor<fp16, [1, 1280, 1, 224]> var_103_cast_fp16_2, tensor<fp16, [1, 1280, 1, 224]> var_103_cast_fp16_3, tensor<fp16, [1, 1280, 1, 224]> var_103_cast_fp16_4, tensor<fp16, [1, 1280, 1, 224]> var_103_cast_fp16_5, tensor<fp16, [1, 1280, 1, 224]> var_103_cast_fp16_6, tensor<fp16, [1, 1280, 1, 224]> var_103_cast_fp16_7, tensor<fp16, [1, 1280, 1, 224]> var_103_cast_fp16_8, tensor<fp16, [1, 1280, 1, 224]> var_103_cast_fp16_9, tensor<fp16, [1, 1280, 1, 224]> var_103_cast_fp16_10, tensor<fp16, [1, 1280, 1, 224]> var_103_cast_fp16_11, tensor<fp16, [1, 1280, 1, 224]> var_103_cast_fp16_12, tensor<fp16, [1, 1280, 1, 224]> var_103_cast_fp16_13, tensor<fp16, [1, 1280, 1, 224]> var_103_cast_fp16_14, tensor<fp16, [1, 1280, 1, 224]> var_103_cast_fp16_15, tensor<fp16, [1, 1280, 1, 224]> var_103_cast_fp16_16, tensor<fp16, [1, 1280, 1, 224]> var_103_cast_fp16_17, tensor<fp16, [1, 1280, 1, 224]> var_103_cast_fp16_18, tensor<fp16, [1, 1280, 1, 224]> var_103_cast_fp16_19, tensor<fp16, [1, 1280, 1, 224]> var_103_cast_fp16_20, tensor<fp16, [1, 1280, 1, 224]> var_103_cast_fp16_21, tensor<fp16, [1, 1280, 1, 224]> var_103_cast_fp16_22, tensor<fp16, [1, 1280, 1, 224]> var_103_cast_fp16_23, tensor<fp16, [1, 1280, 1, 224]> var_103_cast_fp16_24, tensor<fp16, [1, 1280, 1, 224]> var_103_cast_fp16_25, tensor<fp16, [1, 1280, 1, 224]> var_103_cast_fp16_26, tensor<fp16, [1, 1280, 1, 224]> var_103_cast_fp16_27, tensor<fp16, [1, 1280, 1, 224]> var_103_cast_fp16_28, tensor<fp16, [1, 1280, 1, 224]> var_103_cast_fp16_29, tensor<fp16, [1, 1280, 1, 224]> var_103_cast_fp16_30, tensor<fp16, [1, 1280, 1, 224]> var_103_cast_fp16_31 = split(axis = var_103_axis_0, split_sizes = tile_0, x = key_cache)[name = tensor<string, []>("op_103_cast_fp16")];
            tensor<int32, [32]> tile_1 = const()[name = tensor<string, []>("tile_1"), val = tensor<int32, [32]>([1280, 1280, 1280, 1280, 1280, 1280, 1280, 1280, 1280, 1280, 1280, 1280, 1280, 1280, 1280, 1280, 1280, 1280, 1280, 1280, 1280, 1280, 1280, 1280, 1280, 1280, 1280, 1280, 1280, 1280, 1280, 1280])];
            tensor<int32, []> var_138_axis_0 = const()[name = tensor<string, []>("op_138_axis_0"), val = tensor<int32, []>(1)];
            tensor<fp16, [1, 1280, 1, 224]> var_138_cast_fp16_0, tensor<fp16, [1, 1280, 1, 224]> var_138_cast_fp16_1, tensor<fp16, [1, 1280, 1, 224]> var_138_cast_fp16_2, tensor<fp16, [1, 1280, 1, 224]> var_138_cast_fp16_3, tensor<fp16, [1, 1280, 1, 224]> var_138_cast_fp16_4, tensor<fp16, [1, 1280, 1, 224]> var_138_cast_fp16_5, tensor<fp16, [1, 1280, 1, 224]> var_138_cast_fp16_6, tensor<fp16, [1, 1280, 1, 224]> var_138_cast_fp16_7, tensor<fp16, [1, 1280, 1, 224]> var_138_cast_fp16_8, tensor<fp16, [1, 1280, 1, 224]> var_138_cast_fp16_9, tensor<fp16, [1, 1280, 1, 224]> var_138_cast_fp16_10, tensor<fp16, [1, 1280, 1, 224]> var_138_cast_fp16_11, tensor<fp16, [1, 1280, 1, 224]> var_138_cast_fp16_12, tensor<fp16, [1, 1280, 1, 224]> var_138_cast_fp16_13, tensor<fp16, [1, 1280, 1, 224]> var_138_cast_fp16_14, tensor<fp16, [1, 1280, 1, 224]> var_138_cast_fp16_15, tensor<fp16, [1, 1280, 1, 224]> var_138_cast_fp16_16, tensor<fp16, [1, 1280, 1, 224]> var_138_cast_fp16_17, tensor<fp16, [1, 1280, 1, 224]> var_138_cast_fp16_18, tensor<fp16, [1, 1280, 1, 224]> var_138_cast_fp16_19, tensor<fp16, [1, 1280, 1, 224]> var_138_cast_fp16_20, tensor<fp16, [1, 1280, 1, 224]> var_138_cast_fp16_21, tensor<fp16, [1, 1280, 1, 224]> var_138_cast_fp16_22, tensor<fp16, [1, 1280, 1, 224]> var_138_cast_fp16_23, tensor<fp16, [1, 1280, 1, 224]> var_138_cast_fp16_24, tensor<fp16, [1, 1280, 1, 224]> var_138_cast_fp16_25, tensor<fp16, [1, 1280, 1, 224]> var_138_cast_fp16_26, tensor<fp16, [1, 1280, 1, 224]> var_138_cast_fp16_27, tensor<fp16, [1, 1280, 1, 224]> var_138_cast_fp16_28, tensor<fp16, [1, 1280, 1, 224]> var_138_cast_fp16_29, tensor<fp16, [1, 1280, 1, 224]> var_138_cast_fp16_30, tensor<fp16, [1, 1280, 1, 224]> var_138_cast_fp16_31 = split(axis = var_138_axis_0, split_sizes = tile_1, x = value_cache)[name = tensor<string, []>("op_138_cast_fp16")];
            tensor<int32, []> var_176 = const()[name = tensor<string, []>("op_176"), val = tensor<int32, []>(3)];
            tensor<int32, []> var_183 = const()[name = tensor<string, []>("op_183"), val = tensor<int32, []>(1)];
            tensor<bool, []> var_184 = const()[name = tensor<string, []>("op_184"), val = tensor<bool, []>(true)];
            tensor<int32, [1]> var_196 = const()[name = tensor<string, []>("op_196"), val = tensor<int32, [1]>([1])];
            tensor<fp16, [1, 1, 1, 1]> channels_mean_1_cast_fp16 = reduce_mean(axes = var_196, keep_dims = var_184, x = inputs_1_cast_fp16)[name = tensor<string, []>("channels_mean_1_cast_fp16")];
            tensor<fp16, [1, 1280, 1, 1]> zero_mean_1_cast_fp16 = sub(x = inputs_1_cast_fp16, y = channels_mean_1_cast_fp16)[name = tensor<string, []>("zero_mean_1_cast_fp16")];
            tensor<fp16, [1, 1280, 1, 1]> zero_mean_sq_1_cast_fp16 = mul(x = zero_mean_1_cast_fp16, y = zero_mean_1_cast_fp16)[name = tensor<string, []>("zero_mean_sq_1_cast_fp16")];
            tensor<int32, [1]> var_200 = const()[name = tensor<string, []>("op_200"), val = tensor<int32, [1]>([1])];
            tensor<fp16, [1, 1, 1, 1]> var_201_cast_fp16 = reduce_mean(axes = var_200, keep_dims = var_184, x = zero_mean_sq_1_cast_fp16)[name = tensor<string, []>("op_201_cast_fp16")];
            tensor<fp16, []> var_202_to_fp16 = const()[name = tensor<string, []>("op_202_to_fp16"), val = tensor<fp16, []>(0x1.5p-17)];
            tensor<fp16, [1, 1, 1, 1]> var_203_cast_fp16 = add(x = var_201_cast_fp16, y = var_202_to_fp16)[name = tensor<string, []>("op_203_cast_fp16")];
            tensor<fp32, []> denom_1_epsilon_0 = const()[name = tensor<string, []>("denom_1_epsilon_0"), val = tensor<fp32, []>(0x1.197998p-40)];
            tensor<fp16, [1, 1, 1, 1]> denom_1_cast_fp16 = rsqrt(epsilon = denom_1_epsilon_0, x = var_203_cast_fp16)[name = tensor<string, []>("denom_1_cast_fp16")];
            tensor<fp16, [1, 1280, 1, 1]> out_1_cast_fp16 = mul(x = zero_mean_1_cast_fp16, y = denom_1_cast_fp16)[name = tensor<string, []>("out_1_cast_fp16")];
            tensor<fp16, [1280]> obj_1_mean_0_to_fp16 = const()[name = tensor<string, []>("obj_1_mean_0_to_fp16"), val = tensor<fp16, [1280]>(BLOBFILE(path = tensor<string, []>("@model_path/weights/weight.bin"), offset = tensor<uint64, []>(133921472)))];
            tensor<fp16, [1280]> obj_1_variance_0_to_fp16 = const()[name = tensor<string, []>("obj_1_variance_0_to_fp16"), val = tensor<fp16, [1280]>(BLOBFILE(path = tensor<string, []>("@model_path/weights/weight.bin"), offset = tensor<uint64, []>(133924096)))];
            tensor<fp16, [1280]> obj_1_gamma_0_to_fp16 = const()[name = tensor<string, []>("obj_1_gamma_0_to_fp16"), val = tensor<fp16, [1280]>(BLOBFILE(path = tensor<string, []>("@model_path/weights/weight.bin"), offset = tensor<uint64, []>(133926720)))];
            tensor<fp16, [1280]> obj_1_beta_0_to_fp16 = const()[name = tensor<string, []>("obj_1_beta_0_to_fp16"), val = tensor<fp16, [1280]>(BLOBFILE(path = tensor<string, []>("@model_path/weights/weight.bin"), offset = tensor<uint64, []>(133929344)))];
            tensor<fp16, []> obj_1_epsilon_0_to_fp16 = const()[name = tensor<string, []>("obj_1_epsilon_0_to_fp16"), val = tensor<fp16, []>(0x1.5p-17)];
            tensor<fp16, [1, 1280, 1, 1]> obj_1_cast_fp16 = batch_norm(beta = obj_1_beta_0_to_fp16, epsilon = obj_1_epsilon_0_to_fp16, gamma = obj_1_gamma_0_to_fp16, mean = obj_1_mean_0_to_fp16, variance = obj_1_variance_0_to_fp16, x = out_1_cast_fp16)[name = tensor<string, []>("obj_1_cast_fp16")];
            tensor<int32, [2]> var_221 = const()[name = tensor<string, []>("op_221"), val = tensor<int32, [2]>([1, 1])];
            tensor<int32, [2]> var_223 = const()[name = tensor<string, []>("op_223"), val = tensor<int32, [2]>([1, 1])];
            tensor<string, []> pretrained_out_1_pad_type_0 = const()[name = tensor<string, []>("pretrained_out_1_pad_type_0"), val = tensor<string, []>("custom")];
            tensor<int32, [4]> pretrained_out_1_pad_0 = const()[name = tensor<string, []>("pretrained_out_1_pad_0"), val = tensor<int32, [4]>([0, 0, 0, 0])];
            tensor<fp16, [1280, 1280, 1, 1]> layers_0_self_attn_q_proj_pretrained_weight_to_fp16_palettized = constexpr_lut_to_dense()[indices = tensor<uint8, [819200]>(BLOBFILE(path = tensor<string, []>("@model_path/weights/weight.bin"), offset = tensor<uint64, []>(133931968))), lut = tensor<fp16, [16]>(BLOBFILE(path = tensor<string, []>("@model_path/weights/weight.bin"), offset = tensor<uint64, []>(134751232))), name = tensor<string, []>("layers_0_self_attn_q_proj_pretrained_weight_to_fp16_palettized"), shape = tensor<uint32, [4]>([1280, 1280, 1, 1])];
            tensor<fp16, [1280]> layers_0_self_attn_q_proj_pretrained_bias_to_fp16 = const()[name = tensor<string, []>("layers_0_self_attn_q_proj_pretrained_bias_to_fp16"), val = tensor<fp16, [1280]>(BLOBFILE(path = tensor<string, []>("@model_path/weights/weight.bin"), offset = tensor<uint64, []>(134751360)))];
            tensor<fp16, [1, 1280, 1, 1]> pretrained_out_1_cast_fp16 = conv(bias = layers_0_self_attn_q_proj_pretrained_bias_to_fp16, dilations = var_223, groups = var_183, pad = pretrained_out_1_pad_0, pad_type = pretrained_out_1_pad_type_0, strides = var_221, weight = layers_0_self_attn_q_proj_pretrained_weight_to_fp16_palettized, x = obj_1_cast_fp16)[name = tensor<string, []>("pretrained_out_1_cast_fp16")];
            tensor<int32, [2]> var_227 = const()[name = tensor<string, []>("op_227"), val = tensor<int32, [2]>([1, 1])];
            tensor<int32, [2]> var_229 = const()[name = tensor<string, []>("op_229"), val = tensor<int32, [2]>([1, 1])];
            tensor<string, []> input_1_pad_type_0 = const()[name = tensor<string, []>("input_1_pad_type_0"), val = tensor<string, []>("custom")];
            tensor<int32, [4]> input_1_pad_0 = const()[name = tensor<string, []>("input_1_pad_0"), val = tensor<int32, [4]>([0, 0, 0, 0])];
            tensor<fp16, [16, 1280, 1, 1]> layers_0_self_attn_q_proj_loraA_weight_to_fp16 = const()[name = tensor<string, []>("layers_0_self_attn_q_proj_loraA_weight_to_fp16"), val = tensor<fp16, [16, 1280, 1, 1]>(BLOBFILE(path = tensor<string, []>("@model_path/weights/weight.bin"), offset = tensor<uint64, []>(134753984)))];
            tensor<fp16, [1, 16, 1, 1]> input_1_cast_fp16 = conv(dilations = var_229, groups = var_183, pad = input_1_pad_0, pad_type = input_1_pad_type_0, strides = var_227, weight = layers_0_self_attn_q_proj_loraA_weight_to_fp16, x = obj_1_cast_fp16)[name = tensor<string, []>("input_1_cast_fp16")];
            tensor<int32, [2]> var_233 = const()[name = tensor<string, []>("op_233"), val = tensor<int32, [2]>([1, 1])];
            tensor<int32, [2]> var_235 = const()[name = tensor<string, []>("op_235"), val = tensor<int32, [2]>([1, 1])];
            tensor<string, []> lora_out_1_pad_type_0 = const()[name = tensor<string, []>("lora_out_1_pad_type_0"), val = tensor<string, []>("custom")];
            tensor<int32, [4]> lora_out_1_pad_0 = const()[name = tensor<string, []>("lora_out_1_pad_0"), val = tensor<int32, [4]>([0, 0, 0, 0])];
            tensor<fp16, [1280, 16, 1, 1]> lora_out_3_weight_0_to_fp16 = const()[name = tensor<string, []>("lora_out_3_weight_0_to_fp16"), val = tensor<fp16, [1280, 16, 1, 1]>(BLOBFILE(path = tensor<string, []>("@model_path/weights/weight.bin"), offset = tensor<uint64, []>(134795008)))];
            tensor<fp16, [1, 1280, 1, 1]> lora_out_3_cast_fp16 = conv(bias = obj_1_mean_0_to_fp16, dilations = var_235, groups = var_183, pad = lora_out_1_pad_0, pad_type = lora_out_1_pad_type_0, strides = var_233, weight = lora_out_3_weight_0_to_fp16, x = input_1_cast_fp16)[name = tensor<string, []>("lora_out_3_cast_fp16")];
            tensor<fp16, [1, 1280, 1, 1]> query_1_cast_fp16 = add(x = pretrained_out_1_cast_fp16, y = lora_out_3_cast_fp16)[name = tensor<string, []>("query_1_cast_fp16")];
            tensor<int32, [2]> var_245 = const()[name = tensor<string, []>("op_245"), val = tensor<int32, [2]>([1, 1])];
            tensor<int32, [2]> var_247 = const()[name = tensor<string, []>("op_247"), val = tensor<int32, [2]>([1, 1])];
            tensor<string, []> pretrained_out_3_pad_type_0 = const()[name = tensor<string, []>("pretrained_out_3_pad_type_0"), val = tensor<string, []>("custom")];
            tensor<int32, [4]> pretrained_out_3_pad_0 = const()[name = tensor<string, []>("pretrained_out_3_pad_0"), val = tensor<int32, [4]>([0, 0, 0, 0])];
            tensor<fp16, [1280, 1280, 1, 1]> layers_0_self_attn_k_proj_pretrained_weight_to_fp16_palettized = constexpr_lut_to_dense()[indices = tensor<uint8, [819200]>(BLOBFILE(path = tensor<string, []>("@model_path/weights/weight.bin"), offset = tensor<uint64, []>(134836032))), lut = tensor<fp16, [16]>(BLOBFILE(path = tensor<string, []>("@model_path/weights/weight.bin"), offset = tensor<uint64, []>(135655296))), name = tensor<string, []>("layers_0_self_attn_k_proj_pretrained_weight_to_fp16_palettized"), shape = tensor<uint32, [4]>([1280, 1280, 1, 1])];
            tensor<fp16, [1, 1280, 1, 1]> pretrained_out_3_cast_fp16 = conv(dilations = var_247, groups = var_183, pad = pretrained_out_3_pad_0, pad_type = pretrained_out_3_pad_type_0, strides = var_245, weight = layers_0_self_attn_k_proj_pretrained_weight_to_fp16_palettized, x = obj_1_cast_fp16)[name = tensor<string, []>("pretrained_out_3_cast_fp16")];
            tensor<int32, [2]> var_251 = const()[name = tensor<string, []>("op_251"), val = tensor<int32, [2]>([1, 1])];
            tensor<int32, [2]> var_253 = const()[name = tensor<string, []>("op_253"), val = tensor<int32, [2]>([1, 1])];
            tensor<string, []> input_3_pad_type_0 = const()[name = tensor<string, []>("input_3_pad_type_0"), val = tensor<string, []>("custom")];
            tensor<int32, [4]> input_3_pad_0 = const()[name = tensor<string, []>("input_3_pad_0"), val = tensor<int32, [4]>([0, 0, 0, 0])];
            tensor<fp16, [16, 1280, 1, 1]> layers_0_self_attn_k_proj_loraA_weight_to_fp16 = const()[name = tensor<string, []>("layers_0_self_attn_k_proj_loraA_weight_to_fp16"), val = tensor<fp16, [16, 1280, 1, 1]>(BLOBFILE(path = tensor<string, []>("@model_path/weights/weight.bin"), offset = tensor<uint64, []>(135655424)))];
            tensor<fp16, [1, 16, 1, 1]> input_3_cast_fp16 = conv(dilations = var_253, groups = var_183, pad = input_3_pad_0, pad_type = input_3_pad_type_0, strides = var_251, weight = layers_0_self_attn_k_proj_loraA_weight_to_fp16, x = obj_1_cast_fp16)[name = tensor<string, []>("input_3_cast_fp16")];
            tensor<int32, [2]> var_257 = const()[name = tensor<string, []>("op_257"), val = tensor<int32, [2]>([1, 1])];
            tensor<int32, [2]> var_259 = const()[name = tensor<string, []>("op_259"), val = tensor<int32, [2]>([1, 1])];
            tensor<string, []> lora_out_5_pad_type_0 = const()[name = tensor<string, []>("lora_out_5_pad_type_0"), val = tensor<string, []>("custom")];
            tensor<int32, [4]> lora_out_5_pad_0 = const()[name = tensor<string, []>("lora_out_5_pad_0"), val = tensor<int32, [4]>([0, 0, 0, 0])];
            tensor<fp16, [1280, 16, 1, 1]> lora_out_7_weight_0_to_fp16 = const()[name = tensor<string, []>("lora_out_7_weight_0_to_fp16"), val = tensor<fp16, [1280, 16, 1, 1]>(BLOBFILE(path = tensor<string, []>("@model_path/weights/weight.bin"), offset = tensor<uint64, []>(135696448)))];
            tensor<fp16, [1, 1280, 1, 1]> lora_out_7_cast_fp16 = conv(bias = obj_1_mean_0_to_fp16, dilations = var_259, groups = var_183, pad = lora_out_5_pad_0, pad_type = lora_out_5_pad_type_0, strides = var_257, weight = lora_out_7_weight_0_to_fp16, x = input_3_cast_fp16)[name = tensor<string, []>("lora_out_7_cast_fp16")];
            tensor<fp16, [1, 1280, 1, 1]> current_key_1_cast_fp16 = add(x = pretrained_out_3_cast_fp16, y = lora_out_7_cast_fp16)[name = tensor<string, []>("current_key_1_cast_fp16")];
            tensor<int32, [2]> var_270 = const()[name = tensor<string, []>("op_270"), val = tensor<int32, [2]>([1, 1])];
            tensor<int32, [2]> var_272 = const()[name = tensor<string, []>("op_272"), val = tensor<int32, [2]>([1, 1])];
            tensor<string, []> pretrained_out_5_pad_type_0 = const()[name = tensor<string, []>("pretrained_out_5_pad_type_0"), val = tensor<string, []>("custom")];
            tensor<int32, [4]> pretrained_out_5_pad_0 = const()[name = tensor<string, []>("pretrained_out_5_pad_0"), val = tensor<int32, [4]>([0, 0, 0, 0])];
            tensor<fp16, [1280, 1280, 1, 1]> layers_0_self_attn_v_proj_pretrained_weight_to_fp16_palettized = constexpr_lut_to_dense()[indices = tensor<uint8, [819200]>(BLOBFILE(path = tensor<string, []>("@model_path/weights/weight.bin"), offset = tensor<uint64, []>(135737472))), lut = tensor<fp16, [16]>(BLOBFILE(path = tensor<string, []>("@model_path/weights/weight.bin"), offset = tensor<uint64, []>(136556736))), name = tensor<string, []>("layers_0_self_attn_v_proj_pretrained_weight_to_fp16_palettized"), shape = tensor<uint32, [4]>([1280, 1280, 1, 1])];
            tensor<fp16, [1280]> layers_0_self_attn_v_proj_pretrained_bias_to_fp16 = const()[name = tensor<string, []>("layers_0_self_attn_v_proj_pretrained_bias_to_fp16"), val = tensor<fp16, [1280]>(BLOBFILE(path = tensor<string, []>("@model_path/weights/weight.bin"), offset = tensor<uint64, []>(136556864)))];
            tensor<fp16, [1, 1280, 1, 1]> pretrained_out_5_cast_fp16 = conv(bias = layers_0_self_attn_v_proj_pretrained_bias_to_fp16, dilations = var_272, groups = var_183, pad = pretrained_out_5_pad_0, pad_type = pretrained_out_5_pad_type_0, strides = var_270, weight = layers_0_self_attn_v_proj_pretrained_weight_to_fp16_palettized, x = obj_1_cast_fp16)[name = tensor<string, []>("pretrained_out_5_cast_fp16")];
            tensor<int32, [2]> var_276 = const()[name = tensor<string, []>("op_276"), val = tensor<int32, [2]>([1, 1])];
            tensor<int32, [2]> var_278 = const()[name = tensor<string, []>("op_278"), val = tensor<int32, [2]>([1, 1])];
            tensor<string, []> input_5_pad_type_0 = const()[name = tensor<string, []>("input_5_pad_type_0"), val = tensor<string, []>("custom")];
            tensor<int32, [4]> input_5_pad_0 = const()[name = tensor<string, []>("input_5_pad_0"), val = tensor<int32, [4]>([0, 0, 0, 0])];
            tensor<fp16, [16, 1280, 1, 1]> layers_0_self_attn_v_proj_loraA_weight_to_fp16 = const()[name = tensor<string, []>("layers_0_self_attn_v_proj_loraA_weight_to_fp16"), val = tensor<fp16, [16, 1280, 1, 1]>(BLOBFILE(path = tensor<string, []>("@model_path/weights/weight.bin"), offset = tensor<uint64, []>(136559488)))];
            tensor<fp16, [1, 16, 1, 1]> input_5_cast_fp16 = conv(dilations = var_278, groups = var_183, pad = input_5_pad_0, pad_type = input_5_pad_type_0, strides = var_276, weight = layers_0_self_attn_v_proj_loraA_weight_to_fp16, x = obj_1_cast_fp16)[name = tensor<string, []>("input_5_cast_fp16")];
            tensor<int32, [2]> var_282 = const()[name = tensor<string, []>("op_282"), val = tensor<int32, [2]>([1, 1])];
            tensor<int32, [2]> var_284 = const()[name = tensor<string, []>("op_284"), val = tensor<int32, [2]>([1, 1])];
            tensor<string, []> lora_out_9_pad_type_0 = const()[name = tensor<string, []>("lora_out_9_pad_type_0"), val = tensor<string, []>("custom")];
            tensor<int32, [4]> lora_out_9_pad_0 = const()[name = tensor<string, []>("lora_out_9_pad_0"), val = tensor<int32, [4]>([0, 0, 0, 0])];
            tensor<fp16, [1280, 16, 1, 1]> lora_out_11_weight_0_to_fp16 = const()[name = tensor<string, []>("lora_out_11_weight_0_to_fp16"), val = tensor<fp16, [1280, 16, 1, 1]>(BLOBFILE(path = tensor<string, []>("@model_path/weights/weight.bin"), offset = tensor<uint64, []>(136600512)))];
            tensor<fp16, [1, 1280, 1, 1]> lora_out_11_cast_fp16 = conv(bias = obj_1_mean_0_to_fp16, dilations = var_284, groups = var_183, pad = lora_out_9_pad_0, pad_type = lora_out_9_pad_type_0, strides = var_282, weight = lora_out_11_weight_0_to_fp16, x = input_5_cast_fp16)[name = tensor<string, []>("lora_out_11_cast_fp16")];
            tensor<fp16, [1, 1280, 1, 1]> current_value_1_cast_fp16 = add(x = pretrained_out_5_cast_fp16, y = lora_out_11_cast_fp16)[name = tensor<string, []>("current_value_1_cast_fp16")];
            tensor<int32, [1]> var_291_axes_0 = const()[name = tensor<string, []>("op_291_axes_0"), val = tensor<int32, [1]>([1])];
            tensor<fp16, [1, 1, 224]> var_291_cast_fp16 = expand_dims(axes = var_291_axes_0, x = kv_cache_update_mask)[name = tensor<string, []>("op_291_cast_fp16")];
            tensor<int32, [1]> var_292_axes_0 = const()[name = tensor<string, []>("op_292_axes_0"), val = tensor<int32, [1]>([2])];
            tensor<fp16, [1, 1, 1, 224]> var_292_cast_fp16 = expand_dims(axes = var_292_axes_0, x = var_291_cast_fp16)[name = tensor<string, []>("op_292_cast_fp16")];
            tensor<fp16, [1, 1280, 1, 224]> var_294_cast_fp16 = mul(x = current_key_1_cast_fp16, y = var_292_cast_fp16)[name = tensor<string, []>("op_294_cast_fp16")];
            tensor<fp16, []> var_177_to_fp16 = const()[name = tensor<string, []>("op_177_to_fp16"), val = tensor<fp16, []>(0x1p+0)];
            tensor<fp16, [1, 1, 1, 224]> var_295_cast_fp16 = sub(x = var_177_to_fp16, y = var_292_cast_fp16)[name = tensor<string, []>("op_295_cast_fp16")];
            tensor<fp16, [1, 1280, 1, 224]> var_296_cast_fp16 = mul(x = var_103_cast_fp16_0, y = var_295_cast_fp16)[name = tensor<string, []>("op_296_cast_fp16")];
            tensor<fp16, [1, 1280, 1, 224]> key_1_cast_fp16 = add(x = var_294_cast_fp16, y = var_296_cast_fp16)[name = tensor<string, []>("key_1_cast_fp16")];
            tensor<fp16, [1, 1280, 1, 224]> var_298_cast_fp16 = mul(x = current_value_1_cast_fp16, y = var_292_cast_fp16)[name = tensor<string, []>("op_298_cast_fp16")];
            tensor<fp16, [1, 1280, 1, 224]> var_300_cast_fp16 = mul(x = var_138_cast_fp16_0, y = var_295_cast_fp16)[name = tensor<string, []>("op_300_cast_fp16")];
            tensor<fp16, [1, 1280, 1, 224]> value_1_cast_fp16 = add(x = var_298_cast_fp16, y = var_300_cast_fp16)[name = tensor<string, []>("value_1_cast_fp16")];
            tensor<int32, [4]> var_303 = const()[name = tensor<string, []>("op_303"), val = tensor<int32, [4]>([1, 20, 64, -1])];
            tensor<fp16, [1, 20, 64, 1]> var_304_cast_fp16 = reshape(shape = var_303, x = query_1_cast_fp16)[name = tensor<string, []>("op_304_cast_fp16")];
            tensor<fp16, []> var_305_to_fp16 = const()[name = tensor<string, []>("op_305_to_fp16"), val = tensor<fp16, []>(0x1p-3)];
            tensor<fp16, [1, 20, 64, 1]> var_306_cast_fp16 = mul(x = var_304_cast_fp16, y = var_305_to_fp16)[name = tensor<string, []>("op_306_cast_fp16")];
            tensor<int32, [4]> var_307 = const()[name = tensor<string, []>("op_307"), val = tensor<int32, [4]>([1, 20, 64, -1])];
            tensor<fp16, [1, 20, 64, 224]> var_308_cast_fp16 = reshape(shape = var_307, x = key_1_cast_fp16)[name = tensor<string, []>("op_308_cast_fp16")];
            tensor<bool, []> mh_w_1_transpose_x_0 = const()[name = tensor<string, []>("mh_w_1_transpose_x_0"), val = tensor<bool, []>(true)];
            tensor<bool, []> mh_w_1_transpose_y_0 = const()[name = tensor<string, []>("mh_w_1_transpose_y_0"), val = tensor<bool, []>(false)];
            tensor<fp16, [1, 20, 1, 224]> mh_w_1_cast_fp16 = matmul(transpose_x = mh_w_1_transpose_x_0, transpose_y = mh_w_1_transpose_y_0, x = var_306_cast_fp16, y = var_308_cast_fp16)[name = tensor<string, []>("mh_w_1_cast_fp16")];
            tensor<int32, [1]> var_312_axes_0 = const()[name = tensor<string, []>("op_312_axes_0"), val = tensor<int32, [1]>([1])];
            tensor<fp16, [1, 1, 224]> var_312_cast_fp16 = expand_dims(axes = var_312_axes_0, x = decoder_key_padding_mask)[name = tensor<string, []>("op_312_cast_fp16")];
            tensor<int32, [1]> var_313_axes_0 = const()[name = tensor<string, []>("op_313_axes_0"), val = tensor<int32, [1]>([2])];
            tensor<fp16, [1, 1, 1, 224]> var_313_cast_fp16 = expand_dims(axes = var_313_axes_0, x = var_312_cast_fp16)[name = tensor<string, []>("op_313_cast_fp16")];
            tensor<fp16, [1, 20, 1, 224]> mh_w_3_cast_fp16 = add(x = mh_w_1_cast_fp16, y = var_313_cast_fp16)[name = tensor<string, []>("mh_w_3_cast_fp16")];
            tensor<fp16, [1, 20, 1, 224]> var_316_cast_fp16 = softmax(axis = var_176, x = mh_w_3_cast_fp16)[name = tensor<string, []>("op_316_cast_fp16")];
            tensor<int32, [4]> var_317 = const()[name = tensor<string, []>("op_317"), val = tensor<int32, [4]>([1, 20, 64, -1])];
            tensor<fp16, [1, 20, 64, 224]> var_318_cast_fp16 = reshape(shape = var_317, x = value_1_cast_fp16)[name = tensor<string, []>("op_318_cast_fp16")];
            tensor<bool, []> attn_1_transpose_x_0 = const()[name = tensor<string, []>("attn_1_transpose_x_0"), val = tensor<bool, []>(false)];
            tensor<bool, []> attn_1_transpose_y_0 = const()[name = tensor<string, []>("attn_1_transpose_y_0"), val = tensor<bool, []>(true)];
            tensor<fp16, [1, 20, 64, 1]> attn_1_cast_fp16 = matmul(transpose_x = attn_1_transpose_x_0, transpose_y = attn_1_transpose_y_0, x = var_318_cast_fp16, y = var_316_cast_fp16)[name = tensor<string, []>("attn_1_cast_fp16")];
            tensor<int32, [4]> var_321 = const()[name = tensor<string, []>("op_321"), val = tensor<int32, [4]>([1, 1280, 1, -1])];
            tensor<fp16, [1, 1280, 1, 1]> input_7_cast_fp16 = reshape(shape = var_321, x = attn_1_cast_fp16)[name = tensor<string, []>("input_7_cast_fp16")];
            tensor<int32, [2]> var_328 = const()[name = tensor<string, []>("op_328"), val = tensor<int32, [2]>([1, 1])];
            tensor<int32, [2]> var_330 = const()[name = tensor<string, []>("op_330"), val = tensor<int32, [2]>([1, 1])];
            tensor<string, []> pretrained_out_7_pad_type_0 = const()[name = tensor<string, []>("pretrained_out_7_pad_type_0"), val = tensor<string, []>("custom")];
            tensor<int32, [4]> pretrained_out_7_pad_0 = const()[name = tensor<string, []>("pretrained_out_7_pad_0"), val = tensor<int32, [4]>([0, 0, 0, 0])];
            tensor<fp16, [1280, 1280, 1, 1]> layers_0_self_attn_o_proj_pretrained_weight_to_fp16_palettized = constexpr_lut_to_dense()[indices = tensor<uint8, [819200]>(BLOBFILE(path = tensor<string, []>("@model_path/weights/weight.bin"), offset = tensor<uint64, []>(136641536))), lut = tensor<fp16, [16]>(BLOBFILE(path = tensor<string, []>("@model_path/weights/weight.bin"), offset = tensor<uint64, []>(137460800))), name = tensor<string, []>("layers_0_self_attn_o_proj_pretrained_weight_to_fp16_palettized"), shape = tensor<uint32, [4]>([1280, 1280, 1, 1])];
            tensor<fp16, [1280]> layers_0_self_attn_o_proj_pretrained_bias_to_fp16 = const()[name = tensor<string, []>("layers_0_self_attn_o_proj_pretrained_bias_to_fp16"), val = tensor<fp16, [1280]>(BLOBFILE(path = tensor<string, []>("@model_path/weights/weight.bin"), offset = tensor<uint64, []>(137460928)))];
            tensor<fp16, [1, 1280, 1, 1]> pretrained_out_7_cast_fp16 = conv(bias = layers_0_self_attn_o_proj_pretrained_bias_to_fp16, dilations = var_330, groups = var_183, pad = pretrained_out_7_pad_0, pad_type = pretrained_out_7_pad_type_0, strides = var_328, weight = layers_0_self_attn_o_proj_pretrained_weight_to_fp16_palettized, x = input_7_cast_fp16)[name = tensor<string, []>("pretrained_out_7_cast_fp16")];
            tensor<int32, [2]> var_334 = const()[name = tensor<string, []>("op_334"), val = tensor<int32, [2]>([1, 1])];
            tensor<int32, [2]> var_336 = const()[name = tensor<string, []>("op_336"), val = tensor<int32, [2]>([1, 1])];
            tensor<string, []> input_9_pad_type_0 = const()[name = tensor<string, []>("input_9_pad_type_0"), val = tensor<string, []>("custom")];
            tensor<int32, [4]> input_9_pad_0 = const()[name = tensor<string, []>("input_9_pad_0"), val = tensor<int32, [4]>([0, 0, 0, 0])];
            tensor<fp16, [16, 1280, 1, 1]> layers_0_self_attn_o_proj_loraA_weight_to_fp16 = const()[name = tensor<string, []>("layers_0_self_attn_o_proj_loraA_weight_to_fp16"), val = tensor<fp16, [16, 1280, 1, 1]>(BLOBFILE(path = tensor<string, []>("@model_path/weights/weight.bin"), offset = tensor<uint64, []>(137463552)))];
            tensor<fp16, [1, 16, 1, 1]> input_9_cast_fp16 = conv(dilations = var_336, groups = var_183, pad = input_9_pad_0, pad_type = input_9_pad_type_0, strides = var_334, weight = layers_0_self_attn_o_proj_loraA_weight_to_fp16, x = input_7_cast_fp16)[name = tensor<string, []>("input_9_cast_fp16")];
            tensor<int32, [2]> var_340 = const()[name = tensor<string, []>("op_340"), val = tensor<int32, [2]>([1, 1])];
            tensor<int32, [2]> var_342 = const()[name = tensor<string, []>("op_342"), val = tensor<int32, [2]>([1, 1])];
            tensor<string, []> lora_out_13_pad_type_0 = const()[name = tensor<string, []>("lora_out_13_pad_type_0"), val = tensor<string, []>("custom")];
            tensor<int32, [4]> lora_out_13_pad_0 = const()[name = tensor<string, []>("lora_out_13_pad_0"), val = tensor<int32, [4]>([0, 0, 0, 0])];
            tensor<fp16, [1280, 16, 1, 1]> lora_out_15_weight_0_to_fp16 = const()[name = tensor<string, []>("lora_out_15_weight_0_to_fp16"), val = tensor<fp16, [1280, 16, 1, 1]>(BLOBFILE(path = tensor<string, []>("@model_path/weights/weight.bin"), offset = tensor<uint64, []>(137504576)))];
            tensor<fp16, [1, 1280, 1, 1]> lora_out_15_cast_fp16 = conv(bias = obj_1_mean_0_to_fp16, dilations = var_342, groups = var_183, pad = lora_out_13_pad_0, pad_type = lora_out_13_pad_type_0, strides = var_340, weight = lora_out_15_weight_0_to_fp16, x = input_9_cast_fp16)[name = tensor<string, []>("lora_out_15_cast_fp16")];
            tensor<fp16, [1, 1280, 1, 1]> obj_7_cast_fp16 = add(x = pretrained_out_7_cast_fp16, y = lora_out_15_cast_fp16)[name = tensor<string, []>("obj_7_cast_fp16")];
            tensor<fp16, [1, 1280, 1, 1]> inputs_3_cast_fp16 = add(x = inputs_1_cast_fp16, y = obj_7_cast_fp16)[name = tensor<string, []>("inputs_3_cast_fp16")];
            tensor<int32, [1]> var_355 = const()[name = tensor<string, []>("op_355"), val = tensor<int32, [1]>([1])];
            tensor<fp16, [1, 1, 1, 1]> channels_mean_3_cast_fp16 = reduce_mean(axes = var_355, keep_dims = var_184, x = inputs_3_cast_fp16)[name = tensor<string, []>("channels_mean_3_cast_fp16")];
            tensor<fp16, [1, 1280, 1, 1]> zero_mean_3_cast_fp16 = sub(x = inputs_3_cast_fp16, y = channels_mean_3_cast_fp16)[name = tensor<string, []>("zero_mean_3_cast_fp16")];
            tensor<fp16, [1, 1280, 1, 1]> zero_mean_sq_3_cast_fp16 = mul(x = zero_mean_3_cast_fp16, y = zero_mean_3_cast_fp16)[name = tensor<string, []>("zero_mean_sq_3_cast_fp16")];
            tensor<int32, [1]> var_359 = const()[name = tensor<string, []>("op_359"), val = tensor<int32, [1]>([1])];
            tensor<fp16, [1, 1, 1, 1]> var_360_cast_fp16 = reduce_mean(axes = var_359, keep_dims = var_184, x = zero_mean_sq_3_cast_fp16)[name = tensor<string, []>("op_360_cast_fp16")];
            tensor<fp16, []> var_361_to_fp16 = const()[name = tensor<string, []>("op_361_to_fp16"), val = tensor<fp16, []>(0x1.5p-17)];
            tensor<fp16, [1, 1, 1, 1]> var_362_cast_fp16 = add(x = var_360_cast_fp16, y = var_361_to_fp16)[name = tensor<string, []>("op_362_cast_fp16")];
            tensor<fp32, []> denom_3_epsilon_0 = const()[name = tensor<string, []>("denom_3_epsilon_0"), val = tensor<fp32, []>(0x1.197998p-40)];
            tensor<fp16, [1, 1, 1, 1]> denom_3_cast_fp16 = rsqrt(epsilon = denom_3_epsilon_0, x = var_362_cast_fp16)[name = tensor<string, []>("denom_3_cast_fp16")];
            tensor<fp16, [1, 1280, 1, 1]> out_3_cast_fp16 = mul(x = zero_mean_3_cast_fp16, y = denom_3_cast_fp16)[name = tensor<string, []>("out_3_cast_fp16")];
            tensor<fp16, [1280]> obj_9_gamma_0_to_fp16 = const()[name = tensor<string, []>("obj_9_gamma_0_to_fp16"), val = tensor<fp16, [1280]>(BLOBFILE(path = tensor<string, []>("@model_path/weights/weight.bin"), offset = tensor<uint64, []>(137545600)))];
            tensor<fp16, [1280]> obj_9_beta_0_to_fp16 = const()[name = tensor<string, []>("obj_9_beta_0_to_fp16"), val = tensor<fp16, [1280]>(BLOBFILE(path = tensor<string, []>("@model_path/weights/weight.bin"), offset = tensor<uint64, []>(137548224)))];
            tensor<fp16, []> obj_9_epsilon_0_to_fp16 = const()[name = tensor<string, []>("obj_9_epsilon_0_to_fp16"), val = tensor<fp16, []>(0x1.5p-17)];
            tensor<fp16, [1, 1280, 1, 1]> obj_9_cast_fp16 = batch_norm(beta = obj_9_beta_0_to_fp16, epsilon = obj_9_epsilon_0_to_fp16, gamma = obj_9_gamma_0_to_fp16, mean = obj_1_mean_0_to_fp16, variance = obj_1_variance_0_to_fp16, x = out_3_cast_fp16)[name = tensor<string, []>("obj_9_cast_fp16")];
            tensor<int32, [2]> var_380 = const()[name = tensor<string, []>("op_380"), val = tensor<int32, [2]>([1, 1])];
            tensor<int32, [2]> var_382 = const()[name = tensor<string, []>("op_382"), val = tensor<int32, [2]>([1, 1])];
            tensor<string, []> pretrained_out_9_pad_type_0 = const()[name = tensor<string, []>("pretrained_out_9_pad_type_0"), val = tensor<string, []>("custom")];
            tensor<int32, [4]> pretrained_out_9_pad_0 = const()[name = tensor<string, []>("pretrained_out_9_pad_0"), val = tensor<int32, [4]>([0, 0, 0, 0])];
            tensor<fp16, [1280, 1280, 1, 1]> layers_0_encoder_attn_q_proj_pretrained_weight_to_fp16_palettized = constexpr_lut_to_dense()[indices = tensor<uint8, [819200]>(BLOBFILE(path = tensor<string, []>("@model_path/weights/weight.bin"), offset = tensor<uint64, []>(137550848))), lut = tensor<fp16, [16]>(BLOBFILE(path = tensor<string, []>("@model_path/weights/weight.bin"), offset = tensor<uint64, []>(138370112))), name = tensor<string, []>("layers_0_encoder_attn_q_proj_pretrained_weight_to_fp16_palettized"), shape = tensor<uint32, [4]>([1280, 1280, 1, 1])];
            tensor<fp16, [1280]> layers_0_encoder_attn_q_proj_pretrained_bias_to_fp16 = const()[name = tensor<string, []>("layers_0_encoder_attn_q_proj_pretrained_bias_to_fp16"), val = tensor<fp16, [1280]>(BLOBFILE(path = tensor<string, []>("@model_path/weights/weight.bin"), offset = tensor<uint64, []>(138370240)))];
            tensor<fp16, [1, 1280, 1, 1]> pretrained_out_9_cast_fp16 = conv(bias = layers_0_encoder_attn_q_proj_pretrained_bias_to_fp16, dilations = var_382, groups = var_183, pad = pretrained_out_9_pad_0, pad_type = pretrained_out_9_pad_type_0, strides = var_380, weight = layers_0_encoder_attn_q_proj_pretrained_weight_to_fp16_palettized, x = obj_9_cast_fp16)[name = tensor<string, []>("pretrained_out_9_cast_fp16")];
            tensor<int32, [2]> var_386 = const()[name = tensor<string, []>("op_386"), val = tensor<int32, [2]>([1, 1])];
            tensor<int32, [2]> var_388 = const()[name = tensor<string, []>("op_388"), val = tensor<int32, [2]>([1, 1])];
            tensor<string, []> input_11_pad_type_0 = const()[name = tensor<string, []>("input_11_pad_type_0"), val = tensor<string, []>("custom")];
            tensor<int32, [4]> input_11_pad_0 = const()[name = tensor<string, []>("input_11_pad_0"), val = tensor<int32, [4]>([0, 0, 0, 0])];
            tensor<fp16, [16, 1280, 1, 1]> layers_0_encoder_attn_q_proj_loraA_weight_to_fp16 = const()[name = tensor<string, []>("layers_0_encoder_attn_q_proj_loraA_weight_to_fp16"), val = tensor<fp16, [16, 1280, 1, 1]>(BLOBFILE(path = tensor<string, []>("@model_path/weights/weight.bin"), offset = tensor<uint64, []>(138372864)))];
            tensor<fp16, [1, 16, 1, 1]> input_11_cast_fp16 = conv(dilations = var_388, groups = var_183, pad = input_11_pad_0, pad_type = input_11_pad_type_0, strides = var_386, weight = layers_0_encoder_attn_q_proj_loraA_weight_to_fp16, x = obj_9_cast_fp16)[name = tensor<string, []>("input_11_cast_fp16")];
            tensor<int32, [2]> var_392 = const()[name = tensor<string, []>("op_392"), val = tensor<int32, [2]>([1, 1])];
            tensor<int32, [2]> var_394 = const()[name = tensor<string, []>("op_394"), val = tensor<int32, [2]>([1, 1])];
            tensor<string, []> lora_out_17_pad_type_0 = const()[name = tensor<string, []>("lora_out_17_pad_type_0"), val = tensor<string, []>("custom")];
            tensor<int32, [4]> lora_out_17_pad_0 = const()[name = tensor<string, []>("lora_out_17_pad_0"), val = tensor<int32, [4]>([0, 0, 0, 0])];
            tensor<fp16, [1280, 16, 1, 1]> lora_out_19_weight_0_to_fp16 = const()[name = tensor<string, []>("lora_out_19_weight_0_to_fp16"), val = tensor<fp16, [1280, 16, 1, 1]>(BLOBFILE(path = tensor<string, []>("@model_path/weights/weight.bin"), offset = tensor<uint64, []>(138413888)))];
            tensor<fp16, [1, 1280, 1, 1]> lora_out_19_cast_fp16 = conv(bias = obj_1_mean_0_to_fp16, dilations = var_394, groups = var_183, pad = lora_out_17_pad_0, pad_type = lora_out_17_pad_type_0, strides = var_392, weight = lora_out_19_weight_0_to_fp16, x = input_11_cast_fp16)[name = tensor<string, []>("lora_out_19_cast_fp16")];
            tensor<fp16, [1, 1280, 1, 1]> query_3_cast_fp16 = add(x = pretrained_out_9_cast_fp16, y = lora_out_19_cast_fp16)[name = tensor<string, []>("query_3_cast_fp16")];
            tensor<int32, [2]> var_404 = const()[name = tensor<string, []>("op_404"), val = tensor<int32, [2]>([1, 1])];
            tensor<int32, [2]> var_406 = const()[name = tensor<string, []>("op_406"), val = tensor<int32, [2]>([1, 1])];
            tensor<string, []> pretrained_out_11_pad_type_0 = const()[name = tensor<string, []>("pretrained_out_11_pad_type_0"), val = tensor<string, []>("custom")];
            tensor<int32, [4]> pretrained_out_11_pad_0 = const()[name = tensor<string, []>("pretrained_out_11_pad_0"), val = tensor<int32, [4]>([0, 0, 0, 0])];
            tensor<fp16, [1280, 1280, 1, 1]> layers_0_encoder_attn_k_proj_pretrained_weight_to_fp16_palettized = constexpr_lut_to_dense()[indices = tensor<uint8, [819200]>(BLOBFILE(path = tensor<string, []>("@model_path/weights/weight.bin"), offset = tensor<uint64, []>(138454912))), lut = tensor<fp16, [16]>(BLOBFILE(path = tensor<string, []>("@model_path/weights/weight.bin"), offset = tensor<uint64, []>(139274176))), name = tensor<string, []>("layers_0_encoder_attn_k_proj_pretrained_weight_to_fp16_palettized"), shape = tensor<uint32, [4]>([1280, 1280, 1, 1])];
            tensor<fp16, [1, 1280, 1, 1500]> pretrained_out_11_cast_fp16 = conv(dilations = var_406, groups = var_183, pad = pretrained_out_11_pad_0, pad_type = pretrained_out_11_pad_type_0, strides = var_404, weight = layers_0_encoder_attn_k_proj_pretrained_weight_to_fp16_palettized, x = encoder_output_embeds)[name = tensor<string, []>("pretrained_out_11_cast_fp16")];
            tensor<int32, [2]> var_410 = const()[name = tensor<string, []>("op_410"), val = tensor<int32, [2]>([1, 1])];
            tensor<int32, [2]> var_412 = const()[name = tensor<string, []>("op_412"), val = tensor<int32, [2]>([1, 1])];
            tensor<string, []> input_13_pad_type_0 = const()[name = tensor<string, []>("input_13_pad_type_0"), val = tensor<string, []>("custom")];
            tensor<int32, [4]> input_13_pad_0 = const()[name = tensor<string, []>("input_13_pad_0"), val = tensor<int32, [4]>([0, 0, 0, 0])];
            tensor<fp16, [16, 1280, 1, 1]> layers_0_encoder_attn_k_proj_loraA_weight_to_fp16 = const()[name = tensor<string, []>("layers_0_encoder_attn_k_proj_loraA_weight_to_fp16"), val = tensor<fp16, [16, 1280, 1, 1]>(BLOBFILE(path = tensor<string, []>("@model_path/weights/weight.bin"), offset = tensor<uint64, []>(139274304)))];
            tensor<fp16, [1, 16, 1, 1500]> input_13_cast_fp16 = conv(dilations = var_412, groups = var_183, pad = input_13_pad_0, pad_type = input_13_pad_type_0, strides = var_410, weight = layers_0_encoder_attn_k_proj_loraA_weight_to_fp16, x = encoder_output_embeds)[name = tensor<string, []>("input_13_cast_fp16")];
            tensor<int32, [2]> var_416 = const()[name = tensor<string, []>("op_416"), val = tensor<int32, [2]>([1, 1])];
            tensor<int32, [2]> var_418 = const()[name = tensor<string, []>("op_418"), val = tensor<int32, [2]>([1, 1])];
            tensor<string, []> lora_out_21_pad_type_0 = const()[name = tensor<string, []>("lora_out_21_pad_type_0"), val = tensor<string, []>("custom")];
            tensor<int32, [4]> lora_out_21_pad_0 = const()[name = tensor<string, []>("lora_out_21_pad_0"), val = tensor<int32, [4]>([0, 0, 0, 0])];
            tensor<fp16, [1280, 16, 1, 1]> lora_out_23_weight_0_to_fp16 = const()[name = tensor<string, []>("lora_out_23_weight_0_to_fp16"), val = tensor<fp16, [1280, 16, 1, 1]>(BLOBFILE(path = tensor<string, []>("@model_path/weights/weight.bin"), offset = tensor<uint64, []>(139315328)))];
            tensor<fp16, [1, 1280, 1, 1500]> lora_out_23_cast_fp16 = conv(bias = obj_1_mean_0_to_fp16, dilations = var_418, groups = var_183, pad = lora_out_21_pad_0, pad_type = lora_out_21_pad_type_0, strides = var_416, weight = lora_out_23_weight_0_to_fp16, x = input_13_cast_fp16)[name = tensor<string, []>("lora_out_23_cast_fp16")];
            tensor<fp16, [1, 1280, 1, 1500]> key_3_cast_fp16 = add(x = pretrained_out_11_cast_fp16, y = lora_out_23_cast_fp16)[name = tensor<string, []>("key_3_cast_fp16")];
            tensor<int32, [2]> var_429 = const()[name = tensor<string, []>("op_429"), val = tensor<int32, [2]>([1, 1])];
            tensor<int32, [2]> var_431 = const()[name = tensor<string, []>("op_431"), val = tensor<int32, [2]>([1, 1])];
            tensor<string, []> pretrained_out_13_pad_type_0 = const()[name = tensor<string, []>("pretrained_out_13_pad_type_0"), val = tensor<string, []>("custom")];
            tensor<int32, [4]> pretrained_out_13_pad_0 = const()[name = tensor<string, []>("pretrained_out_13_pad_0"), val = tensor<int32, [4]>([0, 0, 0, 0])];
            tensor<fp16, [1280, 1280, 1, 1]> layers_0_encoder_attn_v_proj_pretrained_weight_to_fp16_palettized = constexpr_lut_to_dense()[indices = tensor<uint8, [819200]>(BLOBFILE(path = tensor<string, []>("@model_path/weights/weight.bin"), offset = tensor<uint64, []>(139356352))), lut = tensor<fp16, [16]>(BLOBFILE(path = tensor<string, []>("@model_path/weights/weight.bin"), offset = tensor<uint64, []>(140175616))), name = tensor<string, []>("layers_0_encoder_attn_v_proj_pretrained_weight_to_fp16_palettized"), shape = tensor<uint32, [4]>([1280, 1280, 1, 1])];
            tensor<fp16, [1280]> layers_0_encoder_attn_v_proj_pretrained_bias_to_fp16 = const()[name = tensor<string, []>("layers_0_encoder_attn_v_proj_pretrained_bias_to_fp16"), val = tensor<fp16, [1280]>(BLOBFILE(path = tensor<string, []>("@model_path/weights/weight.bin"), offset = tensor<uint64, []>(140175744)))];
            tensor<fp16, [1, 1280, 1, 1500]> pretrained_out_13_cast_fp16 = conv(bias = layers_0_encoder_attn_v_proj_pretrained_bias_to_fp16, dilations = var_431, groups = var_183, pad = pretrained_out_13_pad_0, pad_type = pretrained_out_13_pad_type_0, strides = var_429, weight = layers_0_encoder_attn_v_proj_pretrained_weight_to_fp16_palettized, x = encoder_output_embeds)[name = tensor<string, []>("pretrained_out_13_cast_fp16")];
            tensor<int32, [2]> var_435 = const()[name = tensor<string, []>("op_435"), val = tensor<int32, [2]>([1, 1])];
            tensor<int32, [2]> var_437 = const()[name = tensor<string, []>("op_437"), val = tensor<int32, [2]>([1, 1])];
            tensor<string, []> input_15_pad_type_0 = const()[name = tensor<string, []>("input_15_pad_type_0"), val = tensor<string, []>("custom")];
            tensor<int32, [4]> input_15_pad_0 = const()[name = tensor<string, []>("input_15_pad_0"), val = tensor<int32, [4]>([0, 0, 0, 0])];
            tensor<fp16, [16, 1280, 1, 1]> layers_0_encoder_attn_v_proj_loraA_weight_to_fp16 = const()[name = tensor<string, []>("layers_0_encoder_attn_v_proj_loraA_weight_to_fp16"), val = tensor<fp16, [16, 1280, 1, 1]>(BLOBFILE(path = tensor<string, []>("@model_path/weights/weight.bin"), offset = tensor<uint64, []>(140178368)))];
            tensor<fp16, [1, 16, 1, 1500]> input_15_cast_fp16 = conv(dilations = var_437, groups = var_183, pad = input_15_pad_0, pad_type = input_15_pad_type_0, strides = var_435, weight = layers_0_encoder_attn_v_proj_loraA_weight_to_fp16, x = encoder_output_embeds)[name = tensor<string, []>("input_15_cast_fp16")];
            tensor<int32, [2]> var_441 = const()[name = tensor<string, []>("op_441"), val = tensor<int32, [2]>([1, 1])];
            tensor<int32, [2]> var_443 = const()[name = tensor<string, []>("op_443"), val = tensor<int32, [2]>([1, 1])];
            tensor<string, []> lora_out_25_pad_type_0 = const()[name = tensor<string, []>("lora_out_25_pad_type_0"), val = tensor<string, []>("custom")];
            tensor<int32, [4]> lora_out_25_pad_0 = const()[name = tensor<string, []>("lora_out_25_pad_0"), val = tensor<int32, [4]>([0, 0, 0, 0])];
            tensor<fp16, [1280, 16, 1, 1]> lora_out_27_weight_0_to_fp16 = const()[name = tensor<string, []>("lora_out_27_weight_0_to_fp16"), val = tensor<fp16, [1280, 16, 1, 1]>(BLOBFILE(path = tensor<string, []>("@model_path/weights/weight.bin"), offset = tensor<uint64, []>(140219392)))];
            tensor<fp16, [1, 1280, 1, 1500]> lora_out_27_cast_fp16 = conv(bias = obj_1_mean_0_to_fp16, dilations = var_443, groups = var_183, pad = lora_out_25_pad_0, pad_type = lora_out_25_pad_type_0, strides = var_441, weight = lora_out_27_weight_0_to_fp16, x = input_15_cast_fp16)[name = tensor<string, []>("lora_out_27_cast_fp16")];
            tensor<fp16, [1, 1280, 1, 1500]> value_3_cast_fp16 = add(x = pretrained_out_13_cast_fp16, y = lora_out_27_cast_fp16)[name = tensor<string, []>("value_3_cast_fp16")];
            tensor<int32, [4]> var_450 = const()[name = tensor<string, []>("op_450"), val = tensor<int32, [4]>([1, 20, 64, -1])];
            tensor<fp16, [1, 20, 64, 1]> var_451_cast_fp16 = reshape(shape = var_450, x = query_3_cast_fp16)[name = tensor<string, []>("op_451_cast_fp16")];
            tensor<fp16, []> var_452_to_fp16 = const()[name = tensor<string, []>("op_452_to_fp16"), val = tensor<fp16, []>(0x1p-3)];
            tensor<fp16, [1, 20, 64, 1]> var_453_cast_fp16 = mul(x = var_451_cast_fp16, y = var_452_to_fp16)[name = tensor<string, []>("op_453_cast_fp16")];
            tensor<int32, [4]> var_454 = const()[name = tensor<string, []>("op_454"), val = tensor<int32, [4]>([1, 20, 64, -1])];
            tensor<fp16, [1, 20, 64, 1500]> var_455_cast_fp16 = reshape(shape = var_454, x = key_3_cast_fp16)[name = tensor<string, []>("op_455_cast_fp16")];
            tensor<bool, []> mh_w_5_transpose_x_0 = const()[name = tensor<string, []>("mh_w_5_transpose_x_0"), val = tensor<bool, []>(true)];
            tensor<bool, []> mh_w_5_transpose_y_0 = const()[name = tensor<string, []>("mh_w_5_transpose_y_0"), val = tensor<bool, []>(false)];
            tensor<fp16, [1, 20, 1, 1500]> mh_w_5_cast_fp16 = matmul(transpose_x = mh_w_5_transpose_x_0, transpose_y = mh_w_5_transpose_y_0, x = var_453_cast_fp16, y = var_455_cast_fp16)[name = tensor<string, []>("mh_w_5_cast_fp16")];
            tensor<fp16, [1, 20, 1, 1500]> obj_13_cast_fp16 = softmax(axis = var_176, x = mh_w_5_cast_fp16)[name = tensor<string, []>("obj_13_cast_fp16")];
            tensor<int32, [4]> var_459 = const()[name = tensor<string, []>("op_459"), val = tensor<int32, [4]>([1, 20, 64, -1])];
            tensor<fp16, [1, 20, 64, 1500]> var_460_cast_fp16 = reshape(shape = var_459, x = value_3_cast_fp16)[name = tensor<string, []>("op_460_cast_fp16")];
            tensor<bool, []> attn_3_transpose_x_0 = const()[name = tensor<string, []>("attn_3_transpose_x_0"), val = tensor<bool, []>(false)];
            tensor<bool, []> attn_3_transpose_y_0 = const()[name = tensor<string, []>("attn_3_transpose_y_0"), val = tensor<bool, []>(true)];
            tensor<fp16, [1, 20, 64, 1]> attn_3_cast_fp16 = matmul(transpose_x = attn_3_transpose_x_0, transpose_y = attn_3_transpose_y_0, x = var_460_cast_fp16, y = obj_13_cast_fp16)[name = tensor<string, []>("attn_3_cast_fp16")];
            tensor<int32, [4]> var_463 = const()[name = tensor<string, []>("op_463"), val = tensor<int32, [4]>([1, 1280, 1, -1])];
            tensor<fp16, [1, 1280, 1, 1]> input_17_cast_fp16 = reshape(shape = var_463, x = attn_3_cast_fp16)[name = tensor<string, []>("input_17_cast_fp16")];
            tensor<int32, [2]> var_470 = const()[name = tensor<string, []>("op_470"), val = tensor<int32, [2]>([1, 1])];
            tensor<int32, [2]> var_472 = const()[name = tensor<string, []>("op_472"), val = tensor<int32, [2]>([1, 1])];
            tensor<string, []> pretrained_out_15_pad_type_0 = const()[name = tensor<string, []>("pretrained_out_15_pad_type_0"), val = tensor<string, []>("custom")];
            tensor<int32, [4]> pretrained_out_15_pad_0 = const()[name = tensor<string, []>("pretrained_out_15_pad_0"), val = tensor<int32, [4]>([0, 0, 0, 0])];
            tensor<fp16, [1280, 1280, 1, 1]> layers_0_encoder_attn_o_proj_pretrained_weight_to_fp16_palettized = constexpr_lut_to_dense()[indices = tensor<uint8, [819200]>(BLOBFILE(path = tensor<string, []>("@model_path/weights/weight.bin"), offset = tensor<uint64, []>(140260416))), lut = tensor<fp16, [16]>(BLOBFILE(path = tensor<string, []>("@model_path/weights/weight.bin"), offset = tensor<uint64, []>(141079680))), name = tensor<string, []>("layers_0_encoder_attn_o_proj_pretrained_weight_to_fp16_palettized"), shape = tensor<uint32, [4]>([1280, 1280, 1, 1])];
            tensor<fp16, [1280]> layers_0_encoder_attn_o_proj_pretrained_bias_to_fp16 = const()[name = tensor<string, []>("layers_0_encoder_attn_o_proj_pretrained_bias_to_fp16"), val = tensor<fp16, [1280]>(BLOBFILE(path = tensor<string, []>("@model_path/weights/weight.bin"), offset = tensor<uint64, []>(141079808)))];
            tensor<fp16, [1, 1280, 1, 1]> pretrained_out_15_cast_fp16 = conv(bias = layers_0_encoder_attn_o_proj_pretrained_bias_to_fp16, dilations = var_472, groups = var_183, pad = pretrained_out_15_pad_0, pad_type = pretrained_out_15_pad_type_0, strides = var_470, weight = layers_0_encoder_attn_o_proj_pretrained_weight_to_fp16_palettized, x = input_17_cast_fp16)[name = tensor<string, []>("pretrained_out_15_cast_fp16")];
            tensor<int32, [2]> var_476 = const()[name = tensor<string, []>("op_476"), val = tensor<int32, [2]>([1, 1])];
            tensor<int32, [2]> var_478 = const()[name = tensor<string, []>("op_478"), val = tensor<int32, [2]>([1, 1])];
            tensor<string, []> input_19_pad_type_0 = const()[name = tensor<string, []>("input_19_pad_type_0"), val = tensor<string, []>("custom")];
            tensor<int32, [4]> input_19_pad_0 = const()[name = tensor<string, []>("input_19_pad_0"), val = tensor<int32, [4]>([0, 0, 0, 0])];
            tensor<fp16, [16, 1280, 1, 1]> layers_0_encoder_attn_o_proj_loraA_weight_to_fp16 = const()[name = tensor<string, []>("layers_0_encoder_attn_o_proj_loraA_weight_to_fp16"), val = tensor<fp16, [16, 1280, 1, 1]>(BLOBFILE(path = tensor<string, []>("@model_path/weights/weight.bin"), offset = tensor<uint64, []>(141082432)))];
            tensor<fp16, [1, 16, 1, 1]> input_19_cast_fp16 = conv(dilations = var_478, groups = var_183, pad = input_19_pad_0, pad_type = input_19_pad_type_0, strides = var_476, weight = layers_0_encoder_attn_o_proj_loraA_weight_to_fp16, x = input_17_cast_fp16)[name = tensor<string, []>("input_19_cast_fp16")];
            tensor<int32, [2]> var_482 = const()[name = tensor<string, []>("op_482"), val = tensor<int32, [2]>([1, 1])];
            tensor<int32, [2]> var_484 = const()[name = tensor<string, []>("op_484"), val = tensor<int32, [2]>([1, 1])];
            tensor<string, []> lora_out_29_pad_type_0 = const()[name = tensor<string, []>("lora_out_29_pad_type_0"), val = tensor<string, []>("custom")];
            tensor<int32, [4]> lora_out_29_pad_0 = const()[name = tensor<string, []>("lora_out_29_pad_0"), val = tensor<int32, [4]>([0, 0, 0, 0])];
            tensor<fp16, [1280, 16, 1, 1]> lora_out_31_weight_0_to_fp16 = const()[name = tensor<string, []>("lora_out_31_weight_0_to_fp16"), val = tensor<fp16, [1280, 16, 1, 1]>(BLOBFILE(path = tensor<string, []>("@model_path/weights/weight.bin"), offset = tensor<uint64, []>(141123456)))];
            tensor<fp16, [1, 1280, 1, 1]> lora_out_31_cast_fp16 = conv(bias = obj_1_mean_0_to_fp16, dilations = var_484, groups = var_183, pad = lora_out_29_pad_0, pad_type = lora_out_29_pad_type_0, strides = var_482, weight = lora_out_31_weight_0_to_fp16, x = input_19_cast_fp16)[name = tensor<string, []>("lora_out_31_cast_fp16")];
            tensor<fp16, [1, 1280, 1, 1]> obj_11_cast_fp16 = add(x = pretrained_out_15_cast_fp16, y = lora_out_31_cast_fp16)[name = tensor<string, []>("obj_11_cast_fp16")];
            tensor<fp16, [1, 1280, 1, 1]> inputs_5_cast_fp16 = add(x = inputs_3_cast_fp16, y = obj_11_cast_fp16)[name = tensor<string, []>("inputs_5_cast_fp16")];
            tensor<int32, [1]> var_493 = const()[name = tensor<string, []>("op_493"), val = tensor<int32, [1]>([1])];
            tensor<fp16, [1, 1, 1, 1]> channels_mean_5_cast_fp16 = reduce_mean(axes = var_493, keep_dims = var_184, x = inputs_5_cast_fp16)[name = tensor<string, []>("channels_mean_5_cast_fp16")];
            tensor<fp16, [1, 1280, 1, 1]> zero_mean_5_cast_fp16 = sub(x = inputs_5_cast_fp16, y = channels_mean_5_cast_fp16)[name = tensor<string, []>("zero_mean_5_cast_fp16")];
            tensor<fp16, [1, 1280, 1, 1]> zero_mean_sq_5_cast_fp16 = mul(x = zero_mean_5_cast_fp16, y = zero_mean_5_cast_fp16)[name = tensor<string, []>("zero_mean_sq_5_cast_fp16")];
            tensor<int32, [1]> var_497 = const()[name = tensor<string, []>("op_497"), val = tensor<int32, [1]>([1])];
            tensor<fp16, [1, 1, 1, 1]> var_498_cast_fp16 = reduce_mean(axes = var_497, keep_dims = var_184, x = zero_mean_sq_5_cast_fp16)[name = tensor<string, []>("op_498_cast_fp16")];
            tensor<fp16, []> var_499_to_fp16 = const()[name = tensor<string, []>("op_499_to_fp16"), val = tensor<fp16, []>(0x1.5p-17)];
            tensor<fp16, [1, 1, 1, 1]> var_500_cast_fp16 = add(x = var_498_cast_fp16, y = var_499_to_fp16)[name = tensor<string, []>("op_500_cast_fp16")];
            tensor<fp32, []> denom_5_epsilon_0 = const()[name = tensor<string, []>("denom_5_epsilon_0"), val = tensor<fp32, []>(0x1.197998p-40)];
            tensor<fp16, [1, 1, 1, 1]> denom_5_cast_fp16 = rsqrt(epsilon = denom_5_epsilon_0, x = var_500_cast_fp16)[name = tensor<string, []>("denom_5_cast_fp16")];
            tensor<fp16, [1, 1280, 1, 1]> out_5_cast_fp16 = mul(x = zero_mean_5_cast_fp16, y = denom_5_cast_fp16)[name = tensor<string, []>("out_5_cast_fp16")];
            tensor<fp16, [1280]> input_21_gamma_0_to_fp16 = const()[name = tensor<string, []>("input_21_gamma_0_to_fp16"), val = tensor<fp16, [1280]>(BLOBFILE(path = tensor<string, []>("@model_path/weights/weight.bin"), offset = tensor<uint64, []>(141164480)))];
            tensor<fp16, [1280]> input_21_beta_0_to_fp16 = const()[name = tensor<string, []>("input_21_beta_0_to_fp16"), val = tensor<fp16, [1280]>(BLOBFILE(path = tensor<string, []>("@model_path/weights/weight.bin"), offset = tensor<uint64, []>(141167104)))];
            tensor<fp16, []> input_21_epsilon_0_to_fp16 = const()[name = tensor<string, []>("input_21_epsilon_0_to_fp16"), val = tensor<fp16, []>(0x1.5p-17)];
            tensor<fp16, [1, 1280, 1, 1]> input_21_cast_fp16 = batch_norm(beta = input_21_beta_0_to_fp16, epsilon = input_21_epsilon_0_to_fp16, gamma = input_21_gamma_0_to_fp16, mean = obj_1_mean_0_to_fp16, variance = obj_1_variance_0_to_fp16, x = out_5_cast_fp16)[name = tensor<string, []>("input_21_cast_fp16")];
            tensor<int32, [2]> var_514 = const()[name = tensor<string, []>("op_514"), val = tensor<int32, [2]>([1, 1])];
            tensor<int32, [2]> var_516 = const()[name = tensor<string, []>("op_516"), val = tensor<int32, [2]>([1, 1])];
            tensor<string, []> pretrained_out_17_pad_type_0 = const()[name = tensor<string, []>("pretrained_out_17_pad_type_0"), val = tensor<string, []>("custom")];
            tensor<int32, [4]> pretrained_out_17_pad_0 = const()[name = tensor<string, []>("pretrained_out_17_pad_0"), val = tensor<int32, [4]>([0, 0, 0, 0])];
            tensor<fp16, [5120, 1280, 1, 1]> layers_0_fc1_pretrained_weight_to_fp16_palettized = constexpr_lut_to_dense()[indices = tensor<uint8, [3276800]>(BLOBFILE(path = tensor<string, []>("@model_path/weights/weight.bin"), offset = tensor<uint64, []>(141169728))), lut = tensor<fp16, [16]>(BLOBFILE(path = tensor<string, []>("@model_path/weights/weight.bin"), offset = tensor<uint64, []>(144446592))), name = tensor<string, []>("layers_0_fc1_pretrained_weight_to_fp16_palettized"), shape = tensor<uint32, [4]>([5120, 1280, 1, 1])];
            tensor<fp16, [5120]> layers_0_fc1_pretrained_bias_to_fp16 = const()[name = tensor<string, []>("layers_0_fc1_pretrained_bias_to_fp16"), val = tensor<fp16, [5120]>(BLOBFILE(path = tensor<string, []>("@model_path/weights/weight.bin"), offset = tensor<uint64, []>(144446720)))];
            tensor<fp16, [1, 5120, 1, 1]> pretrained_out_17_cast_fp16 = conv(bias = layers_0_fc1_pretrained_bias_to_fp16, dilations = var_516, groups = var_183, pad = pretrained_out_17_pad_0, pad_type = pretrained_out_17_pad_type_0, strides = var_514, weight = layers_0_fc1_pretrained_weight_to_fp16_palettized, x = input_21_cast_fp16)[name = tensor<string, []>("pretrained_out_17_cast_fp16")];
            tensor<int32, [2]> var_520 = const()[name = tensor<string, []>("op_520"), val = tensor<int32, [2]>([1, 1])];
            tensor<int32, [2]> var_522 = const()[name = tensor<string, []>("op_522"), val = tensor<int32, [2]>([1, 1])];
            tensor<string, []> input_23_pad_type_0 = const()[name = tensor<string, []>("input_23_pad_type_0"), val = tensor<string, []>("custom")];
            tensor<int32, [4]> input_23_pad_0 = const()[name = tensor<string, []>("input_23_pad_0"), val = tensor<int32, [4]>([0, 0, 0, 0])];
            tensor<fp16, [16, 1280, 1, 1]> layers_0_fc1_loraA_weight_to_fp16 = const()[name = tensor<string, []>("layers_0_fc1_loraA_weight_to_fp16"), val = tensor<fp16, [16, 1280, 1, 1]>(BLOBFILE(path = tensor<string, []>("@model_path/weights/weight.bin"), offset = tensor<uint64, []>(144457024)))];
            tensor<fp16, [1, 16, 1, 1]> input_23_cast_fp16 = conv(dilations = var_522, groups = var_183, pad = input_23_pad_0, pad_type = input_23_pad_type_0, strides = var_520, weight = layers_0_fc1_loraA_weight_to_fp16, x = input_21_cast_fp16)[name = tensor<string, []>("input_23_cast_fp16")];
            tensor<int32, [2]> var_526 = const()[name = tensor<string, []>("op_526"), val = tensor<int32, [2]>([1, 1])];
            tensor<int32, [2]> var_528 = const()[name = tensor<string, []>("op_528"), val = tensor<int32, [2]>([1, 1])];
            tensor<string, []> lora_out_33_pad_type_0 = const()[name = tensor<string, []>("lora_out_33_pad_type_0"), val = tensor<string, []>("custom")];
            tensor<int32, [4]> lora_out_33_pad_0 = const()[name = tensor<string, []>("lora_out_33_pad_0"), val = tensor<int32, [4]>([0, 0, 0, 0])];
            tensor<fp16, [5120, 16, 1, 1]> lora_out_35_weight_0_to_fp16 = const()[name = tensor<string, []>("lora_out_35_weight_0_to_fp16"), val = tensor<fp16, [5120, 16, 1, 1]>(BLOBFILE(path = tensor<string, []>("@model_path/weights/weight.bin"), offset = tensor<uint64, []>(144498048)))];
            tensor<fp16, [5120]> lora_out_35_bias_0_to_fp16 = const()[name = tensor<string, []>("lora_out_35_bias_0_to_fp16"), val = tensor<fp16, [5120]>(BLOBFILE(path = tensor<string, []>("@model_path/weights/weight.bin"), offset = tensor<uint64, []>(144661952)))];
            tensor<fp16, [1, 5120, 1, 1]> lora_out_35_cast_fp16 = conv(bias = lora_out_35_bias_0_to_fp16, dilations = var_528, groups = var_183, pad = lora_out_33_pad_0, pad_type = lora_out_33_pad_type_0, strides = var_526, weight = lora_out_35_weight_0_to_fp16, x = input_23_cast_fp16)[name = tensor<string, []>("lora_out_35_cast_fp16")];
            tensor<fp16, [1, 5120, 1, 1]> input_25_cast_fp16 = add(x = pretrained_out_17_cast_fp16, y = lora_out_35_cast_fp16)[name = tensor<string, []>("input_25_cast_fp16")];
            tensor<string, []> input_27_mode_0 = const()[name = tensor<string, []>("input_27_mode_0"), val = tensor<string, []>("EXACT")];
            tensor<fp16, [1, 5120, 1, 1]> input_27_cast_fp16 = gelu(mode = input_27_mode_0, x = input_25_cast_fp16)[name = tensor<string, []>("input_27_cast_fp16")];
            tensor<int32, [2]> var_540 = const()[name = tensor<string, []>("op_540"), val = tensor<int32, [2]>([1, 1])];
            tensor<int32, [2]> var_542 = const()[name = tensor<string, []>("op_542"), val = tensor<int32, [2]>([1, 1])];
            tensor<string, []> pretrained_out_19_pad_type_0 = const()[name = tensor<string, []>("pretrained_out_19_pad_type_0"), val = tensor<string, []>("custom")];
            tensor<int32, [4]> pretrained_out_19_pad_0 = const()[name = tensor<string, []>("pretrained_out_19_pad_0"), val = tensor<int32, [4]>([0, 0, 0, 0])];
            tensor<fp16, [1280, 5120, 1, 1]> layers_0_fc2_pretrained_weight_to_fp16_palettized = constexpr_lut_to_dense()[indices = tensor<uint8, [3276800]>(BLOBFILE(path = tensor<string, []>("@model_path/weights/weight.bin"), offset = tensor<uint64, []>(144672256))), lut = tensor<fp16, [16]>(BLOBFILE(path = tensor<string, []>("@model_path/weights/weight.bin"), offset = tensor<uint64, []>(147949120))), name = tensor<string, []>("layers_0_fc2_pretrained_weight_to_fp16_palettized"), shape = tensor<uint32, [4]>([1280, 5120, 1, 1])];
            tensor<fp16, [1280]> layers_0_fc2_pretrained_bias_to_fp16 = const()[name = tensor<string, []>("layers_0_fc2_pretrained_bias_to_fp16"), val = tensor<fp16, [1280]>(BLOBFILE(path = tensor<string, []>("@model_path/weights/weight.bin"), offset = tensor<uint64, []>(147949248)))];
            tensor<fp16, [1, 1280, 1, 1]> pretrained_out_19_cast_fp16 = conv(bias = layers_0_fc2_pretrained_bias_to_fp16, dilations = var_542, groups = var_183, pad = pretrained_out_19_pad_0, pad_type = pretrained_out_19_pad_type_0, strides = var_540, weight = layers_0_fc2_pretrained_weight_to_fp16_palettized, x = input_27_cast_fp16)[name = tensor<string, []>("pretrained_out_19_cast_fp16")];
            tensor<int32, [2]> var_546 = const()[name = tensor<string, []>("op_546"), val = tensor<int32, [2]>([1, 1])];
            tensor<int32, [2]> var_548 = const()[name = tensor<string, []>("op_548"), val = tensor<int32, [2]>([1, 1])];
            tensor<string, []> input_29_pad_type_0 = const()[name = tensor<string, []>("input_29_pad_type_0"), val = tensor<string, []>("custom")];
            tensor<int32, [4]> input_29_pad_0 = const()[name = tensor<string, []>("input_29_pad_0"), val = tensor<int32, [4]>([0, 0, 0, 0])];
            tensor<fp16, [16, 5120, 1, 1]> layers_0_fc2_loraA_weight_to_fp16 = const()[name = tensor<string, []>("layers_0_fc2_loraA_weight_to_fp16"), val = tensor<fp16, [16, 5120, 1, 1]>(BLOBFILE(path = tensor<string, []>("@model_path/weights/weight.bin"), offset = tensor<uint64, []>(147951872)))];
            tensor<fp16, [1, 16, 1, 1]> input_29_cast_fp16 = conv(dilations = var_548, groups = var_183, pad = input_29_pad_0, pad_type = input_29_pad_type_0, strides = var_546, weight = layers_0_fc2_loraA_weight_to_fp16, x = input_27_cast_fp16)[name = tensor<string, []>("input_29_cast_fp16")];
            tensor<int32, [2]> var_552 = const()[name = tensor<string, []>("op_552"), val = tensor<int32, [2]>([1, 1])];
            tensor<int32, [2]> var_554 = const()[name = tensor<string, []>("op_554"), val = tensor<int32, [2]>([1, 1])];
            tensor<string, []> lora_out_37_pad_type_0 = const()[name = tensor<string, []>("lora_out_37_pad_type_0"), val = tensor<string, []>("custom")];
            tensor<int32, [4]> lora_out_37_pad_0 = const()[name = tensor<string, []>("lora_out_37_pad_0"), val = tensor<int32, [4]>([0, 0, 0, 0])];
            tensor<fp16, [1280, 16, 1, 1]> lora_out_39_weight_0_to_fp16 = const()[name = tensor<string, []>("lora_out_39_weight_0_to_fp16"), val = tensor<fp16, [1280, 16, 1, 1]>(BLOBFILE(path = tensor<string, []>("@model_path/weights/weight.bin"), offset = tensor<uint64, []>(148115776)))];
            tensor<fp16, [1, 1280, 1, 1]> lora_out_39_cast_fp16 = conv(bias = obj_1_mean_0_to_fp16, dilations = var_554, groups = var_183, pad = lora_out_37_pad_0, pad_type = lora_out_37_pad_type_0, strides = var_552, weight = lora_out_39_weight_0_to_fp16, x = input_29_cast_fp16)[name = tensor<string, []>("lora_out_39_cast_fp16")];
            tensor<fp16, [1, 1280, 1, 1]> hidden_states_3_cast_fp16 = add(x = pretrained_out_19_cast_fp16, y = lora_out_39_cast_fp16)[name = tensor<string, []>("hidden_states_3_cast_fp16")];
            tensor<fp16, [1, 1280, 1, 1]> inputs_7_cast_fp16 = add(x = inputs_5_cast_fp16, y = hidden_states_3_cast_fp16)[name = tensor<string, []>("inputs_7_cast_fp16")];
            tensor<int32, []> var_570 = const()[name = tensor<string, []>("op_570"), val = tensor<int32, []>(3)];
            tensor<int32, []> var_577 = const()[name = tensor<string, []>("op_577"), val = tensor<int32, []>(1)];
            tensor<bool, []> var_578 = const()[name = tensor<string, []>("op_578"), val = tensor<bool, []>(true)];
            tensor<int32, [1]> var_590 = const()[name = tensor<string, []>("op_590"), val = tensor<int32, [1]>([1])];
            tensor<fp16, [1, 1, 1, 1]> channels_mean_7_cast_fp16 = reduce_mean(axes = var_590, keep_dims = var_578, x = inputs_7_cast_fp16)[name = tensor<string, []>("channels_mean_7_cast_fp16")];
            tensor<fp16, [1, 1280, 1, 1]> zero_mean_7_cast_fp16 = sub(x = inputs_7_cast_fp16, y = channels_mean_7_cast_fp16)[name = tensor<string, []>("zero_mean_7_cast_fp16")];
            tensor<fp16, [1, 1280, 1, 1]> zero_mean_sq_7_cast_fp16 = mul(x = zero_mean_7_cast_fp16, y = zero_mean_7_cast_fp16)[name = tensor<string, []>("zero_mean_sq_7_cast_fp16")];
            tensor<int32, [1]> var_594 = const()[name = tensor<string, []>("op_594"), val = tensor<int32, [1]>([1])];
            tensor<fp16, [1, 1, 1, 1]> var_595_cast_fp16 = reduce_mean(axes = var_594, keep_dims = var_578, x = zero_mean_sq_7_cast_fp16)[name = tensor<string, []>("op_595_cast_fp16")];
            tensor<fp16, []> var_596_to_fp16 = const()[name = tensor<string, []>("op_596_to_fp16"), val = tensor<fp16, []>(0x1.5p-17)];
            tensor<fp16, [1, 1, 1, 1]> var_597_cast_fp16 = add(x = var_595_cast_fp16, y = var_596_to_fp16)[name = tensor<string, []>("op_597_cast_fp16")];
            tensor<fp32, []> denom_7_epsilon_0 = const()[name = tensor<string, []>("denom_7_epsilon_0"), val = tensor<fp32, []>(0x1.197998p-40)];
            tensor<fp16, [1, 1, 1, 1]> denom_7_cast_fp16 = rsqrt(epsilon = denom_7_epsilon_0, x = var_597_cast_fp16)[name = tensor<string, []>("denom_7_cast_fp16")];
            tensor<fp16, [1, 1280, 1, 1]> out_7_cast_fp16 = mul(x = zero_mean_7_cast_fp16, y = denom_7_cast_fp16)[name = tensor<string, []>("out_7_cast_fp16")];
            tensor<fp16, [1280]> obj_15_gamma_0_to_fp16 = const()[name = tensor<string, []>("obj_15_gamma_0_to_fp16"), val = tensor<fp16, [1280]>(BLOBFILE(path = tensor<string, []>("@model_path/weights/weight.bin"), offset = tensor<uint64, []>(148156800)))];
            tensor<fp16, [1280]> obj_15_beta_0_to_fp16 = const()[name = tensor<string, []>("obj_15_beta_0_to_fp16"), val = tensor<fp16, [1280]>(BLOBFILE(path = tensor<string, []>("@model_path/weights/weight.bin"), offset = tensor<uint64, []>(148159424)))];
            tensor<fp16, []> obj_15_epsilon_0_to_fp16 = const()[name = tensor<string, []>("obj_15_epsilon_0_to_fp16"), val = tensor<fp16, []>(0x1.5p-17)];
            tensor<fp16, [1, 1280, 1, 1]> obj_15_cast_fp16 = batch_norm(beta = obj_15_beta_0_to_fp16, epsilon = obj_15_epsilon_0_to_fp16, gamma = obj_15_gamma_0_to_fp16, mean = obj_1_mean_0_to_fp16, variance = obj_1_variance_0_to_fp16, x = out_7_cast_fp16)[name = tensor<string, []>("obj_15_cast_fp16")];
            tensor<int32, [2]> var_615 = const()[name = tensor<string, []>("op_615"), val = tensor<int32, [2]>([1, 1])];
            tensor<int32, [2]> var_617 = const()[name = tensor<string, []>("op_617"), val = tensor<int32, [2]>([1, 1])];
            tensor<string, []> pretrained_out_21_pad_type_0 = const()[name = tensor<string, []>("pretrained_out_21_pad_type_0"), val = tensor<string, []>("custom")];
            tensor<int32, [4]> pretrained_out_21_pad_0 = const()[name = tensor<string, []>("pretrained_out_21_pad_0"), val = tensor<int32, [4]>([0, 0, 0, 0])];
            tensor<fp16, [1280, 1280, 1, 1]> layers_1_self_attn_q_proj_pretrained_weight_to_fp16_palettized = constexpr_lut_to_dense()[indices = tensor<uint8, [819200]>(BLOBFILE(path = tensor<string, []>("@model_path/weights/weight.bin"), offset = tensor<uint64, []>(148162048))), lut = tensor<fp16, [16]>(BLOBFILE(path = tensor<string, []>("@model_path/weights/weight.bin"), offset = tensor<uint64, []>(148981312))), name = tensor<string, []>("layers_1_self_attn_q_proj_pretrained_weight_to_fp16_palettized"), shape = tensor<uint32, [4]>([1280, 1280, 1, 1])];
            tensor<fp16, [1280]> layers_1_self_attn_q_proj_pretrained_bias_to_fp16 = const()[name = tensor<string, []>("layers_1_self_attn_q_proj_pretrained_bias_to_fp16"), val = tensor<fp16, [1280]>(BLOBFILE(path = tensor<string, []>("@model_path/weights/weight.bin"), offset = tensor<uint64, []>(148981440)))];
            tensor<fp16, [1, 1280, 1, 1]> pretrained_out_21_cast_fp16 = conv(bias = layers_1_self_attn_q_proj_pretrained_bias_to_fp16, dilations = var_617, groups = var_577, pad = pretrained_out_21_pad_0, pad_type = pretrained_out_21_pad_type_0, strides = var_615, weight = layers_1_self_attn_q_proj_pretrained_weight_to_fp16_palettized, x = obj_15_cast_fp16)[name = tensor<string, []>("pretrained_out_21_cast_fp16")];
            tensor<int32, [2]> var_621 = const()[name = tensor<string, []>("op_621"), val = tensor<int32, [2]>([1, 1])];
            tensor<int32, [2]> var_623 = const()[name = tensor<string, []>("op_623"), val = tensor<int32, [2]>([1, 1])];
            tensor<string, []> input_31_pad_type_0 = const()[name = tensor<string, []>("input_31_pad_type_0"), val = tensor<string, []>("custom")];
            tensor<int32, [4]> input_31_pad_0 = const()[name = tensor<string, []>("input_31_pad_0"), val = tensor<int32, [4]>([0, 0, 0, 0])];
            tensor<fp16, [16, 1280, 1, 1]> layers_1_self_attn_q_proj_loraA_weight_to_fp16 = const()[name = tensor<string, []>("layers_1_self_attn_q_proj_loraA_weight_to_fp16"), val = tensor<fp16, [16, 1280, 1, 1]>(BLOBFILE(path = tensor<string, []>("@model_path/weights/weight.bin"), offset = tensor<uint64, []>(148984064)))];
            tensor<fp16, [1, 16, 1, 1]> input_31_cast_fp16 = conv(dilations = var_623, groups = var_577, pad = input_31_pad_0, pad_type = input_31_pad_type_0, strides = var_621, weight = layers_1_self_attn_q_proj_loraA_weight_to_fp16, x = obj_15_cast_fp16)[name = tensor<string, []>("input_31_cast_fp16")];
            tensor<int32, [2]> var_627 = const()[name = tensor<string, []>("op_627"), val = tensor<int32, [2]>([1, 1])];
            tensor<int32, [2]> var_629 = const()[name = tensor<string, []>("op_629"), val = tensor<int32, [2]>([1, 1])];
            tensor<string, []> lora_out_41_pad_type_0 = const()[name = tensor<string, []>("lora_out_41_pad_type_0"), val = tensor<string, []>("custom")];
            tensor<int32, [4]> lora_out_41_pad_0 = const()[name = tensor<string, []>("lora_out_41_pad_0"), val = tensor<int32, [4]>([0, 0, 0, 0])];
            tensor<fp16, [1280, 16, 1, 1]> lora_out_43_weight_0_to_fp16 = const()[name = tensor<string, []>("lora_out_43_weight_0_to_fp16"), val = tensor<fp16, [1280, 16, 1, 1]>(BLOBFILE(path = tensor<string, []>("@model_path/weights/weight.bin"), offset = tensor<uint64, []>(149025088)))];
            tensor<fp16, [1, 1280, 1, 1]> lora_out_43_cast_fp16 = conv(bias = obj_1_mean_0_to_fp16, dilations = var_629, groups = var_577, pad = lora_out_41_pad_0, pad_type = lora_out_41_pad_type_0, strides = var_627, weight = lora_out_43_weight_0_to_fp16, x = input_31_cast_fp16)[name = tensor<string, []>("lora_out_43_cast_fp16")];
            tensor<fp16, [1, 1280, 1, 1]> query_5_cast_fp16 = add(x = pretrained_out_21_cast_fp16, y = lora_out_43_cast_fp16)[name = tensor<string, []>("query_5_cast_fp16")];
            tensor<int32, [2]> var_639 = const()[name = tensor<string, []>("op_639"), val = tensor<int32, [2]>([1, 1])];
            tensor<int32, [2]> var_641 = const()[name = tensor<string, []>("op_641"), val = tensor<int32, [2]>([1, 1])];
            tensor<string, []> pretrained_out_23_pad_type_0 = const()[name = tensor<string, []>("pretrained_out_23_pad_type_0"), val = tensor<string, []>("custom")];
            tensor<int32, [4]> pretrained_out_23_pad_0 = const()[name = tensor<string, []>("pretrained_out_23_pad_0"), val = tensor<int32, [4]>([0, 0, 0, 0])];
            tensor<fp16, [1280, 1280, 1, 1]> layers_1_self_attn_k_proj_pretrained_weight_to_fp16_palettized = constexpr_lut_to_dense()[indices = tensor<uint8, [819200]>(BLOBFILE(path = tensor<string, []>("@model_path/weights/weight.bin"), offset = tensor<uint64, []>(149066112))), lut = tensor<fp16, [16]>(BLOBFILE(path = tensor<string, []>("@model_path/weights/weight.bin"), offset = tensor<uint64, []>(149885376))), name = tensor<string, []>("layers_1_self_attn_k_proj_pretrained_weight_to_fp16_palettized"), shape = tensor<uint32, [4]>([1280, 1280, 1, 1])];
            tensor<fp16, [1, 1280, 1, 1]> pretrained_out_23_cast_fp16 = conv(dilations = var_641, groups = var_577, pad = pretrained_out_23_pad_0, pad_type = pretrained_out_23_pad_type_0, strides = var_639, weight = layers_1_self_attn_k_proj_pretrained_weight_to_fp16_palettized, x = obj_15_cast_fp16)[name = tensor<string, []>("pretrained_out_23_cast_fp16")];
            tensor<int32, [2]> var_645 = const()[name = tensor<string, []>("op_645"), val = tensor<int32, [2]>([1, 1])];
            tensor<int32, [2]> var_647 = const()[name = tensor<string, []>("op_647"), val = tensor<int32, [2]>([1, 1])];
            tensor<string, []> input_33_pad_type_0 = const()[name = tensor<string, []>("input_33_pad_type_0"), val = tensor<string, []>("custom")];
            tensor<int32, [4]> input_33_pad_0 = const()[name = tensor<string, []>("input_33_pad_0"), val = tensor<int32, [4]>([0, 0, 0, 0])];
            tensor<fp16, [16, 1280, 1, 1]> layers_1_self_attn_k_proj_loraA_weight_to_fp16 = const()[name = tensor<string, []>("layers_1_self_attn_k_proj_loraA_weight_to_fp16"), val = tensor<fp16, [16, 1280, 1, 1]>(BLOBFILE(path = tensor<string, []>("@model_path/weights/weight.bin"), offset = tensor<uint64, []>(149885504)))];
            tensor<fp16, [1, 16, 1, 1]> input_33_cast_fp16 = conv(dilations = var_647, groups = var_577, pad = input_33_pad_0, pad_type = input_33_pad_type_0, strides = var_645, weight = layers_1_self_attn_k_proj_loraA_weight_to_fp16, x = obj_15_cast_fp16)[name = tensor<string, []>("input_33_cast_fp16")];
            tensor<int32, [2]> var_651 = const()[name = tensor<string, []>("op_651"), val = tensor<int32, [2]>([1, 1])];
            tensor<int32, [2]> var_653 = const()[name = tensor<string, []>("op_653"), val = tensor<int32, [2]>([1, 1])];
            tensor<string, []> lora_out_45_pad_type_0 = const()[name = tensor<string, []>("lora_out_45_pad_type_0"), val = tensor<string, []>("custom")];
            tensor<int32, [4]> lora_out_45_pad_0 = const()[name = tensor<string, []>("lora_out_45_pad_0"), val = tensor<int32, [4]>([0, 0, 0, 0])];
            tensor<fp16, [1280, 16, 1, 1]> lora_out_47_weight_0_to_fp16 = const()[name = tensor<string, []>("lora_out_47_weight_0_to_fp16"), val = tensor<fp16, [1280, 16, 1, 1]>(BLOBFILE(path = tensor<string, []>("@model_path/weights/weight.bin"), offset = tensor<uint64, []>(149926528)))];
            tensor<fp16, [1, 1280, 1, 1]> lora_out_47_cast_fp16 = conv(bias = obj_1_mean_0_to_fp16, dilations = var_653, groups = var_577, pad = lora_out_45_pad_0, pad_type = lora_out_45_pad_type_0, strides = var_651, weight = lora_out_47_weight_0_to_fp16, x = input_33_cast_fp16)[name = tensor<string, []>("lora_out_47_cast_fp16")];
            tensor<fp16, [1, 1280, 1, 1]> current_key_3_cast_fp16 = add(x = pretrained_out_23_cast_fp16, y = lora_out_47_cast_fp16)[name = tensor<string, []>("current_key_3_cast_fp16")];
            tensor<int32, [2]> var_664 = const()[name = tensor<string, []>("op_664"), val = tensor<int32, [2]>([1, 1])];
            tensor<int32, [2]> var_666 = const()[name = tensor<string, []>("op_666"), val = tensor<int32, [2]>([1, 1])];
            tensor<string, []> pretrained_out_25_pad_type_0 = const()[name = tensor<string, []>("pretrained_out_25_pad_type_0"), val = tensor<string, []>("custom")];
            tensor<int32, [4]> pretrained_out_25_pad_0 = const()[name = tensor<string, []>("pretrained_out_25_pad_0"), val = tensor<int32, [4]>([0, 0, 0, 0])];
            tensor<fp16, [1280, 1280, 1, 1]> layers_1_self_attn_v_proj_pretrained_weight_to_fp16_palettized = constexpr_lut_to_dense()[indices = tensor<uint8, [819200]>(BLOBFILE(path = tensor<string, []>("@model_path/weights/weight.bin"), offset = tensor<uint64, []>(149967552))), lut = tensor<fp16, [16]>(BLOBFILE(path = tensor<string, []>("@model_path/weights/weight.bin"), offset = tensor<uint64, []>(150786816))), name = tensor<string, []>("layers_1_self_attn_v_proj_pretrained_weight_to_fp16_palettized"), shape = tensor<uint32, [4]>([1280, 1280, 1, 1])];
            tensor<fp16, [1280]> layers_1_self_attn_v_proj_pretrained_bias_to_fp16 = const()[name = tensor<string, []>("layers_1_self_attn_v_proj_pretrained_bias_to_fp16"), val = tensor<fp16, [1280]>(BLOBFILE(path = tensor<string, []>("@model_path/weights/weight.bin"), offset = tensor<uint64, []>(150786944)))];
            tensor<fp16, [1, 1280, 1, 1]> pretrained_out_25_cast_fp16 = conv(bias = layers_1_self_attn_v_proj_pretrained_bias_to_fp16, dilations = var_666, groups = var_577, pad = pretrained_out_25_pad_0, pad_type = pretrained_out_25_pad_type_0, strides = var_664, weight = layers_1_self_attn_v_proj_pretrained_weight_to_fp16_palettized, x = obj_15_cast_fp16)[name = tensor<string, []>("pretrained_out_25_cast_fp16")];
            tensor<int32, [2]> var_670 = const()[name = tensor<string, []>("op_670"), val = tensor<int32, [2]>([1, 1])];
            tensor<int32, [2]> var_672 = const()[name = tensor<string, []>("op_672"), val = tensor<int32, [2]>([1, 1])];
            tensor<string, []> input_35_pad_type_0 = const()[name = tensor<string, []>("input_35_pad_type_0"), val = tensor<string, []>("custom")];
            tensor<int32, [4]> input_35_pad_0 = const()[name = tensor<string, []>("input_35_pad_0"), val = tensor<int32, [4]>([0, 0, 0, 0])];
            tensor<fp16, [16, 1280, 1, 1]> layers_1_self_attn_v_proj_loraA_weight_to_fp16 = const()[name = tensor<string, []>("layers_1_self_attn_v_proj_loraA_weight_to_fp16"), val = tensor<fp16, [16, 1280, 1, 1]>(BLOBFILE(path = tensor<string, []>("@model_path/weights/weight.bin"), offset = tensor<uint64, []>(150789568)))];
            tensor<fp16, [1, 16, 1, 1]> input_35_cast_fp16 = conv(dilations = var_672, groups = var_577, pad = input_35_pad_0, pad_type = input_35_pad_type_0, strides = var_670, weight = layers_1_self_attn_v_proj_loraA_weight_to_fp16, x = obj_15_cast_fp16)[name = tensor<string, []>("input_35_cast_fp16")];
            tensor<int32, [2]> var_676 = const()[name = tensor<string, []>("op_676"), val = tensor<int32, [2]>([1, 1])];
            tensor<int32, [2]> var_678 = const()[name = tensor<string, []>("op_678"), val = tensor<int32, [2]>([1, 1])];
            tensor<string, []> lora_out_49_pad_type_0 = const()[name = tensor<string, []>("lora_out_49_pad_type_0"), val = tensor<string, []>("custom")];
            tensor<int32, [4]> lora_out_49_pad_0 = const()[name = tensor<string, []>("lora_out_49_pad_0"), val = tensor<int32, [4]>([0, 0, 0, 0])];
            tensor<fp16, [1280, 16, 1, 1]> lora_out_51_weight_0_to_fp16 = const()[name = tensor<string, []>("lora_out_51_weight_0_to_fp16"), val = tensor<fp16, [1280, 16, 1, 1]>(BLOBFILE(path = tensor<string, []>("@model_path/weights/weight.bin"), offset = tensor<uint64, []>(150830592)))];
            tensor<fp16, [1, 1280, 1, 1]> lora_out_51_cast_fp16 = conv(bias = obj_1_mean_0_to_fp16, dilations = var_678, groups = var_577, pad = lora_out_49_pad_0, pad_type = lora_out_49_pad_type_0, strides = var_676, weight = lora_out_51_weight_0_to_fp16, x = input_35_cast_fp16)[name = tensor<string, []>("lora_out_51_cast_fp16")];
            tensor<fp16, [1, 1280, 1, 1]> current_value_3_cast_fp16 = add(x = pretrained_out_25_cast_fp16, y = lora_out_51_cast_fp16)[name = tensor<string, []>("current_value_3_cast_fp16")];
            tensor<fp16, [1, 1280, 1, 224]> var_688_cast_fp16 = mul(x = current_key_3_cast_fp16, y = var_292_cast_fp16)[name = tensor<string, []>("op_688_cast_fp16")];
            tensor<fp16, [1, 1280, 1, 224]> var_690_cast_fp16 = mul(x = var_103_cast_fp16_1, y = var_295_cast_fp16)[name = tensor<string, []>("op_690_cast_fp16")];
            tensor<fp16, [1, 1280, 1, 224]> key_5_cast_fp16 = add(x = var_688_cast_fp16, y = var_690_cast_fp16)[name = tensor<string, []>("key_5_cast_fp16")];
            tensor<fp16, [1, 1280, 1, 224]> var_692_cast_fp16 = mul(x = current_value_3_cast_fp16, y = var_292_cast_fp16)[name = tensor<string, []>("op_692_cast_fp16")];
            tensor<fp16, [1, 1280, 1, 224]> var_694_cast_fp16 = mul(x = var_138_cast_fp16_1, y = var_295_cast_fp16)[name = tensor<string, []>("op_694_cast_fp16")];
            tensor<fp16, [1, 1280, 1, 224]> value_5_cast_fp16 = add(x = var_692_cast_fp16, y = var_694_cast_fp16)[name = tensor<string, []>("value_5_cast_fp16")];
            tensor<int32, [4]> var_697 = const()[name = tensor<string, []>("op_697"), val = tensor<int32, [4]>([1, 20, 64, -1])];
            tensor<fp16, [1, 20, 64, 1]> var_698_cast_fp16 = reshape(shape = var_697, x = query_5_cast_fp16)[name = tensor<string, []>("op_698_cast_fp16")];
            tensor<fp16, []> var_699_to_fp16 = const()[name = tensor<string, []>("op_699_to_fp16"), val = tensor<fp16, []>(0x1p-3)];
            tensor<fp16, [1, 20, 64, 1]> var_700_cast_fp16 = mul(x = var_698_cast_fp16, y = var_699_to_fp16)[name = tensor<string, []>("op_700_cast_fp16")];
            tensor<int32, [4]> var_701 = const()[name = tensor<string, []>("op_701"), val = tensor<int32, [4]>([1, 20, 64, -1])];
            tensor<fp16, [1, 20, 64, 224]> var_702_cast_fp16 = reshape(shape = var_701, x = key_5_cast_fp16)[name = tensor<string, []>("op_702_cast_fp16")];
            tensor<bool, []> mh_w_7_transpose_x_0 = const()[name = tensor<string, []>("mh_w_7_transpose_x_0"), val = tensor<bool, []>(true)];
            tensor<bool, []> mh_w_7_transpose_y_0 = const()[name = tensor<string, []>("mh_w_7_transpose_y_0"), val = tensor<bool, []>(false)];
            tensor<fp16, [1, 20, 1, 224]> mh_w_7_cast_fp16 = matmul(transpose_x = mh_w_7_transpose_x_0, transpose_y = mh_w_7_transpose_y_0, x = var_700_cast_fp16, y = var_702_cast_fp16)[name = tensor<string, []>("mh_w_7_cast_fp16")];
            tensor<fp16, [1, 20, 1, 224]> mh_w_9_cast_fp16 = add(x = mh_w_7_cast_fp16, y = var_313_cast_fp16)[name = tensor<string, []>("mh_w_9_cast_fp16")];
            tensor<fp16, [1, 20, 1, 224]> var_710_cast_fp16 = softmax(axis = var_570, x = mh_w_9_cast_fp16)[name = tensor<string, []>("op_710_cast_fp16")];
            tensor<int32, [4]> var_711 = const()[name = tensor<string, []>("op_711"), val = tensor<int32, [4]>([1, 20, 64, -1])];
            tensor<fp16, [1, 20, 64, 224]> var_712_cast_fp16 = reshape(shape = var_711, x = value_5_cast_fp16)[name = tensor<string, []>("op_712_cast_fp16")];
            tensor<bool, []> attn_5_transpose_x_0 = const()[name = tensor<string, []>("attn_5_transpose_x_0"), val = tensor<bool, []>(false)];
            tensor<bool, []> attn_5_transpose_y_0 = const()[name = tensor<string, []>("attn_5_transpose_y_0"), val = tensor<bool, []>(true)];
            tensor<fp16, [1, 20, 64, 1]> attn_5_cast_fp16 = matmul(transpose_x = attn_5_transpose_x_0, transpose_y = attn_5_transpose_y_0, x = var_712_cast_fp16, y = var_710_cast_fp16)[name = tensor<string, []>("attn_5_cast_fp16")];
            tensor<int32, [4]> var_715 = const()[name = tensor<string, []>("op_715"), val = tensor<int32, [4]>([1, 1280, 1, -1])];
            tensor<fp16, [1, 1280, 1, 1]> input_37_cast_fp16 = reshape(shape = var_715, x = attn_5_cast_fp16)[name = tensor<string, []>("input_37_cast_fp16")];
            tensor<int32, [2]> var_722 = const()[name = tensor<string, []>("op_722"), val = tensor<int32, [2]>([1, 1])];
            tensor<int32, [2]> var_724 = const()[name = tensor<string, []>("op_724"), val = tensor<int32, [2]>([1, 1])];
            tensor<string, []> pretrained_out_27_pad_type_0 = const()[name = tensor<string, []>("pretrained_out_27_pad_type_0"), val = tensor<string, []>("custom")];
            tensor<int32, [4]> pretrained_out_27_pad_0 = const()[name = tensor<string, []>("pretrained_out_27_pad_0"), val = tensor<int32, [4]>([0, 0, 0, 0])];
            tensor<fp16, [1280, 1280, 1, 1]> layers_1_self_attn_o_proj_pretrained_weight_to_fp16_palettized = constexpr_lut_to_dense()[indices = tensor<uint8, [819200]>(BLOBFILE(path = tensor<string, []>("@model_path/weights/weight.bin"), offset = tensor<uint64, []>(150871616))), lut = tensor<fp16, [16]>(BLOBFILE(path = tensor<string, []>("@model_path/weights/weight.bin"), offset = tensor<uint64, []>(151690880))), name = tensor<string, []>("layers_1_self_attn_o_proj_pretrained_weight_to_fp16_palettized"), shape = tensor<uint32, [4]>([1280, 1280, 1, 1])];
            tensor<fp16, [1280]> layers_1_self_attn_o_proj_pretrained_bias_to_fp16 = const()[name = tensor<string, []>("layers_1_self_attn_o_proj_pretrained_bias_to_fp16"), val = tensor<fp16, [1280]>(BLOBFILE(path = tensor<string, []>("@model_path/weights/weight.bin"), offset = tensor<uint64, []>(151691008)))];
            tensor<fp16, [1, 1280, 1, 1]> pretrained_out_27_cast_fp16 = conv(bias = layers_1_self_attn_o_proj_pretrained_bias_to_fp16, dilations = var_724, groups = var_577, pad = pretrained_out_27_pad_0, pad_type = pretrained_out_27_pad_type_0, strides = var_722, weight = layers_1_self_attn_o_proj_pretrained_weight_to_fp16_palettized, x = input_37_cast_fp16)[name = tensor<string, []>("pretrained_out_27_cast_fp16")];
            tensor<int32, [2]> var_728 = const()[name = tensor<string, []>("op_728"), val = tensor<int32, [2]>([1, 1])];
            tensor<int32, [2]> var_730 = const()[name = tensor<string, []>("op_730"), val = tensor<int32, [2]>([1, 1])];
            tensor<string, []> input_39_pad_type_0 = const()[name = tensor<string, []>("input_39_pad_type_0"), val = tensor<string, []>("custom")];
            tensor<int32, [4]> input_39_pad_0 = const()[name = tensor<string, []>("input_39_pad_0"), val = tensor<int32, [4]>([0, 0, 0, 0])];
            tensor<fp16, [16, 1280, 1, 1]> layers_1_self_attn_o_proj_loraA_weight_to_fp16 = const()[name = tensor<string, []>("layers_1_self_attn_o_proj_loraA_weight_to_fp16"), val = tensor<fp16, [16, 1280, 1, 1]>(BLOBFILE(path = tensor<string, []>("@model_path/weights/weight.bin"), offset = tensor<uint64, []>(151693632)))];
            tensor<fp16, [1, 16, 1, 1]> input_39_cast_fp16 = conv(dilations = var_730, groups = var_577, pad = input_39_pad_0, pad_type = input_39_pad_type_0, strides = var_728, weight = layers_1_self_attn_o_proj_loraA_weight_to_fp16, x = input_37_cast_fp16)[name = tensor<string, []>("input_39_cast_fp16")];
            tensor<int32, [2]> var_734 = const()[name = tensor<string, []>("op_734"), val = tensor<int32, [2]>([1, 1])];
            tensor<int32, [2]> var_736 = const()[name = tensor<string, []>("op_736"), val = tensor<int32, [2]>([1, 1])];
            tensor<string, []> lora_out_53_pad_type_0 = const()[name = tensor<string, []>("lora_out_53_pad_type_0"), val = tensor<string, []>("custom")];
            tensor<int32, [4]> lora_out_53_pad_0 = const()[name = tensor<string, []>("lora_out_53_pad_0"), val = tensor<int32, [4]>([0, 0, 0, 0])];
            tensor<fp16, [1280, 16, 1, 1]> lora_out_55_weight_0_to_fp16 = const()[name = tensor<string, []>("lora_out_55_weight_0_to_fp16"), val = tensor<fp16, [1280, 16, 1, 1]>(BLOBFILE(path = tensor<string, []>("@model_path/weights/weight.bin"), offset = tensor<uint64, []>(151734656)))];
            tensor<fp16, [1, 1280, 1, 1]> lora_out_55_cast_fp16 = conv(bias = obj_1_mean_0_to_fp16, dilations = var_736, groups = var_577, pad = lora_out_53_pad_0, pad_type = lora_out_53_pad_type_0, strides = var_734, weight = lora_out_55_weight_0_to_fp16, x = input_39_cast_fp16)[name = tensor<string, []>("lora_out_55_cast_fp16")];
            tensor<fp16, [1, 1280, 1, 1]> obj_21_cast_fp16 = add(x = pretrained_out_27_cast_fp16, y = lora_out_55_cast_fp16)[name = tensor<string, []>("obj_21_cast_fp16")];
            tensor<fp16, [1, 1280, 1, 1]> inputs_9_cast_fp16 = add(x = inputs_7_cast_fp16, y = obj_21_cast_fp16)[name = tensor<string, []>("inputs_9_cast_fp16")];
            tensor<int32, [1]> var_749 = const()[name = tensor<string, []>("op_749"), val = tensor<int32, [1]>([1])];
            tensor<fp16, [1, 1, 1, 1]> channels_mean_9_cast_fp16 = reduce_mean(axes = var_749, keep_dims = var_578, x = inputs_9_cast_fp16)[name = tensor<string, []>("channels_mean_9_cast_fp16")];
            tensor<fp16, [1, 1280, 1, 1]> zero_mean_9_cast_fp16 = sub(x = inputs_9_cast_fp16, y = channels_mean_9_cast_fp16)[name = tensor<string, []>("zero_mean_9_cast_fp16")];
            tensor<fp16, [1, 1280, 1, 1]> zero_mean_sq_9_cast_fp16 = mul(x = zero_mean_9_cast_fp16, y = zero_mean_9_cast_fp16)[name = tensor<string, []>("zero_mean_sq_9_cast_fp16")];
            tensor<int32, [1]> var_753 = const()[name = tensor<string, []>("op_753"), val = tensor<int32, [1]>([1])];
            tensor<fp16, [1, 1, 1, 1]> var_754_cast_fp16 = reduce_mean(axes = var_753, keep_dims = var_578, x = zero_mean_sq_9_cast_fp16)[name = tensor<string, []>("op_754_cast_fp16")];
            tensor<fp16, []> var_755_to_fp16 = const()[name = tensor<string, []>("op_755_to_fp16"), val = tensor<fp16, []>(0x1.5p-17)];
            tensor<fp16, [1, 1, 1, 1]> var_756_cast_fp16 = add(x = var_754_cast_fp16, y = var_755_to_fp16)[name = tensor<string, []>("op_756_cast_fp16")];
            tensor<fp32, []> denom_9_epsilon_0 = const()[name = tensor<string, []>("denom_9_epsilon_0"), val = tensor<fp32, []>(0x1.197998p-40)];
            tensor<fp16, [1, 1, 1, 1]> denom_9_cast_fp16 = rsqrt(epsilon = denom_9_epsilon_0, x = var_756_cast_fp16)[name = tensor<string, []>("denom_9_cast_fp16")];
            tensor<fp16, [1, 1280, 1, 1]> out_9_cast_fp16 = mul(x = zero_mean_9_cast_fp16, y = denom_9_cast_fp16)[name = tensor<string, []>("out_9_cast_fp16")];
            tensor<fp16, [1280]> obj_23_gamma_0_to_fp16 = const()[name = tensor<string, []>("obj_23_gamma_0_to_fp16"), val = tensor<fp16, [1280]>(BLOBFILE(path = tensor<string, []>("@model_path/weights/weight.bin"), offset = tensor<uint64, []>(151775680)))];
            tensor<fp16, [1280]> obj_23_beta_0_to_fp16 = const()[name = tensor<string, []>("obj_23_beta_0_to_fp16"), val = tensor<fp16, [1280]>(BLOBFILE(path = tensor<string, []>("@model_path/weights/weight.bin"), offset = tensor<uint64, []>(151778304)))];
            tensor<fp16, []> obj_23_epsilon_0_to_fp16 = const()[name = tensor<string, []>("obj_23_epsilon_0_to_fp16"), val = tensor<fp16, []>(0x1.5p-17)];
            tensor<fp16, [1, 1280, 1, 1]> obj_23_cast_fp16 = batch_norm(beta = obj_23_beta_0_to_fp16, epsilon = obj_23_epsilon_0_to_fp16, gamma = obj_23_gamma_0_to_fp16, mean = obj_1_mean_0_to_fp16, variance = obj_1_variance_0_to_fp16, x = out_9_cast_fp16)[name = tensor<string, []>("obj_23_cast_fp16")];
            tensor<int32, [2]> var_774 = const()[name = tensor<string, []>("op_774"), val = tensor<int32, [2]>([1, 1])];
            tensor<int32, [2]> var_776 = const()[name = tensor<string, []>("op_776"), val = tensor<int32, [2]>([1, 1])];
            tensor<string, []> pretrained_out_29_pad_type_0 = const()[name = tensor<string, []>("pretrained_out_29_pad_type_0"), val = tensor<string, []>("custom")];
            tensor<int32, [4]> pretrained_out_29_pad_0 = const()[name = tensor<string, []>("pretrained_out_29_pad_0"), val = tensor<int32, [4]>([0, 0, 0, 0])];
            tensor<fp16, [1280, 1280, 1, 1]> layers_1_encoder_attn_q_proj_pretrained_weight_to_fp16_palettized = constexpr_lut_to_dense()[indices = tensor<uint8, [819200]>(BLOBFILE(path = tensor<string, []>("@model_path/weights/weight.bin"), offset = tensor<uint64, []>(151780928))), lut = tensor<fp16, [16]>(BLOBFILE(path = tensor<string, []>("@model_path/weights/weight.bin"), offset = tensor<uint64, []>(152600192))), name = tensor<string, []>("layers_1_encoder_attn_q_proj_pretrained_weight_to_fp16_palettized"), shape = tensor<uint32, [4]>([1280, 1280, 1, 1])];
            tensor<fp16, [1280]> layers_1_encoder_attn_q_proj_pretrained_bias_to_fp16 = const()[name = tensor<string, []>("layers_1_encoder_attn_q_proj_pretrained_bias_to_fp16"), val = tensor<fp16, [1280]>(BLOBFILE(path = tensor<string, []>("@model_path/weights/weight.bin"), offset = tensor<uint64, []>(152600320)))];
            tensor<fp16, [1, 1280, 1, 1]> pretrained_out_29_cast_fp16 = conv(bias = layers_1_encoder_attn_q_proj_pretrained_bias_to_fp16, dilations = var_776, groups = var_577, pad = pretrained_out_29_pad_0, pad_type = pretrained_out_29_pad_type_0, strides = var_774, weight = layers_1_encoder_attn_q_proj_pretrained_weight_to_fp16_palettized, x = obj_23_cast_fp16)[name = tensor<string, []>("pretrained_out_29_cast_fp16")];
            tensor<int32, [2]> var_780 = const()[name = tensor<string, []>("op_780"), val = tensor<int32, [2]>([1, 1])];
            tensor<int32, [2]> var_782 = const()[name = tensor<string, []>("op_782"), val = tensor<int32, [2]>([1, 1])];
            tensor<string, []> input_41_pad_type_0 = const()[name = tensor<string, []>("input_41_pad_type_0"), val = tensor<string, []>("custom")];
            tensor<int32, [4]> input_41_pad_0 = const()[name = tensor<string, []>("input_41_pad_0"), val = tensor<int32, [4]>([0, 0, 0, 0])];
            tensor<fp16, [16, 1280, 1, 1]> layers_1_encoder_attn_q_proj_loraA_weight_to_fp16 = const()[name = tensor<string, []>("layers_1_encoder_attn_q_proj_loraA_weight_to_fp16"), val = tensor<fp16, [16, 1280, 1, 1]>(BLOBFILE(path = tensor<string, []>("@model_path/weights/weight.bin"), offset = tensor<uint64, []>(152602944)))];
            tensor<fp16, [1, 16, 1, 1]> input_41_cast_fp16 = conv(dilations = var_782, groups = var_577, pad = input_41_pad_0, pad_type = input_41_pad_type_0, strides = var_780, weight = layers_1_encoder_attn_q_proj_loraA_weight_to_fp16, x = obj_23_cast_fp16)[name = tensor<string, []>("input_41_cast_fp16")];
            tensor<int32, [2]> var_786 = const()[name = tensor<string, []>("op_786"), val = tensor<int32, [2]>([1, 1])];
            tensor<int32, [2]> var_788 = const()[name = tensor<string, []>("op_788"), val = tensor<int32, [2]>([1, 1])];
            tensor<string, []> lora_out_57_pad_type_0 = const()[name = tensor<string, []>("lora_out_57_pad_type_0"), val = tensor<string, []>("custom")];
            tensor<int32, [4]> lora_out_57_pad_0 = const()[name = tensor<string, []>("lora_out_57_pad_0"), val = tensor<int32, [4]>([0, 0, 0, 0])];
            tensor<fp16, [1280, 16, 1, 1]> lora_out_59_weight_0_to_fp16 = const()[name = tensor<string, []>("lora_out_59_weight_0_to_fp16"), val = tensor<fp16, [1280, 16, 1, 1]>(BLOBFILE(path = tensor<string, []>("@model_path/weights/weight.bin"), offset = tensor<uint64, []>(152643968)))];
            tensor<fp16, [1, 1280, 1, 1]> lora_out_59_cast_fp16 = conv(bias = obj_1_mean_0_to_fp16, dilations = var_788, groups = var_577, pad = lora_out_57_pad_0, pad_type = lora_out_57_pad_type_0, strides = var_786, weight = lora_out_59_weight_0_to_fp16, x = input_41_cast_fp16)[name = tensor<string, []>("lora_out_59_cast_fp16")];
            tensor<fp16, [1, 1280, 1, 1]> query_7_cast_fp16 = add(x = pretrained_out_29_cast_fp16, y = lora_out_59_cast_fp16)[name = tensor<string, []>("query_7_cast_fp16")];
            tensor<int32, [2]> var_798 = const()[name = tensor<string, []>("op_798"), val = tensor<int32, [2]>([1, 1])];
            tensor<int32, [2]> var_800 = const()[name = tensor<string, []>("op_800"), val = tensor<int32, [2]>([1, 1])];
            tensor<string, []> pretrained_out_31_pad_type_0 = const()[name = tensor<string, []>("pretrained_out_31_pad_type_0"), val = tensor<string, []>("custom")];
            tensor<int32, [4]> pretrained_out_31_pad_0 = const()[name = tensor<string, []>("pretrained_out_31_pad_0"), val = tensor<int32, [4]>([0, 0, 0, 0])];
            tensor<fp16, [1280, 1280, 1, 1]> layers_1_encoder_attn_k_proj_pretrained_weight_to_fp16_palettized = constexpr_lut_to_dense()[indices = tensor<uint8, [819200]>(BLOBFILE(path = tensor<string, []>("@model_path/weights/weight.bin"), offset = tensor<uint64, []>(152684992))), lut = tensor<fp16, [16]>(BLOBFILE(path = tensor<string, []>("@model_path/weights/weight.bin"), offset = tensor<uint64, []>(153504256))), name = tensor<string, []>("layers_1_encoder_attn_k_proj_pretrained_weight_to_fp16_palettized"), shape = tensor<uint32, [4]>([1280, 1280, 1, 1])];
            tensor<fp16, [1, 1280, 1, 1500]> pretrained_out_31_cast_fp16 = conv(dilations = var_800, groups = var_577, pad = pretrained_out_31_pad_0, pad_type = pretrained_out_31_pad_type_0, strides = var_798, weight = layers_1_encoder_attn_k_proj_pretrained_weight_to_fp16_palettized, x = encoder_output_embeds)[name = tensor<string, []>("pretrained_out_31_cast_fp16")];
            tensor<int32, [2]> var_804 = const()[name = tensor<string, []>("op_804"), val = tensor<int32, [2]>([1, 1])];
            tensor<int32, [2]> var_806 = const()[name = tensor<string, []>("op_806"), val = tensor<int32, [2]>([1, 1])];
            tensor<string, []> input_43_pad_type_0 = const()[name = tensor<string, []>("input_43_pad_type_0"), val = tensor<string, []>("custom")];
            tensor<int32, [4]> input_43_pad_0 = const()[name = tensor<string, []>("input_43_pad_0"), val = tensor<int32, [4]>([0, 0, 0, 0])];
            tensor<fp16, [16, 1280, 1, 1]> layers_1_encoder_attn_k_proj_loraA_weight_to_fp16 = const()[name = tensor<string, []>("layers_1_encoder_attn_k_proj_loraA_weight_to_fp16"), val = tensor<fp16, [16, 1280, 1, 1]>(BLOBFILE(path = tensor<string, []>("@model_path/weights/weight.bin"), offset = tensor<uint64, []>(153504384)))];
            tensor<fp16, [1, 16, 1, 1500]> input_43_cast_fp16 = conv(dilations = var_806, groups = var_577, pad = input_43_pad_0, pad_type = input_43_pad_type_0, strides = var_804, weight = layers_1_encoder_attn_k_proj_loraA_weight_to_fp16, x = encoder_output_embeds)[name = tensor<string, []>("input_43_cast_fp16")];
            tensor<int32, [2]> var_810 = const()[name = tensor<string, []>("op_810"), val = tensor<int32, [2]>([1, 1])];
            tensor<int32, [2]> var_812 = const()[name = tensor<string, []>("op_812"), val = tensor<int32, [2]>([1, 1])];
            tensor<string, []> lora_out_61_pad_type_0 = const()[name = tensor<string, []>("lora_out_61_pad_type_0"), val = tensor<string, []>("custom")];
            tensor<int32, [4]> lora_out_61_pad_0 = const()[name = tensor<string, []>("lora_out_61_pad_0"), val = tensor<int32, [4]>([0, 0, 0, 0])];
            tensor<fp16, [1280, 16, 1, 1]> lora_out_63_weight_0_to_fp16 = const()[name = tensor<string, []>("lora_out_63_weight_0_to_fp16"), val = tensor<fp16, [1280, 16, 1, 1]>(BLOBFILE(path = tensor<string, []>("@model_path/weights/weight.bin"), offset = tensor<uint64, []>(153545408)))];
            tensor<fp16, [1, 1280, 1, 1500]> lora_out_63_cast_fp16 = conv(bias = obj_1_mean_0_to_fp16, dilations = var_812, groups = var_577, pad = lora_out_61_pad_0, pad_type = lora_out_61_pad_type_0, strides = var_810, weight = lora_out_63_weight_0_to_fp16, x = input_43_cast_fp16)[name = tensor<string, []>("lora_out_63_cast_fp16")];
            tensor<fp16, [1, 1280, 1, 1500]> key_7_cast_fp16 = add(x = pretrained_out_31_cast_fp16, y = lora_out_63_cast_fp16)[name = tensor<string, []>("key_7_cast_fp16")];
            tensor<int32, [2]> var_823 = const()[name = tensor<string, []>("op_823"), val = tensor<int32, [2]>([1, 1])];
            tensor<int32, [2]> var_825 = const()[name = tensor<string, []>("op_825"), val = tensor<int32, [2]>([1, 1])];
            tensor<string, []> pretrained_out_33_pad_type_0 = const()[name = tensor<string, []>("pretrained_out_33_pad_type_0"), val = tensor<string, []>("custom")];
            tensor<int32, [4]> pretrained_out_33_pad_0 = const()[name = tensor<string, []>("pretrained_out_33_pad_0"), val = tensor<int32, [4]>([0, 0, 0, 0])];
            tensor<fp16, [1280, 1280, 1, 1]> layers_1_encoder_attn_v_proj_pretrained_weight_to_fp16_palettized = constexpr_lut_to_dense()[indices = tensor<uint8, [819200]>(BLOBFILE(path = tensor<string, []>("@model_path/weights/weight.bin"), offset = tensor<uint64, []>(153586432))), lut = tensor<fp16, [16]>(BLOBFILE(path = tensor<string, []>("@model_path/weights/weight.bin"), offset = tensor<uint64, []>(154405696))), name = tensor<string, []>("layers_1_encoder_attn_v_proj_pretrained_weight_to_fp16_palettized"), shape = tensor<uint32, [4]>([1280, 1280, 1, 1])];
            tensor<fp16, [1280]> layers_1_encoder_attn_v_proj_pretrained_bias_to_fp16 = const()[name = tensor<string, []>("layers_1_encoder_attn_v_proj_pretrained_bias_to_fp16"), val = tensor<fp16, [1280]>(BLOBFILE(path = tensor<string, []>("@model_path/weights/weight.bin"), offset = tensor<uint64, []>(154405824)))];
            tensor<fp16, [1, 1280, 1, 1500]> pretrained_out_33_cast_fp16 = conv(bias = layers_1_encoder_attn_v_proj_pretrained_bias_to_fp16, dilations = var_825, groups = var_577, pad = pretrained_out_33_pad_0, pad_type = pretrained_out_33_pad_type_0, strides = var_823, weight = layers_1_encoder_attn_v_proj_pretrained_weight_to_fp16_palettized, x = encoder_output_embeds)[name = tensor<string, []>("pretrained_out_33_cast_fp16")];
            tensor<int32, [2]> var_829 = const()[name = tensor<string, []>("op_829"), val = tensor<int32, [2]>([1, 1])];
            tensor<int32, [2]> var_831 = const()[name = tensor<string, []>("op_831"), val = tensor<int32, [2]>([1, 1])];
            tensor<string, []> input_45_pad_type_0 = const()[name = tensor<string, []>("input_45_pad_type_0"), val = tensor<string, []>("custom")];
            tensor<int32, [4]> input_45_pad_0 = const()[name = tensor<string, []>("input_45_pad_0"), val = tensor<int32, [4]>([0, 0, 0, 0])];
            tensor<fp16, [16, 1280, 1, 1]> layers_1_encoder_attn_v_proj_loraA_weight_to_fp16 = const()[name = tensor<string, []>("layers_1_encoder_attn_v_proj_loraA_weight_to_fp16"), val = tensor<fp16, [16, 1280, 1, 1]>(BLOBFILE(path = tensor<string, []>("@model_path/weights/weight.bin"), offset = tensor<uint64, []>(154408448)))];
            tensor<fp16, [1, 16, 1, 1500]> input_45_cast_fp16 = conv(dilations = var_831, groups = var_577, pad = input_45_pad_0, pad_type = input_45_pad_type_0, strides = var_829, weight = layers_1_encoder_attn_v_proj_loraA_weight_to_fp16, x = encoder_output_embeds)[name = tensor<string, []>("input_45_cast_fp16")];
            tensor<int32, [2]> var_835 = const()[name = tensor<string, []>("op_835"), val = tensor<int32, [2]>([1, 1])];
            tensor<int32, [2]> var_837 = const()[name = tensor<string, []>("op_837"), val = tensor<int32, [2]>([1, 1])];
            tensor<string, []> lora_out_65_pad_type_0 = const()[name = tensor<string, []>("lora_out_65_pad_type_0"), val = tensor<string, []>("custom")];
            tensor<int32, [4]> lora_out_65_pad_0 = const()[name = tensor<string, []>("lora_out_65_pad_0"), val = tensor<int32, [4]>([0, 0, 0, 0])];
            tensor<fp16, [1280, 16, 1, 1]> lora_out_67_weight_0_to_fp16 = const()[name = tensor<string, []>("lora_out_67_weight_0_to_fp16"), val = tensor<fp16, [1280, 16, 1, 1]>(BLOBFILE(path = tensor<string, []>("@model_path/weights/weight.bin"), offset = tensor<uint64, []>(154449472)))];
            tensor<fp16, [1, 1280, 1, 1500]> lora_out_67_cast_fp16 = conv(bias = obj_1_mean_0_to_fp16, dilations = var_837, groups = var_577, pad = lora_out_65_pad_0, pad_type = lora_out_65_pad_type_0, strides = var_835, weight = lora_out_67_weight_0_to_fp16, x = input_45_cast_fp16)[name = tensor<string, []>("lora_out_67_cast_fp16")];
            tensor<fp16, [1, 1280, 1, 1500]> value_7_cast_fp16 = add(x = pretrained_out_33_cast_fp16, y = lora_out_67_cast_fp16)[name = tensor<string, []>("value_7_cast_fp16")];
            tensor<int32, [4]> var_844 = const()[name = tensor<string, []>("op_844"), val = tensor<int32, [4]>([1, 20, 64, -1])];
            tensor<fp16, [1, 20, 64, 1]> var_845_cast_fp16 = reshape(shape = var_844, x = query_7_cast_fp16)[name = tensor<string, []>("op_845_cast_fp16")];
            tensor<fp16, []> var_846_to_fp16 = const()[name = tensor<string, []>("op_846_to_fp16"), val = tensor<fp16, []>(0x1p-3)];
            tensor<fp16, [1, 20, 64, 1]> var_847_cast_fp16 = mul(x = var_845_cast_fp16, y = var_846_to_fp16)[name = tensor<string, []>("op_847_cast_fp16")];
            tensor<int32, [4]> var_848 = const()[name = tensor<string, []>("op_848"), val = tensor<int32, [4]>([1, 20, 64, -1])];
            tensor<fp16, [1, 20, 64, 1500]> var_849_cast_fp16 = reshape(shape = var_848, x = key_7_cast_fp16)[name = tensor<string, []>("op_849_cast_fp16")];
            tensor<bool, []> mh_w_11_transpose_x_0 = const()[name = tensor<string, []>("mh_w_11_transpose_x_0"), val = tensor<bool, []>(true)];
            tensor<bool, []> mh_w_11_transpose_y_0 = const()[name = tensor<string, []>("mh_w_11_transpose_y_0"), val = tensor<bool, []>(false)];
            tensor<fp16, [1, 20, 1, 1500]> mh_w_11_cast_fp16 = matmul(transpose_x = mh_w_11_transpose_x_0, transpose_y = mh_w_11_transpose_y_0, x = var_847_cast_fp16, y = var_849_cast_fp16)[name = tensor<string, []>("mh_w_11_cast_fp16")];
            tensor<fp16, [1, 20, 1, 1500]> obj_27_cast_fp16 = softmax(axis = var_570, x = mh_w_11_cast_fp16)[name = tensor<string, []>("obj_27_cast_fp16")];
            tensor<int32, [4]> var_853 = const()[name = tensor<string, []>("op_853"), val = tensor<int32, [4]>([1, 20, 64, -1])];
            tensor<fp16, [1, 20, 64, 1500]> var_854_cast_fp16 = reshape(shape = var_853, x = value_7_cast_fp16)[name = tensor<string, []>("op_854_cast_fp16")];
            tensor<bool, []> attn_7_transpose_x_0 = const()[name = tensor<string, []>("attn_7_transpose_x_0"), val = tensor<bool, []>(false)];
            tensor<bool, []> attn_7_transpose_y_0 = const()[name = tensor<string, []>("attn_7_transpose_y_0"), val = tensor<bool, []>(true)];
            tensor<fp16, [1, 20, 64, 1]> attn_7_cast_fp16 = matmul(transpose_x = attn_7_transpose_x_0, transpose_y = attn_7_transpose_y_0, x = var_854_cast_fp16, y = obj_27_cast_fp16)[name = tensor<string, []>("attn_7_cast_fp16")];
            tensor<int32, [4]> var_857 = const()[name = tensor<string, []>("op_857"), val = tensor<int32, [4]>([1, 1280, 1, -1])];
            tensor<fp16, [1, 1280, 1, 1]> input_47_cast_fp16 = reshape(shape = var_857, x = attn_7_cast_fp16)[name = tensor<string, []>("input_47_cast_fp16")];
            tensor<int32, [2]> var_864 = const()[name = tensor<string, []>("op_864"), val = tensor<int32, [2]>([1, 1])];
            tensor<int32, [2]> var_866 = const()[name = tensor<string, []>("op_866"), val = tensor<int32, [2]>([1, 1])];
            tensor<string, []> pretrained_out_35_pad_type_0 = const()[name = tensor<string, []>("pretrained_out_35_pad_type_0"), val = tensor<string, []>("custom")];
            tensor<int32, [4]> pretrained_out_35_pad_0 = const()[name = tensor<string, []>("pretrained_out_35_pad_0"), val = tensor<int32, [4]>([0, 0, 0, 0])];
            tensor<fp16, [1280, 1280, 1, 1]> layers_1_encoder_attn_o_proj_pretrained_weight_to_fp16_palettized = constexpr_lut_to_dense()[indices = tensor<uint8, [819200]>(BLOBFILE(path = tensor<string, []>("@model_path/weights/weight.bin"), offset = tensor<uint64, []>(154490496))), lut = tensor<fp16, [16]>(BLOBFILE(path = tensor<string, []>("@model_path/weights/weight.bin"), offset = tensor<uint64, []>(155309760))), name = tensor<string, []>("layers_1_encoder_attn_o_proj_pretrained_weight_to_fp16_palettized"), shape = tensor<uint32, [4]>([1280, 1280, 1, 1])];
            tensor<fp16, [1280]> layers_1_encoder_attn_o_proj_pretrained_bias_to_fp16 = const()[name = tensor<string, []>("layers_1_encoder_attn_o_proj_pretrained_bias_to_fp16"), val = tensor<fp16, [1280]>(BLOBFILE(path = tensor<string, []>("@model_path/weights/weight.bin"), offset = tensor<uint64, []>(155309888)))];
            tensor<fp16, [1, 1280, 1, 1]> pretrained_out_35_cast_fp16 = conv(bias = layers_1_encoder_attn_o_proj_pretrained_bias_to_fp16, dilations = var_866, groups = var_577, pad = pretrained_out_35_pad_0, pad_type = pretrained_out_35_pad_type_0, strides = var_864, weight = layers_1_encoder_attn_o_proj_pretrained_weight_to_fp16_palettized, x = input_47_cast_fp16)[name = tensor<string, []>("pretrained_out_35_cast_fp16")];
            tensor<int32, [2]> var_870 = const()[name = tensor<string, []>("op_870"), val = tensor<int32, [2]>([1, 1])];
            tensor<int32, [2]> var_872 = const()[name = tensor<string, []>("op_872"), val = tensor<int32, [2]>([1, 1])];
            tensor<string, []> input_49_pad_type_0 = const()[name = tensor<string, []>("input_49_pad_type_0"), val = tensor<string, []>("custom")];
            tensor<int32, [4]> input_49_pad_0 = const()[name = tensor<string, []>("input_49_pad_0"), val = tensor<int32, [4]>([0, 0, 0, 0])];
            tensor<fp16, [16, 1280, 1, 1]> layers_1_encoder_attn_o_proj_loraA_weight_to_fp16 = const()[name = tensor<string, []>("layers_1_encoder_attn_o_proj_loraA_weight_to_fp16"), val = tensor<fp16, [16, 1280, 1, 1]>(BLOBFILE(path = tensor<string, []>("@model_path/weights/weight.bin"), offset = tensor<uint64, []>(155312512)))];
            tensor<fp16, [1, 16, 1, 1]> input_49_cast_fp16 = conv(dilations = var_872, groups = var_577, pad = input_49_pad_0, pad_type = input_49_pad_type_0, strides = var_870, weight = layers_1_encoder_attn_o_proj_loraA_weight_to_fp16, x = input_47_cast_fp16)[name = tensor<string, []>("input_49_cast_fp16")];
            tensor<int32, [2]> var_876 = const()[name = tensor<string, []>("op_876"), val = tensor<int32, [2]>([1, 1])];
            tensor<int32, [2]> var_878 = const()[name = tensor<string, []>("op_878"), val = tensor<int32, [2]>([1, 1])];
            tensor<string, []> lora_out_69_pad_type_0 = const()[name = tensor<string, []>("lora_out_69_pad_type_0"), val = tensor<string, []>("custom")];
            tensor<int32, [4]> lora_out_69_pad_0 = const()[name = tensor<string, []>("lora_out_69_pad_0"), val = tensor<int32, [4]>([0, 0, 0, 0])];
            tensor<fp16, [1280, 16, 1, 1]> lora_out_71_weight_0_to_fp16 = const()[name = tensor<string, []>("lora_out_71_weight_0_to_fp16"), val = tensor<fp16, [1280, 16, 1, 1]>(BLOBFILE(path = tensor<string, []>("@model_path/weights/weight.bin"), offset = tensor<uint64, []>(155353536)))];
            tensor<fp16, [1, 1280, 1, 1]> lora_out_71_cast_fp16 = conv(bias = obj_1_mean_0_to_fp16, dilations = var_878, groups = var_577, pad = lora_out_69_pad_0, pad_type = lora_out_69_pad_type_0, strides = var_876, weight = lora_out_71_weight_0_to_fp16, x = input_49_cast_fp16)[name = tensor<string, []>("lora_out_71_cast_fp16")];
            tensor<fp16, [1, 1280, 1, 1]> obj_25_cast_fp16 = add(x = pretrained_out_35_cast_fp16, y = lora_out_71_cast_fp16)[name = tensor<string, []>("obj_25_cast_fp16")];
            tensor<fp16, [1, 1280, 1, 1]> inputs_11_cast_fp16 = add(x = inputs_9_cast_fp16, y = obj_25_cast_fp16)[name = tensor<string, []>("inputs_11_cast_fp16")];
            tensor<int32, [1]> var_887 = const()[name = tensor<string, []>("op_887"), val = tensor<int32, [1]>([1])];
            tensor<fp16, [1, 1, 1, 1]> channels_mean_11_cast_fp16 = reduce_mean(axes = var_887, keep_dims = var_578, x = inputs_11_cast_fp16)[name = tensor<string, []>("channels_mean_11_cast_fp16")];
            tensor<fp16, [1, 1280, 1, 1]> zero_mean_11_cast_fp16 = sub(x = inputs_11_cast_fp16, y = channels_mean_11_cast_fp16)[name = tensor<string, []>("zero_mean_11_cast_fp16")];
            tensor<fp16, [1, 1280, 1, 1]> zero_mean_sq_11_cast_fp16 = mul(x = zero_mean_11_cast_fp16, y = zero_mean_11_cast_fp16)[name = tensor<string, []>("zero_mean_sq_11_cast_fp16")];
            tensor<int32, [1]> var_891 = const()[name = tensor<string, []>("op_891"), val = tensor<int32, [1]>([1])];
            tensor<fp16, [1, 1, 1, 1]> var_892_cast_fp16 = reduce_mean(axes = var_891, keep_dims = var_578, x = zero_mean_sq_11_cast_fp16)[name = tensor<string, []>("op_892_cast_fp16")];
            tensor<fp16, []> var_893_to_fp16 = const()[name = tensor<string, []>("op_893_to_fp16"), val = tensor<fp16, []>(0x1.5p-17)];
            tensor<fp16, [1, 1, 1, 1]> var_894_cast_fp16 = add(x = var_892_cast_fp16, y = var_893_to_fp16)[name = tensor<string, []>("op_894_cast_fp16")];
            tensor<fp32, []> denom_11_epsilon_0 = const()[name = tensor<string, []>("denom_11_epsilon_0"), val = tensor<fp32, []>(0x1.197998p-40)];
            tensor<fp16, [1, 1, 1, 1]> denom_11_cast_fp16 = rsqrt(epsilon = denom_11_epsilon_0, x = var_894_cast_fp16)[name = tensor<string, []>("denom_11_cast_fp16")];
            tensor<fp16, [1, 1280, 1, 1]> out_11_cast_fp16 = mul(x = zero_mean_11_cast_fp16, y = denom_11_cast_fp16)[name = tensor<string, []>("out_11_cast_fp16")];
            tensor<fp16, [1280]> input_51_gamma_0_to_fp16 = const()[name = tensor<string, []>("input_51_gamma_0_to_fp16"), val = tensor<fp16, [1280]>(BLOBFILE(path = tensor<string, []>("@model_path/weights/weight.bin"), offset = tensor<uint64, []>(155394560)))];
            tensor<fp16, [1280]> input_51_beta_0_to_fp16 = const()[name = tensor<string, []>("input_51_beta_0_to_fp16"), val = tensor<fp16, [1280]>(BLOBFILE(path = tensor<string, []>("@model_path/weights/weight.bin"), offset = tensor<uint64, []>(155397184)))];
            tensor<fp16, []> input_51_epsilon_0_to_fp16 = const()[name = tensor<string, []>("input_51_epsilon_0_to_fp16"), val = tensor<fp16, []>(0x1.5p-17)];
            tensor<fp16, [1, 1280, 1, 1]> input_51_cast_fp16 = batch_norm(beta = input_51_beta_0_to_fp16, epsilon = input_51_epsilon_0_to_fp16, gamma = input_51_gamma_0_to_fp16, mean = obj_1_mean_0_to_fp16, variance = obj_1_variance_0_to_fp16, x = out_11_cast_fp16)[name = tensor<string, []>("input_51_cast_fp16")];
            tensor<int32, [2]> var_908 = const()[name = tensor<string, []>("op_908"), val = tensor<int32, [2]>([1, 1])];
            tensor<int32, [2]> var_910 = const()[name = tensor<string, []>("op_910"), val = tensor<int32, [2]>([1, 1])];
            tensor<string, []> pretrained_out_37_pad_type_0 = const()[name = tensor<string, []>("pretrained_out_37_pad_type_0"), val = tensor<string, []>("custom")];
            tensor<int32, [4]> pretrained_out_37_pad_0 = const()[name = tensor<string, []>("pretrained_out_37_pad_0"), val = tensor<int32, [4]>([0, 0, 0, 0])];
            tensor<fp16, [5120, 1280, 1, 1]> layers_1_fc1_pretrained_weight_to_fp16_palettized = constexpr_lut_to_dense()[indices = tensor<uint8, [3276800]>(BLOBFILE(path = tensor<string, []>("@model_path/weights/weight.bin"), offset = tensor<uint64, []>(155399808))), lut = tensor<fp16, [16]>(BLOBFILE(path = tensor<string, []>("@model_path/weights/weight.bin"), offset = tensor<uint64, []>(158676672))), name = tensor<string, []>("layers_1_fc1_pretrained_weight_to_fp16_palettized"), shape = tensor<uint32, [4]>([5120, 1280, 1, 1])];
            tensor<fp16, [5120]> layers_1_fc1_pretrained_bias_to_fp16 = const()[name = tensor<string, []>("layers_1_fc1_pretrained_bias_to_fp16"), val = tensor<fp16, [5120]>(BLOBFILE(path = tensor<string, []>("@model_path/weights/weight.bin"), offset = tensor<uint64, []>(158676800)))];
            tensor<fp16, [1, 5120, 1, 1]> pretrained_out_37_cast_fp16 = conv(bias = layers_1_fc1_pretrained_bias_to_fp16, dilations = var_910, groups = var_577, pad = pretrained_out_37_pad_0, pad_type = pretrained_out_37_pad_type_0, strides = var_908, weight = layers_1_fc1_pretrained_weight_to_fp16_palettized, x = input_51_cast_fp16)[name = tensor<string, []>("pretrained_out_37_cast_fp16")];
            tensor<int32, [2]> var_914 = const()[name = tensor<string, []>("op_914"), val = tensor<int32, [2]>([1, 1])];
            tensor<int32, [2]> var_916 = const()[name = tensor<string, []>("op_916"), val = tensor<int32, [2]>([1, 1])];
            tensor<string, []> input_53_pad_type_0 = const()[name = tensor<string, []>("input_53_pad_type_0"), val = tensor<string, []>("custom")];
            tensor<int32, [4]> input_53_pad_0 = const()[name = tensor<string, []>("input_53_pad_0"), val = tensor<int32, [4]>([0, 0, 0, 0])];
            tensor<fp16, [16, 1280, 1, 1]> layers_1_fc1_loraA_weight_to_fp16 = const()[name = tensor<string, []>("layers_1_fc1_loraA_weight_to_fp16"), val = tensor<fp16, [16, 1280, 1, 1]>(BLOBFILE(path = tensor<string, []>("@model_path/weights/weight.bin"), offset = tensor<uint64, []>(158687104)))];
            tensor<fp16, [1, 16, 1, 1]> input_53_cast_fp16 = conv(dilations = var_916, groups = var_577, pad = input_53_pad_0, pad_type = input_53_pad_type_0, strides = var_914, weight = layers_1_fc1_loraA_weight_to_fp16, x = input_51_cast_fp16)[name = tensor<string, []>("input_53_cast_fp16")];
            tensor<int32, [2]> var_920 = const()[name = tensor<string, []>("op_920"), val = tensor<int32, [2]>([1, 1])];
            tensor<int32, [2]> var_922 = const()[name = tensor<string, []>("op_922"), val = tensor<int32, [2]>([1, 1])];
            tensor<string, []> lora_out_73_pad_type_0 = const()[name = tensor<string, []>("lora_out_73_pad_type_0"), val = tensor<string, []>("custom")];
            tensor<int32, [4]> lora_out_73_pad_0 = const()[name = tensor<string, []>("lora_out_73_pad_0"), val = tensor<int32, [4]>([0, 0, 0, 0])];
            tensor<fp16, [5120, 16, 1, 1]> lora_out_75_weight_0_to_fp16 = const()[name = tensor<string, []>("lora_out_75_weight_0_to_fp16"), val = tensor<fp16, [5120, 16, 1, 1]>(BLOBFILE(path = tensor<string, []>("@model_path/weights/weight.bin"), offset = tensor<uint64, []>(158728128)))];
            tensor<fp16, [1, 5120, 1, 1]> lora_out_75_cast_fp16 = conv(bias = lora_out_35_bias_0_to_fp16, dilations = var_922, groups = var_577, pad = lora_out_73_pad_0, pad_type = lora_out_73_pad_type_0, strides = var_920, weight = lora_out_75_weight_0_to_fp16, x = input_53_cast_fp16)[name = tensor<string, []>("lora_out_75_cast_fp16")];
            tensor<fp16, [1, 5120, 1, 1]> input_55_cast_fp16 = add(x = pretrained_out_37_cast_fp16, y = lora_out_75_cast_fp16)[name = tensor<string, []>("input_55_cast_fp16")];
            tensor<string, []> input_57_mode_0 = const()[name = tensor<string, []>("input_57_mode_0"), val = tensor<string, []>("EXACT")];
            tensor<fp16, [1, 5120, 1, 1]> input_57_cast_fp16 = gelu(mode = input_57_mode_0, x = input_55_cast_fp16)[name = tensor<string, []>("input_57_cast_fp16")];
            tensor<int32, [2]> var_934 = const()[name = tensor<string, []>("op_934"), val = tensor<int32, [2]>([1, 1])];
            tensor<int32, [2]> var_936 = const()[name = tensor<string, []>("op_936"), val = tensor<int32, [2]>([1, 1])];
            tensor<string, []> pretrained_out_39_pad_type_0 = const()[name = tensor<string, []>("pretrained_out_39_pad_type_0"), val = tensor<string, []>("custom")];
            tensor<int32, [4]> pretrained_out_39_pad_0 = const()[name = tensor<string, []>("pretrained_out_39_pad_0"), val = tensor<int32, [4]>([0, 0, 0, 0])];
            tensor<fp16, [1280, 5120, 1, 1]> layers_1_fc2_pretrained_weight_to_fp16_palettized = constexpr_lut_to_dense()[indices = tensor<uint8, [3276800]>(BLOBFILE(path = tensor<string, []>("@model_path/weights/weight.bin"), offset = tensor<uint64, []>(158892032))), lut = tensor<fp16, [16]>(BLOBFILE(path = tensor<string, []>("@model_path/weights/weight.bin"), offset = tensor<uint64, []>(162168896))), name = tensor<string, []>("layers_1_fc2_pretrained_weight_to_fp16_palettized"), shape = tensor<uint32, [4]>([1280, 5120, 1, 1])];
            tensor<fp16, [1280]> layers_1_fc2_pretrained_bias_to_fp16 = const()[name = tensor<string, []>("layers_1_fc2_pretrained_bias_to_fp16"), val = tensor<fp16, [1280]>(BLOBFILE(path = tensor<string, []>("@model_path/weights/weight.bin"), offset = tensor<uint64, []>(162169024)))];
            tensor<fp16, [1, 1280, 1, 1]> pretrained_out_39_cast_fp16 = conv(bias = layers_1_fc2_pretrained_bias_to_fp16, dilations = var_936, groups = var_577, pad = pretrained_out_39_pad_0, pad_type = pretrained_out_39_pad_type_0, strides = var_934, weight = layers_1_fc2_pretrained_weight_to_fp16_palettized, x = input_57_cast_fp16)[name = tensor<string, []>("pretrained_out_39_cast_fp16")];
            tensor<int32, [2]> var_940 = const()[name = tensor<string, []>("op_940"), val = tensor<int32, [2]>([1, 1])];
            tensor<int32, [2]> var_942 = const()[name = tensor<string, []>("op_942"), val = tensor<int32, [2]>([1, 1])];
            tensor<string, []> input_59_pad_type_0 = const()[name = tensor<string, []>("input_59_pad_type_0"), val = tensor<string, []>("custom")];
            tensor<int32, [4]> input_59_pad_0 = const()[name = tensor<string, []>("input_59_pad_0"), val = tensor<int32, [4]>([0, 0, 0, 0])];
            tensor<fp16, [16, 5120, 1, 1]> layers_1_fc2_loraA_weight_to_fp16 = const()[name = tensor<string, []>("layers_1_fc2_loraA_weight_to_fp16"), val = tensor<fp16, [16, 5120, 1, 1]>(BLOBFILE(path = tensor<string, []>("@model_path/weights/weight.bin"), offset = tensor<uint64, []>(162171648)))];
            tensor<fp16, [1, 16, 1, 1]> input_59_cast_fp16 = conv(dilations = var_942, groups = var_577, pad = input_59_pad_0, pad_type = input_59_pad_type_0, strides = var_940, weight = layers_1_fc2_loraA_weight_to_fp16, x = input_57_cast_fp16)[name = tensor<string, []>("input_59_cast_fp16")];
            tensor<int32, [2]> var_946 = const()[name = tensor<string, []>("op_946"), val = tensor<int32, [2]>([1, 1])];
            tensor<int32, [2]> var_948 = const()[name = tensor<string, []>("op_948"), val = tensor<int32, [2]>([1, 1])];
            tensor<string, []> lora_out_77_pad_type_0 = const()[name = tensor<string, []>("lora_out_77_pad_type_0"), val = tensor<string, []>("custom")];
            tensor<int32, [4]> lora_out_77_pad_0 = const()[name = tensor<string, []>("lora_out_77_pad_0"), val = tensor<int32, [4]>([0, 0, 0, 0])];
            tensor<fp16, [1280, 16, 1, 1]> lora_out_79_weight_0_to_fp16 = const()[name = tensor<string, []>("lora_out_79_weight_0_to_fp16"), val = tensor<fp16, [1280, 16, 1, 1]>(BLOBFILE(path = tensor<string, []>("@model_path/weights/weight.bin"), offset = tensor<uint64, []>(162335552)))];
            tensor<fp16, [1, 1280, 1, 1]> lora_out_79_cast_fp16 = conv(bias = obj_1_mean_0_to_fp16, dilations = var_948, groups = var_577, pad = lora_out_77_pad_0, pad_type = lora_out_77_pad_type_0, strides = var_946, weight = lora_out_79_weight_0_to_fp16, x = input_59_cast_fp16)[name = tensor<string, []>("lora_out_79_cast_fp16")];
            tensor<fp16, [1, 1280, 1, 1]> hidden_states_5_cast_fp16 = add(x = pretrained_out_39_cast_fp16, y = lora_out_79_cast_fp16)[name = tensor<string, []>("hidden_states_5_cast_fp16")];
            tensor<fp16, [1, 1280, 1, 1]> inputs_13_cast_fp16 = add(x = inputs_11_cast_fp16, y = hidden_states_5_cast_fp16)[name = tensor<string, []>("inputs_13_cast_fp16")];
            tensor<int32, []> var_964 = const()[name = tensor<string, []>("op_964"), val = tensor<int32, []>(3)];
            tensor<int32, []> var_971 = const()[name = tensor<string, []>("op_971"), val = tensor<int32, []>(1)];
            tensor<bool, []> var_972 = const()[name = tensor<string, []>("op_972"), val = tensor<bool, []>(true)];
            tensor<int32, [1]> var_984 = const()[name = tensor<string, []>("op_984"), val = tensor<int32, [1]>([1])];
            tensor<fp16, [1, 1, 1, 1]> channels_mean_13_cast_fp16 = reduce_mean(axes = var_984, keep_dims = var_972, x = inputs_13_cast_fp16)[name = tensor<string, []>("channels_mean_13_cast_fp16")];
            tensor<fp16, [1, 1280, 1, 1]> zero_mean_13_cast_fp16 = sub(x = inputs_13_cast_fp16, y = channels_mean_13_cast_fp16)[name = tensor<string, []>("zero_mean_13_cast_fp16")];
            tensor<fp16, [1, 1280, 1, 1]> zero_mean_sq_13_cast_fp16 = mul(x = zero_mean_13_cast_fp16, y = zero_mean_13_cast_fp16)[name = tensor<string, []>("zero_mean_sq_13_cast_fp16")];
            tensor<int32, [1]> var_988 = const()[name = tensor<string, []>("op_988"), val = tensor<int32, [1]>([1])];
            tensor<fp16, [1, 1, 1, 1]> var_989_cast_fp16 = reduce_mean(axes = var_988, keep_dims = var_972, x = zero_mean_sq_13_cast_fp16)[name = tensor<string, []>("op_989_cast_fp16")];
            tensor<fp16, []> var_990_to_fp16 = const()[name = tensor<string, []>("op_990_to_fp16"), val = tensor<fp16, []>(0x1.5p-17)];
            tensor<fp16, [1, 1, 1, 1]> var_991_cast_fp16 = add(x = var_989_cast_fp16, y = var_990_to_fp16)[name = tensor<string, []>("op_991_cast_fp16")];
            tensor<fp32, []> denom_13_epsilon_0 = const()[name = tensor<string, []>("denom_13_epsilon_0"), val = tensor<fp32, []>(0x1.197998p-40)];
            tensor<fp16, [1, 1, 1, 1]> denom_13_cast_fp16 = rsqrt(epsilon = denom_13_epsilon_0, x = var_991_cast_fp16)[name = tensor<string, []>("denom_13_cast_fp16")];
            tensor<fp16, [1, 1280, 1, 1]> out_13_cast_fp16 = mul(x = zero_mean_13_cast_fp16, y = denom_13_cast_fp16)[name = tensor<string, []>("out_13_cast_fp16")];
            tensor<fp16, [1280]> obj_29_gamma_0_to_fp16 = const()[name = tensor<string, []>("obj_29_gamma_0_to_fp16"), val = tensor<fp16, [1280]>(BLOBFILE(path = tensor<string, []>("@model_path/weights/weight.bin"), offset = tensor<uint64, []>(162376576)))];
            tensor<fp16, [1280]> obj_29_beta_0_to_fp16 = const()[name = tensor<string, []>("obj_29_beta_0_to_fp16"), val = tensor<fp16, [1280]>(BLOBFILE(path = tensor<string, []>("@model_path/weights/weight.bin"), offset = tensor<uint64, []>(162379200)))];
            tensor<fp16, []> obj_29_epsilon_0_to_fp16 = const()[name = tensor<string, []>("obj_29_epsilon_0_to_fp16"), val = tensor<fp16, []>(0x1.5p-17)];
            tensor<fp16, [1, 1280, 1, 1]> obj_29_cast_fp16 = batch_norm(beta = obj_29_beta_0_to_fp16, epsilon = obj_29_epsilon_0_to_fp16, gamma = obj_29_gamma_0_to_fp16, mean = obj_1_mean_0_to_fp16, variance = obj_1_variance_0_to_fp16, x = out_13_cast_fp16)[name = tensor<string, []>("obj_29_cast_fp16")];
            tensor<int32, [2]> var_1009 = const()[name = tensor<string, []>("op_1009"), val = tensor<int32, [2]>([1, 1])];
            tensor<int32, [2]> var_1011 = const()[name = tensor<string, []>("op_1011"), val = tensor<int32, [2]>([1, 1])];
            tensor<string, []> pretrained_out_41_pad_type_0 = const()[name = tensor<string, []>("pretrained_out_41_pad_type_0"), val = tensor<string, []>("custom")];
            tensor<int32, [4]> pretrained_out_41_pad_0 = const()[name = tensor<string, []>("pretrained_out_41_pad_0"), val = tensor<int32, [4]>([0, 0, 0, 0])];
            tensor<fp16, [1280, 1280, 1, 1]> layers_2_self_attn_q_proj_pretrained_weight_to_fp16_palettized = constexpr_lut_to_dense()[indices = tensor<uint8, [819200]>(BLOBFILE(path = tensor<string, []>("@model_path/weights/weight.bin"), offset = tensor<uint64, []>(162381824))), lut = tensor<fp16, [16]>(BLOBFILE(path = tensor<string, []>("@model_path/weights/weight.bin"), offset = tensor<uint64, []>(163201088))), name = tensor<string, []>("layers_2_self_attn_q_proj_pretrained_weight_to_fp16_palettized"), shape = tensor<uint32, [4]>([1280, 1280, 1, 1])];
            tensor<fp16, [1280]> layers_2_self_attn_q_proj_pretrained_bias_to_fp16 = const()[name = tensor<string, []>("layers_2_self_attn_q_proj_pretrained_bias_to_fp16"), val = tensor<fp16, [1280]>(BLOBFILE(path = tensor<string, []>("@model_path/weights/weight.bin"), offset = tensor<uint64, []>(163201216)))];
            tensor<fp16, [1, 1280, 1, 1]> pretrained_out_41_cast_fp16 = conv(bias = layers_2_self_attn_q_proj_pretrained_bias_to_fp16, dilations = var_1011, groups = var_971, pad = pretrained_out_41_pad_0, pad_type = pretrained_out_41_pad_type_0, strides = var_1009, weight = layers_2_self_attn_q_proj_pretrained_weight_to_fp16_palettized, x = obj_29_cast_fp16)[name = tensor<string, []>("pretrained_out_41_cast_fp16")];
            tensor<int32, [2]> var_1015 = const()[name = tensor<string, []>("op_1015"), val = tensor<int32, [2]>([1, 1])];
            tensor<int32, [2]> var_1017 = const()[name = tensor<string, []>("op_1017"), val = tensor<int32, [2]>([1, 1])];
            tensor<string, []> input_61_pad_type_0 = const()[name = tensor<string, []>("input_61_pad_type_0"), val = tensor<string, []>("custom")];
            tensor<int32, [4]> input_61_pad_0 = const()[name = tensor<string, []>("input_61_pad_0"), val = tensor<int32, [4]>([0, 0, 0, 0])];
            tensor<fp16, [16, 1280, 1, 1]> layers_2_self_attn_q_proj_loraA_weight_to_fp16 = const()[name = tensor<string, []>("layers_2_self_attn_q_proj_loraA_weight_to_fp16"), val = tensor<fp16, [16, 1280, 1, 1]>(BLOBFILE(path = tensor<string, []>("@model_path/weights/weight.bin"), offset = tensor<uint64, []>(163203840)))];
            tensor<fp16, [1, 16, 1, 1]> input_61_cast_fp16 = conv(dilations = var_1017, groups = var_971, pad = input_61_pad_0, pad_type = input_61_pad_type_0, strides = var_1015, weight = layers_2_self_attn_q_proj_loraA_weight_to_fp16, x = obj_29_cast_fp16)[name = tensor<string, []>("input_61_cast_fp16")];
            tensor<int32, [2]> var_1021 = const()[name = tensor<string, []>("op_1021"), val = tensor<int32, [2]>([1, 1])];
            tensor<int32, [2]> var_1023 = const()[name = tensor<string, []>("op_1023"), val = tensor<int32, [2]>([1, 1])];
            tensor<string, []> lora_out_81_pad_type_0 = const()[name = tensor<string, []>("lora_out_81_pad_type_0"), val = tensor<string, []>("custom")];
            tensor<int32, [4]> lora_out_81_pad_0 = const()[name = tensor<string, []>("lora_out_81_pad_0"), val = tensor<int32, [4]>([0, 0, 0, 0])];
            tensor<fp16, [1280, 16, 1, 1]> lora_out_83_weight_0_to_fp16 = const()[name = tensor<string, []>("lora_out_83_weight_0_to_fp16"), val = tensor<fp16, [1280, 16, 1, 1]>(BLOBFILE(path = tensor<string, []>("@model_path/weights/weight.bin"), offset = tensor<uint64, []>(163244864)))];
            tensor<fp16, [1, 1280, 1, 1]> lora_out_83_cast_fp16 = conv(bias = obj_1_mean_0_to_fp16, dilations = var_1023, groups = var_971, pad = lora_out_81_pad_0, pad_type = lora_out_81_pad_type_0, strides = var_1021, weight = lora_out_83_weight_0_to_fp16, x = input_61_cast_fp16)[name = tensor<string, []>("lora_out_83_cast_fp16")];
            tensor<fp16, [1, 1280, 1, 1]> query_9_cast_fp16 = add(x = pretrained_out_41_cast_fp16, y = lora_out_83_cast_fp16)[name = tensor<string, []>("query_9_cast_fp16")];
            tensor<int32, [2]> var_1033 = const()[name = tensor<string, []>("op_1033"), val = tensor<int32, [2]>([1, 1])];
            tensor<int32, [2]> var_1035 = const()[name = tensor<string, []>("op_1035"), val = tensor<int32, [2]>([1, 1])];
            tensor<string, []> pretrained_out_43_pad_type_0 = const()[name = tensor<string, []>("pretrained_out_43_pad_type_0"), val = tensor<string, []>("custom")];
            tensor<int32, [4]> pretrained_out_43_pad_0 = const()[name = tensor<string, []>("pretrained_out_43_pad_0"), val = tensor<int32, [4]>([0, 0, 0, 0])];
            tensor<fp16, [1280, 1280, 1, 1]> layers_2_self_attn_k_proj_pretrained_weight_to_fp16_palettized = constexpr_lut_to_dense()[indices = tensor<uint8, [819200]>(BLOBFILE(path = tensor<string, []>("@model_path/weights/weight.bin"), offset = tensor<uint64, []>(163285888))), lut = tensor<fp16, [16]>(BLOBFILE(path = tensor<string, []>("@model_path/weights/weight.bin"), offset = tensor<uint64, []>(164105152))), name = tensor<string, []>("layers_2_self_attn_k_proj_pretrained_weight_to_fp16_palettized"), shape = tensor<uint32, [4]>([1280, 1280, 1, 1])];
            tensor<fp16, [1, 1280, 1, 1]> pretrained_out_43_cast_fp16 = conv(dilations = var_1035, groups = var_971, pad = pretrained_out_43_pad_0, pad_type = pretrained_out_43_pad_type_0, strides = var_1033, weight = layers_2_self_attn_k_proj_pretrained_weight_to_fp16_palettized, x = obj_29_cast_fp16)[name = tensor<string, []>("pretrained_out_43_cast_fp16")];
            tensor<int32, [2]> var_1039 = const()[name = tensor<string, []>("op_1039"), val = tensor<int32, [2]>([1, 1])];
            tensor<int32, [2]> var_1041 = const()[name = tensor<string, []>("op_1041"), val = tensor<int32, [2]>([1, 1])];
            tensor<string, []> input_63_pad_type_0 = const()[name = tensor<string, []>("input_63_pad_type_0"), val = tensor<string, []>("custom")];
            tensor<int32, [4]> input_63_pad_0 = const()[name = tensor<string, []>("input_63_pad_0"), val = tensor<int32, [4]>([0, 0, 0, 0])];
            tensor<fp16, [16, 1280, 1, 1]> layers_2_self_attn_k_proj_loraA_weight_to_fp16 = const()[name = tensor<string, []>("layers_2_self_attn_k_proj_loraA_weight_to_fp16"), val = tensor<fp16, [16, 1280, 1, 1]>(BLOBFILE(path = tensor<string, []>("@model_path/weights/weight.bin"), offset = tensor<uint64, []>(164105280)))];
            tensor<fp16, [1, 16, 1, 1]> input_63_cast_fp16 = conv(dilations = var_1041, groups = var_971, pad = input_63_pad_0, pad_type = input_63_pad_type_0, strides = var_1039, weight = layers_2_self_attn_k_proj_loraA_weight_to_fp16, x = obj_29_cast_fp16)[name = tensor<string, []>("input_63_cast_fp16")];
            tensor<int32, [2]> var_1045 = const()[name = tensor<string, []>("op_1045"), val = tensor<int32, [2]>([1, 1])];
            tensor<int32, [2]> var_1047 = const()[name = tensor<string, []>("op_1047"), val = tensor<int32, [2]>([1, 1])];
            tensor<string, []> lora_out_85_pad_type_0 = const()[name = tensor<string, []>("lora_out_85_pad_type_0"), val = tensor<string, []>("custom")];
            tensor<int32, [4]> lora_out_85_pad_0 = const()[name = tensor<string, []>("lora_out_85_pad_0"), val = tensor<int32, [4]>([0, 0, 0, 0])];
            tensor<fp16, [1280, 16, 1, 1]> lora_out_87_weight_0_to_fp16 = const()[name = tensor<string, []>("lora_out_87_weight_0_to_fp16"), val = tensor<fp16, [1280, 16, 1, 1]>(BLOBFILE(path = tensor<string, []>("@model_path/weights/weight.bin"), offset = tensor<uint64, []>(164146304)))];
            tensor<fp16, [1, 1280, 1, 1]> lora_out_87_cast_fp16 = conv(bias = obj_1_mean_0_to_fp16, dilations = var_1047, groups = var_971, pad = lora_out_85_pad_0, pad_type = lora_out_85_pad_type_0, strides = var_1045, weight = lora_out_87_weight_0_to_fp16, x = input_63_cast_fp16)[name = tensor<string, []>("lora_out_87_cast_fp16")];
            tensor<fp16, [1, 1280, 1, 1]> current_key_5_cast_fp16 = add(x = pretrained_out_43_cast_fp16, y = lora_out_87_cast_fp16)[name = tensor<string, []>("current_key_5_cast_fp16")];
            tensor<int32, [2]> var_1058 = const()[name = tensor<string, []>("op_1058"), val = tensor<int32, [2]>([1, 1])];
            tensor<int32, [2]> var_1060 = const()[name = tensor<string, []>("op_1060"), val = tensor<int32, [2]>([1, 1])];
            tensor<string, []> pretrained_out_45_pad_type_0 = const()[name = tensor<string, []>("pretrained_out_45_pad_type_0"), val = tensor<string, []>("custom")];
            tensor<int32, [4]> pretrained_out_45_pad_0 = const()[name = tensor<string, []>("pretrained_out_45_pad_0"), val = tensor<int32, [4]>([0, 0, 0, 0])];
            tensor<fp16, [1280, 1280, 1, 1]> layers_2_self_attn_v_proj_pretrained_weight_to_fp16_palettized = constexpr_lut_to_dense()[indices = tensor<uint8, [819200]>(BLOBFILE(path = tensor<string, []>("@model_path/weights/weight.bin"), offset = tensor<uint64, []>(164187328))), lut = tensor<fp16, [16]>(BLOBFILE(path = tensor<string, []>("@model_path/weights/weight.bin"), offset = tensor<uint64, []>(165006592))), name = tensor<string, []>("layers_2_self_attn_v_proj_pretrained_weight_to_fp16_palettized"), shape = tensor<uint32, [4]>([1280, 1280, 1, 1])];
            tensor<fp16, [1280]> layers_2_self_attn_v_proj_pretrained_bias_to_fp16 = const()[name = tensor<string, []>("layers_2_self_attn_v_proj_pretrained_bias_to_fp16"), val = tensor<fp16, [1280]>(BLOBFILE(path = tensor<string, []>("@model_path/weights/weight.bin"), offset = tensor<uint64, []>(165006720)))];
            tensor<fp16, [1, 1280, 1, 1]> pretrained_out_45_cast_fp16 = conv(bias = layers_2_self_attn_v_proj_pretrained_bias_to_fp16, dilations = var_1060, groups = var_971, pad = pretrained_out_45_pad_0, pad_type = pretrained_out_45_pad_type_0, strides = var_1058, weight = layers_2_self_attn_v_proj_pretrained_weight_to_fp16_palettized, x = obj_29_cast_fp16)[name = tensor<string, []>("pretrained_out_45_cast_fp16")];
            tensor<int32, [2]> var_1064 = const()[name = tensor<string, []>("op_1064"), val = tensor<int32, [2]>([1, 1])];
            tensor<int32, [2]> var_1066 = const()[name = tensor<string, []>("op_1066"), val = tensor<int32, [2]>([1, 1])];
            tensor<string, []> input_65_pad_type_0 = const()[name = tensor<string, []>("input_65_pad_type_0"), val = tensor<string, []>("custom")];
            tensor<int32, [4]> input_65_pad_0 = const()[name = tensor<string, []>("input_65_pad_0"), val = tensor<int32, [4]>([0, 0, 0, 0])];
            tensor<fp16, [16, 1280, 1, 1]> layers_2_self_attn_v_proj_loraA_weight_to_fp16 = const()[name = tensor<string, []>("layers_2_self_attn_v_proj_loraA_weight_to_fp16"), val = tensor<fp16, [16, 1280, 1, 1]>(BLOBFILE(path = tensor<string, []>("@model_path/weights/weight.bin"), offset = tensor<uint64, []>(165009344)))];
            tensor<fp16, [1, 16, 1, 1]> input_65_cast_fp16 = conv(dilations = var_1066, groups = var_971, pad = input_65_pad_0, pad_type = input_65_pad_type_0, strides = var_1064, weight = layers_2_self_attn_v_proj_loraA_weight_to_fp16, x = obj_29_cast_fp16)[name = tensor<string, []>("input_65_cast_fp16")];
            tensor<int32, [2]> var_1070 = const()[name = tensor<string, []>("op_1070"), val = tensor<int32, [2]>([1, 1])];
            tensor<int32, [2]> var_1072 = const()[name = tensor<string, []>("op_1072"), val = tensor<int32, [2]>([1, 1])];
            tensor<string, []> lora_out_89_pad_type_0 = const()[name = tensor<string, []>("lora_out_89_pad_type_0"), val = tensor<string, []>("custom")];
            tensor<int32, [4]> lora_out_89_pad_0 = const()[name = tensor<string, []>("lora_out_89_pad_0"), val = tensor<int32, [4]>([0, 0, 0, 0])];
            tensor<fp16, [1280, 16, 1, 1]> lora_out_91_weight_0_to_fp16 = const()[name = tensor<string, []>("lora_out_91_weight_0_to_fp16"), val = tensor<fp16, [1280, 16, 1, 1]>(BLOBFILE(path = tensor<string, []>("@model_path/weights/weight.bin"), offset = tensor<uint64, []>(165050368)))];
            tensor<fp16, [1, 1280, 1, 1]> lora_out_91_cast_fp16 = conv(bias = obj_1_mean_0_to_fp16, dilations = var_1072, groups = var_971, pad = lora_out_89_pad_0, pad_type = lora_out_89_pad_type_0, strides = var_1070, weight = lora_out_91_weight_0_to_fp16, x = input_65_cast_fp16)[name = tensor<string, []>("lora_out_91_cast_fp16")];
            tensor<fp16, [1, 1280, 1, 1]> current_value_5_cast_fp16 = add(x = pretrained_out_45_cast_fp16, y = lora_out_91_cast_fp16)[name = tensor<string, []>("current_value_5_cast_fp16")];
            tensor<fp16, [1, 1280, 1, 224]> var_1082_cast_fp16 = mul(x = current_key_5_cast_fp16, y = var_292_cast_fp16)[name = tensor<string, []>("op_1082_cast_fp16")];
            tensor<fp16, [1, 1280, 1, 224]> var_1084_cast_fp16 = mul(x = var_103_cast_fp16_2, y = var_295_cast_fp16)[name = tensor<string, []>("op_1084_cast_fp16")];
            tensor<fp16, [1, 1280, 1, 224]> key_9_cast_fp16 = add(x = var_1082_cast_fp16, y = var_1084_cast_fp16)[name = tensor<string, []>("key_9_cast_fp16")];
            tensor<fp16, [1, 1280, 1, 224]> var_1086_cast_fp16 = mul(x = current_value_5_cast_fp16, y = var_292_cast_fp16)[name = tensor<string, []>("op_1086_cast_fp16")];
            tensor<fp16, [1, 1280, 1, 224]> var_1088_cast_fp16 = mul(x = var_138_cast_fp16_2, y = var_295_cast_fp16)[name = tensor<string, []>("op_1088_cast_fp16")];
            tensor<fp16, [1, 1280, 1, 224]> value_9_cast_fp16 = add(x = var_1086_cast_fp16, y = var_1088_cast_fp16)[name = tensor<string, []>("value_9_cast_fp16")];
            tensor<int32, [4]> var_1091 = const()[name = tensor<string, []>("op_1091"), val = tensor<int32, [4]>([1, 20, 64, -1])];
            tensor<fp16, [1, 20, 64, 1]> var_1092_cast_fp16 = reshape(shape = var_1091, x = query_9_cast_fp16)[name = tensor<string, []>("op_1092_cast_fp16")];
            tensor<fp16, []> var_1093_to_fp16 = const()[name = tensor<string, []>("op_1093_to_fp16"), val = tensor<fp16, []>(0x1p-3)];
            tensor<fp16, [1, 20, 64, 1]> var_1094_cast_fp16 = mul(x = var_1092_cast_fp16, y = var_1093_to_fp16)[name = tensor<string, []>("op_1094_cast_fp16")];
            tensor<int32, [4]> var_1095 = const()[name = tensor<string, []>("op_1095"), val = tensor<int32, [4]>([1, 20, 64, -1])];
            tensor<fp16, [1, 20, 64, 224]> var_1096_cast_fp16 = reshape(shape = var_1095, x = key_9_cast_fp16)[name = tensor<string, []>("op_1096_cast_fp16")];
            tensor<bool, []> mh_w_13_transpose_x_0 = const()[name = tensor<string, []>("mh_w_13_transpose_x_0"), val = tensor<bool, []>(true)];
            tensor<bool, []> mh_w_13_transpose_y_0 = const()[name = tensor<string, []>("mh_w_13_transpose_y_0"), val = tensor<bool, []>(false)];
            tensor<fp16, [1, 20, 1, 224]> mh_w_13_cast_fp16 = matmul(transpose_x = mh_w_13_transpose_x_0, transpose_y = mh_w_13_transpose_y_0, x = var_1094_cast_fp16, y = var_1096_cast_fp16)[name = tensor<string, []>("mh_w_13_cast_fp16")];
            tensor<fp16, [1, 20, 1, 224]> mh_w_15_cast_fp16 = add(x = mh_w_13_cast_fp16, y = var_313_cast_fp16)[name = tensor<string, []>("mh_w_15_cast_fp16")];
            tensor<fp16, [1, 20, 1, 224]> var_1104_cast_fp16 = softmax(axis = var_964, x = mh_w_15_cast_fp16)[name = tensor<string, []>("op_1104_cast_fp16")];
            tensor<int32, [4]> var_1105 = const()[name = tensor<string, []>("op_1105"), val = tensor<int32, [4]>([1, 20, 64, -1])];
            tensor<fp16, [1, 20, 64, 224]> var_1106_cast_fp16 = reshape(shape = var_1105, x = value_9_cast_fp16)[name = tensor<string, []>("op_1106_cast_fp16")];
            tensor<bool, []> attn_9_transpose_x_0 = const()[name = tensor<string, []>("attn_9_transpose_x_0"), val = tensor<bool, []>(false)];
            tensor<bool, []> attn_9_transpose_y_0 = const()[name = tensor<string, []>("attn_9_transpose_y_0"), val = tensor<bool, []>(true)];
            tensor<fp16, [1, 20, 64, 1]> attn_9_cast_fp16 = matmul(transpose_x = attn_9_transpose_x_0, transpose_y = attn_9_transpose_y_0, x = var_1106_cast_fp16, y = var_1104_cast_fp16)[name = tensor<string, []>("attn_9_cast_fp16")];
            tensor<int32, [4]> var_1109 = const()[name = tensor<string, []>("op_1109"), val = tensor<int32, [4]>([1, 1280, 1, -1])];
            tensor<fp16, [1, 1280, 1, 1]> input_67_cast_fp16 = reshape(shape = var_1109, x = attn_9_cast_fp16)[name = tensor<string, []>("input_67_cast_fp16")];
            tensor<int32, [2]> var_1116 = const()[name = tensor<string, []>("op_1116"), val = tensor<int32, [2]>([1, 1])];
            tensor<int32, [2]> var_1118 = const()[name = tensor<string, []>("op_1118"), val = tensor<int32, [2]>([1, 1])];
            tensor<string, []> pretrained_out_47_pad_type_0 = const()[name = tensor<string, []>("pretrained_out_47_pad_type_0"), val = tensor<string, []>("custom")];
            tensor<int32, [4]> pretrained_out_47_pad_0 = const()[name = tensor<string, []>("pretrained_out_47_pad_0"), val = tensor<int32, [4]>([0, 0, 0, 0])];
            tensor<fp16, [1280, 1280, 1, 1]> layers_2_self_attn_o_proj_pretrained_weight_to_fp16_palettized = constexpr_lut_to_dense()[indices = tensor<uint8, [819200]>(BLOBFILE(path = tensor<string, []>("@model_path/weights/weight.bin"), offset = tensor<uint64, []>(165091392))), lut = tensor<fp16, [16]>(BLOBFILE(path = tensor<string, []>("@model_path/weights/weight.bin"), offset = tensor<uint64, []>(165910656))), name = tensor<string, []>("layers_2_self_attn_o_proj_pretrained_weight_to_fp16_palettized"), shape = tensor<uint32, [4]>([1280, 1280, 1, 1])];
            tensor<fp16, [1280]> layers_2_self_attn_o_proj_pretrained_bias_to_fp16 = const()[name = tensor<string, []>("layers_2_self_attn_o_proj_pretrained_bias_to_fp16"), val = tensor<fp16, [1280]>(BLOBFILE(path = tensor<string, []>("@model_path/weights/weight.bin"), offset = tensor<uint64, []>(165910784)))];
            tensor<fp16, [1, 1280, 1, 1]> pretrained_out_47_cast_fp16 = conv(bias = layers_2_self_attn_o_proj_pretrained_bias_to_fp16, dilations = var_1118, groups = var_971, pad = pretrained_out_47_pad_0, pad_type = pretrained_out_47_pad_type_0, strides = var_1116, weight = layers_2_self_attn_o_proj_pretrained_weight_to_fp16_palettized, x = input_67_cast_fp16)[name = tensor<string, []>("pretrained_out_47_cast_fp16")];
            tensor<int32, [2]> var_1122 = const()[name = tensor<string, []>("op_1122"), val = tensor<int32, [2]>([1, 1])];
            tensor<int32, [2]> var_1124 = const()[name = tensor<string, []>("op_1124"), val = tensor<int32, [2]>([1, 1])];
            tensor<string, []> input_69_pad_type_0 = const()[name = tensor<string, []>("input_69_pad_type_0"), val = tensor<string, []>("custom")];
            tensor<int32, [4]> input_69_pad_0 = const()[name = tensor<string, []>("input_69_pad_0"), val = tensor<int32, [4]>([0, 0, 0, 0])];
…
            tensor<fp16, [1, 5120, 1, 1]> lora_out_1275_cast_fp16 = conv(bias = lora_out_35_bias_0_to_fp16, dilations = var_12790, groups = var_12445, pad = lora_out_1273_pad_0, pad_type = lora_out_1273_pad_type_0, strides = var_12788, weight = lora_out_1275_weight_0_to_fp16, x = input_953_cast_fp16)[name = tensor<string, []>("lora_out_1275_cast_fp16")];
            tensor<fp16, [1, 5120, 1, 1]> input_955_cast_fp16 = add(x = pretrained_out_637_cast_fp16, y = lora_out_1275_cast_fp16)[name = tensor<string, []>("input_955_cast_fp16")];
            tensor<string, []> input_957_mode_0 = const()[name = tensor<string, []>("input_957_mode_0"), val = tensor<string, []>("EXACT")];
            tensor<fp16, [1, 5120, 1, 1]> input_957_cast_fp16 = gelu(mode = input_957_mode_0, x = input_955_cast_fp16)[name = tensor<string, []>("input_957_cast_fp16")];
            tensor<int32, [2]> var_12802 = const()[name = tensor<string, []>("op_12802"), val = tensor<int32, [2]>([1, 1])];
            tensor<int32, [2]> var_12804 = const()[name = tensor<string, []>("op_12804"), val = tensor<int32, [2]>([1, 1])];
            tensor<string, []> pretrained_out_pad_type_0 = const()[name = tensor<string, []>("pretrained_out_pad_type_0"), val = tensor<string, []>("custom")];
            tensor<int32, [4]> pretrained_out_pad_0 = const()[name = tensor<string, []>("pretrained_out_pad_0"), val = tensor<int32, [4]>([0, 0, 0, 0])];
            tensor<fp16, [1280, 5120, 1, 1]> layers_31_fc2_pretrained_weight_to_fp16_palettized = constexpr_lut_to_dense()[indices = tensor<uint8, [3276800]>(BLOBFILE(path = tensor<string, []>("@model_path/weights/weight.bin"), offset = tensor<uint64, []>(588762240))), lut = tensor<fp16, [16]>(BLOBFILE(path = tensor<string, []>("@model_path/weights/weight.bin"), offset = tensor<uint64, []>(592039104))), name = tensor<string, []>("layers_31_fc2_pretrained_weight_to_fp16_palettized"), shape = tensor<uint32, [4]>([1280, 5120, 1, 1])];
            tensor<fp16, [1280]> layers_31_fc2_pretrained_bias_to_fp16 = const()[name = tensor<string, []>("layers_31_fc2_pretrained_bias_to_fp16"), val = tensor<fp16, [1280]>(BLOBFILE(path = tensor<string, []>("@model_path/weights/weight.bin"), offset = tensor<uint64, []>(592039232)))];
            tensor<fp16, [1, 1280, 1, 1]> pretrained_out_cast_fp16 = conv(bias = layers_31_fc2_pretrained_bias_to_fp16, dilations = var_12804, groups = var_12445, pad = pretrained_out_pad_0, pad_type = pretrained_out_pad_type_0, strides = var_12802, weight = layers_31_fc2_pretrained_weight_to_fp16_palettized, x = input_957_cast_fp16)[name = tensor<string, []>("pretrained_out_cast_fp16")];
            tensor<int32, [2]> var_12808 = const()[name = tensor<string, []>("op_12808"), val = tensor<int32, [2]>([1, 1])];
            tensor<int32, [2]> var_12810 = const()[name = tensor<string, []>("op_12810"), val = tensor<int32, [2]>([1, 1])];
            tensor<string, []> input_pad_type_0 = const()[name = tensor<string, []>("input_pad_type_0"), val = tensor<string, []>("custom")];
            tensor<int32, [4]> input_pad_0 = const()[name = tensor<string, []>("input_pad_0"), val = tensor<int32, [4]>([0, 0, 0, 0])];
            tensor<fp16, [16, 5120, 1, 1]> layers_31_fc2_loraA_weight_to_fp16 = const()[name = tensor<string, []>("layers_31_fc2_loraA_weight_to_fp16"), val = tensor<fp16, [16, 5120, 1, 1]>(BLOBFILE(path = tensor<string, []>("@model_path/weights/weight.bin"), offset = tensor<uint64, []>(592041856)))];
            tensor<fp16, [1, 16, 1, 1]> input_cast_fp16 = conv(dilations = var_12810, groups = var_12445, pad = input_pad_0, pad_type = input_pad_type_0, strides = var_12808, weight = layers_31_fc2_loraA_weight_to_fp16, x = input_957_cast_fp16)[name = tensor<string, []>("input_cast_fp16")];
            tensor<int32, [2]> var_12814 = const()[name = tensor<string, []>("op_12814"), val = tensor<int32, [2]>([1, 1])];
            tensor<int32, [2]> var_12816 = const()[name = tensor<string, []>("op_12816"), val = tensor<int32, [2]>([1, 1])];
            tensor<string, []> lora_out_1277_pad_type_0 = const()[name = tensor<string, []>("lora_out_1277_pad_type_0"), val = tensor<string, []>("custom")];
            tensor<int32, [4]> lora_out_1277_pad_0 = const()[name = tensor<string, []>("lora_out_1277_pad_0"), val = tensor<int32, [4]>([0, 0, 0, 0])];
            tensor<fp16, [1280, 16, 1, 1]> lora_out_weight_0_to_fp16 = const()[name = tensor<string, []>("lora_out_weight_0_to_fp16"), val = tensor<fp16, [1280, 16, 1, 1]>(BLOBFILE(path = tensor<string, []>("@model_path/weights/weight.bin"), offset = tensor<uint64, []>(592205760)))];
            tensor<fp16, [1, 1280, 1, 1]> lora_out_cast_fp16 = conv(bias = obj_1_mean_0_to_fp16, dilations = var_12816, groups = var_12445, pad = lora_out_1277_pad_0, pad_type = lora_out_1277_pad_type_0, strides = var_12814, weight = lora_out_weight_0_to_fp16, x = input_cast_fp16)[name = tensor<string, []>("lora_out_cast_fp16")];
            tensor<fp16, [1, 1280, 1, 1]> hidden_states_65_cast_fp16 = add(x = pretrained_out_cast_fp16, y = lora_out_cast_fp16)[name = tensor<string, []>("hidden_states_65_cast_fp16")];
            tensor<fp16, [1, 1280, 1, 1]> inputs_cast_fp16 = add(x = inputs_191_cast_fp16, y = hidden_states_65_cast_fp16)[name = tensor<string, []>("inputs_cast_fp16")];
            tensor<bool, []> var_12829 = const()[name = tensor<string, []>("op_12829"), val = tensor<bool, []>(true)];
            tensor<int32, [1]> var_12833 = const()[name = tensor<string, []>("op_12833"), val = tensor<int32, [1]>([1])];
            tensor<fp16, [1, 1, 1, 1]> channels_mean_cast_fp16 = reduce_mean(axes = var_12833, keep_dims = var_12829, x = inputs_cast_fp16)[name = tensor<string, []>("channels_mean_cast_fp16")];
            tensor<fp16, [1, 1280, 1, 1]> zero_mean_cast_fp16 = sub(x = inputs_cast_fp16, y = channels_mean_cast_fp16)[name = tensor<string, []>("zero_mean_cast_fp16")];
            tensor<fp16, [1, 1280, 1, 1]> zero_mean_sq_cast_fp16 = mul(x = zero_mean_cast_fp16, y = zero_mean_cast_fp16)[name = tensor<string, []>("zero_mean_sq_cast_fp16")];
            tensor<int32, [1]> var_12837 = const()[name = tensor<string, []>("op_12837"), val = tensor<int32, [1]>([1])];
            tensor<fp16, [1, 1, 1, 1]> var_12838_cast_fp16 = reduce_mean(axes = var_12837, keep_dims = var_12829, x = zero_mean_sq_cast_fp16)[name = tensor<string, []>("op_12838_cast_fp16")];
            tensor<fp16, []> var_12839_to_fp16 = const()[name = tensor<string, []>("op_12839_to_fp16"), val = tensor<fp16, []>(0x1.5p-17)];
            tensor<fp16, [1, 1, 1, 1]> var_12840_cast_fp16 = add(x = var_12838_cast_fp16, y = var_12839_to_fp16)[name = tensor<string, []>("op_12840_cast_fp16")];
            tensor<fp32, []> denom_epsilon_0 = const()[name = tensor<string, []>("denom_epsilon_0"), val = tensor<fp32, []>(0x1.197998p-40)];
            tensor<fp16, [1, 1, 1, 1]> denom_cast_fp16 = rsqrt(epsilon = denom_epsilon_0, x = var_12840_cast_fp16)[name = tensor<string, []>("denom_cast_fp16")];
            tensor<fp16, [1, 1280, 1, 1]> out_cast_fp16 = mul(x = zero_mean_cast_fp16, y = denom_cast_fp16)[name = tensor<string, []>("out_cast_fp16")];
            tensor<fp16, [1280]> hidden_states_gamma_0_to_fp16 = const()[name = tensor<string, []>("hidden_states_gamma_0_to_fp16"), val = tensor<fp16, [1280]>(BLOBFILE(path = tensor<string, []>("@model_path/weights/weight.bin"), offset = tensor<uint64, []>(592246784)))];
            tensor<fp16, [1280]> hidden_states_beta_0_to_fp16 = const()[name = tensor<string, []>("hidden_states_beta_0_to_fp16"), val = tensor<fp16, [1280]>(BLOBFILE(path = tensor<string, []>("@model_path/weights/weight.bin"), offset = tensor<uint64, []>(592249408)))];
            tensor<fp16, []> hidden_states_epsilon_0_to_fp16 = const()[name = tensor<string, []>("hidden_states_epsilon_0_to_fp16"), val = tensor<fp16, []>(0x1.5p-17)];
            tensor<fp16, [1, 1280, 1, 1]> hidden_states_cast_fp16 = batch_norm(beta = hidden_states_beta_0_to_fp16, epsilon = hidden_states_epsilon_0_to_fp16, gamma = hidden_states_gamma_0_to_fp16, mean = obj_1_mean_0_to_fp16, variance = obj_1_variance_0_to_fp16, x = out_cast_fp16)[name = tensor<string, []>("hidden_states_cast_fp16")];
            tensor<int32, [1]> var_12850_axes_0 = const()[name = tensor<string, []>("op_12850_axes_0"), val = tensor<int32, [1]>([2])];
            tensor<fp16, [1, 1280, 1]> var_12850_cast_fp16 = squeeze(axes = var_12850_axes_0, x = hidden_states_cast_fp16)[name = tensor<string, []>("op_12850_cast_fp16")];
            tensor<int32, [3]> var_12853_perm_0 = const()[name = tensor<string, []>("op_12853_perm_0"), val = tensor<int32, [3]>([0, 2, 1])];
            tensor<fp16, [51865]> linear_0_bias_0_to_fp16 = const()[name = tensor<string, []>("linear_0_bias_0_to_fp16"), val = tensor<fp16, [51865]>(BLOBFILE(path = tensor<string, []>("@model_path/weights/weight.bin"), offset = tensor<uint64, []>(592252032)))];
            tensor<fp16, [1, 1, 1280]> transpose_0 = transpose(perm = var_12853_perm_0, x = var_12850_cast_fp16)[name = tensor<string, []>("transpose_0")];
            tensor<fp16, [1, 1, 51865]> logits = linear(bias = linear_0_bias_0_to_fp16, weight = embed_tokens_weight_to_fp16, x = transpose_0)[name = tensor<string, []>("linear_0_cast_fp16")];
            tensor<int32, []> var_12857 = const()[name = tensor<string, []>("op_12857"), val = tensor<int32, []>(1)];
            tensor<bool, []> obj_451_interleave_0 = const()[name = tensor<string, []>("obj_451_interleave_0"), val = tensor<bool, []>(false)];
            tensor<fp16, [1, 40960, 1, 1]> key_cache_updates = concat(axis = var_12857, interleave = obj_451_interleave_0, values = (current_key_1_cast_fp16, current_key_3_cast_fp16, current_key_5_cast_fp16, current_key_7_cast_fp16, current_key_9_cast_fp16, current_key_11_cast_fp16, current_key_13_cast_fp16, current_key_15_cast_fp16, current_key_17_cast_fp16, current_key_19_cast_fp16, current_key_21_cast_fp16, current_key_23_cast_fp16, current_key_25_cast_fp16, current_key_27_cast_fp16, current_key_29_cast_fp16, current_key_31_cast_fp16, current_key_33_cast_fp16, current_key_35_cast_fp16, current_key_37_cast_fp16, current_key_39_cast_fp16, current_key_41_cast_fp16, current_key_43_cast_fp16, current_key_45_cast_fp16, current_key_47_cast_fp16, current_key_49_cast_fp16, current_key_51_cast_fp16, current_key_53_cast_fp16, current_key_55_cast_fp16, current_key_57_cast_fp16, current_key_59_cast_fp16, current_key_61_cast_fp16, current_key_cast_fp16))[name = tensor<string, []>("obj_451_cast_fp16")];
            tensor<int32, []> var_12860 = const()[name = tensor<string, []>("op_12860"), val = tensor<int32, []>(1)];
            tensor<bool, []> obj_453_interleave_0 = const()[name = tensor<string, []>("obj_453_interleave_0"), val = tensor<bool, []>(false)];
            tensor<fp16, [1, 40960, 1, 1]> value_cache_updates = concat(axis = var_12860, interleave = obj_453_interleave_0, values = (current_value_1_cast_fp16, current_value_3_cast_fp16, current_value_5_cast_fp16, current_value_7_cast_fp16, current_value_9_cast_fp16, current_value_11_cast_fp16, current_value_13_cast_fp16, current_value_15_cast_fp16, current_value_17_cast_fp16, current_value_19_cast_fp16, current_value_21_cast_fp16, current_value_23_cast_fp16, current_value_25_cast_fp16, current_value_27_cast_fp16, current_value_29_cast_fp16, current_value_31_cast_fp16, current_value_33_cast_fp16, current_value_35_cast_fp16, current_value_37_cast_fp16, current_value_39_cast_fp16, current_value_41_cast_fp16, current_value_43_cast_fp16, current_value_45_cast_fp16, current_value_47_cast_fp16, current_value_49_cast_fp16, current_value_51_cast_fp16, current_value_53_cast_fp16, current_value_55_cast_fp16, current_value_57_cast_fp16, current_value_59_cast_fp16, current_value_61_cast_fp16, current_value_cast_fp16))[name = tensor<string, []>("obj_453_cast_fp16")];
            tensor<int32, [4]> var_12871_begin_0 = const()[name = tensor<string, []>("op_12871_begin_0"), val = tensor<int32, [4]>([0, 12, 0, 0])];
            tensor<int32, [4]> var_12871_end_0 = const()[name = tensor<string, []>("op_12871_end_0"), val = tensor<int32, [4]>([1, 13, 1, 1500])];
            tensor<bool, [4]> var_12871_end_mask_0 = const()[name = tensor<string, []>("op_12871_end_mask_0"), val = tensor<bool, [4]>([true, false, true, true])];
            tensor<fp16, [1, 1, 1, 1500]> var_12871_cast_fp16 = slice_by_index(begin = var_12871_begin_0, end = var_12871_end_0, end_mask = var_12871_end_mask_0, x = obj_153_cast_fp16)[name = tensor<string, []>("op_12871_cast_fp16")];
            tensor<int32, [4]> var_12874_begin_0 = const()[name = tensor<string, []>("op_12874_begin_0"), val = tensor<int32, [4]>([0, 0, 0, 0])];
            tensor<int32, [4]> var_12874_end_0 = const()[name = tensor<string, []>("op_12874_end_0"), val = tensor<int32, [4]>([1, 1, 1, 1500])];
            tensor<bool, [4]> var_12874_end_mask_0 = const()[name = tensor<string, []>("op_12874_end_mask_0"), val = tensor<bool, [4]>([true, true, false, true])];
            tensor<bool, [4]> var_12874_squeeze_mask_0 = const()[name = tensor<string, []>("op_12874_squeeze_mask_0"), val = tensor<bool, [4]>([false, false, true, false])];
            tensor<fp16, [1, 1, 1500]> var_12874_cast_fp16 = slice_by_index(begin = var_12874_begin_0, end = var_12874_end_0, end_mask = var_12874_end_mask_0, squeeze_mask = var_12874_squeeze_mask_0, x = var_12871_cast_fp16)[name = tensor<string, []>("op_12874_cast_fp16")];
            tensor<int32, [4]> var_12889_begin_0 = const()[name = tensor<string, []>("op_12889_begin_0"), val = tensor<int32, [4]>([0, 17, 0, 0])];
            tensor<int32, [4]> var_12889_end_0 = const()[name = tensor<string, []>("op_12889_end_0"), val = tensor<int32, [4]>([1, 18, 1, 1500])];
            tensor<bool, [4]> var_12889_end_mask_0 = const()[name = tensor<string, []>("op_12889_end_mask_0"), val = tensor<bool, [4]>([true, false, true, true])];
            tensor<fp16, [1, 1, 1, 1500]> var_12889_cast_fp16 = slice_by_index(begin = var_12889_begin_0, end = var_12889_end_0, end_mask = var_12889_end_mask_0, x = obj_195_cast_fp16)[name = tensor<string, []>("op_12889_cast_fp16")];
            tensor<int32, [4]> var_12892_begin_0 = const()[name = tensor<string, []>("op_12892_begin_0"), val = tensor<int32, [4]>([0, 0, 0, 0])];
            tensor<int32, [4]> var_12892_end_0 = const()[name = tensor<string, []>("op_12892_end_0"), val = tensor<int32, [4]>([1, 1, 1, 1500])];
            tensor<bool, [4]> var_12892_end_mask_0 = const()[name = tensor<string, []>("op_12892_end_mask_0"), val = tensor<bool, [4]>([true, true, false, true])];
            tensor<bool, [4]> var_12892_squeeze_mask_0 = const()[name = tensor<string, []>("op_12892_squeeze_mask_0"), val = tensor<bool, [4]>([false, false, true, false])];
            tensor<fp16, [1, 1, 1500]> var_12892_cast_fp16 = slice_by_index(begin = var_12892_begin_0, end = var_12892_end_0, end_mask = var_12892_end_mask_0, squeeze_mask = var_12892_squeeze_mask_0, x = var_12889_cast_fp16)[name = tensor<string, []>("op_12892_cast_fp16")];
            tensor<int32, [4]> var_12907_begin_0 = const()[name = tensor<string, []>("op_12907_begin_0"), val = tensor<int32, [4]>([0, 11, 0, 0])];
            tensor<int32, [4]> var_12907_end_0 = const()[name = tensor<string, []>("op_12907_end_0"), val = tensor<int32, [4]>([1, 12, 1, 1500])];
            tensor<bool, [4]> var_12907_end_mask_0 = const()[name = tensor<string, []>("op_12907_end_mask_0"), val = tensor<bool, [4]>([true, false, true, true])];
            tensor<fp16, [1, 1, 1, 1500]> var_12907_cast_fp16 = slice_by_index(begin = var_12907_begin_0, end = var_12907_end_0, end_mask = var_12907_end_mask_0, x = obj_237_cast_fp16)[name = tensor<string, []>("op_12907_cast_fp16")];
            tensor<int32, [4]> var_12910_begin_0 = const()[name = tensor<string, []>("op_12910_begin_0"), val = tensor<int32, [4]>([0, 0, 0, 0])];
            tensor<int32, [4]> var_12910_end_0 = const()[name = tensor<string, []>("op_12910_end_0"), val = tensor<int32, [4]>([1, 1, 1, 1500])];
            tensor<bool, [4]> var_12910_end_mask_0 = const()[name = tensor<string, []>("op_12910_end_mask_0"), val = tensor<bool, [4]>([true, true, false, true])];
            tensor<bool, [4]> var_12910_squeeze_mask_0 = const()[name = tensor<string, []>("op_12910_squeeze_mask_0"), val = tensor<bool, [4]>([false, false, true, false])];
            tensor<fp16, [1, 1, 1500]> var_12910_cast_fp16 = slice_by_index(begin = var_12910_begin_0, end = var_12910_end_0, end_mask = var_12910_end_mask_0, squeeze_mask = var_12910_squeeze_mask_0, x = var_12907_cast_fp16)[name = tensor<string, []>("op_12910_cast_fp16")];
            tensor<int32, [4]> var_12925_begin_0 = const()[name = tensor<string, []>("op_12925_begin_0"), val = tensor<int32, [4]>([0, 12, 0, 0])];
            tensor<int32, [4]> var_12925_end_0 = const()[name = tensor<string, []>("op_12925_end_0"), val = tensor<int32, [4]>([1, 13, 1, 1500])];
            tensor<bool, [4]> var_12925_end_mask_0 = const()[name = tensor<string, []>("op_12925_end_mask_0"), val = tensor<bool, [4]>([true, false, true, true])];
            tensor<fp16, [1, 1, 1, 1500]> var_12925_cast_fp16 = slice_by_index(begin = var_12925_begin_0, end = var_12925_end_0, end_mask = var_12925_end_mask_0, x = obj_237_cast_fp16)[name = tensor<string, []>("op_12925_cast_fp16")];
            tensor<int32, [4]> var_12928_begin_0 = const()[name = tensor<string, []>("op_12928_begin_0"), val = tensor<int32, [4]>([0, 0, 0, 0])];
            tensor<int32, [4]> var_12928_end_0 = const()[name = tensor<string, []>("op_12928_end_0"), val = tensor<int32, [4]>([1, 1, 1, 1500])];
            tensor<bool, [4]> var_12928_end_mask_0 = const()[name = tensor<string, []>("op_12928_end_mask_0"), val = tensor<bool, [4]>([true, true, false, true])];
            tensor<bool, [4]> var_12928_squeeze_mask_0 = const()[name = tensor<string, []>("op_12928_squeeze_mask_0"), val = tensor<bool, [4]>([false, false, true, false])];
            tensor<fp16, [1, 1, 1500]> var_12928_cast_fp16 = slice_by_index(begin = var_12928_begin_0, end = var_12928_end_0, end_mask = var_12928_end_mask_0, squeeze_mask = var_12928_squeeze_mask_0, x = var_12925_cast_fp16)[name = tensor<string, []>("op_12928_cast_fp16")];
            tensor<int32, [4]> var_12943_begin_0 = const()[name = tensor<string, []>("op_12943_begin_0"), val = tensor<int32, [4]>([0, 13, 0, 0])];
            tensor<int32, [4]> var_12943_end_0 = const()[name = tensor<string, []>("op_12943_end_0"), val = tensor<int32, [4]>([1, 14, 1, 1500])];
            tensor<bool, [4]> var_12943_end_mask_0 = const()[name = tensor<string, []>("op_12943_end_mask_0"), val = tensor<bool, [4]>([true, false, true, true])];
            tensor<fp16, [1, 1, 1, 1500]> var_12943_cast_fp16 = slice_by_index(begin = var_12943_begin_0, end = var_12943_end_0, end_mask = var_12943_end_mask_0, x = obj_237_cast_fp16)[name = tensor<string, []>("op_12943_cast_fp16")];
            tensor<int32, [4]> var_12946_begin_0 = const()[name = tensor<string, []>("op_12946_begin_0"), val = tensor<int32, [4]>([0, 0, 0, 0])];
            tensor<int32, [4]> var_12946_end_0 = const()[name = tensor<string, []>("op_12946_end_0"), val = tensor<int32, [4]>([1, 1, 1, 1500])];
            tensor<bool, [4]> var_12946_end_mask_0 = const()[name = tensor<string, []>("op_12946_end_mask_0"), val = tensor<bool, [4]>([true, true, false, true])];
            tensor<bool, [4]> var_12946_squeeze_mask_0 = const()[name = tensor<string, []>("op_12946_squeeze_mask_0"), val = tensor<bool, [4]>([false, false, true, false])];
            tensor<fp16, [1, 1, 1500]> var_12946_cast_fp16 = slice_by_index(begin = var_12946_begin_0, end = var_12946_end_0, end_mask = var_12946_end_mask_0, squeeze_mask = var_12946_squeeze_mask_0, x = var_12943_cast_fp16)[name = tensor<string, []>("op_12946_cast_fp16")];
            tensor<int32, [4]> var_12961_begin_0 = const()[name = tensor<string, []>("op_12961_begin_0"), val = tensor<int32, [4]>([0, 15, 0, 0])];
            tensor<int32, [4]> var_12961_end_0 = const()[name = tensor<string, []>("op_12961_end_0"), val = tensor<int32, [4]>([1, 16, 1, 1500])];
            tensor<bool, [4]> var_12961_end_mask_0 = const()[name = tensor<string, []>("op_12961_end_mask_0"), val = tensor<bool, [4]>([true, false, true, true])];
            tensor<fp16, [1, 1, 1, 1500]> var_12961_cast_fp16 = slice_by_index(begin = var_12961_begin_0, end = var_12961_end_0, end_mask = var_12961_end_mask_0, x = obj_251_cast_fp16)[name = tensor<string, []>("op_12961_cast_fp16")];
            tensor<int32, [4]> var_12964_begin_0 = const()[name = tensor<string, []>("op_12964_begin_0"), val = tensor<int32, [4]>([0, 0, 0, 0])];
            tensor<int32, [4]> var_12964_end_0 = const()[name = tensor<string, []>("op_12964_end_0"), val = tensor<int32, [4]>([1, 1, 1, 1500])];
            tensor<bool, [4]> var_12964_end_mask_0 = const()[name = tensor<string, []>("op_12964_end_mask_0"), val = tensor<bool, [4]>([true, true, false, true])];
            tensor<bool, [4]> var_12964_squeeze_mask_0 = const()[name = tensor<string, []>("op_12964_squeeze_mask_0"), val = tensor<bool, [4]>([false, false, true, false])];
            tensor<fp16, [1, 1, 1500]> var_12964_cast_fp16 = slice_by_index(begin = var_12964_begin_0, end = var_12964_end_0, end_mask = var_12964_end_mask_0, squeeze_mask = var_12964_squeeze_mask_0, x = var_12961_cast_fp16)[name = tensor<string, []>("op_12964_cast_fp16")];
            tensor<int32, [4]> var_12979_begin_0 = const()[name = tensor<string, []>("op_12979_begin_0"), val = tensor<int32, [4]>([0, 16, 0, 0])];
            tensor<int32, [4]> var_12979_end_0 = const()[name = tensor<string, []>("op_12979_end_0"), val = tensor<int32, [4]>([1, 17, 1, 1500])];
            tensor<bool, [4]> var_12979_end_mask_0 = const()[name = tensor<string, []>("op_12979_end_mask_0"), val = tensor<bool, [4]>([true, false, true, true])];
            tensor<fp16, [1, 1, 1, 1500]> var_12979_cast_fp16 = slice_by_index(begin = var_12979_begin_0, end = var_12979_end_0, end_mask = var_12979_end_mask_0, x = obj_251_cast_fp16)[name = tensor<string, []>("op_12979_cast_fp16")];
            tensor<int32, [4]> var_12982_begin_0 = const()[name = tensor<string, []>("op_12982_begin_0"), val = tensor<int32, [4]>([0, 0, 0, 0])];
            tensor<int32, [4]> var_12982_end_0 = const()[name = tensor<string, []>("op_12982_end_0"), val = tensor<int32, [4]>([1, 1, 1, 1500])];
            tensor<bool, [4]> var_12982_end_mask_0 = const()[name = tensor<string, []>("op_12982_end_mask_0"), val = tensor<bool, [4]>([true, true, false, true])];
            tensor<bool, [4]> var_12982_squeeze_mask_0 = const()[name = tensor<string, []>("op_12982_squeeze_mask_0"), val = tensor<bool, [4]>([false, false, true, false])];
            tensor<fp16, [1, 1, 1500]> var_12982_cast_fp16 = slice_by_index(begin = var_12982_begin_0, end = var_12982_end_0, end_mask = var_12982_end_mask_0, squeeze_mask = var_12982_squeeze_mask_0, x = var_12979_cast_fp16)[name = tensor<string, []>("op_12982_cast_fp16")];
            tensor<int32, [4]> var_12997_begin_0 = const()[name = tensor<string, []>("op_12997_begin_0"), val = tensor<int32, [4]>([0, 4, 0, 0])];
            tensor<int32, [4]> var_12997_end_0 = const()[name = tensor<string, []>("op_12997_end_0"), val = tensor<int32, [4]>([1, 5, 1, 1500])];
            tensor<bool, [4]> var_12997_end_mask_0 = const()[name = tensor<string, []>("op_12997_end_mask_0"), val = tensor<bool, [4]>([true, false, true, true])];
            tensor<fp16, [1, 1, 1, 1500]> var_12997_cast_fp16 = slice_by_index(begin = var_12997_begin_0, end = var_12997_end_0, end_mask = var_12997_end_mask_0, x = obj_265_cast_fp16)[name = tensor<string, []>("op_12997_cast_fp16")];
            tensor<int32, [4]> var_13000_begin_0 = const()[name = tensor<string, []>("op_13000_begin_0"), val = tensor<int32, [4]>([0, 0, 0, 0])];
            tensor<int32, [4]> var_13000_end_0 = const()[name = tensor<string, []>("op_13000_end_0"), val = tensor<int32, [4]>([1, 1, 1, 1500])];
            tensor<bool, [4]> var_13000_end_mask_0 = const()[name = tensor<string, []>("op_13000_end_mask_0"), val = tensor<bool, [4]>([true, true, false, true])];
            tensor<bool, [4]> var_13000_squeeze_mask_0 = const()[name = tensor<string, []>("op_13000_squeeze_mask_0"), val = tensor<bool, [4]>([false, false, true, false])];
            tensor<fp16, [1, 1, 1500]> var_13000_cast_fp16 = slice_by_index(begin = var_13000_begin_0, end = var_13000_end_0, end_mask = var_13000_end_mask_0, squeeze_mask = var_13000_squeeze_mask_0, x = var_12997_cast_fp16)[name = tensor<string, []>("op_13000_cast_fp16")];
            tensor<int32, [4]> var_13015_begin_0 = const()[name = tensor<string, []>("op_13015_begin_0"), val = tensor<int32, [4]>([0, 11, 0, 0])];
            tensor<int32, [4]> var_13015_end_0 = const()[name = tensor<string, []>("op_13015_end_0"), val = tensor<int32, [4]>([1, 12, 1, 1500])];
            tensor<bool, [4]> var_13015_end_mask_0 = const()[name = tensor<string, []>("op_13015_end_mask_0"), val = tensor<bool, [4]>([true, false, true, true])];
            tensor<fp16, [1, 1, 1, 1500]> var_13015_cast_fp16 = slice_by_index(begin = var_13015_begin_0, end = var_13015_end_0, end_mask = var_13015_end_mask_0, x = obj_265_cast_fp16)[name = tensor<string, []>("op_13015_cast_fp16")];
            tensor<int32, [4]> var_13018_begin_0 = const()[name = tensor<string, []>("op_13018_begin_0"), val = tensor<int32, [4]>([0, 0, 0, 0])];
            tensor<int32, [4]> var_13018_end_0 = const()[name = tensor<string, []>("op_13018_end_0"), val = tensor<int32, [4]>([1, 1, 1, 1500])];
            tensor<bool, [4]> var_13018_end_mask_0 = const()[name = tensor<string, []>("op_13018_end_mask_0"), val = tensor<bool, [4]>([true, true, false, true])];
            tensor<bool, [4]> var_13018_squeeze_mask_0 = const()[name = tensor<string, []>("op_13018_squeeze_mask_0"), val = tensor<bool, [4]>([false, false, true, false])];
            tensor<fp16, [1, 1, 1500]> var_13018_cast_fp16 = slice_by_index(begin = var_13018_begin_0, end = var_13018_end_0, end_mask = var_13018_end_mask_0, squeeze_mask = var_13018_squeeze_mask_0, x = var_13015_cast_fp16)[name = tensor<string, []>("op_13018_cast_fp16")];
            tensor<int32, [4]> var_13033_begin_0 = const()[name = tensor<string, []>("op_13033_begin_0"), val = tensor<int32, [4]>([0, 19, 0, 0])];
            tensor<int32, [4]> var_13033_end_0 = const()[name = tensor<string, []>("op_13033_end_0"), val = tensor<int32, [4]>([1, 20, 1, 1500])];
            tensor<bool, [4]> var_13033_end_mask_0 = const()[name = tensor<string, []>("op_13033_end_mask_0"), val = tensor<bool, [4]>([true, false, true, true])];
            tensor<fp16, [1, 1, 1, 1500]> var_13033_cast_fp16 = slice_by_index(begin = var_13033_begin_0, end = var_13033_end_0, end_mask = var_13033_end_mask_0, x = obj_265_cast_fp16)[name = tensor<string, []>("op_13033_cast_fp16")];
            tensor<int32, [4]> var_13036_begin_0 = const()[name = tensor<string, []>("op_13036_begin_0"), val = tensor<int32, [4]>([0, 0, 0, 0])];
            tensor<int32, [4]> var_13036_end_0 = const()[name = tensor<string, []>("op_13036_end_0"), val = tensor<int32, [4]>([1, 1, 1, 1500])];
            tensor<bool, [4]> var_13036_end_mask_0 = const()[name = tensor<string, []>("op_13036_end_mask_0"), val = tensor<bool, [4]>([true, true, false, true])];
            tensor<bool, [4]> var_13036_squeeze_mask_0 = const()[name = tensor<string, []>("op_13036_squeeze_mask_0"), val = tensor<bool, [4]>([false, false, true, false])];
            tensor<fp16, [1, 1, 1500]> var_13036_cast_fp16 = slice_by_index(begin = var_13036_begin_0, end = var_13036_end_0, end_mask = var_13036_end_mask_0, squeeze_mask = var_13036_squeeze_mask_0, x = var_13033_cast_fp16)[name = tensor<string, []>("op_13036_cast_fp16")];
            tensor<int32, [4]> var_13051_begin_0 = const()[name = tensor<string, []>("op_13051_begin_0"), val = tensor<int32, [4]>([0, 11, 0, 0])];
            tensor<int32, [4]> var_13051_end_0 = const()[name = tensor<string, []>("op_13051_end_0"), val = tensor<int32, [4]>([1, 12, 1, 1500])];
            tensor<bool, [4]> var_13051_end_mask_0 = const()[name = tensor<string, []>("op_13051_end_mask_0"), val = tensor<bool, [4]>([true, false, true, true])];
            tensor<fp16, [1, 1, 1, 1500]> var_13051_cast_fp16 = slice_by_index(begin = var_13051_begin_0, end = var_13051_end_0, end_mask = var_13051_end_mask_0, x = obj_279_cast_fp16)[name = tensor<string, []>("op_13051_cast_fp16")];
            tensor<int32, [4]> var_13054_begin_0 = const()[name = tensor<string, []>("op_13054_begin_0"), val = tensor<int32, [4]>([0, 0, 0, 0])];
            tensor<int32, [4]> var_13054_end_0 = const()[name = tensor<string, []>("op_13054_end_0"), val = tensor<int32, [4]>([1, 1, 1, 1500])];
            tensor<bool, [4]> var_13054_end_mask_0 = const()[name = tensor<string, []>("op_13054_end_mask_0"), val = tensor<bool, [4]>([true, true, false, true])];
            tensor<bool, [4]> var_13054_squeeze_mask_0 = const()[name = tensor<string, []>("op_13054_squeeze_mask_0"), val = tensor<bool, [4]>([false, false, true, false])];
            tensor<fp16, [1, 1, 1500]> var_13054_cast_fp16 = slice_by_index(begin = var_13054_begin_0, end = var_13054_end_0, end_mask = var_13054_end_mask_0, squeeze_mask = var_13054_squeeze_mask_0, x = var_13051_cast_fp16)[name = tensor<string, []>("op_13054_cast_fp16")];
            tensor<int32, [4]> var_13069_begin_0 = const()[name = tensor<string, []>("op_13069_begin_0"), val = tensor<int32, [4]>([0, 2, 0, 0])];
            tensor<int32, [4]> var_13069_end_0 = const()[name = tensor<string, []>("op_13069_end_0"), val = tensor<int32, [4]>([1, 3, 1, 1500])];
            tensor<bool, [4]> var_13069_end_mask_0 = const()[name = tensor<string, []>("op_13069_end_mask_0"), val = tensor<bool, [4]>([true, false, true, true])];
            tensor<fp16, [1, 1, 1, 1500]> var_13069_cast_fp16 = slice_by_index(begin = var_13069_begin_0, end = var_13069_end_0, end_mask = var_13069_end_mask_0, x = obj_307_cast_fp16)[name = tensor<string, []>("op_13069_cast_fp16")];
            tensor<int32, [4]> var_13072_begin_0 = const()[name = tensor<string, []>("op_13072_begin_0"), val = tensor<int32, [4]>([0, 0, 0, 0])];
            tensor<int32, [4]> var_13072_end_0 = const()[name = tensor<string, []>("op_13072_end_0"), val = tensor<int32, [4]>([1, 1, 1, 1500])];
            tensor<bool, [4]> var_13072_end_mask_0 = const()[name = tensor<string, []>("op_13072_end_mask_0"), val = tensor<bool, [4]>([true, true, false, true])];
            tensor<bool, [4]> var_13072_squeeze_mask_0 = const()[name = tensor<string, []>("op_13072_squeeze_mask_0"), val = tensor<bool, [4]>([false, false, true, false])];
            tensor<fp16, [1, 1, 1500]> var_13072_cast_fp16 = slice_by_index(begin = var_13072_begin_0, end = var_13072_end_0, end_mask = var_13072_end_mask_0, squeeze_mask = var_13072_squeeze_mask_0, x = var_13069_cast_fp16)[name = tensor<string, []>("op_13072_cast_fp16")];
            tensor<int32, [4]> var_13087_begin_0 = const()[name = tensor<string, []>("op_13087_begin_0"), val = tensor<int32, [4]>([0, 3, 0, 0])];
            tensor<int32, [4]> var_13087_end_0 = const()[name = tensor<string, []>("op_13087_end_0"), val = tensor<int32, [4]>([1, 4, 1, 1500])];
            tensor<bool, [4]> var_13087_end_mask_0 = const()[name = tensor<string, []>("op_13087_end_mask_0"), val = tensor<bool, [4]>([true, false, true, true])];
            tensor<fp16, [1, 1, 1, 1500]> var_13087_cast_fp16 = slice_by_index(begin = var_13087_begin_0, end = var_13087_end_0, end_mask = var_13087_end_mask_0, x = obj_307_cast_fp16)[name = tensor<string, []>("op_13087_cast_fp16")];
            tensor<int32, [4]> var_13090_begin_0 = const()[name = tensor<string, []>("op_13090_begin_0"), val = tensor<int32, [4]>([0, 0, 0, 0])];
            tensor<int32, [4]> var_13090_end_0 = const()[name = tensor<string, []>("op_13090_end_0"), val = tensor<int32, [4]>([1, 1, 1, 1500])];
            tensor<bool, [4]> var_13090_end_mask_0 = const()[name = tensor<string, []>("op_13090_end_mask_0"), val = tensor<bool, [4]>([true, true, false, true])];
            tensor<bool, [4]> var_13090_squeeze_mask_0 = const()[name = tensor<string, []>("op_13090_squeeze_mask_0"), val = tensor<bool, [4]>([false, false, true, false])];
            tensor<fp16, [1, 1, 1500]> var_13090_cast_fp16 = slice_by_index(begin = var_13090_begin_0, end = var_13090_end_0, end_mask = var_13090_end_mask_0, squeeze_mask = var_13090_squeeze_mask_0, x = var_13087_cast_fp16)[name = tensor<string, []>("op_13090_cast_fp16")];
            tensor<int32, [4]> var_13105_begin_0 = const()[name = tensor<string, []>("op_13105_begin_0"), val = tensor<int32, [4]>([0, 3, 0, 0])];
            tensor<int32, [4]> var_13105_end_0 = const()[name = tensor<string, []>("op_13105_end_0"), val = tensor<int32, [4]>([1, 4, 1, 1500])];
            tensor<bool, [4]> var_13105_end_mask_0 = const()[name = tensor<string, []>("op_13105_end_mask_0"), val = tensor<bool, [4]>([true, false, true, true])];
            tensor<fp16, [1, 1, 1, 1500]> var_13105_cast_fp16 = slice_by_index(begin = var_13105_begin_0, end = var_13105_end_0, end_mask = var_13105_end_mask_0, x = obj_321_cast_fp16)[name = tensor<string, []>("op_13105_cast_fp16")];
            tensor<int32, [4]> var_13108_begin_0 = const()[name = tensor<string, []>("op_13108_begin_0"), val = tensor<int32, [4]>([0, 0, 0, 0])];
            tensor<int32, [4]> var_13108_end_0 = const()[name = tensor<string, []>("op_13108_end_0"), val = tensor<int32, [4]>([1, 1, 1, 1500])];
            tensor<bool, [4]> var_13108_end_mask_0 = const()[name = tensor<string, []>("op_13108_end_mask_0"), val = tensor<bool, [4]>([true, true, false, true])];
            tensor<bool, [4]> var_13108_squeeze_mask_0 = const()[name = tensor<string, []>("op_13108_squeeze_mask_0"), val = tensor<bool, [4]>([false, false, true, false])];
            tensor<fp16, [1, 1, 1500]> var_13108_cast_fp16 = slice_by_index(begin = var_13108_begin_0, end = var_13108_end_0, end_mask = var_13108_end_mask_0, squeeze_mask = var_13108_squeeze_mask_0, x = var_13105_cast_fp16)[name = tensor<string, []>("op_13108_cast_fp16")];
            tensor<int32, [4]> var_13123_begin_0 = const()[name = tensor<string, []>("op_13123_begin_0"), val = tensor<int32, [4]>([0, 9, 0, 0])];
            tensor<int32, [4]> var_13123_end_0 = const()[name = tensor<string, []>("op_13123_end_0"), val = tensor<int32, [4]>([1, 10, 1, 1500])];
            tensor<bool, [4]> var_13123_end_mask_0 = const()[name = tensor<string, []>("op_13123_end_mask_0"), val = tensor<bool, [4]>([true, false, true, true])];
            tensor<fp16, [1, 1, 1, 1500]> var_13123_cast_fp16 = slice_by_index(begin = var_13123_begin_0, end = var_13123_end_0, end_mask = var_13123_end_mask_0, x = obj_321_cast_fp16)[name = tensor<string, []>("op_13123_cast_fp16")];
            tensor<int32, [4]> var_13126_begin_0 = const()[name = tensor<string, []>("op_13126_begin_0"), val = tensor<int32, [4]>([0, 0, 0, 0])];
            tensor<int32, [4]> var_13126_end_0 = const()[name = tensor<string, []>("op_13126_end_0"), val = tensor<int32, [4]>([1, 1, 1, 1500])];
            tensor<bool, [4]> var_13126_end_mask_0 = const()[name = tensor<string, []>("op_13126_end_mask_0"), val = tensor<bool, [4]>([true, true, false, true])];
            tensor<bool, [4]> var_13126_squeeze_mask_0 = const()[name = tensor<string, []>("op_13126_squeeze_mask_0"), val = tensor<bool, [4]>([false, false, true, false])];
            tensor<fp16, [1, 1, 1500]> var_13126_cast_fp16 = slice_by_index(begin = var_13126_begin_0, end = var_13126_end_0, end_mask = var_13126_end_mask_0, squeeze_mask = var_13126_squeeze_mask_0, x = var_13123_cast_fp16)[name = tensor<string, []>("op_13126_cast_fp16")];
            tensor<int32, [4]> var_13141_begin_0 = const()[name = tensor<string, []>("op_13141_begin_0"), val = tensor<int32, [4]>([0, 12, 0, 0])];
            tensor<int32, [4]> var_13141_end_0 = const()[name = tensor<string, []>("op_13141_end_0"), val = tensor<int32, [4]>([1, 13, 1, 1500])];
            tensor<bool, [4]> var_13141_end_mask_0 = const()[name = tensor<string, []>("op_13141_end_mask_0"), val = tensor<bool, [4]>([true, false, true, true])];
            tensor<fp16, [1, 1, 1, 1500]> var_13141_cast_fp16 = slice_by_index(begin = var_13141_begin_0, end = var_13141_end_0, end_mask = var_13141_end_mask_0, x = obj_321_cast_fp16)[name = tensor<string, []>("op_13141_cast_fp16")];
            tensor<int32, [4]> var_13144_begin_0 = const()[name = tensor<string, []>("op_13144_begin_0"), val = tensor<int32, [4]>([0, 0, 0, 0])];
            tensor<int32, [4]> var_13144_end_0 = const()[name = tensor<string, []>("op_13144_end_0"), val = tensor<int32, [4]>([1, 1, 1, 1500])];
            tensor<bool, [4]> var_13144_end_mask_0 = const()[name = tensor<string, []>("op_13144_end_mask_0"), val = tensor<bool, [4]>([true, true, false, true])];
            tensor<bool, [4]> var_13144_squeeze_mask_0 = const()[name = tensor<string, []>("op_13144_squeeze_mask_0"), val = tensor<bool, [4]>([false, false, true, false])];
            tensor<fp16, [1, 1, 1500]> var_13144_cast_fp16 = slice_by_index(begin = var_13144_begin_0, end = var_13144_end_0, end_mask = var_13144_end_mask_0, squeeze_mask = var_13144_squeeze_mask_0, x = var_13141_cast_fp16)[name = tensor<string, []>("op_13144_cast_fp16")];
            tensor<int32, [4]> var_13159_begin_0 = const()[name = tensor<string, []>("op_13159_begin_0"), val = tensor<int32, [4]>([0, 5, 0, 0])];
            tensor<int32, [4]> var_13159_end_0 = const()[name = tensor<string, []>("op_13159_end_0"), val = tensor<int32, [4]>([1, 6, 1, 1500])];
            tensor<bool, [4]> var_13159_end_mask_0 = const()[name = tensor<string, []>("op_13159_end_mask_0"), val = tensor<bool, [4]>([true, false, true, true])];
            tensor<fp16, [1, 1, 1, 1500]> var_13159_cast_fp16 = slice_by_index(begin = var_13159_begin_0, end = var_13159_end_0, end_mask = var_13159_end_mask_0, x = obj_335_cast_fp16)[name = tensor<string, []>("op_13159_cast_fp16")];
            tensor<int32, [4]> var_13162_begin_0 = const()[name = tensor<string, []>("op_13162_begin_0"), val = tensor<int32, [4]>([0, 0, 0, 0])];
            tensor<int32, [4]> var_13162_end_0 = const()[name = tensor<string, []>("op_13162_end_0"), val = tensor<int32, [4]>([1, 1, 1, 1500])];
            tensor<bool, [4]> var_13162_end_mask_0 = const()[name = tensor<string, []>("op_13162_end_mask_0"), val = tensor<bool, [4]>([true, true, false, true])];
            tensor<bool, [4]> var_13162_squeeze_mask_0 = const()[name = tensor<string, []>("op_13162_squeeze_mask_0"), val = tensor<bool, [4]>([false, false, true, false])];
            tensor<fp16, [1, 1, 1500]> var_13162_cast_fp16 = slice_by_index(begin = var_13162_begin_0, end = var_13162_end_0, end_mask = var_13162_end_mask_0, squeeze_mask = var_13162_squeeze_mask_0, x = var_13159_cast_fp16)[name = tensor<string, []>("op_13162_cast_fp16")];
            tensor<int32, [4]> var_13177_begin_0 = const()[name = tensor<string, []>("op_13177_begin_0"), val = tensor<int32, [4]>([0, 7, 0, 0])];
            tensor<int32, [4]> var_13177_end_0 = const()[name = tensor<string, []>("op_13177_end_0"), val = tensor<int32, [4]>([1, 8, 1, 1500])];
            tensor<bool, [4]> var_13177_end_mask_0 = const()[name = tensor<string, []>("op_13177_end_mask_0"), val = tensor<bool, [4]>([true, false, true, true])];
            tensor<fp16, [1, 1, 1, 1500]> var_13177_cast_fp16 = slice_by_index(begin = var_13177_begin_0, end = var_13177_end_0, end_mask = var_13177_end_mask_0, x = obj_335_cast_fp16)[name = tensor<string, []>("op_13177_cast_fp16")];
            tensor<int32, [4]> var_13180_begin_0 = const()[name = tensor<string, []>("op_13180_begin_0"), val = tensor<int32, [4]>([0, 0, 0, 0])];
            tensor<int32, [4]> var_13180_end_0 = const()[name = tensor<string, []>("op_13180_end_0"), val = tensor<int32, [4]>([1, 1, 1, 1500])];
            tensor<bool, [4]> var_13180_end_mask_0 = const()[name = tensor<string, []>("op_13180_end_mask_0"), val = tensor<bool, [4]>([true, true, false, true])];
            tensor<bool, [4]> var_13180_squeeze_mask_0 = const()[name = tensor<string, []>("op_13180_squeeze_mask_0"), val = tensor<bool, [4]>([false, false, true, false])];
            tensor<fp16, [1, 1, 1500]> var_13180_cast_fp16 = slice_by_index(begin = var_13180_begin_0, end = var_13180_end_0, end_mask = var_13180_end_mask_0, squeeze_mask = var_13180_squeeze_mask_0, x = var_13177_cast_fp16)[name = tensor<string, []>("op_13180_cast_fp16")];
            tensor<int32, [4]> var_13195_begin_0 = const()[name = tensor<string, []>("op_13195_begin_0"), val = tensor<int32, [4]>([0, 13, 0, 0])];
            tensor<int32, [4]> var_13195_end_0 = const()[name = tensor<string, []>("op_13195_end_0"), val = tensor<int32, [4]>([1, 14, 1, 1500])];
            tensor<bool, [4]> var_13195_end_mask_0 = const()[name = tensor<string, []>("op_13195_end_mask_0"), val = tensor<bool, [4]>([true, false, true, true])];
            tensor<fp16, [1, 1, 1, 1500]> var_13195_cast_fp16 = slice_by_index(begin = var_13195_begin_0, end = var_13195_end_0, end_mask = var_13195_end_mask_0, x = obj_335_cast_fp16)[name = tensor<string, []>("op_13195_cast_fp16")];
            tensor<int32, [4]> var_13198_begin_0 = const()[name = tensor<string, []>("op_13198_begin_0"), val = tensor<int32, [4]>([0, 0, 0, 0])];
            tensor<int32, [4]> var_13198_end_0 = const()[name = tensor<string, []>("op_13198_end_0"), val = tensor<int32, [4]>([1, 1, 1, 1500])];
            tensor<bool, [4]> var_13198_end_mask_0 = const()[name = tensor<string, []>("op_13198_end_mask_0"), val = tensor<bool, [4]>([true, true, false, true])];
            tensor<bool, [4]> var_13198_squeeze_mask_0 = const()[name = tensor<string, []>("op_13198_squeeze_mask_0"), val = tensor<bool, [4]>([false, false, true, false])];
            tensor<fp16, [1, 1, 1500]> var_13198_cast_fp16 = slice_by_index(begin = var_13198_begin_0, end = var_13198_end_0, end_mask = var_13198_end_mask_0, squeeze_mask = var_13198_squeeze_mask_0, x = var_13195_cast_fp16)[name = tensor<string, []>("op_13198_cast_fp16")];
            tensor<int32, [4]> var_13213_begin_0 = const()[name = tensor<string, []>("op_13213_begin_0"), val = tensor<int32, [4]>([0, 5, 0, 0])];
            tensor<int32, [4]> var_13213_end_0 = const()[name = tensor<string, []>("op_13213_end_0"), val = tensor<int32, [4]>([1, 6, 1, 1500])];
            tensor<bool, [4]> var_13213_end_mask_0 = const()[name = tensor<string, []>("op_13213_end_mask_0"), val = tensor<bool, [4]>([true, false, true, true])];
            tensor<fp16, [1, 1, 1, 1500]> var_13213_cast_fp16 = slice_by_index(begin = var_13213_begin_0, end = var_13213_end_0, end_mask = var_13213_end_mask_0, x = obj_363_cast_fp16)[name = tensor<string, []>("op_13213_cast_fp16")];
            tensor<int32, [4]> var_13216_begin_0 = const()[name = tensor<string, []>("op_13216_begin_0"), val = tensor<int32, [4]>([0, 0, 0, 0])];
            tensor<int32, [4]> var_13216_end_0 = const()[name = tensor<string, []>("op_13216_end_0"), val = tensor<int32, [4]>([1, 1, 1, 1500])];
            tensor<bool, [4]> var_13216_end_mask_0 = const()[name = tensor<string, []>("op_13216_end_mask_0"), val = tensor<bool, [4]>([true, true, false, true])];
            tensor<bool, [4]> var_13216_squeeze_mask_0 = const()[name = tensor<string, []>("op_13216_squeeze_mask_0"), val = tensor<bool, [4]>([false, false, true, false])];
            tensor<fp16, [1, 1, 1500]> var_13216_cast_fp16 = slice_by_index(begin = var_13216_begin_0, end = var_13216_end_0, end_mask = var_13216_end_mask_0, squeeze_mask = var_13216_squeeze_mask_0, x = var_13213_cast_fp16)[name = tensor<string, []>("op_13216_cast_fp16")];
            tensor<int32, [4]> var_13231_begin_0 = const()[name = tensor<string, []>("op_13231_begin_0"), val = tensor<int32, [4]>([0, 1, 0, 0])];
            tensor<int32, [4]> var_13231_end_0 = const()[name = tensor<string, []>("op_13231_end_0"), val = tensor<int32, [4]>([1, 2, 1, 1500])];
            tensor<bool, [4]> var_13231_end_mask_0 = const()[name = tensor<string, []>("op_13231_end_mask_0"), val = tensor<bool, [4]>([true, false, true, true])];
            tensor<fp16, [1, 1, 1, 1500]> var_13231_cast_fp16 = slice_by_index(begin = var_13231_begin_0, end = var_13231_end_0, end_mask = var_13231_end_mask_0, x = obj_377_cast_fp16)[name = tensor<string, []>("op_13231_cast_fp16")];
            tensor<int32, [4]> var_13234_begin_0 = const()[name = tensor<string, []>("op_13234_begin_0"), val = tensor<int32, [4]>([0, 0, 0, 0])];
            tensor<int32, [4]> var_13234_end_0 = const()[name = tensor<string, []>("op_13234_end_0"), val = tensor<int32, [4]>([1, 1, 1, 1500])];
            tensor<bool, [4]> var_13234_end_mask_0 = const()[name = tensor<string, []>("op_13234_end_mask_0"), val = tensor<bool, [4]>([true, true, false, true])];
            tensor<bool, [4]> var_13234_squeeze_mask_0 = const()[name = tensor<string, []>("op_13234_squeeze_mask_0"), val = tensor<bool, [4]>([false, false, true, false])];
            tensor<fp16, [1, 1, 1500]> var_13234_cast_fp16 = slice_by_index(begin = var_13234_begin_0, end = var_13234_end_0, end_mask = var_13234_end_mask_0, squeeze_mask = var_13234_squeeze_mask_0, x = var_13231_cast_fp16)[name = tensor<string, []>("op_13234_cast_fp16")];
            tensor<int32, [4]> var_13249_begin_0 = const()[name = tensor<string, []>("op_13249_begin_0"), val = tensor<int32, [4]>([0, 12, 0, 0])];
            tensor<int32, [4]> var_13249_end_0 = const()[name = tensor<string, []>("op_13249_end_0"), val = tensor<int32, [4]>([1, 13, 1, 1500])];
            tensor<bool, [4]> var_13249_end_mask_0 = const()[name = tensor<string, []>("op_13249_end_mask_0"), val = tensor<bool, [4]>([true, false, true, true])];
            tensor<fp16, [1, 1, 1, 1500]> var_13249_cast_fp16 = slice_by_index(begin = var_13249_begin_0, end = var_13249_end_0, end_mask = var_13249_end_mask_0, x = obj_377_cast_fp16)[name = tensor<string, []>("op_13249_cast_fp16")];
            tensor<int32, [4]> var_13252_begin_0 = const()[name = tensor<string, []>("op_13252_begin_0"), val = tensor<int32, [4]>([0, 0, 0, 0])];
            tensor<int32, [4]> var_13252_end_0 = const()[name = tensor<string, []>("op_13252_end_0"), val = tensor<int32, [4]>([1, 1, 1, 1500])];
            tensor<bool, [4]> var_13252_end_mask_0 = const()[name = tensor<string, []>("op_13252_end_mask_0"), val = tensor<bool, [4]>([true, true, false, true])];
            tensor<bool, [4]> var_13252_squeeze_mask_0 = const()[name = tensor<string, []>("op_13252_squeeze_mask_0"), val = tensor<bool, [4]>([false, false, true, false])];
            tensor<fp16, [1, 1, 1500]> var_13252_cast_fp16 = slice_by_index(begin = var_13252_begin_0, end = var_13252_end_0, end_mask = var_13252_end_mask_0, squeeze_mask = var_13252_squeeze_mask_0, x = var_13249_cast_fp16)[name = tensor<string, []>("op_13252_cast_fp16")];
            tensor<int32, [4]> var_13267_begin_0 = const()[name = tensor<string, []>("op_13267_begin_0"), val = tensor<int32, [4]>([0, 15, 0, 0])];
            tensor<int32, [4]> var_13267_end_0 = const()[name = tensor<string, []>("op_13267_end_0"), val = tensor<int32, [4]>([1, 16, 1, 1500])];
            tensor<bool, [4]> var_13267_end_mask_0 = const()[name = tensor<string, []>("op_13267_end_mask_0"), val = tensor<bool, [4]>([true, false, true, true])];
            tensor<fp16, [1, 1, 1, 1500]> var_13267_cast_fp16 = slice_by_index(begin = var_13267_begin_0, end = var_13267_end_0, end_mask = var_13267_end_mask_0, x = obj_391_cast_fp16)[name = tensor<string, []>("op_13267_cast_fp16")];
            tensor<int32, [4]> var_13270_begin_0 = const()[name = tensor<string, []>("op_13270_begin_0"), val = tensor<int32, [4]>([0, 0, 0, 0])];
            tensor<int32, [4]> var_13270_end_0 = const()[name = tensor<string, []>("op_13270_end_0"), val = tensor<int32, [4]>([1, 1, 1, 1500])];
            tensor<bool, [4]> var_13270_end_mask_0 = const()[name = tensor<string, []>("op_13270_end_mask_0"), val = tensor<bool, [4]>([true, true, false, true])];
            tensor<bool, [4]> var_13270_squeeze_mask_0 = const()[name = tensor<string, []>("op_13270_squeeze_mask_0"), val = tensor<bool, [4]>([false, false, true, false])];
            tensor<fp16, [1, 1, 1500]> var_13270_cast_fp16 = slice_by_index(begin = var_13270_begin_0, end = var_13270_end_0, end_mask = var_13270_end_mask_0, squeeze_mask = var_13270_squeeze_mask_0, x = var_13267_cast_fp16)[name = tensor<string, []>("op_13270_cast_fp16")];
            tensor<int32, []> var_13277 = const()[name = tensor<string, []>("op_13277"), val = tensor<int32, []>(1)];
            tensor<bool, []> var_13278_interleave_0 = const()[name = tensor<string, []>("op_13278_interleave_0"), val = tensor<bool, []>(false)];
            tensor<fp16, [1, 23, 1500]> var_13278_cast_fp16 = concat(axis = var_13277, interleave = var_13278_interleave_0, values = (var_12874_cast_fp16, var_12892_cast_fp16, var_12910_cast_fp16, var_12928_cast_fp16, var_12946_cast_fp16, var_12964_cast_fp16, var_12982_cast_fp16, var_13000_cast_fp16, var_13018_cast_fp16, var_13036_cast_fp16, var_13054_cast_fp16, var_13072_cast_fp16, var_13090_cast_fp16, var_13108_cast_fp16, var_13126_cast_fp16, var_13144_cast_fp16, var_13162_cast_fp16, var_13180_cast_fp16, var_13198_cast_fp16, var_13216_cast_fp16, var_13234_cast_fp16, var_13252_cast_fp16, var_13270_cast_fp16))[name = tensor<string, []>("op_13278_cast_fp16")];
            tensor<int32, [1]> var_13280 = const()[name = tensor<string, []>("op_13280"), val = tensor<int32, [1]>([1])];
            tensor<bool, []> var_13281 = const()[name = tensor<string, []>("op_13281"), val = tensor<bool, []>(false)];
            tensor<fp16, [1, 1500]> alignment_heads_weights = reduce_mean(axes = var_13280, keep_dims = var_13281, x = var_13278_cast_fp16)[name = tensor<string, []>("obj_cast_fp16")];
        } -> (logits, key_cache_updates, value_cache_updates, alignment_heads_weights);
}