program(1.0)
[buildInfo = dict<tensor<string, []>, tensor<string, []>>({{"coremlc-component-MIL", "5.33.5"}, {"coremlc-version", "1877.40.3"}, {"coremltools-component-torch", "2.2.1"}, {"coremltools-source-dialect", "TorchScript"}, {"coremltools-version", "7.1"}})]
{
    func main<ios16>(tensor<int32, [1]> cache_length, tensor<fp16, [1, 224]> decoder_key_padding_mask, tensor<fp16, [1, 768, 1, 1500]> encoder_output_embeds, tensor<int32, [1]> input_ids, tensor<fp16, [1, 9216, 1, 224]> key_cache, tensor<fp16, [1, 224]> kv_cache_update_mask, tensor<fp16, [1, 9216, 1, 224]> value_cache) {
            tensor<int32, []> var_40_axis_0 = const()[name = tensor<string, []>("op_40_axis_0"), val = tensor<int32, []>(0)];
            tensor<int32, []> var_40_batch_dims_0 = const()[name = tensor<string, []>("op_40_batch_dims_0"), val = tensor<int32, []>(0)];
            tensor<fp16, [51864, 768]> embed_tokens_weight_to_fp16 = const()[name = tensor<string, []>("embed_tokens_weight_to_fp16"), val = tensor<fp16, [51864, 768]>(BLOBFILE(path = tensor<string, []>("@model_path/weights/weight.bin"), offset = tensor<uint64, []>(64)))];
            tensor<fp16, [1, 768]> var_40_cast_fp16 = gather(axis = var_40_axis_0, batch_dims = var_40_batch_dims_0, indices = input_ids, x = embed_tokens_weight_to_fp16)[name = tensor<string, []>("op_40_cast_fp16")];
            tensor<int32, []> var_44_axis_0 = const()[name = tensor<string, []>("op_44_axis_0"), val = tensor<int32, []>(0)];
            tensor<int32, []> var_44_batch_dims_0 = const()[name = tensor<string, []>("op_44_batch_dims_0"), val = tensor<int32, []>(0)];
            tensor<fp16, [448, 768]> embed_positions_weight_to_fp16 = const()[name = tensor<string, []>("embed_positions_weight_to_fp16"), val = tensor<fp16, [448, 768]>(BLOBFILE(path = tensor<string, []>("@model_path/weights/weight.bin"), offset = tensor<uint64, []>(79663232)))];
            tensor<fp16, [1, 768]> var_44_cast_fp16 = gather(axis = var_44_axis_0, batch_dims = var_44_batch_dims_0, indices = cache_length, x = embed_positions_weight_to_fp16)[name = tensor<string, []>("op_44_cast_fp16")];
            tensor<fp16, [1, 768]> hidden_states_1_cast_fp16 = add(x = var_40_cast_fp16, y = var_44_cast_fp16)[name = tensor<string, []>("hidden_states_1_cast_fp16")];
            tensor<int32, [1]> var_58_axes_0 = const()[name = tensor<string, []>("op_58_axes_0"), val = tensor<int32, [1]>([2])];
            tensor<fp16, [1, 768, 1]> var_58_cast_fp16 = expand_dims(axes = var_58_axes_0, x = hidden_states_1_cast_fp16)[name = tensor<string, []>("op_58_cast_fp16")];
            tensor<int32, [1]> inputs_1_axes_0 = const()[name = tensor<string, []>("inputs_1_axes_0"), val = tensor<int32, [1]>([3])];
            tensor<fp16, [1, 768, 1, 1]> inputs_1_cast_fp16 = expand_dims(axes = inputs_1_axes_0, x = var_58_cast_fp16)[name = tensor<string, []>("inputs_1_cast_fp16")];
            tensor<int32, [12]> tile_0 = const()[name = tensor<string, []>("tile_0"), val = tensor<int32, [12]>([768, 768, 768, 768, 768, 768, 768, 768, 768, 768, 768, 768])];
            tensor<int32, []> var_63_axis_0 = const()[name = tensor<string, []>("op_63_axis_0"), val = tensor<int32, []>(1)];
            tensor<fp16, [1, 768, 1, 224]> var_63_cast_fp16_0, tensor<fp16, [1, 768, 1, 224]> var_63_cast_fp16_1, tensor<fp16, [1, 768, 1, 224]> var_63_cast_fp16_2, tensor<fp16, [1, 768, 1, 224]> var_63_cast_fp16_3, tensor<fp16, [1, 768, 1, 224]> var_63_cast_fp16_4, tensor<fp16, [1, 768, 1, 224]> var_63_cast_fp16_5, tensor<fp16, [1, 768, 1, 224]> var_63_cast_fp16_6, tensor<fp16, [1, 768, 1, 224]> var_63_cast_fp16_7, tensor<fp16, [1, 768, 1, 224]> var_63_cast_fp16_8, tensor<fp16, [1, 768, 1, 224]> var_63_cast_fp16_9, tensor<fp16, [1, 768, 1, 224]> var_63_cast_fp16_10, tensor<fp16, [1, 768, 1, 224]> var_63_cast_fp16_11 = split(axis = var_63_axis_0, split_sizes = tile_0, x = key_cache)[name = tensor<string, []>("op_63_cast_fp16")];
            tensor<int32, [12]> tile_1 = const()[name = tensor<string, []>("tile_1"), val = tensor<int32, [12]>([768, 768, 768, 768, 768, 768, 768, 768, 768, 768, 768, 768])];
            tensor<int32, []> var_78_axis_0 = const()[name = tensor<string, []>("op_78_axis_0"), val = tensor<int32, []>(1)];
            tensor<fp16, [1, 768, 1, 224]> var_78_cast_fp16_0, tensor<fp16, [1, 768, 1, 224]> var_78_cast_fp16_1, tensor<fp16, [1, 768, 1, 224]> var_78_cast_fp16_2, tensor<fp16, [1, 768, 1, 224]> var_78_cast_fp16_3, tensor<fp16, [1, 768, 1, 224]> var_78_cast_fp16_4, tensor<fp16, [1, 768, 1, 224]> var_78_cast_fp16_5, tensor<fp16, [1, 768, 1, 224]> var_78_cast_fp16_6, tensor<fp16, [1, 768, 1, 224]> var_78_cast_fp16_7, tensor<fp16, [1, 768, 1, 224]> var_78_cast_fp16_8, tensor<fp16, [1, 768, 1, 224]> var_78_cast_fp16_9, tensor<fp16, [1, 768, 1, 224]> var_78_cast_fp16_10, tensor<fp16, [1, 768, 1, 224]> var_78_cast_fp16_11 = split(axis = var_78_axis_0, split_sizes = tile_1, x = value_cache)[name = tensor<string, []>("op_78_cast_fp16")];
            tensor<int32, []> var_96 = const()[name = tensor<string, []>("op_96"), val = tensor<int32, []>(3)];
            tensor<int32, []> var_103 = const()[name = tensor<string, []>("op_103"), val = tensor<int32, []>(1)];
            tensor<bool, []> var_104 = const()[name = tensor<string, []>("op_104"), val = tensor<bool, []>(true)];
            tensor<int32, [1]> var_116 = const()[name = tensor<string, []>("op_116"), val = tensor<int32, [1]>([1])];
            tensor<fp16, [1, 1, 1, 1]> channels_mean_1_cast_fp16 = reduce_mean(axes = var_116, keep_dims = var_104, x = inputs_1_cast_fp16)[name = tensor<string, []>("channels_mean_1_cast_fp16")];
            tensor<fp16, [1, 768, 1, 1]> zero_mean_1_cast_fp16 = sub(x = inputs_1_cast_fp16, y = channels_mean_1_cast_fp16)[name = tensor<string, []>("zero_mean_1_cast_fp16")];
            tensor<fp16, [1, 768, 1, 1]> zero_mean_sq_1_cast_fp16 = mul(x = zero_mean_1_cast_fp16, y = zero_mean_1_cast_fp16)[name = tensor<string, []>("zero_mean_sq_1_cast_fp16")];
            tensor<int32, [1]> var_120 = const()[name = tensor<string, []>("op_120"), val = tensor<int32, [1]>([1])];
            tensor<fp16, [1, 1, 1, 1]> var_121_cast_fp16 = reduce_mean(axes = var_120, keep_dims = var_104, x = zero_mean_sq_1_cast_fp16)[name = tensor<string, []>("op_121_cast_fp16")];
            tensor<fp16, []> var_122_to_fp16 = const()[name = tensor<string, []>("op_122_to_fp16"), val = tensor<fp16, []>(0x1.5p-17)];
            tensor<fp16, [1, 1, 1, 1]> var_123_cast_fp16 = add(x = var_121_cast_fp16, y = var_122_to_fp16)[name = tensor<string, []>("op_123_cast_fp16")];
            tensor<fp16, []> denom_1_epsilon_0_to_fp16 = const()[name = tensor<string, []>("denom_1_epsilon_0_to_fp16"), val = tensor<fp16, []>(0x1p-24)];
            tensor<fp16, [1, 1, 1, 1]> denom_1_cast_fp16 = rsqrt(epsilon = denom_1_epsilon_0_to_fp16, x = var_123_cast_fp16)[name = tensor<string, []>("denom_1_cast_fp16")];
            tensor<fp16, [1, 768, 1, 1]> out_1_cast_fp16 = mul(x = zero_mean_1_cast_fp16, y = denom_1_cast_fp16)[name = tensor<string, []>("out_1_cast_fp16")];
            tensor<fp16, [768]> obj_1_mean_0_to_fp16 = const()[name = tensor<string, []>("obj_1_mean_0_to_fp16"), val = tensor<fp16, [768]>(BLOBFILE(path = tensor<string, []>("@model_path/weights/weight.bin"), offset = tensor<uint64, []>(80351424)))];
            tensor<fp16, [768]> obj_1_variance_0_to_fp16 = const()[name = tensor<string, []>("obj_1_variance_0_to_fp16"), val = tensor<fp16, [768]>(BLOBFILE(path = tensor<string, []>("@model_path/weights/weight.bin"), offset = tensor<uint64, []>(80353024)))];
            tensor<fp16, [768]> obj_1_gamma_0_to_fp16 = const()[name = tensor<string, []>("obj_1_gamma_0_to_fp16"), val = tensor<fp16, [768]>(BLOBFILE(path = tensor<string, []>("@model_path/weights/weight.bin"), offset = tensor<uint64, []>(80354624)))];
            tensor<fp16, [768]> obj_1_beta_0_to_fp16 = const()[name = tensor<string, []>("obj_1_beta_0_to_fp16"), val = tensor<fp16, [768]>(BLOBFILE(path = tensor<string, []>("@model_path/weights/weight.bin"), offset = tensor<uint64, []>(80356224)))];
            tensor<fp16, []> obj_1_epsilon_0_to_fp16 = const()[name = tensor<string, []>("obj_1_epsilon_0_to_fp16"), val = tensor<fp16, []>(0x1.5p-17)];
            tensor<fp16, [1, 768, 1, 1]> obj_1_cast_fp16 = batch_norm(beta = obj_1_beta_0_to_fp16, epsilon = obj_1_epsilon_0_to_fp16, gamma = obj_1_gamma_0_to_fp16, mean = obj_1_mean_0_to_fp16, variance = obj_1_variance_0_to_fp16, x = out_1_cast_fp16)[name = tensor<string, []>("obj_1_cast_fp16")];
            tensor<int32, [2]> var_138 = const()[name = tensor<string, []>("op_138"), val = tensor<int32, [2]>([1, 1])];
            tensor<int32, [2]> var_140 = const()[name = tensor<string, []>("op_140"), val = tensor<int32, [2]>([1, 1])];
            tensor<string, []> query_1_pad_type_0 = const()[name = tensor<string, []>("query_1_pad_type_0"), val = tensor<string, []>("custom")];
            tensor<int32, [4]> query_1_pad_0 = const()[name = tensor<string, []>("query_1_pad_0"), val = tensor<int32, [4]>([0, 0, 0, 0])];
            tensor<fp16, [768, 768, 1, 1]> layers_0_self_attn_q_proj_weight_to_fp16 = const()[name = tensor<string, []>("layers_0_self_attn_q_proj_weight_to_fp16"), val = tensor<fp16, [768, 768, 1, 1]>(BLOBFILE(path = tensor<string, []>("@model_path/weights/weight.bin"), offset = tensor<uint64, []>(80357824)))];
            tensor<fp16, [768]> layers_0_self_attn_q_proj_bias_to_fp16 = const()[name = tensor<string, []>("layers_0_self_attn_q_proj_bias_to_fp16"), val = tensor<fp16, [768]>(BLOBFILE(path = tensor<string, []>("@model_path/weights/weight.bin"), offset = tensor<uint64, []>(81537536)))];
            tensor<fp16, [1, 768, 1, 1]> query_1_cast_fp16 = conv(bias = layers_0_self_attn_q_proj_bias_to_fp16, dilations = var_140, groups = var_103, pad = query_1_pad_0, pad_type = query_1_pad_type_0, strides = var_138, weight = layers_0_self_attn_q_proj_weight_to_fp16, x = obj_1_cast_fp16)[name = tensor<string, []>("query_1_cast_fp16")];
            tensor<int32, [2]> var_144 = const()[name = tensor<string, []>("op_144"), val = tensor<int32, [2]>([1, 1])];
            tensor<int32, [2]> var_146 = const()[name = tensor<string, []>("op_146"), val = tensor<int32, [2]>([1, 1])];
            tensor<string, []> current_key_1_pad_type_0 = const()[name = tensor<string, []>("current_key_1_pad_type_0"), val = tensor<string, []>("custom")];
            tensor<int32, [4]> current_key_1_pad_0 = const()[name = tensor<string, []>("current_key_1_pad_0"), val = tensor<int32, [4]>([0, 0, 0, 0])];
            tensor<fp16, [768, 768, 1, 1]> layers_0_self_attn_k_proj_weight_to_fp16 = const()[name = tensor<string, []>("layers_0_self_attn_k_proj_weight_to_fp16"), val = tensor<fp16, [768, 768, 1, 1]>(BLOBFILE(path = tensor<string, []>("@model_path/weights/weight.bin"), offset = tensor<uint64, []>(81539136)))];
            tensor<fp16, [1, 768, 1, 1]> current_key_1_cast_fp16 = conv(dilations = var_146, groups = var_103, pad = current_key_1_pad_0, pad_type = current_key_1_pad_type_0, strides = var_144, weight = layers_0_self_attn_k_proj_weight_to_fp16, x = obj_1_cast_fp16)[name = tensor<string, []>("current_key_1_cast_fp16")];
            tensor<int32, [2]> var_151 = const()[name = tensor<string, []>("op_151"), val = tensor<int32, [2]>([1, 1])];
            tensor<int32, [2]> var_153 = const()[name = tensor<string, []>("op_153"), val = tensor<int32, [2]>([1, 1])];
            tensor<string, []> current_value_1_pad_type_0 = const()[name = tensor<string, []>("current_value_1_pad_type_0"), val = tensor<string, []>("custom")];
            tensor<int32, [4]> current_value_1_pad_0 = const()[name = tensor<string, []>("current_value_1_pad_0"), val = tensor<int32, [4]>([0, 0, 0, 0])];
            tensor<fp16, [768, 768, 1, 1]> layers_0_self_attn_v_proj_weight_to_fp16 = const()[name = tensor<string, []>("layers_0_self_attn_v_proj_weight_to_fp16"), val = tensor<fp16, [768, 768, 1, 1]>(BLOBFILE(path = tensor<string, []>("@model_path/weights/weight.bin"), offset = tensor<uint64, []>(82718848)))];
            tensor<fp16, [768]> layers_0_self_attn_v_proj_bias_to_fp16 = const()[name = tensor<string, []>("layers_0_self_attn_v_proj_bias_to_fp16"), val = tensor<fp16, [768]>(BLOBFILE(path = tensor<string, []>("@model_path/weights/weight.bin"), offset = tensor<uint64, []>(83898560)))];
            tensor<fp16, [1, 768, 1, 1]> current_value_1_cast_fp16 = conv(bias = layers_0_self_attn_v_proj_bias_to_fp16, dilations = var_153, groups = var_103, pad = current_value_1_pad_0, pad_type = current_value_1_pad_type_0, strides = var_151, weight = layers_0_self_attn_v_proj_weight_to_fp16, x = obj_1_cast_fp16)[name = tensor<string, []>("current_value_1_cast_fp16")];
            tensor<int32, [1]> var_157_axes_0 = const()[name = tensor<string, []>("op_157_axes_0"), val = tensor<int32, [1]>([1])];
            tensor<fp16, [1, 1, 224]> var_157_cast_fp16 = expand_dims(axes = var_157_axes_0, x = kv_cache_update_mask)[name = tensor<string, []>("op_157_cast_fp16")];
            tensor<int32, [1]> var_158_axes_0 = const()[name = tensor<string, []>("op_158_axes_0"), val = tensor<int32, [1]>([2])];
            tensor<fp16, [1, 1, 1, 224]> var_158_cast_fp16 = expand_dims(axes = var_158_axes_0, x = var_157_cast_fp16)[name = tensor<string, []>("op_158_cast_fp16")];
            tensor<fp16, [1, 768, 1, 224]> var_160_cast_fp16 = mul(x = current_key_1_cast_fp16, y = var_158_cast_fp16)[name = tensor<string, []>("op_160_cast_fp16")];
            tensor<fp16, []> var_97_to_fp16 = const()[name = tensor<string, []>("op_97_to_fp16"), val = tensor<fp16, []>(0x1p+0)];
            tensor<fp16, [1, 1, 1, 224]> var_161_cast_fp16 = sub(x = var_97_to_fp16, y = var_158_cast_fp16)[name = tensor<string, []>("op_161_cast_fp16")];
            tensor<fp16, [1, 768, 1, 224]> var_162_cast_fp16 = mul(x = var_63_cast_fp16_0, y = var_161_cast_fp16)[name = tensor<string, []>("op_162_cast_fp16")];
            tensor<fp16, [1, 768, 1, 224]> key_1_cast_fp16 = add(x = var_160_cast_fp16, y = var_162_cast_fp16)[name = tensor<string, []>("key_1_cast_fp16")];
            tensor<fp16, [1, 768, 1, 224]> var_164_cast_fp16 = mul(x = current_value_1_cast_fp16, y = var_158_cast_fp16)[name = tensor<string, []>("op_164_cast_fp16")];
            tensor<fp16, [1, 768, 1, 224]> var_166_cast_fp16 = mul(x = var_78_cast_fp16_0, y = var_161_cast_fp16)[name = tensor<string, []>("op_166_cast_fp16")];
            tensor<fp16, [1, 768, 1, 224]> value_1_cast_fp16 = add(x = var_164_cast_fp16, y = var_166_cast_fp16)[name = tensor<string, []>("value_1_cast_fp16")];
            tensor<int32, [4]> var_169 = const()[name = tensor<string, []>("op_169"), val = tensor<int32, [4]>([1, 12, 64, -1])];
            tensor<fp16, [1, 12, 64, 1]> var_170_cast_fp16 = reshape(shape = var_169, x = query_1_cast_fp16)[name = tensor<string, []>("op_170_cast_fp16")];
            tensor<fp16, []> var_171_to_fp16 = const()[name = tensor<string, []>("op_171_to_fp16"), val = tensor<fp16, []>(0x1p-3)];
            tensor<fp16, [1, 12, 64, 1]> var_172_cast_fp16 = mul(x = var_170_cast_fp16, y = var_171_to_fp16)[name = tensor<string, []>("op_172_cast_fp16")];
            tensor<int32, [4]> var_173 = const()[name = tensor<string, []>("op_173"), val = tensor<int32, [4]>([1, 12, 64, -1])];
            tensor<fp16, [1, 12, 64, 224]> var_174_cast_fp16 = reshape(shape = var_173, x = key_1_cast_fp16)[name = tensor<string, []>("op_174_cast_fp16")];
            tensor<bool, []> mh_w_1_transpose_x_0 = const()[name = tensor<string, []>("mh_w_1_transpose_x_0"), val = tensor<bool, []>(true)];
            tensor<bool, []> mh_w_1_transpose_y_0 = const()[name = tensor<string, []>("mh_w_1_transpose_y_0"), val = tensor<bool, []>(false)];
            tensor<fp16, [1, 12, 1, 224]> mh_w_1_cast_fp16 = matmul(transpose_x = mh_w_1_transpose_x_0, transpose_y = mh_w_1_transpose_y_0, x = var_172_cast_fp16, y = var_174_cast_fp16)[name = tensor<string, []>("mh_w_1_cast_fp16")];
            tensor<int32, [1]> var_178_axes_0 = const()[name = tensor<string, []>("op_178_axes_0"), val = tensor<int32, [1]>([1])];
            tensor<fp16, [1, 1, 224]> var_178_cast_fp16 = expand_dims(axes = var_178_axes_0, x = decoder_key_padding_mask)[name = tensor<string, []>("op_178_cast_fp16")];
            tensor<int32, [1]> var_179_axes_0 = const()[name = tensor<string, []>("op_179_axes_0"), val = tensor<int32, [1]>([2])];
            tensor<fp16, [1, 1, 1, 224]> var_179_cast_fp16 = expand_dims(axes = var_179_axes_0, x = var_178_cast_fp16)[name = tensor<string, []>("op_179_cast_fp16")];
            tensor<fp16, [1, 12, 1, 224]> mh_w_3_cast_fp16 = add(x = mh_w_1_cast_fp16, y = var_179_cast_fp16)[name = tensor<string, []>("mh_w_3_cast_fp16")];
            tensor<fp16, [1, 12, 1, 224]> var_182_cast_fp16 = softmax(axis = var_96, x = mh_w_3_cast_fp16)[name = tensor<string, []>("op_182_cast_fp16")];
            tensor<int32, [4]> var_183 = const()[name = tensor<string, []>("op_183"), val = tensor<int32, [4]>([1, 12, 64, -1])];
            tensor<fp16, [1, 12, 64, 224]> var_184_cast_fp16 = reshape(shape = var_183, x = value_1_cast_fp16)[name = tensor<string, []>("op_184_cast_fp16")];
            tensor<bool, []> attn_1_transpose_x_0 = const()[name = tensor<string, []>("attn_1_transpose_x_0"), val = tensor<bool, []>(false)];
            tensor<bool, []> attn_1_transpose_y_0 = const()[name = tensor<string, []>("attn_1_transpose_y_0"), val = tensor<bool, []>(true)];
            tensor<fp16, [1, 12, 64, 1]> attn_1_cast_fp16 = matmul(transpose_x = attn_1_transpose_x_0, transpose_y = attn_1_transpose_y_0, x = var_184_cast_fp16, y = var_182_cast_fp16)[name = tensor<string, []>("attn_1_cast_fp16")];
            tensor<int32, [4]> var_187 = const()[name = tensor<string, []>("op_187"), val = tensor<int32, [4]>([1, 768, 1, -1])];
            tensor<fp16, [1, 768, 1, 1]> input_1_cast_fp16 = reshape(shape = var_187, x = attn_1_cast_fp16)[name = tensor<string, []>("input_1_cast_fp16")];
            tensor<int32, [2]> var_191 = const()[name = tensor<string, []>("op_191"), val = tensor<int32, [2]>([1, 1])];
            tensor<int32, [2]> var_193 = const()[name = tensor<string, []>("op_193"), val = tensor<int32, [2]>([1, 1])];
            tensor<string, []> obj_7_pad_type_0 = const()[name = tensor<string, []>("obj_7_pad_type_0"), val = tensor<string, []>("custom")];
            tensor<int32, [4]> obj_7_pad_0 = const()[name = tensor<string, []>("obj_7_pad_0"), val = tensor<int32, [4]>([0, 0, 0, 0])];
            tensor<fp16, [768, 768, 1, 1]> layers_0_self_attn_o_proj_weight_to_fp16 = const()[name = tensor<string, []>("layers_0_self_attn_o_proj_weight_to_fp16"), val = tensor<fp16, [768, 768, 1, 1]>(BLOBFILE(path = tensor<string, []>("@model_path/weights/weight.bin"), offset = tensor<uint64, []>(83900160)))];
            tensor<fp16, [768]> layers_0_self_attn_o_proj_bias_to_fp16 = const()[name = tensor<string, []>("layers_0_self_attn_o_proj_bias_to_fp16"), val = tensor<fp16, [768]>(BLOBFILE(path = tensor<string, []>("@model_path/weights/weight.bin"), offset = tensor<uint64, []>(85079872)))];
            tensor<fp16, [1, 768, 1, 1]> obj_7_cast_fp16 = conv(bias = layers_0_self_attn_o_proj_bias_to_fp16, dilations = var_193, groups = var_103, pad = obj_7_pad_0, pad_type = obj_7_pad_type_0, strides = var_191, weight = layers_0_self_attn_o_proj_weight_to_fp16, x = input_1_cast_fp16)[name = tensor<string, []>("obj_7_cast_fp16")];
            tensor<fp16, [1, 768, 1, 1]> inputs_3_cast_fp16 = add(x = inputs_1_cast_fp16, y = obj_7_cast_fp16)[name = tensor<string, []>("inputs_3_cast_fp16")];
            tensor<int32, [1]> var_203 = const()[name = tensor<string, []>("op_203"), val = tensor<int32, [1]>([1])];
            tensor<fp16, [1, 1, 1, 1]> channels_mean_3_cast_fp16 = reduce_mean(axes = var_203, keep_dims = var_104, x = inputs_3_cast_fp16)[name = tensor<string, []>("channels_mean_3_cast_fp16")];
            tensor<fp16, [1, 768, 1, 1]> zero_mean_3_cast_fp16 = sub(x = inputs_3_cast_fp16, y = channels_mean_3_cast_fp16)[name = tensor<string, []>("zero_mean_3_cast_fp16")];
            tensor<fp16, [1, 768, 1, 1]> zero_mean_sq_3_cast_fp16 = mul(x = zero_mean_3_cast_fp16, y = zero_mean_3_cast_fp16)[name = tensor<string, []>("zero_mean_sq_3_cast_fp16")];
            tensor<int32, [1]> var_207 = const()[name = tensor<string, []>("op_207"), val = tensor<int32, [1]>([1])];
            tensor<fp16, [1, 1, 1, 1]> var_208_cast_fp16 = reduce_mean(axes = var_207, keep_dims = var_104, x = zero_mean_sq_3_cast_fp16)[name = tensor<string, []>("op_208_cast_fp16")];
            tensor<fp16, []> var_209_to_fp16 = const()[name = tensor<string, []>("op_209_to_fp16"), val = tensor<fp16, []>(0x1.5p-17)];
            tensor<fp16, [1, 1, 1, 1]> var_210_cast_fp16 = add(x = var_208_cast_fp16, y = var_209_to_fp16)[name = tensor<string, []>("op_210_cast_fp16")];
            tensor<fp16, []> denom_3_epsilon_0_to_fp16 = const()[name = tensor<string, []>("denom_3_epsilon_0_to_fp16"), val = tensor<fp16, []>(0x1p-24)];
            tensor<fp16, [1, 1, 1, 1]> denom_3_cast_fp16 = rsqrt(epsilon = denom_3_epsilon_0_to_fp16, x = var_210_cast_fp16)[name = tensor<string, []>("denom_3_cast_fp16")];
            tensor<fp16, [1, 768, 1, 1]> out_3_cast_fp16 = mul(x = zero_mean_3_cast_fp16, y = denom_3_cast_fp16)[name = tensor<string, []>("out_3_cast_fp16")];
            tensor<fp16, [768]> obj_9_gamma_0_to_fp16 = const()[name = tensor<string, []>("obj_9_gamma_0_to_fp16"), val = tensor<fp16, [768]>(BLOBFILE(path = tensor<string, []>("@model_path/weights/weight.bin"), offset = tensor<uint64, []>(85081472)))];
            tensor<fp16, [768]> obj_9_beta_0_to_fp16 = const()[name = tensor<string, []>("obj_9_beta_0_to_fp16"), val = tensor<fp16, [768]>(BLOBFILE(path = tensor<string, []>("@model_path/weights/weight.bin"), offset = tensor<uint64, []>(85083072)))];
            tensor<fp16, []> obj_9_epsilon_0_to_fp16 = const()[name = tensor<string, []>("obj_9_epsilon_0_to_fp16"), val = tensor<fp16, []>(0x1.5p-17)];
            tensor<fp16, [1, 768, 1, 1]> obj_9_cast_fp16 = batch_norm(beta = obj_9_beta_0_to_fp16, epsilon = obj_9_epsilon_0_to_fp16, gamma = obj_9_gamma_0_to_fp16, mean = obj_1_mean_0_to_fp16, variance = obj_1_variance_0_to_fp16, x = out_3_cast_fp16)[name = tensor<string, []>("obj_9_cast_fp16")];
            tensor<int32, [2]> var_225 = const()[name = tensor<string, []>("op_225"), val = tensor<int32, [2]>([1, 1])];
            tensor<int32, [2]> var_227 = const()[name = tensor<string, []>("op_227"), val = tensor<int32, [2]>([1, 1])];
            tensor<string, []> query_3_pad_type_0 = const()[name = tensor<string, []>("query_3_pad_type_0"), val = tensor<string, []>("custom")];
            tensor<int32, [4]> query_3_pad_0 = const()[name = tensor<string, []>("query_3_pad_0"), val = tensor<int32, [4]>([0, 0, 0, 0])];
            tensor<fp16, [768, 768, 1, 1]> layers_0_encoder_attn_q_proj_weight_to_fp16 = const()[name = tensor<string, []>("layers_0_encoder_attn_q_proj_weight_to_fp16"), val = tensor<fp16, [768, 768, 1, 1]>(BLOBFILE(path = tensor<string, []>("@model_path/weights/weight.bin"), offset = tensor<uint64, []>(85084672)))];
            tensor<fp16, [768]> layers_0_encoder_attn_q_proj_bias_to_fp16 = const()[name = tensor<string, []>("layers_0_encoder_attn_q_proj_bias_to_fp16"), val = tensor<fp16, [768]>(BLOBFILE(path = tensor<string, []>("@model_path/weights/weight.bin"), offset = tensor<uint64, []>(86264384)))];
            tensor<fp16, [1, 768, 1, 1]> query_3_cast_fp16 = conv(bias = layers_0_encoder_attn_q_proj_bias_to_fp16, dilations = var_227, groups = var_103, pad = query_3_pad_0, pad_type = query_3_pad_type_0, strides = var_225, weight = layers_0_encoder_attn_q_proj_weight_to_fp16, x = obj_9_cast_fp16)[name = tensor<string, []>("query_3_cast_fp16")];
            tensor<int32, [2]> var_231 = const()[name = tensor<string, []>("op_231"), val = tensor<int32, [2]>([1, 1])];
            tensor<int32, [2]> var_233 = const()[name = tensor<string, []>("op_233"), val = tensor<int32, [2]>([1, 1])];
            tensor<string, []> key_3_pad_type_0 = const()[name = tensor<string, []>("key_3_pad_type_0"), val = tensor<string, []>("custom")];
            tensor<int32, [4]> key_3_pad_0 = const()[name = tensor<string, []>("key_3_pad_0"), val = tensor<int32, [4]>([0, 0, 0, 0])];
            tensor<fp16, [768, 768, 1, 1]> layers_0_encoder_attn_k_proj_weight_to_fp16 = const()[name = tensor<string, []>("layers_0_encoder_attn_k_proj_weight_to_fp16"), val = tensor<fp16, [768, 768, 1, 1]>(BLOBFILE(path = tensor<string, []>("@model_path/weights/weight.bin"), offset = tensor<uint64, []>(86265984)))];
            tensor<fp16, [1, 768, 1, 1500]> key_3_cast_fp16 = conv(dilations = var_233, groups = var_103, pad = key_3_pad_0, pad_type = key_3_pad_type_0, strides = var_231, weight = layers_0_encoder_attn_k_proj_weight_to_fp16, x = encoder_output_embeds)[name = tensor<string, []>("key_3_cast_fp16")];
            tensor<int32, [2]> var_238 = const()[name = tensor<string, []>("op_238"), val = tensor<int32, [2]>([1, 1])];
            tensor<int32, [2]> var_240 = const()[name = tensor<string, []>("op_240"), val = tensor<int32, [2]>([1, 1])];
            tensor<string, []> value_3_pad_type_0 = const()[name = tensor<string, []>("value_3_pad_type_0"), val = tensor<string, []>("custom")];
            tensor<int32, [4]> value_3_pad_0 = const()[name = tensor<string, []>("value_3_pad_0"), val = tensor<int32, [4]>([0, 0, 0, 0])];
            tensor<fp16, [768, 768, 1, 1]> layers_0_encoder_attn_v_proj_weight_to_fp16 = const()[name = tensor<string, []>("layers_0_encoder_attn_v_proj_weight_to_fp16"), val = tensor<fp16, [768, 768, 1, 1]>(BLOBFILE(path = tensor<string, []>("@model_path/weights/weight.bin"), offset = tensor<uint64, []>(87445696)))];
            tensor<fp16, [768]> layers_0_encoder_attn_v_proj_bias_to_fp16 = const()[name = tensor<string, []>("layers_0_encoder_attn_v_proj_bias_to_fp16"), val = tensor<fp16, [768]>(BLOBFILE(path = tensor<string, []>("@model_path/weights/weight.bin"), offset = tensor<uint64, []>(88625408)))];
            tensor<fp16, [1, 768, 1, 1500]> value_3_cast_fp16 = conv(bias = layers_0_encoder_attn_v_proj_bias_to_fp16, dilations = var_240, groups = var_103, pad = value_3_pad_0, pad_type = value_3_pad_type_0, strides = var_238, weight = layers_0_encoder_attn_v_proj_weight_to_fp16, x = encoder_output_embeds)[name = tensor<string, []>("value_3_cast_fp16")];
            tensor<int32, [4]> var_244 = const()[name = tensor<string, []>("op_244"), val = tensor<int32, [4]>([1, 12, 64, -1])];
            tensor<fp16, [1, 12, 64, 1]> var_245_cast_fp16 = reshape(shape = var_244, x = query_3_cast_fp16)[name = tensor<string, []>("op_245_cast_fp16")];
            tensor<fp16, []> var_246_to_fp16 = const()[name = tensor<string, []>("op_246_to_fp16"), val = tensor<fp16, []>(0x1p-3)];
            tensor<fp16, [1, 12, 64, 1]> var_247_cast_fp16 = mul(x = var_245_cast_fp16, y = var_246_to_fp16)[name = tensor<string, []>("op_247_cast_fp16")];
            tensor<int32, [4]> var_248 = const()[name = tensor<string, []>("op_248"), val = tensor<int32, [4]>([1, 12, 64, -1])];
            tensor<fp16, [1, 12, 64, 1500]> var_249_cast_fp16 = reshape(shape = var_248, x = key_3_cast_fp16)[name = tensor<string, []>("op_249_cast_fp16")];
            tensor<bool, []> mh_w_5_transpose_x_0 = const()[name = tensor<string, []>("mh_w_5_transpose_x_0"), val = tensor<bool, []>(true)];
            tensor<bool, []> mh_w_5_transpose_y_0 = const()[name = tensor<string, []>("mh_w_5_transpose_y_0"), val = tensor<bool, []>(false)];
            tensor<fp16, [1, 12, 1, 1500]> mh_w_5_cast_fp16 = matmul(transpose_x = mh_w_5_transpose_x_0, transpose_y = mh_w_5_transpose_y_0, x = var_247_cast_fp16, y = var_249_cast_fp16)[name = tensor<string, []>("mh_w_5_cast_fp16")];
            tensor<fp16, [1, 12, 1, 1500]> obj_13_cast_fp16 = softmax(axis = var_96, x = mh_w_5_cast_fp16)[name = tensor<string, []>("obj_13_cast_fp16")];
            tensor<int32, [4]> var_253 = const()[name = tensor<string, []>("op_253"), val = tensor<int32, [4]>([1, 12, 64, -1])];
            tensor<fp16, [1, 12, 64, 1500]> var_254_cast_fp16 = reshape(shape = var_253, x = value_3_cast_fp16)[name = tensor<string, []>("op_254_cast_fp16")];
            tensor<bool, []> attn_3_transpose_x_0 = const()[name = tensor<string, []>("attn_3_transpose_x_0"), val = tensor<bool, []>(false)];
            tensor<bool, []> attn_3_transpose_y_0 = const()[name = tensor<string, []>("attn_3_transpose_y_0"), val = tensor<bool, []>(true)];
            tensor<fp16, [1, 12, 64, 1]> attn_3_cast_fp16 = matmul(transpose_x = attn_3_transpose_x_0, transpose_y = attn_3_transpose_y_0, x = var_254_cast_fp16, y = obj_13_cast_fp16)[name = tensor<string, []>("attn_3_cast_fp16")];
            tensor<int32, [4]> var_257 = const()[name = tensor<string, []>("op_257"), val = tensor<int32, [4]>([1, 768, 1, -1])];
            tensor<fp16, [1, 768, 1, 1]> input_3_cast_fp16 = reshape(shape = var_257, x = attn_3_cast_fp16)[name = tensor<string, []>("input_3_cast_fp16")];
            tensor<int32, [2]> var_261 = const()[name = tensor<string, []>("op_261"), val = tensor<int32, [2]>([1, 1])];
            tensor<int32, [2]> var_263 = const()[name = tensor<string, []>("op_263"), val = tensor<int32, [2]>([1, 1])];
            tensor<string, []> obj_11_pad_type_0 = const()[name = tensor<string, []>("obj_11_pad_type_0"), val = tensor<string, []>("custom")];
            tensor<int32, [4]> obj_11_pad_0 = const()[name = tensor<string, []>("obj_11_pad_0"), val = tensor<int32, [4]>([0, 0, 0, 0])];
            tensor<fp16, [768, 768, 1, 1]> layers_0_encoder_attn_o_proj_weight_to_fp16 = const()[name = tensor<string, []>("layers_0_encoder_attn_o_proj_weight_to_fp16"), val = tensor<fp16, [768, 768, 1, 1]>(BLOBFILE(path = tensor<string, []>("@model_path/weights/weight.bin"), offset = tensor<uint64, []>(88627008)))];
            tensor<fp16, [768]> layers_0_encoder_attn_o_proj_bias_to_fp16 = const()[name = tensor<string, []>("layers_0_encoder_attn_o_proj_bias_to_fp16"), val = tensor<fp16, [768]>(BLOBFILE(path = tensor<string, []>("@model_path/weights/weight.bin"), offset = tensor<uint64, []>(89806720)))];
            tensor<fp16, [1, 768, 1, 1]> obj_11_cast_fp16 = conv(bias = layers_0_encoder_attn_o_proj_bias_to_fp16, dilations = var_263, groups = var_103, pad = obj_11_pad_0, pad_type = obj_11_pad_type_0, strides = var_261, weight = layers_0_encoder_attn_o_proj_weight_to_fp16, x = input_3_cast_fp16)[name = tensor<string, []>("obj_11_cast_fp16")];
            tensor<fp16, [1, 768, 1, 1]> inputs_5_cast_fp16 = add(x = inputs_3_cast_fp16, y = obj_11_cast_fp16)[name = tensor<string, []>("inputs_5_cast_fp16")];
            tensor<int32, [1]> var_269 = const()[name = tensor<string, []>("op_269"), val = tensor<int32, [1]>([1])];
            tensor<fp16, [1, 1, 1, 1]> channels_mean_5_cast_fp16 = reduce_mean(axes = var_269, keep_dims = var_104, x = inputs_5_cast_fp16)[name = tensor<string, []>("channels_mean_5_cast_fp16")];
            tensor<fp16, [1, 768, 1, 1]> zero_mean_5_cast_fp16 = sub(x = inputs_5_cast_fp16, y = channels_mean_5_cast_fp16)[name = tensor<string, []>("zero_mean_5_cast_fp16")];
            tensor<fp16, [1, 768, 1, 1]> zero_mean_sq_5_cast_fp16 = mul(x = zero_mean_5_cast_fp16, y = zero_mean_5_cast_fp16)[name = tensor<string, []>("zero_mean_sq_5_cast_fp16")];
            tensor<int32, [1]> var_273 = const()[name = tensor<string, []>("op_273"), val = tensor<int32, [1]>([1])];
            tensor<fp16, [1, 1, 1, 1]> var_274_cast_fp16 = reduce_mean(axes = var_273, keep_dims = var_104, x = zero_mean_sq_5_cast_fp16)[name = tensor<string, []>("op_274_cast_fp16")];
            tensor<fp16, []> var_275_to_fp16 = const()[name = tensor<string, []>("op_275_to_fp16"), val = tensor<fp16, []>(0x1.5p-17)];
            tensor<fp16, [1, 1, 1, 1]> var_276_cast_fp16 = add(x = var_274_cast_fp16, y = var_275_to_fp16)[name = tensor<string, []>("op_276_cast_fp16")];
            tensor<fp16, []> denom_5_epsilon_0_to_fp16 = const()[name = tensor<string, []>("denom_5_epsilon_0_to_fp16"), val = tensor<fp16, []>(0x1p-24)];
            tensor<fp16, [1, 1, 1, 1]> denom_5_cast_fp16 = rsqrt(epsilon = denom_5_epsilon_0_to_fp16, x = var_276_cast_fp16)[name = tensor<string, []>("denom_5_cast_fp16")];
            tensor<fp16, [1, 768, 1, 1]> out_5_cast_fp16 = mul(x = zero_mean_5_cast_fp16, y = denom_5_cast_fp16)[name = tensor<string, []>("out_5_cast_fp16")];
            tensor<fp16, [768]> input_5_gamma_0_to_fp16 = const()[name = tensor<string, []>("input_5_gamma_0_to_fp16"), val = tensor<fp16, [768]>(BLOBFILE(path = tensor<string, []>("@model_path/weights/weight.bin"), offset = tensor<uint64, []>(89808320)))];
            tensor<fp16, [768]> input_5_beta_0_to_fp16 = const()[name = tensor<string, []>("input_5_beta_0_to_fp16"), val = tensor<fp16, [768]>(BLOBFILE(path = tensor<string, []>("@model_path/weights/weight.bin"), offset = tensor<uint64, []>(89809920)))];
            tensor<fp16, []> input_5_epsilon_0_to_fp16 = const()[name = tensor<string, []>("input_5_epsilon_0_to_fp16"), val = tensor<fp16, []>(0x1.5p-17)];
            tensor<fp16, [1, 768, 1, 1]> input_5_cast_fp16 = batch_norm(beta = input_5_beta_0_to_fp16, epsilon = input_5_epsilon_0_to_fp16, gamma = input_5_gamma_0_to_fp16, mean = obj_1_mean_0_to_fp16, variance = obj_1_variance_0_to_fp16, x = out_5_cast_fp16)[name = tensor<string, []>("input_5_cast_fp16")];
            tensor<int32, [2]> var_287 = const()[name = tensor<string, []>("op_287"), val = tensor<int32, [2]>([1, 1])];
            tensor<int32, [2]> var_289 = const()[name = tensor<string, []>("op_289"), val = tensor<int32, [2]>([1, 1])];
            tensor<string, []> input_7_pad_type_0 = const()[name = tensor<string, []>("input_7_pad_type_0"), val = tensor<string, []>("custom")];
            tensor<int32, [4]> input_7_pad_0 = const()[name = tensor<string, []>("input_7_pad_0"), val = tensor<int32, [4]>([0, 0, 0, 0])];
            tensor<fp16, [3072, 768, 1, 1]> layers_0_fc1_weight_to_fp16 = const()[name = tensor<string, []>("layers_0_fc1_weight_to_fp16"), val = tensor<fp16, [3072, 768, 1, 1]>(BLOBFILE(path = tensor<string, []>("@model_path/weights/weight.bin"), offset = tensor<uint64, []>(89811520)))];
            tensor<fp16, [3072]> layers_0_fc1_bias_to_fp16 = const()[name = tensor<string, []>("layers_0_fc1_bias_to_fp16"), val = tensor<fp16, [3072]>(BLOBFILE(path = tensor<string, []>("@model_path/weights/weight.bin"), offset = tensor<uint64, []>(94530176)))];
            tensor<fp16, [1, 3072, 1, 1]> input_7_cast_fp16 = conv(bias = layers_0_fc1_bias_to_fp16, dilations = var_289, groups = var_103, pad = input_7_pad_0, pad_type = input_7_pad_type_0, strides = var_287, weight = layers_0_fc1_weight_to_fp16, x = input_5_cast_fp16)[name = tensor<string, []>("input_7_cast_fp16")];
            tensor<string, []> input_9_mode_0 = const()[name = tensor<string, []>("input_9_mode_0"), val = tensor<string, []>("EXACT")];
            tensor<fp16, [1, 3072, 1, 1]> input_9_cast_fp16 = gelu(mode = input_9_mode_0, x = input_7_cast_fp16)[name = tensor<string, []>("input_9_cast_fp16")];
            tensor<int32, [2]> var_295 = const()[name = tensor<string, []>("op_295"), val = tensor<int32, [2]>([1, 1])];
            tensor<int32, [2]> var_297 = const()[name = tensor<string, []>("op_297"), val = tensor<int32, [2]>([1, 1])];
            tensor<string, []> hidden_states_3_pad_type_0 = const()[name = tensor<string, []>("hidden_states_3_pad_type_0"), val = tensor<string, []>("custom")];
            tensor<int32, [4]> hidden_states_3_pad_0 = const()[name = tensor<string, []>("hidden_states_3_pad_0"), val = tensor<int32, [4]>([0, 0, 0, 0])];
            tensor<fp16, [768, 3072, 1, 1]> layers_0_fc2_weight_to_fp16 = const()[name = tensor<string, []>("layers_0_fc2_weight_to_fp16"), val = tensor<fp16, [768, 3072, 1, 1]>(BLOBFILE(path = tensor<string, []>("@model_path/weights/weight.bin"), offset = tensor<uint64, []>(94536384)))];
            tensor<fp16, [768]> layers_0_fc2_bias_to_fp16 = const()[name = tensor<string, []>("layers_0_fc2_bias_to_fp16"), val = tensor<fp16, [768]>(BLOBFILE(path = tensor<string, []>("@model_path/weights/weight.bin"), offset = tensor<uint64, []>(99255040)))];
            tensor<fp16, [1, 768, 1, 1]> hidden_states_3_cast_fp16 = conv(bias = layers_0_fc2_bias_to_fp16, dilations = var_297, groups = var_103, pad = hidden_states_3_pad_0, pad_type = hidden_states_3_pad_type_0, strides = var_295, weight = layers_0_fc2_weight_to_fp16, x = input_9_cast_fp16)[name = tensor<string, []>("hidden_states_3_cast_fp16")];
            tensor<fp16, [1, 768, 1, 1]> inputs_7_cast_fp16 = add(x = inputs_5_cast_fp16, y = hidden_states_3_cast_fp16)[name = tensor<string, []>("inputs_7_cast_fp16")];
            tensor<int32, []> var_310 = const()[name = tensor<string, []>("op_310"), val = tensor<int32, []>(3)];
            tensor<int32, []> var_317 = const()[name = tensor<string, []>("op_317"), val = tensor<int32, []>(1)];
            tensor<bool, []> var_318 = const()[name = tensor<string, []>("op_318"), val = tensor<bool, []>(true)];
            tensor<int32, [1]> var_330 = const()[name = tensor<string, []>("op_330"), val = tensor<int32, [1]>([1])];
            tensor<fp16, [1, 1, 1, 1]> channels_mean_7_cast_fp16 = reduce_mean(axes = var_330, keep_dims = var_318, x = inputs_7_cast_fp16)[name = tensor<string, []>("channels_mean_7_cast_fp16")];
            tensor<fp16, [1, 768, 1, 1]> zero_mean_7_cast_fp16 = sub(x = inputs_7_cast_fp16, y = channels_mean_7_cast_fp16)[name = tensor<string, []>("zero_mean_7_cast_fp16")];
            tensor<fp16, [1, 768, 1, 1]> zero_mean_sq_7_cast_fp16 = mul(x = zero_mean_7_cast_fp16, y = zero_mean_7_cast_fp16)[name = tensor<string, []>("zero_mean_sq_7_cast_fp16")];
            tensor<int32, [1]> var_334 = const()[name = tensor<string, []>("op_334"), val = tensor<int32, [1]>([1])];
            tensor<fp16, [1, 1, 1, 1]> var_335_cast_fp16 = reduce_mean(axes = var_334, keep_dims = var_318, x = zero_mean_sq_7_cast_fp16)[name = tensor<string, []>("op_335_cast_fp16")];
            tensor<fp16, []> var_336_to_fp16 = const()[name = tensor<string, []>("op_336_to_fp16"), val = tensor<fp16, []>(0x1.5p-17)];
            tensor<fp16, [1, 1, 1, 1]> var_337_cast_fp16 = add(x = var_335_cast_fp16, y = var_336_to_fp16)[name = tensor<string, []>("op_337_cast_fp16")];
            tensor<fp16, []> denom_7_epsilon_0_to_fp16 = const()[name = tensor<string, []>("denom_7_epsilon_0_to_fp16"), val = tensor<fp16, []>(0x1p-24)];
            tensor<fp16, [1, 1, 1, 1]> denom_7_cast_fp16 = rsqrt(epsilon = denom_7_epsilon_0_to_fp16, x = var_337_cast_fp16)[name = tensor<string, []>("denom_7_cast_fp16")];
            tensor<fp16, [1, 768, 1, 1]> out_7_cast_fp16 = mul(x = zero_mean_7_cast_fp16, y = denom_7_cast_fp16)[name = tensor<string, []>("out_7_cast_fp16")];
            tensor<fp16, [768]> obj_15_gamma_0_to_fp16 = const()[name = tensor<string, []>("obj_15_gamma_0_to_fp16"), val = tensor<fp16, [768]>(BLOBFILE(path = tensor<string, []>("@model_path/weights/weight.bin"), offset = tensor<uint64, []>(99256640)))];
            tensor<fp16, [768]> obj_15_beta_0_to_fp16 = const()[name = tensor<string, []>("obj_15_beta_0_to_fp16"), val = tensor<fp16, [768]>(BLOBFILE(path = tensor<string, []>("@model_path/weights/weight.bin"), offset = tensor<uint64, []>(99258240)))];
            tensor<fp16, []> obj_15_epsilon_0_to_fp16 = const()[name = tensor<string, []>("obj_15_epsilon_0_to_fp16"), val = tensor<fp16, []>(0x1.5p-17)];
            tensor<fp16, [1, 768, 1, 1]> obj_15_cast_fp16 = batch_norm(beta = obj_15_beta_0_to_fp16, epsilon = obj_15_epsilon_0_to_fp16, gamma = obj_15_gamma_0_to_fp16, mean = obj_1_mean_0_to_fp16, variance = obj_1_variance_0_to_fp16, x = out_7_cast_fp16)[name = tensor<string, []>("obj_15_cast_fp16")];
            tensor<int32, [2]> var_352 = const()[name = tensor<string, []>("op_352"), val = tensor<int32, [2]>([1, 1])];
            tensor<int32, [2]> var_354 = const()[name = tensor<string, []>("op_354"), val = tensor<int32, [2]>([1, 1])];
            tensor<string, []> query_5_pad_type_0 = const()[name = tensor<string, []>("query_5_pad_type_0"), val = tensor<string, []>("custom")];
            tensor<int32, [4]> query_5_pad_0 = const()[name = tensor<string, []>("query_5_pad_0"), val = tensor<int32, [4]>([0, 0, 0, 0])];
            tensor<fp16, [768, 768, 1, 1]> layers_1_self_attn_q_proj_weight_to_fp16 = const()[name = tensor<string, []>("layers_1_self_attn_q_proj_weight_to_fp16"), val = tensor<fp16, [768, 768, 1, 1]>(BLOBFILE(path = tensor<string, []>("@model_path/weights/weight.bin"), offset = tensor<uint64, []>(99259840)))];
            tensor<fp16, [768]> layers_1_self_attn_q_proj_bias_to_fp16 = const()[name = tensor<string, []>("layers_1_self_attn_q_proj_bias_to_fp16"), val = tensor<fp16, [768]>(BLOBFILE(path = tensor<string, []>("@model_path/weights/weight.bin"), offset = tensor<uint64, []>(100439552)))];
            tensor<fp16, [1, 768, 1, 1]> query_5_cast_fp16 = conv(bias = layers_1_self_attn_q_proj_bias_to_fp16, dilations = var_354, groups = var_317, pad = query_5_pad_0, pad_type = query_5_pad_type_0, strides = var_352, weight = layers_1_self_attn_q_proj_weight_to_fp16, x = obj_15_cast_fp16)[name = tensor<string, []>("query_5_cast_fp16")];
            tensor<int32, [2]> var_358 = const()[name = tensor<string, []>("op_358"), val = tensor<int32, [2]>([1, 1])];
            tensor<int32, [2]> var_360 = const()[name = tensor<string, []>("op_360"), val = tensor<int32, [2]>([1, 1])];
            tensor<string, []> current_key_3_pad_type_0 = const()[name = tensor<string, []>("current_key_3_pad_type_0"), val = tensor<string, []>("custom")];
            tensor<int32, [4]> current_key_3_pad_0 = const()[name = tensor<string, []>("current_key_3_pad_0"), val = tensor<int32, [4]>([0, 0, 0, 0])];
            tensor<fp16, [768, 768, 1, 1]> layers_1_self_attn_k_proj_weight_to_fp16 = const()[name = tensor<string, []>("layers_1_self_attn_k_proj_weight_to_fp16"), val = tensor<fp16, [768, 768, 1, 1]>(BLOBFILE(path = tensor<string, []>("@model_path/weights/weight.bin"), offset = tensor<uint64, []>(100441152)))];
            tensor<fp16, [1, 768, 1, 1]> current_key_3_cast_fp16 = conv(dilations = var_360, groups = var_317, pad = current_key_3_pad_0, pad_type = current_key_3_pad_type_0, strides = var_358, weight = layers_1_self_attn_k_proj_weight_to_fp16, x = obj_15_cast_fp16)[name = tensor<string, []>("current_key_3_cast_fp16")];
            tensor<int32, [2]> var_365 = const()[name = tensor<string, []>("op_365"), val = tensor<int32, [2]>([1, 1])];
            tensor<int32, [2]> var_367 = const()[name = tensor<string, []>("op_367"), val = tensor<int32, [2]>([1, 1])];
            tensor<string, []> current_value_3_pad_type_0 = const()[name = tensor<string, []>("current_value_3_pad_type_0"), val = tensor<string, []>("custom")];
            tensor<int32, [4]> current_value_3_pad_0 = const()[name = tensor<string, []>("current_value_3_pad_0"), val = tensor<int32, [4]>([0, 0, 0, 0])];
            tensor<fp16, [768, 768, 1, 1]> layers_1_self_attn_v_proj_weight_to_fp16 = const()[name = tensor<string, []>("layers_1_self_attn_v_proj_weight_to_fp16"), val = tensor<fp16, [768, 768, 1, 1]>(BLOBFILE(path = tensor<string, []>("@model_path/weights/weight.bin"), offset = tensor<uint64, []>(101620864)))];
            tensor<fp16, [768]> layers_1_self_attn_v_proj_bias_to_fp16 = const()[name = tensor<string, []>("layers_1_self_attn_v_proj_bias_to_fp16"), val = tensor<fp16, [768]>(BLOBFILE(path = tensor<string, []>("@model_path/weights/weight.bin"), offset = tensor<uint64, []>(102800576)))];
            tensor<fp16, [1, 768, 1, 1]> current_value_3_cast_fp16 = conv(bias = layers_1_self_attn_v_proj_bias_to_fp16, dilations = var_367, groups = var_317, pad = current_value_3_pad_0, pad_type = current_value_3_pad_type_0, strides = var_365, weight = layers_1_self_attn_v_proj_weight_to_fp16, x = obj_15_cast_fp16)[name = tensor<string, []>("current_value_3_cast_fp16")];
            tensor<fp16, [1, 768, 1, 224]> var_374_cast_fp16 = mul(x = current_key_3_cast_fp16, y = var_158_cast_fp16)[name = tensor<string, []>("op_374_cast_fp16")];
            tensor<fp16, [1, 768, 1, 224]> var_376_cast_fp16 = mul(x = var_63_cast_fp16_1, y = var_161_cast_fp16)[name = tensor<string, []>("op_376_cast_fp16")];
            tensor<fp16, [1, 768, 1, 224]> key_5_cast_fp16 = add(x = var_374_cast_fp16, y = var_376_cast_fp16)[name = tensor<string, []>("key_5_cast_fp16")];
            tensor<fp16, [1, 768, 1, 224]> var_378_cast_fp16 = mul(x = current_value_3_cast_fp16, y = var_158_cast_fp16)[name = tensor<string, []>("op_378_cast_fp16")];
            tensor<fp16, [1, 768, 1, 224]> var_380_cast_fp16 = mul(x = var_78_cast_fp16_1, y = var_161_cast_fp16)[name = tensor<string, []>("op_380_cast_fp16")];
            tensor<fp16, [1, 768, 1, 224]> value_5_cast_fp16 = add(x = var_378_cast_fp16, y = var_380_cast_fp16)[name = tensor<string, []>("value_5_cast_fp16")];
            tensor<int32, [4]> var_383 = const()[name = tensor<string, []>("op_383"), val = tensor<int32, [4]>([1, 12, 64, -1])];
            tensor<fp16, [1, 12, 64, 1]> var_384_cast_fp16 = reshape(shape = var_383, x = query_5_cast_fp16)[name = tensor<string, []>("op_384_cast_fp16")];
            tensor<fp16, []> var_385_to_fp16 = const()[name = tensor<string, []>("op_385_to_fp16"), val = tensor<fp16, []>(0x1p-3)];
            tensor<fp16, [1, 12, 64, 1]> var_386_cast_fp16 = mul(x = var_384_cast_fp16, y = var_385_to_fp16)[name = tensor<string, []>("op_386_cast_fp16")];
            tensor<int32, [4]> var_387 = const()[name = tensor<string, []>("op_387"), val = tensor<int32, [4]>([1, 12, 64, -1])];
            tensor<fp16, [1, 12, 64, 224]> var_388_cast_fp16 = reshape(shape = var_387, x = key_5_cast_fp16)[name = tensor<string, []>("op_388_cast_fp16")];
            tensor<bool, []> mh_w_7_transpose_x_0 = const()[name = tensor<string, []>("mh_w_7_transpose_x_0"), val = tensor<bool, []>(true)];
            tensor<bool, []> mh_w_7_transpose_y_0 = const()[name = tensor<string, []>("mh_w_7_transpose_y_0"), val = tensor<bool, []>(false)];
            tensor<fp16, [1, 12, 1, 224]> mh_w_7_cast_fp16 = matmul(transpose_x = mh_w_7_transpose_x_0, transpose_y = mh_w_7_transpose_y_0, x = var_386_cast_fp16, y = var_388_cast_fp16)[name = tensor<string, []>("mh_w_7_cast_fp16")];
            tensor<fp16, [1, 12, 1, 224]> mh_w_9_cast_fp16 = add(x = mh_w_7_cast_fp16, y = var_179_cast_fp16)[name = tensor<string, []>("mh_w_9_cast_fp16")];
            tensor<fp16, [1, 12, 1, 224]> var_396_cast_fp16 = softmax(axis = var_310, x = mh_w_9_cast_fp16)[name = tensor<string, []>("op_396_cast_fp16")];
            tensor<int32, [4]> var_397 = const()[name = tensor<string, []>("op_397"), val = tensor<int32, [4]>([1, 12, 64, -1])];
            tensor<fp16, [1, 12, 64, 224]> var_398_cast_fp16 = reshape(shape = var_397, x = value_5_cast_fp16)[name = tensor<string, []>("op_398_cast_fp16")];
            tensor<bool, []> attn_5_transpose_x_0 = const()[name = tensor<string, []>("attn_5_transpose_x_0"), val = tensor<bool, []>(false)];
            tensor<bool, []> attn_5_transpose_y_0 = const()[name = tensor<string, []>("attn_5_transpose_y_0"), val = tensor<bool, []>(true)];
            tensor<fp16, [1, 12, 64, 1]> attn_5_cast_fp16 = matmul(transpose_x = attn_5_transpose_x_0, transpose_y = attn_5_transpose_y_0, x = var_398_cast_fp16, y = var_396_cast_fp16)[name = tensor<string, []>("attn_5_cast_fp16")];
            tensor<int32, [4]> var_401 = const()[name = tensor<string, []>("op_401"), val = tensor<int32, [4]>([1, 768, 1, -1])];
            tensor<fp16, [1, 768, 1, 1]> input_11_cast_fp16 = reshape(shape = var_401, x = attn_5_cast_fp16)[name = tensor<string, []>("input_11_cast_fp16")];
            tensor<int32, [2]> var_405 = const()[name = tensor<string, []>("op_405"), val = tensor<int32, [2]>([1, 1])];
            tensor<int32, [2]> var_407 = const()[name = tensor<string, []>("op_407"), val = tensor<int32, [2]>([1, 1])];
            tensor<string, []> obj_21_pad_type_0 = const()[name = tensor<string, []>("obj_21_pad_type_0"), val = tensor<string, []>("custom")];
            tensor<int32, [4]> obj_21_pad_0 = const()[name = tensor<string, []>("obj_21_pad_0"), val = tensor<int32, [4]>([0, 0, 0, 0])];
            tensor<fp16, [768, 768, 1, 1]> layers_1_self_attn_o_proj_weight_to_fp16 = const()[name = tensor<string, []>("layers_1_self_attn_o_proj_weight_to_fp16"), val = tensor<fp16, [768, 768, 1, 1]>(BLOBFILE(path = tensor<string, []>("@model_path/weights/weight.bin"), offset = tensor<uint64, []>(102802176)))];
            tensor<fp16, [768]> layers_1_self_attn_o_proj_bias_to_fp16 = const()[name = tensor<string, []>("layers_1_self_attn_o_proj_bias_to_fp16"), val = tensor<fp16, [768]>(BLOBFILE(path = tensor<string, []>("@model_path/weights/weight.bin"), offset = tensor<uint64, []>(103981888)))];
            tensor<fp16, [1, 768, 1, 1]> obj_21_cast_fp16 = conv(bias = layers_1_self_attn_o_proj_bias_to_fp16, dilations = var_407, groups = var_317, pad = obj_21_pad_0, pad_type = obj_21_pad_type_0, strides = var_405, weight = layers_1_self_attn_o_proj_weight_to_fp16, x = input_11_cast_fp16)[name = tensor<string, []>("obj_21_cast_fp16")];
            tensor<fp16, [1, 768, 1, 1]> inputs_9_cast_fp16 = add(x = inputs_7_cast_fp16, y = obj_21_cast_fp16)[name = tensor<string, []>("inputs_9_cast_fp16")];
            tensor<int32, [1]> var_417 = const()[name = tensor<string, []>("op_417"), val = tensor<int32, [1]>([1])];
            tensor<fp16, [1, 1, 1, 1]> channels_mean_9_cast_fp16 = reduce_mean(axes = var_417, keep_dims = var_318, x = inputs_9_cast_fp16)[name = tensor<string, []>("channels_mean_9_cast_fp16")];
            tensor<fp16, [1, 768, 1, 1]> zero_mean_9_cast_fp16 = sub(x = inputs_9_cast_fp16, y = channels_mean_9_cast_fp16)[name = tensor<string, []>("zero_mean_9_cast_fp16")];
            tensor<fp16, [1, 768, 1, 1]> zero_mean_sq_9_cast_fp16 = mul(x = zero_mean_9_cast_fp16, y = zero_mean_9_cast_fp16)[name = tensor<string, []>("zero_mean_sq_9_cast_fp16")];
            tensor<int32, [1]> var_421 = const()[name = tensor<string, []>("op_421"), val = tensor<int32, [1]>([1])];
            tensor<fp16, [1, 1, 1, 1]> var_422_cast_fp16 = reduce_mean(axes = var_421, keep_dims = var_318, x = zero_mean_sq_9_cast_fp16)[name = tensor<string, []>("op_422_cast_fp16")];
            tensor<fp16, []> var_423_to_fp16 = const()[name = tensor<string, []>("op_423_to_fp16"), val = tensor<fp16, []>(0x1.5p-17)];
            tensor<fp16, [1, 1, 1, 1]> var_424_cast_fp16 = add(x = var_422_cast_fp16, y = var_423_to_fp16)[name = tensor<string, []>("op_424_cast_fp16")];
            tensor<fp16, []> denom_9_epsilon_0_to_fp16 = const()[name = tensor<string, []>("denom_9_epsilon_0_to_fp16"), val = tensor<fp16, []>(0x1p-24)];
            tensor<fp16, [1, 1, 1, 1]> denom_9_cast_fp16 = rsqrt(epsilon = denom_9_epsilon_0_to_fp16, x = var_424_cast_fp16)[name = tensor<string, []>("denom_9_cast_fp16")];
            tensor<fp16, [1, 768, 1, 1]> out_9_cast_fp16 = mul(x = zero_mean_9_cast_fp16, y = denom_9_cast_fp16)[name = tensor<string, []>("out_9_cast_fp16")];
            tensor<fp16, [768]> obj_23_gamma_0_to_fp16 = const()[name = tensor<string, []>("obj_23_gamma_0_to_fp16"), val = tensor<fp16, [768]>(BLOBFILE(path = tensor<string, []>("@model_path/weights/weight.bin"), offset = tensor<uint64, []>(103983488)))];
            tensor<fp16, [768]> obj_23_beta_0_to_fp16 = const()[name = tensor<string, []>("obj_23_beta_0_to_fp16"), val = tensor<fp16, [768]>(BLOBFILE(path = tensor<string, []>("@model_path/weights/weight.bin"), offset = tensor<uint64, []>(103985088)))];
            tensor<fp16, []> obj_23_epsilon_0_to_fp16 = const()[name = tensor<string, []>("obj_23_epsilon_0_to_fp16"), val = tensor<fp16, []>(0x1.5p-17)];
            tensor<fp16, [1, 768, 1, 1]> obj_23_cast_fp16 = batch_norm(beta = obj_23_beta_0_to_fp16, epsilon = obj_23_epsilon_0_to_fp16, gamma = obj_23_gamma_0_to_fp16, mean = obj_1_mean_0_to_fp16, variance = obj_1_variance_0_to_fp16, x = out_9_cast_fp16)[name = tensor<string, []>("obj_23_cast_fp16")];
            tensor<int32, [2]> var_439 = const()[name = tensor<string, []>("op_439"), val = tensor<int32, [2]>([1, 1])];
            tensor<int32, [2]> var_441 = const()[name = tensor<string, []>("op_441"), val = tensor<int32, [2]>([1, 1])];
            tensor<string, []> query_7_pad_type_0 = const()[name = tensor<string, []>("query_7_pad_type_0"), val = tensor<string, []>("custom")];
            tensor<int32, [4]> query_7_pad_0 = const()[name = tensor<string, []>("query_7_pad_0"), val = tensor<int32, [4]>([0, 0, 0, 0])];
            tensor<fp16, [768, 768, 1, 1]> layers_1_encoder_attn_q_proj_weight_to_fp16 = const()[name = tensor<string, []>("layers_1_encoder_attn_q_proj_weight_to_fp16"), val = tensor<fp16, [768, 768, 1, 1]>(BLOBFILE(path = tensor<string, []>("@model_path/weights/weight.bin"), offset = tensor<uint64, []>(103986688)))];
            tensor<fp16, [768]> layers_1_encoder_attn_q_proj_bias_to_fp16 = const()[name = tensor<string, []>("layers_1_encoder_attn_q_proj_bias_to_fp16"), val = tensor<fp16, [768]>(BLOBFILE(path = tensor<string, []>("@model_path/weights/weight.bin"), offset = tensor<uint64, []>(105166400)))];
            tensor<fp16, [1, 768, 1, 1]> query_7_cast_fp16 = conv(bias = layers_1_encoder_attn_q_proj_bias_to_fp16, dilations = var_441, groups = var_317, pad = query_7_pad_0, pad_type = query_7_pad_type_0, strides = var_439, weight = layers_1_encoder_attn_q_proj_weight_to_fp16, x = obj_23_cast_fp16)[name = tensor<string, []>("query_7_cast_fp16")];
            tensor<int32, [2]> var_445 = const()[name = tensor<string, []>("op_445"), val = tensor<int32, [2]>([1, 1])];
            tensor<int32, [2]> var_447 = const()[name = tensor<string, []>("op_447"), val = tensor<int32, [2]>([1, 1])];
            tensor<string, []> key_7_pad_type_0 = const()[name = tensor<string, []>("key_7_pad_type_0"), val = tensor<string, []>("custom")];
            tensor<int32, [4]> key_7_pad_0 = const()[name = tensor<string, []>("key_7_pad_0"), val = tensor<int32, [4]>([0, 0, 0, 0])];
            tensor<fp16, [768, 768, 1, 1]> layers_1_encoder_attn_k_proj_weight_to_fp16 = const()[name = tensor<string, []>("layers_1_encoder_attn_k_proj_weight_to_fp16"), val = tensor<fp16, [768, 768, 1, 1]>(BLOBFILE(path = tensor<string, []>("@model_path/weights/weight.bin"), offset = tensor<uint64, []>(105168000)))];
            tensor<fp16, [1, 768, 1, 1500]> key_7_cast_fp16 = conv(dilations = var_447, groups = var_317, pad = key_7_pad_0, pad_type = key_7_pad_type_0, strides = var_445, weight = layers_1_encoder_attn_k_proj_weight_to_fp16, x = encoder_output_embeds)[name = tensor<string, []>("key_7_cast_fp16")];
            tensor<int32, [2]> var_452 = const()[name = tensor<string, []>("op_452"), val = tensor<int32, [2]>([1, 1])];
            tensor<int32, [2]> var_454 = const()[name = tensor<string, []>("op_454"), val = tensor<int32, [2]>([1, 1])];
            tensor<string, []> value_7_pad_type_0 = const()[name = tensor<string, []>("value_7_pad_type_0"), val = tensor<string, []>("custom")];
            tensor<int32, [4]> value_7_pad_0 = const()[name = tensor<string, []>("value_7_pad_0"), val = tensor<int32, [4]>([0, 0, 0, 0])];
            tensor<fp16, [768, 768, 1, 1]> layers_1_encoder_attn_v_proj_weight_to_fp16 = const()[name = tensor<string, []>("layers_1_encoder_attn_v_proj_weight_to_fp16"), val = tensor<fp16, [768, 768, 1, 1]>(BLOBFILE(path = tensor<string, []>("@model_path/weights/weight.bin"), offset = tensor<uint64, []>(106347712)))];
            tensor<fp16, [768]> layers_1_encoder_attn_v_proj_bias_to_fp16 = const()[name = tensor<string, []>("layers_1_encoder_attn_v_proj_bias_to_fp16"), val = tensor<fp16, [768]>(BLOBFILE(path = tensor<string, []>("@model_path/weights/weight.bin"), offset = tensor<uint64, []>(107527424)))];
            tensor<fp16, [1, 768, 1, 1500]> value_7_cast_fp16 = conv(bias = layers_1_encoder_attn_v_proj_bias_to_fp16, dilations = var_454, groups = var_317, pad = value_7_pad_0, pad_type = value_7_pad_type_0, strides = var_452, weight = layers_1_encoder_attn_v_proj_weight_to_fp16, x = encoder_output_embeds)[name = tensor<string, []>("value_7_cast_fp16")];
            tensor<int32, [4]> var_458 = const()[name = tensor<string, []>("op_458"), val = tensor<int32, [4]>([1, 12, 64, -1])];
            tensor<fp16, [1, 12, 64, 1]> var_459_cast_fp16 = reshape(shape = var_458, x = query_7_cast_fp16)[name = tensor<string, []>("op_459_cast_fp16")];
            tensor<fp16, []> var_460_to_fp16 = const()[name = tensor<string, []>("op_460_to_fp16"), val = tensor<fp16, []>(0x1p-3)];
            tensor<fp16, [1, 12, 64, 1]> var_461_cast_fp16 = mul(x = var_459_cast_fp16, y = var_460_to_fp16)[name = tensor<string, []>("op_461_cast_fp16")];
            tensor<int32, [4]> var_462 = const()[name = tensor<string, []>("op_462"), val = tensor<int32, [4]>([1, 12, 64, -1])];
            tensor<fp16, [1, 12, 64, 1500]> var_463_cast_fp16 = reshape(shape = var_462, x = key_7_cast_fp16)[name = tensor<string, []>("op_463_cast_fp16")];
            tensor<bool, []> mh_w_11_transpose_x_0 = const()[name = tensor<string, []>("mh_w_11_transpose_x_0"), val = tensor<bool, []>(true)];
            tensor<bool, []> mh_w_11_transpose_y_0 = const()[name = tensor<string, []>("mh_w_11_transpose_y_0"), val = tensor<bool, []>(false)];
            tensor<fp16, [1, 12, 1, 1500]> mh_w_11_cast_fp16 = matmul(transpose_x = mh_w_11_transpose_x_0, transpose_y = mh_w_11_transpose_y_0, x = var_461_cast_fp16, y = var_463_cast_fp16)[name = tensor<string, []>("mh_w_11_cast_fp16")];
            tensor<fp16, [1, 12, 1, 1500]> obj_27_cast_fp16 = softmax(axis = var_310, x = mh_w_11_cast_fp16)[name = tensor<string, []>("obj_27_cast_fp16")];
            tensor<int32, [4]> var_467 = const()[name = tensor<string, []>("op_467"), val = tensor<int32, [4]>([1, 12, 64, -1])];
            tensor<fp16, [1, 12, 64, 1500]> var_468_cast_fp16 = reshape(shape = var_467, x = value_7_cast_fp16)[name = tensor<string, []>("op_468_cast_fp16")];
            tensor<bool, []> attn_7_transpose_x_0 = const()[name = tensor<string, []>("attn_7_transpose_x_0"), val = tensor<bool, []>(false)];
            tensor<bool, []> attn_7_transpose_y_0 = const()[name = tensor<string, []>("attn_7_transpose_y_0"), val = tensor<bool, []>(true)];
            tensor<fp16, [1, 12, 64, 1]> attn_7_cast_fp16 = matmul(transpose_x = attn_7_transpose_x_0, transpose_y = attn_7_transpose_y_0, x = var_468_cast_fp16, y = obj_27_cast_fp16)[name = tensor<string, []>("attn_7_cast_fp16")];
            tensor<int32, [4]> var_471 = const()[name = tensor<string, []>("op_471"), val = tensor<int32, [4]>([1, 768, 1, -1])];
            tensor<fp16, [1, 768, 1, 1]> input_13_cast_fp16 = reshape(shape = var_471, x = attn_7_cast_fp16)[name = tensor<string, []>("input_13_cast_fp16")];
            tensor<int32, [2]> var_475 = const()[name = tensor<string, []>("op_475"), val = tensor<int32, [2]>([1, 1])];
            tensor<int32, [2]> var_477 = const()[name = tensor<string, []>("op_477"), val = tensor<int32, [2]>([1, 1])];
            tensor<string, []> obj_25_pad_type_0 = const()[name = tensor<string, []>("obj_25_pad_type_0"), val = tensor<string, []>("custom")];
            tensor<int32, [4]> obj_25_pad_0 = const()[name = tensor<string, []>("obj_25_pad_0"), val = tensor<int32, [4]>([0, 0, 0, 0])];
            tensor<fp16, [768, 768, 1, 1]> layers_1_encoder_attn_o_proj_weight_to_fp16 = const()[name = tensor<string, []>("layers_1_encoder_attn_o_proj_weight_to_fp16"), val = tensor<fp16, [768, 768, 1, 1]>(BLOBFILE(path = tensor<string, []>("@model_path/weights/weight.bin"), offset = tensor<uint64, []>(107529024)))];
            tensor<fp16, [768]> layers_1_encoder_attn_o_proj_bias_to_fp16 = const()[name = tensor<string, []>("layers_1_encoder_attn_o_proj_bias_to_fp16"), val = tensor<fp16, [768]>(BLOBFILE(path = tensor<string, []>("@model_path/weights/weight.bin"), offset = tensor<uint64, []>(108708736)))];
            tensor<fp16, [1, 768, 1, 1]> obj_25_cast_fp16 = conv(bias = layers_1_encoder_attn_o_proj_bias_to_fp16, dilations = var_477, groups = var_317, pad = obj_25_pad_0, pad_type = obj_25_pad_type_0, strides = var_475, weight = layers_1_encoder_attn_o_proj_weight_to_fp16, x = input_13_cast_fp16)[name = tensor<string, []>("obj_25_cast_fp16")];
            tensor<fp16, [1, 768, 1, 1]> inputs_11_cast_fp16 = add(x = inputs_9_cast_fp16, y = obj_25_cast_fp16)[name = tensor<string, []>("inputs_11_cast_fp16")];
            tensor<int32, [1]> var_483 = const()[name = tensor<string, []>("op_483"), val = tensor<int32, [1]>([1])];
            tensor<fp16, [1, 1, 1, 1]> channels_mean_11_cast_fp16 = reduce_mean(axes = var_483, keep_dims = var_318, x = inputs_11_cast_fp16)[name = tensor<string, []>("channels_mean_11_cast_fp16")];
            tensor<fp16, [1, 768, 1, 1]> zero_mean_11_cast_fp16 = sub(x = inputs_11_cast_fp16, y = channels_mean_11_cast_fp16)[name = tensor<string, []>("zero_mean_11_cast_fp16")];
            tensor<fp16, [1, 768, 1, 1]> zero_mean_sq_11_cast_fp16 = mul(x = zero_mean_11_cast_fp16, y = zero_mean_11_cast_fp16)[name = tensor<string, []>("zero_mean_sq_11_cast_fp16")];
            tensor<int32, [1]> var_487 = const()[name = tensor<string, []>("op_487"), val = tensor<int32, [1]>([1])];
            tensor<fp16, [1, 1, 1, 1]> var_488_cast_fp16 = reduce_mean(axes = var_487, keep_dims = var_318, x = zero_mean_sq_11_cast_fp16)[name = tensor<string, []>("op_488_cast_fp16")];
            tensor<fp16, []> var_489_to_fp16 = const()[name = tensor<string, []>("op_489_to_fp16"), val = tensor<fp16, []>(0x1.5p-17)];
            tensor<fp16, [1, 1, 1, 1]> var_490_cast_fp16 = add(x = var_488_cast_fp16, y = var_489_to_fp16)[name = tensor<string, []>("op_490_cast_fp16")];
            tensor<fp16, []> denom_11_epsilon_0_to_fp16 = const()[name = tensor<string, []>("denom_11_epsilon_0_to_fp16"), val = tensor<fp16, []>(0x1p-24)];
            tensor<fp16, [1, 1, 1, 1]> denom_11_cast_fp16 = rsqrt(epsilon = denom_11_epsilon_0_to_fp16, x = var_490_cast_fp16)[name = tensor<string, []>("denom_11_cast_fp16")];
            tensor<fp16, [1, 768, 1, 1]> out_11_cast_fp16 = mul(x = zero_mean_11_cast_fp16, y = denom_11_cast_fp16)[name = tensor<string, []>("out_11_cast_fp16")];
            tensor<fp16, [768]> input_15_gamma_0_to_fp16 = const()[name = tensor<string, []>("input_15_gamma_0_to_fp16"), val = tensor<fp16, [768]>(BLOBFILE(path = tensor<string, []>("@model_path/weights/weight.bin"), offset = tensor<uint64, []>(108710336)))];
            tensor<fp16, [768]> input_15_beta_0_to_fp16 = const()[name = tensor<string, []>("input_15_beta_0_to_fp16"), val = tensor<fp16, [768]>(BLOBFILE(path = tensor<string, []>("@model_path/weights/weight.bin"), offset = tensor<uint64, []>(108711936)))];
            tensor<fp16, []> input_15_epsilon_0_to_fp16 = const()[name = tensor<string, []>("input_15_epsilon_0_to_fp16"), val = tensor<fp16, []>(0x1.5p-17)];
            tensor<fp16, [1, 768, 1, 1]> input_15_cast_fp16 = batch_norm(beta = input_15_beta_0_to_fp16, epsilon = input_15_epsilon_0_to_fp16, gamma = input_15_gamma_0_to_fp16, mean = obj_1_mean_0_to_fp16, variance = obj_1_variance_0_to_fp16, x = out_11_cast_fp16)[name = tensor<string, []>("input_15_cast_fp16")];
            tensor<int32, [2]> var_501 = const()[name = tensor<string, []>("op_501"), val = tensor<int32, [2]>([1, 1])];
            tensor<int32, [2]> var_503 = const()[name = tensor<string, []>("op_503"), val = tensor<int32, [2]>([1, 1])];
            tensor<string, []> input_17_pad_type_0 = const()[name = tensor<string, []>("input_17_pad_type_0"), val = tensor<string, []>("custom")];
            tensor<int32, [4]> input_17_pad_0 = const()[name = tensor<string, []>("input_17_pad_0"), val = tensor<int32, [4]>([0, 0, 0, 0])];
            tensor<fp16, [3072, 768, 1, 1]> layers_1_fc1_weight_to_fp16 = const()[name = tensor<string, []>("layers_1_fc1_weight_to_fp16"), val = tensor<fp16, [3072, 768, 1, 1]>(BLOBFILE(path = tensor<string, []>("@model_path/weights/weight.bin"), offset = tensor<uint64, []>(108713536)))];
            tensor<fp16, [3072]> layers_1_fc1_bias_to_fp16 = const()[name = tensor<string, []>("layers_1_fc1_bias_to_fp16"), val = tensor<fp16, [3072]>(BLOBFILE(path = tensor<string, []>("@model_path/weights/weight.bin"), offset = tensor<uint64, []>(113432192)))];
            tensor<fp16, [1, 3072, 1, 1]> input_17_cast_fp16 = conv(bias = layers_1_fc1_bias_to_fp16, dilations = var_503, groups = var_317, pad = input_17_pad_0, pad_type = input_17_pad_type_0, strides = var_501, weight = layers_1_fc1_weight_to_fp16, x = input_15_cast_fp16)[name = tensor<string, []>("input_17_cast_fp16")];
            tensor<string, []> input_19_mode_0 = const()[name = tensor<string, []>("input_19_mode_0"), val = tensor<string, []>("EXACT")];
            tensor<fp16, [1, 3072, 1, 1]> input_19_cast_fp16 = gelu(mode = input_19_mode_0, x = input_17_cast_fp16)[name = tensor<string, []>("input_19_cast_fp16")];
            tensor<int32, [2]> var_509 = const()[name = tensor<string, []>("op_509"), val = tensor<int32, [2]>([1, 1])];
            tensor<int32, [2]> var_511 = const()[name = tensor<string, []>("op_511"), val = tensor<int32, [2]>([1, 1])];
            tensor<string, []> hidden_states_5_pad_type_0 = const()[name = tensor<string, []>("hidden_states_5_pad_type_0"), val = tensor<string, []>("custom")];
            tensor<int32, [4]> hidden_states_5_pad_0 = const()[name = tensor<string, []>("hidden_states_5_pad_0"), val = tensor<int32, [4]>([0, 0, 0, 0])];
            tensor<fp16, [768, 3072, 1, 1]> layers_1_fc2_weight_to_fp16 = const()[name = tensor<string, []>("layers_1_fc2_weight_to_fp16"), val = tensor<fp16, [768, 3072, 1, 1]>(BLOBFILE(path = tensor<string, []>("@model_path/weights/weight.bin"), offset = tensor<uint64, []>(113438400)))];
            tensor<fp16, [768]> layers_1_fc2_bias_to_fp16 = const()[name = tensor<string, []>("layers_1_fc2_bias_to_fp16"), val = tensor<fp16, [768]>(BLOBFILE(path = tensor<string, []>("@model_path/weights/weight.bin"), offset = tensor<uint64, []>(118157056)))];
            tensor<fp16, [1, 768, 1, 1]> hidden_states_5_cast_fp16 = conv(bias = layers_1_fc2_bias_to_fp16, dilations = var_511, groups = var_317, pad = hidden_states_5_pad_0, pad_type = hidden_states_5_pad_type_0, strides = var_509, weight = layers_1_fc2_weight_to_fp16, x = input_19_cast_fp16)[name = tensor<string, []>("hidden_states_5_cast_fp16")];
            tensor<fp16, [1, 768, 1, 1]> inputs_13_cast_fp16 = add(x = inputs_11_cast_fp16, y = hidden_states_5_cast_fp16)[name = tensor<string, []>("inputs_13_cast_fp16")];
            tensor<int32, []> var_524 = const()[name = tensor<string, []>("op_524"), val = tensor<int32, []>(3)];
            tensor<int32, []> var_531 = const()[name = tensor<string, []>("op_531"), val = tensor<int32, []>(1)];
            tensor<bool, []> var_532 = const()[name = tensor<string, []>("op_532"), val = tensor<bool, []>(true)];
            tensor<int32, [1]> var_544 = const()[name = tensor<string, []>("op_544"), val = tensor<int32, [1]>([1])];
            tensor<fp16, [1, 1, 1, 1]> channels_mean_13_cast_fp16 = reduce_mean(axes = var_544, keep_dims = var_532, x = inputs_13_cast_fp16)[name = tensor<string, []>("channels_mean_13_cast_fp16")];
            tensor<fp16, [1, 768, 1, 1]> zero_mean_13_cast_fp16 = sub(x = inputs_13_cast_fp16, y = channels_mean_13_cast_fp16)[name = tensor<string, []>("zero_mean_13_cast_fp16")];
            tensor<fp16, [1, 768, 1, 1]> zero_mean_sq_13_cast_fp16 = mul(x = zero_mean_13_cast_fp16, y = zero_mean_13_cast_fp16)[name = tensor<string, []>("zero_mean_sq_13_cast_fp16")];
            tensor<int32, [1]> var_548 = const()[name = tensor<string, []>("op_548"), val = tensor<int32, [1]>([1])];
            tensor<fp16, [1, 1, 1, 1]> var_549_cast_fp16 = reduce_mean(axes = var_548, keep_dims = var_532, x = zero_mean_sq_13_cast_fp16)[name = tensor<string, []>("op_549_cast_fp16")];
            tensor<fp16, []> var_550_to_fp16 = const()[name = tensor<string, []>("op_550_to_fp16"), val = tensor<fp16, []>(0x1.5p-17)];
            tensor<fp16, [1, 1, 1, 1]> var_551_cast_fp16 = add(x = var_549_cast_fp16, y = var_550_to_fp16)[name = tensor<string, []>("op_551_cast_fp16")];
            tensor<fp16, []> denom_13_epsilon_0_to_fp16 = const()[name = tensor<string, []>("denom_13_epsilon_0_to_fp16"), val = tensor<fp16, []>(0x1p-24)];
            tensor<fp16, [1, 1, 1, 1]> denom_13_cast_fp16 = rsqrt(epsilon = denom_13_epsilon_0_to_fp16, x = var_551_cast_fp16)[name = tensor<string, []>("denom_13_cast_fp16")];
            tensor<fp16, [1, 768, 1, 1]> out_13_cast_fp16 = mul(x = zero_mean_13_cast_fp16, y = denom_13_cast_fp16)[name = tensor<string, []>("out_13_cast_fp16")];
            tensor<fp16, [768]> obj_29_gamma_0_to_fp16 = const()[name = tensor<string, []>("obj_29_gamma_0_to_fp16"), val = tensor<fp16, [768]>(BLOBFILE(path = tensor<string, []>("@model_path/weights/weight.bin"), offset = tensor<uint64, []>(118158656)))];
            tensor<fp16, [768]> obj_29_beta_0_to_fp16 = const()[name = tensor<string, []>("obj_29_beta_0_to_fp16"), val = tensor<fp16, [768]>(BLOBFILE(path = tensor<string, []>("@model_path/weights/weight.bin"), offset = tensor<uint64, []>(118160256)))];
            tensor<fp16, []> obj_29_epsilon_0_to_fp16 = const()[name = tensor<string, []>("obj_29_epsilon_0_to_fp16"), val = tensor<fp16, []>(0x1.5p-17)];
            tensor<fp16, [1, 768, 1, 1]> obj_29_cast_fp16 = batch_norm(beta = obj_29_beta_0_to_fp16, epsilon = obj_29_epsilon_0_to_fp16, gamma = obj_29_gamma_0_to_fp16, mean = obj_1_mean_0_to_fp16, variance = obj_1_variance_0_to_fp16, x = out_13_cast_fp16)[name = tensor<string, []>("obj_29_cast_fp16")];
            tensor<int32, [2]> var_566 = const()[name = tensor<string, []>("op_566"), val = tensor<int32, [2]>([1, 1])];
            tensor<int32, [2]> var_568 = const()[name = tensor<string, []>("op_568"), val = tensor<int32, [2]>([1, 1])];
            tensor<string, []> query_9_pad_type_0 = const()[name = tensor<string, []>("query_9_pad_type_0"), val = tensor<string, []>("custom")];
            tensor<int32, [4]> query_9_pad_0 = const()[name = tensor<string, []>("query_9_pad_0"), val = tensor<int32, [4]>([0, 0, 0, 0])];
            tensor<fp16, [768, 768, 1, 1]> layers_2_self_attn_q_proj_weight_to_fp16 = const()[name = tensor<string, []>("layers_2_self_attn_q_proj_weight_to_fp16"), val = tensor<fp16, [768, 768, 1, 1]>(BLOBFILE(path = tensor<string, []>("@model_path/weights/weight.bin"), offset = tensor<uint64, []>(118161856)))];
            tensor<fp16, [768]> layers_2_self_attn_q_proj_bias_to_fp16 = const()[name = tensor<string, []>("layers_2_self_attn_q_proj_bias_to_fp16"), val = tensor<fp16, [768]>(BLOBFILE(path = tensor<string, []>("@model_path/weights/weight.bin"), offset = tensor<uint64, []>(119341568)))];
            tensor<fp16, [1, 768, 1, 1]> query_9_cast_fp16 = conv(bias = layers_2_self_attn_q_proj_bias_to_fp16, dilations = var_568, groups = var_531, pad = query_9_pad_0, pad_type = query_9_pad_type_0, strides = var_566, weight = layers_2_self_attn_q_proj_weight_to_fp16, x = obj_29_cast_fp16)[name = tensor<string, []>("query_9_cast_fp16")];
            tensor<int32, [2]> var_572 = const()[name = tensor<string, []>("op_572"), val = tensor<int32, [2]>([1, 1])];
            tensor<int32, [2]> var_574 = const()[name = tensor<string, []>("op_574"), val = tensor<int32, [2]>([1, 1])];
            tensor<string, []> current_key_5_pad_type_0 = const()[name = tensor<string, []>("current_key_5_pad_type_0"), val = tensor<string, []>("custom")];
            tensor<int32, [4]> current_key_5_pad_0 = const()[name = tensor<string, []>("current_key_5_pad_0"), val = tensor<int32, [4]>([0, 0, 0, 0])];
            tensor<fp16, [768, 768, 1, 1]> layers_2_self_attn_k_proj_weight_to_fp16 = const()[name = tensor<string, []>("layers_2_self_attn_k_proj_weight_to_fp16"), val = tensor<fp16, [768, 768, 1, 1]>(BLOBFILE(path = tensor<string, []>("@model_path/weights/weight.bin"), offset = tensor<uint64, []>(119343168)))];
            tensor<fp16, [1, 768, 1, 1]> current_key_5_cast_fp16 = conv(dilations = var_574, groups = var_531, pad = current_key_5_pad_0, pad_type = current_key_5_pad_type_0, strides = var_572, weight = layers_2_self_attn_k_proj_weight_to_fp16, x = obj_29_cast_fp16)[name = tensor<string, []>("current_key_5_cast_fp16")];
            tensor<int32, [2]> var_579 = const()[name = tensor<string, []>("op_579"), val = tensor<int32, [2]>([1, 1])];
            tensor<int32, [2]> var_581 = const()[name = tensor<string, []>("op_581"), val = tensor<int32, [2]>([1, 1])];
            tensor<string, []> current_value_5_pad_type_0 = const()[name = tensor<string, []>("current_value_5_pad_type_0"), val = tensor<string, []>("custom")];
            tensor<int32, [4]> current_value_5_pad_0 = const()[name = tensor<string, []>("current_value_5_pad_0"), val = tensor<int32, [4]>([0, 0, 0, 0])];
            tensor<fp16, [768, 768, 1, 1]> layers_2_self_attn_v_proj_weight_to_fp16 = const()[name = tensor<string, []>("layers_2_self_attn_v_proj_weight_to_fp16"), val = tensor<fp16, [768, 768, 1, 1]>(BLOBFILE(path = tensor<string, []>("@model_path/weights/weight.bin"), offset = tensor<uint64, []>(120522880)))];
            tensor<fp16, [768]> layers_2_self_attn_v_proj_bias_to_fp16 = const()[name = tensor<string, []>("layers_2_self_attn_v_proj_bias_to_fp16"), val = tensor<fp16, [768]>(BLOBFILE(path = tensor<string, []>("@model_path/weights/weight.bin"), offset = tensor<uint64, []>(121702592)))];
            tensor<fp16, [1, 768, 1, 1]> current_value_5_cast_fp16 = conv(bias = layers_2_self_attn_v_proj_bias_to_fp16, dilations = var_581, groups = var_531, pad = current_value_5_pad_0, pad_type = current_value_5_pad_type_0, strides = var_579, weight = layers_2_self_attn_v_proj_weight_to_fp16, x = obj_29_cast_fp16)[name = tensor<string, []>("current_value_5_cast_fp16")];
            tensor<fp16, [1, 768, 1, 224]> var_588_cast_fp16 = mul(x = current_key_5_cast_fp16, y = var_158_cast_fp16)[name = tensor<string, []>("op_588_cast_fp16")];
            tensor<fp16, [1, 768, 1, 224]> var_590_cast_fp16 = mul(x = var_63_cast_fp16_2, y = var_161_cast_fp16)[name = tensor<string, []>("op_590_cast_fp16")];
            tensor<fp16, [1, 768, 1, 224]> key_9_cast_fp16 = add(x = var_588_cast_fp16, y = var_590_cast_fp16)[name = tensor<string, []>("key_9_cast_fp16")];
            tensor<fp16, [1, 768, 1, 224]> var_592_cast_fp16 = mul(x = current_value_5_cast_fp16, y = var_158_cast_fp16)[name = tensor<string, []>("op_592_cast_fp16")];
            tensor<fp16, [1, 768, 1, 224]> var_594_cast_fp16 = mul(x = var_78_cast_fp16_2, y = var_161_cast_fp16)[name = tensor<string, []>("op_594_cast_fp16")];
            tensor<fp16, [1, 768, 1, 224]> value_9_cast_fp16 = add(x = var_592_cast_fp16, y = var_594_cast_fp16)[name = tensor<string, []>("value_9_cast_fp16")];
            tensor<int32, [4]> var_597 = const()[name = tensor<string, []>("op_597"), val = tensor<int32, [4]>([1, 12, 64, -1])];
            tensor<fp16, [1, 12, 64, 1]> var_598_cast_fp16 = reshape(shape = var_597, x = query_9_cast_fp16)[name = tensor<string, []>("op_598_cast_fp16")];
            tensor<fp16, []> var_599_to_fp16 = const()[name = tensor<string, []>("op_599_to_fp16"), val = tensor<fp16, []>(0x1p-3)];
            tensor<fp16, [1, 12, 64, 1]> var_600_cast_fp16 = mul(x = var_598_cast_fp16, y = var_599_to_fp16)[name = tensor<string, []>("op_600_cast_fp16")];
            tensor<int32, [4]> var_601 = const()[name = tensor<string, []>("op_601"), val = tensor<int32, [4]>([1, 12, 64, -1])];
            tensor<fp16, [1, 12, 64, 224]> var_602_cast_fp16 = reshape(shape = var_601, x = key_9_cast_fp16)[name = tensor<string, []>("op_602_cast_fp16")];
            tensor<bool, []> mh_w_13_transpose_x_0 = const()[name = tensor<string, []>("mh_w_13_transpose_x_0"), val = tensor<bool, []>(true)];
            tensor<bool, []> mh_w_13_transpose_y_0 = const()[name = tensor<string, []>("mh_w_13_transpose_y_0"), val = tensor<bool, []>(false)];
            tensor<fp16, [1, 12, 1, 224]> mh_w_13_cast_fp16 = matmul(transpose_x = mh_w_13_transpose_x_0, transpose_y = mh_w_13_transpose_y_0, x = var_600_cast_fp16, y = var_602_cast_fp16)[name = tensor<string, []>("mh_w_13_cast_fp16")];
            tensor<fp16, [1, 12, 1, 224]> mh_w_15_cast_fp16 = add(x = mh_w_13_cast_fp16, y = var_179_cast_fp16)[name = tensor<string, []>("mh_w_15_cast_fp16")];
            tensor<fp16, [1, 12, 1, 224]> var_610_cast_fp16 = softmax(axis = var_524, x = mh_w_15_cast_fp16)[name = tensor<string, []>("op_610_cast_fp16")];
            tensor<int32, [4]> var_611 = const()[name = tensor<string, []>("op_611"), val = tensor<int32, [4]>([1, 12, 64, -1])];
            tensor<fp16, [1, 12, 64, 224]> var_612_cast_fp16 = reshape(shape = var_611, x = value_9_cast_fp16)[name = tensor<string, []>("op_612_cast_fp16")];
            tensor<bool, []> attn_9_transpose_x_0 = const()[name = tensor<string, []>("attn_9_transpose_x_0"), val = tensor<bool, []>(false)];
            tensor<bool, []> attn_9_transpose_y_0 = const()[name = tensor<string, []>("attn_9_transpose_y_0"), val = tensor<bool, []>(true)];
            tensor<fp16, [1, 12, 64, 1]> attn_9_cast_fp16 = matmul(transpose_x = attn_9_transpose_x_0, transpose_y = attn_9_transpose_y_0, x = var_612_cast_fp16, y = var_610_cast_fp16)[name = tensor<string, []>("attn_9_cast_fp16")];
            tensor<int32, [4]> var_615 = const()[name = tensor<string, []>("op_615"), val = tensor<int32, [4]>([1, 768, 1, -1])];
            tensor<fp16, [1, 768, 1, 1]> input_21_cast_fp16 = reshape(shape = var_615, x = attn_9_cast_fp16)[name = tensor<string, []>("input_21_cast_fp16")];
            tensor<int32, [2]> var_619 = const()[name = tensor<string, []>("op_619"), val = tensor<int32, [2]>([1, 1])];
            tensor<int32, [2]> var_621 = const()[name = tensor<string, []>("op_621"), val = tensor<int32, [2]>([1, 1])];
            tensor<string, []> obj_35_pad_type_0 = const()[name = tensor<string, []>("obj_35_pad_type_0"), val = tensor<string, []>("custom")];
            tensor<int32, [4]> obj_35_pad_0 = const()[name = tensor<string, []>("obj_35_pad_0"), val = tensor<int32, [4]>([0, 0, 0, 0])];
            tensor<fp16, [768, 768, 1, 1]> layers_2_self_attn_o_proj_weight_to_fp16 = const()[name = tensor<string, []>("layers_2_self_attn_o_proj_weight_to_fp16"), val = tensor<fp16, [768, 768, 1, 1]>(BLOBFILE(path = tensor<string, []>("@model_path/weights/weight.bin"), offset = tensor<uint64, []>(121704192)))];
            tensor<fp16, [768]> layers_2_self_attn_o_proj_bias_to_fp16 = const()[name = tensor<string, []>("layers_2_self_attn_o_proj_bias_to_fp16"), val = tensor<fp16, [768]>(BLOBFILE(path = tensor<string, []>("@model_path/weights/weight.bin"), offset = tensor<uint64, []>(122883904)))];
            tensor<fp16, [1, 768, 1, 1]> obj_35_cast_fp16 = conv(bias = layers_2_self_attn_o_proj_bias_to_fp16, dilations = var_621, groups = var_531, pad = obj_35_pad_0, pad_type = obj_35_pad_type_0, strides = var_619, weight = layers_2_self_attn_o_proj_weight_to_fp16, x = input_21_cast_fp16)[name = tensor<string, []>("obj_35_cast_fp16")];
            tensor<fp16, [1, 768, 1, 1]> inputs_15_cast_fp16 = add(x = inputs_13_cast_fp16, y = obj_35_cast_fp16)[name = tensor<string, []>("inputs_15_cast_fp16")];
            tensor<int32, [1]> var_631 = const()[name = tensor<string, []>("op_631"), val = tensor<int32, [1]>([1])];
            tensor<fp16, [1, 1, 1, 1]> channels_mean_15_cast_fp16 = reduce_mean(axes = var_631, keep_dims = var_532, x = inputs_15_cast_fp16)[name = tensor<string, []>("channels_mean_15_cast_fp16")];
            tensor<fp16, [1, 768, 1, 1]> zero_mean_15_cast_fp16 = sub(x = inputs_15_cast_fp16, y = channels_mean_15_cast_fp16)[name = tensor<string, []>("zero_mean_15_cast_fp16")];
            tensor<fp16, [1, 768, 1, 1]> zero_mean_sq_15_cast_fp16 = mul(x = zero_mean_15_cast_fp16, y = zero_mean_15_cast_fp16)[name = tensor<string, []>("zero_mean_sq_15_cast_fp16")];
            tensor<int32, [1]> var_635 = const()[name = tensor<string, []>("op_635"), val = tensor<int32, [1]>([1])];
            tensor<fp16, [1, 1, 1, 1]> var_636_cast_fp16 = reduce_mean(axes = var_635, keep_dims = var_532, x = zero_mean_sq_15_cast_fp16)[name = tensor<string, []>("op_636_cast_fp16")];
            tensor<fp16, []> var_637_to_fp16 = const()[name = tensor<string, []>("op_637_to_fp16"), val = tensor<fp16, []>(0x1.5p-17)];
            tensor<fp16, [1, 1, 1, 1]> var_638_cast_fp16 = add(x = var_636_cast_fp16, y = var_637_to_fp16)[name = tensor<string, []>("op_638_cast_fp16")];
            tensor<fp16, []> denom_15_epsilon_0_to_fp16 = const()[name = tensor<string, []>("denom_15_epsilon_0_to_fp16"), val = tensor<fp16, []>(0x1p-24)];
            tensor<fp16, [1, 1, 1, 1]> denom_15_cast_fp16 = rsqrt(epsilon = denom_15_epsilon_0_to_fp16, x = var_638_cast_fp16)[name = tensor<string, []>("denom_15_cast_fp16")];
            tensor<fp16, [1, 768, 1, 1]> out_15_cast_fp16 = mul(x = zero_mean_15_cast_fp16, y = denom_15_cast_fp16)[name = tensor<string, []>("out_15_cast_fp16")];
            tensor<fp16, [768]> obj_37_gamma_0_to_fp16 = const()[name = tensor<string, []>("obj_37_gamma_0_to_fp16"), val = tensor<fp16, [768]>(BLOBFILE(path = tensor<string, []>("@model_path/weights/weight.bin"), offset = tensor<uint64, []>(122885504)))];
            tensor<fp16, [768]> obj_37_beta_0_to_fp16 = const()[name = tensor<string, []>("obj_37_beta_0_to_fp16"), val = tensor<fp16, [768]>(BLOBFILE(path = tensor<string, []>("@model_path/weights/weight.bin"), offset = tensor<uint64, []>(122887104)))];
            tensor<fp16, []> obj_37_epsilon_0_to_fp16 = const()[name = tensor<string, []>("obj_37_epsilon_0_to_fp16"), val = tensor<fp16, []>(0x1.5p-17)];
            tensor<fp16, [1, 768, 1, 1]> obj_37_cast_fp16 = batch_norm(beta = obj_37_beta_0_to_fp16, epsilon = obj_37_epsilon_0_to_fp16, gamma = obj_37_gamma_0_to_fp16, mean = obj_1_mean_0_to_fp16, variance = obj_1_variance_0_to_fp16, x = out_15_cast_fp16)[name = tensor<string, []>("obj_37_cast_fp16")];
            tensor<int32, [2]> var_653 = const()[name = tensor<string, []>("op_653"), val = tensor<int32, [2]>([1, 1])];
            tensor<int32, [2]> var_655 = const()[name = tensor<string, []>("op_655"), val = tensor<int32, [2]>([1, 1])];
            tensor<string, []> query_11_pad_type_0 = const()[name = tensor<string, []>("query_11_pad_type_0"), val = tensor<string, []>("custom")];
            tensor<int32, [4]> query_11_pad_0 = const()[name = tensor<string, []>("query_11_pad_0"), val = tensor<int32, [4]>([0, 0, 0, 0])];
            tensor<fp16, [768, 768, 1, 1]> layers_2_encoder_attn_q_proj_weight_to_fp16 = const()[name = tensor<string, []>("layers_2_encoder_attn_q_proj_weight_to_fp16"), val = tensor<fp16, [768, 768, 1, 1]>(BLOBFILE(path = tensor<string, []>("@model_path/weights/weight.bin"), offset = tensor<uint64, []>(122888704)))];
            tensor<fp16, [768]> layers_2_encoder_attn_q_proj_bias_to_fp16 = const()[name = tensor<string, []>("layers_2_encoder_attn_q_proj_bias_to_fp16"), val = tensor<fp16, [768]>(BLOBFILE(path = tensor<string, []>("@model_path/weights/weight.bin"), offset = tensor<uint64, []>(124068416)))];
            tensor<fp16, [1, 768, 1, 1]> query_11_cast_fp16 = conv(bias = layers_2_encoder_attn_q_proj_bias_to_fp16, dilations = var_655, groups = var_531, pad = query_11_pad_0, pad_type = query_11_pad_type_0, strides = var_653, weight = layers_2_encoder_attn_q_proj_weight_to_fp16, x = obj_37_cast_fp16)[name = tensor<string, []>("query_11_cast_fp16")];
            tensor<int32, [2]> var_659 = const()[name = tensor<string, []>("op_659"), val = tensor<int32, [2]>([1, 1])];
            tensor<int32, [2]> var_661 = const()[name = tensor<string, []>("op_661"), val = tensor<int32, [2]>([1, 1])];
            tensor<string, []> key_11_pad_type_0 = const()[name = tensor<string, []>("key_11_pad_type_0"), val = tensor<string, []>("custom")];
            tensor<int32, [4]> key_11_pad_0 = const()[name = tensor<string, []>("key_11_pad_0"), val = tensor<int32, [4]>([0, 0, 0, 0])];
            tensor<fp16, [768, 768, 1, 1]> layers_2_encoder_attn_k_proj_weight_to_fp16 = const()[name = tensor<string, []>("layers_2_encoder_attn_k_proj_weight_to_fp16"), val = tensor<fp16, [768, 768, 1, 1]>(BLOBFILE(path = tensor<string, []>("@model_path/weights/weight.bin"), offset = tensor<uint64, []>(124070016)))];
            tensor<fp16, [1, 768, 1, 1500]> key_11_cast_fp16 = conv(dilations = var_661, groups = var_531, pad = key_11_pad_0, pad_type = key_11_pad_type_0, strides = var_659, weight = layers_2_encoder_attn_k_proj_weight_to_fp16, x = encoder_output_embeds)[name = tensor<string, []>("key_11_cast_fp16")];
            tensor<int32, [2]> var_666 = const()[name = tensor<string, []>("op_666"), val = tensor<int32, [2]>([1, 1])];
            tensor<int32, [2]> var_668 = const()[name = tensor<string, []>("op_668"), val = tensor<int32, [2]>([1, 1])];
            tensor<string, []> value_11_pad_type_0 = const()[name = tensor<string, []>("value_11_pad_type_0"), val = tensor<string, []>("custom")];
            tensor<int32, [4]> value_11_pad_0 = const()[name = tensor<string, []>("value_11_pad_0"), val = tensor<int32, [4]>([0, 0, 0, 0])];
            tensor<fp16, [768, 768, 1, 1]> layers_2_encoder_attn_v_proj_weight_to_fp16 = const()[name = tensor<string, []>("layers_2_encoder_attn_v_proj_weight_to_fp16"), val = tensor<fp16, [768, 768, 1, 1]>(BLOBFILE(path = tensor<string, []>("@model_path/weights/weight.bin"), offset = tensor<uint64, []>(125249728)))];
            tensor<fp16, [768]> layers_2_encoder_attn_v_proj_bias_to_fp16 = const()[name = tensor<string, []>("layers_2_encoder_attn_v_proj_bias_to_fp16"), val = tensor<fp16, [768]>(BLOBFILE(path = tensor<string, []>("@model_path/weights/weight.bin"), offset = tensor<uint64, []>(126429440)))];
            tensor<fp16, [1, 768, 1, 1500]> value_11_cast_fp16 = conv(bias = layers_2_encoder_attn_v_proj_bias_to_fp16, dilations = var_668, groups = var_531, pad = value_11_pad_0, pad_type = value_11_pad_type_0, strides = var_666, weight = layers_2_encoder_attn_v_proj_weight_to_fp16, x = encoder_output_embeds)[name = tensor<string, []>("value_11_cast_fp16")];
            tensor<int32, [4]> var_672 = const()[name = tensor<string, []>("op_672"), val = tensor<int32, [4]>([1, 12, 64, -1])];
            tensor<fp16, [1, 12, 64, 1]> var_673_cast_fp16 = reshape(shape = var_672, x = query_11_cast_fp16)[name = tensor<string, []>("op_673_cast_fp16")];
            tensor<fp16, []> var_674_to_fp16 = const()[name = tensor<string, []>("op_674_to_fp16"), val = tensor<fp16, []>(0x1p-3)];
            tensor<fp16, [1, 12, 64, 1]> var_675_cast_fp16 = mul(x = var_673_cast_fp16, y = var_674_to_fp16)[name = tensor<string, []>("op_675_cast_fp16")];
            tensor<int32, [4]> var_676 = const()[name = tensor<string, []>("op_676"), val = tensor<int32, [4]>([1, 12, 64, -1])];
            tensor<fp16, [1, 12, 64, 1500]> var_677_cast_fp16 = reshape(shape = var_676, x = key_11_cast_fp16)[name = tensor<string, []>("op_677_cast_fp16")];
            tensor<bool, []> mh_w_17_transpose_x_0 = const()[name = tensor<string, []>("mh_w_17_transpose_x_0"), val = tensor<bool, []>(true)];
            tensor<bool, []> mh_w_17_transpose_y_0 = const()[name = tensor<string, []>("mh_w_17_transpose_y_0"), val = tensor<bool, []>(false)];
            tensor<fp16, [1, 12, 1, 1500]> mh_w_17_cast_fp16 = matmul(transpose_x = mh_w_17_transpose_x_0, transpose_y = mh_w_17_transpose_y_0, x = var_675_cast_fp16, y = var_677_cast_fp16)[name = tensor<string, []>("mh_w_17_cast_fp16")];
            tensor<fp16, [1, 12, 1, 1500]> obj_41_cast_fp16 = softmax(axis = var_524, x = mh_w_17_cast_fp16)[name = tensor<string, []>("obj_41_cast_fp16")];
            tensor<int32, [4]> var_681 = const()[name = tensor<string, []>("op_681"), val = tensor<int32, [4]>([1, 12, 64, -1])];
            tensor<fp16, [1, 12, 64, 1500]> var_682_cast_fp16 = reshape(shape = var_681, x = value_11_cast_fp16)[name = tensor<string, []>("op_682_cast_fp16")];
            tensor<bool, []> attn_11_transpose_x_0 = const()[name = tensor<string, []>("attn_11_transpose_x_0"), val = tensor<bool, []>(false)];
            tensor<bool, []> attn_11_transpose_y_0 = const()[name = tensor<string, []>("attn_11_transpose_y_0"), val = tensor<bool, []>(true)];
            tensor<fp16, [1, 12, 64, 1]> attn_11_cast_fp16 = matmul(transpose_x = attn_11_transpose_x_0, transpose_y = attn_11_transpose_y_0, x = var_682_cast_fp16, y = obj_41_cast_fp16)[name = tensor<string, []>("attn_11_cast_fp16")];
            tensor<int32, [4]> var_685 = const()[name = tensor<string, []>("op_685"), val = tensor<int32, [4]>([1, 768, 1, -1])];
            tensor<fp16, [1, 768, 1, 1]> input_23_cast_fp16 = reshape(shape = var_685, x = attn_11_cast_fp16)[name = tensor<string, []>("input_23_cast_fp16")];
            tensor<int32, [2]> var_689 = const()[name = tensor<string, []>("op_689"), val = tensor<int32, [2]>([1, 1])];
            tensor<int32, [2]> var_691 = const()[name = tensor<string, []>("op_691"), val = tensor<int32, [2]>([1, 1])];
            tensor<string, []> obj_39_pad_type_0 = const()[name = tensor<string, []>("obj_39_pad_type_0"), val = tensor<string, []>("custom")];
            tensor<int32, [4]> obj_39_pad_0 = const()[name = tensor<string, []>("obj_39_pad_0"), val = tensor<int32, [4]>([0, 0, 0, 0])];
            tensor<fp16, [768, 768, 1, 1]> layers_2_encoder_attn_o_proj_weight_to_fp16 = const()[name = tensor<string, []>("layers_2_encoder_attn_o_proj_weight_to_fp16"), val = tensor<fp16, [768, 768, 1, 1]>(BLOBFILE(path = tensor<string, []>("@model_path/weights/weight.bin"), offset = tensor<uint64, []>(126431040)))];
            tensor<fp16, [768]> layers_2_encoder_attn_o_proj_bias_to_fp16 = const()[name = tensor<string, []>("layers_2_encoder_attn_o_proj_bias_to_fp16"), val = tensor<fp16, [768]>(BLOBFILE(path = tensor<string, []>("@model_path/weights/weight.bin"), offset = tensor<uint64, []>(127610752)))];
            tensor<fp16, [1, 768, 1, 1]> obj_39_cast_fp16 = conv(bias = layers_2_encoder_attn_o_proj_bias_to_fp16, dilations = var_691, groups = var_531, pad = obj_39_pad_0, pad_type = obj_39_pad_type_0, strides = var_689, weight = layers_2_encoder_attn_o_proj_weight_to_fp16, x = input_23_cast_fp16)[name = tensor<string, []>("obj_39_cast_fp16")];
            tensor<fp16, [1, 768, 1, 1]> inputs_17_cast_fp16 = add(x = inputs_15_cast_fp16, y = obj_39_cast_fp16)[name = tensor<string, []>("inputs_17_cast_fp16")];
            tensor<int32, [1]> var_697 = const()[name = tensor<string, []>("op_697"), val = tensor<int32, [1]>([1])];
            tensor<fp16, [1, 1, 1, 1]> channels_mean_17_cast_fp16 = reduce_mean(axes = var_697, keep_dims = var_532, x = inputs_17_cast_fp16)[name = tensor<string, []>("channels_mean_17_cast_fp16")];
            tensor<fp16, [1, 768, 1, 1]> zero_mean_17_cast_fp16 = sub(x = inputs_17_cast_fp16, y = channels_mean_17_cast_fp16)[name = tensor<string, []>("zero_mean_17_cast_fp16")];
            tensor<fp16, [1, 768, 1, 1]> zero_mean_sq_17_cast_fp16 = mul(x = zero_mean_17_cast_fp16, y = zero_mean_17_cast_fp16)[name = tensor<string, []>("zero_mean_sq_17_cast_fp16")];
            tensor<int32, [1]> var_701 = const()[name = tensor<string, []>("op_701"), val = tensor<int32, [1]>([1])];
            tensor<fp16, [1, 1, 1, 1]> var_702_cast_fp16 = reduce_mean(axes = var_701, keep_dims = var_532, x = zero_mean_sq_17_cast_fp16)[name = tensor<string, []>("op_702_cast_fp16")];
            tensor<fp16, []> var_703_to_fp16 = const()[name = tensor<string, []>("op_703_to_fp16"), val = tensor<fp16, []>(0x1.5p-17)];
            tensor<fp16, [1, 1, 1, 1]> var_704_cast_fp16 = add(x = var_702_cast_fp16, y = var_703_to_fp16)[name = tensor<string, []>("op_704_cast_fp16")];
            tensor<fp16, []> denom_17_epsilon_0_to_fp16 = const()[name = tensor<string, []>("denom_17_epsilon_0_to_fp16"), val = tensor<fp16, []>(0x1p-24)];
            tensor<fp16, [1, 1, 1, 1]> denom_17_cast_fp16 = rsqrt(epsilon = denom_17_epsilon_0_to_fp16, x = var_704_cast_fp16)[name = tensor<string, []>("denom_17_cast_fp16")];
            tensor<fp16, [1, 768, 1, 1]> out_17_cast_fp16 = mul(x = zero_mean_17_cast_fp16, y = denom_17_cast_fp16)[name = tensor<string, []>("out_17_cast_fp16")];
            tensor<fp16, [768]> input_25_gamma_0_to_fp16 = const()[name = tensor<string, []>("input_25_gamma_0_to_fp16"), val = tensor<fp16, [768]>(BLOBFILE(path = tensor<string, []>("@model_path/weights/weight.bin"), offset = tensor<uint64, []>(127612352)))];
            tensor<fp16, [768]> input_25_beta_0_to_fp16 = const()[name = tensor<string, []>("input_25_beta_0_to_fp16"), val = tensor<fp16, [768]>(BLOBFILE(path = tensor<string, []>("@model_path/weights/weight.bin"), offset = tensor<uint64, []>(127613952)))];
            tensor<fp16, []> input_25_epsilon_0_to_fp16 = const()[name = tensor<string, []>("input_25_epsilon_0_to_fp16"), val = tensor<fp16, []>(0x1.5p-17)];
            tensor<fp16, [1, 768, 1, 1]> input_25_cast_fp16 = batch_norm(beta = input_25_beta_0_to_fp16, epsilon = input_25_epsilon_0_to_fp16, gamma = input_25_gamma_0_to_fp16, mean = obj_1_mean_0_to_fp16, variance = obj_1_variance_0_to_fp16, x = out_17_cast_fp16)[name = tensor<string, []>("input_25_cast_fp16")];
            tensor<int32, [2]> var_715 = const()[name = tensor<string, []>("op_715"), val = tensor<int32, [2]>([1, 1])];
            tensor<int32, [2]> var_717 = const()[name = tensor<string, []>("op_717"), val = tensor<int32, [2]>([1, 1])];
            tensor<string, []> input_27_pad_type_0 = const()[name = tensor<string, []>("input_27_pad_type_0"), val = tensor<string, []>("custom")];
            tensor<int32, [4]> input_27_pad_0 = const()[name = tensor<string, []>("input_27_pad_0"), val = tensor<int32, [4]>([0, 0, 0, 0])];
            tensor<fp16, [3072, 768, 1, 1]> layers_2_fc1_weight_to_fp16 = const()[name = tensor<string, []>("layers_2_fc1_weight_to_fp16"), val = tensor<fp16, [3072, 768, 1, 1]>(BLOBFILE(path = tensor<string, []>("@model_path/weights/weight.bin"), offset = tensor<uint64, []>(127615552)))];
            tensor<fp16, [3072]> layers_2_fc1_bias_to_fp16 = const()[name = tensor<string, []>("layers_2_fc1_bias_to_fp16"), val = tensor<fp16, [3072]>(BLOBFILE(path = tensor<string, []>("@model_path/weights/weight.bin"), offset = tensor<uint64, []>(132334208)))];
            tensor<fp16, [1, 3072, 1, 1]> input_27_cast_fp16 = conv(bias = layers_2_fc1_bias_to_fp16, dilations = var_717, groups = var_531, pad = input_27_pad_0, pad_type = input_27_pad_type_0, strides = var_715, weight = layers_2_fc1_weight_to_fp16, x = input_25_cast_fp16)[name = tensor<string, []>("input_27_cast_fp16")];
            tensor<string, []> input_29_mode_0 = const()[name = tensor<string, []>("input_29_mode_0"), val = tensor<string, []>("EXACT")];
            tensor<fp16, [1, 3072, 1, 1]> input_29_cast_fp16 = gelu(mode = input_29_mode_0, x = input_27_cast_fp16)[name = tensor<string, []>("input_29_cast_fp16")];
            tensor<int32, [2]> var_723 = const()[name = tensor<string, []>("op_723"), val = tensor<int32, [2]>([1, 1])];
            tensor<int32, [2]> var_725 = const()[name = tensor<string, []>("op_725"), val = tensor<int32, [2]>([1, 1])];
            tensor<string, []> hidden_states_7_pad_type_0 = const()[name = tensor<string, []>("hidden_states_7_pad_type_0"), val = tensor<string, []>("custom")];
            tensor<int32, [4]> hidden_states_7_pad_0 = const()[name = tensor<string, []>("hidden_states_7_pad_0"), val = tensor<int32, [4]>([0, 0, 0, 0])];
            tensor<fp16, [768, 3072, 1, 1]> layers_2_fc2_weight_to_fp16 = const()[name = tensor<string, []>("layers_2_fc2_weight_to_fp16"), val = tensor<fp16, [768, 3072, 1, 1]>(BLOBFILE(path = tensor<string, []>("@model_path/weights/weight.bin"), offset = tensor<uint64, []>(132340416)))];
            tensor<fp16, [768]> layers_2_fc2_bias_to_fp16 = const()[name = tensor<string, []>("layers_2_fc2_bias_to_fp16"), val = tensor<fp16, [768]>(BLOBFILE(path = tensor<string, []>("@model_path/weights/weight.bin"), offset = tensor<uint64, []>(137059072)))];
            tensor<fp16, [1, 768, 1, 1]> hidden_states_7_cast_fp16 = conv(bias = layers_2_fc2_bias_to_fp16, dilations = var_725, groups = var_531, pad = hidden_states_7_pad_0, pad_type = hidden_states_7_pad_type_0, strides = var_723, weight = layers_2_fc2_weight_to_fp16, x = input_29_cast_fp16)[name = tensor<string, []>("hidden_states_7_cast_fp16")];
            tensor<fp16, [1, 768, 1, 1]> inputs_19_cast_fp16 = add(x = inputs_17_cast_fp16, y = hidden_states_7_cast_fp16)[name = tensor<string, []>("inputs_19_cast_fp16")];
            tensor<int32, []> var_738 = const()[name = tensor<string, []>("op_738"), val = tensor<int32, []>(3)];
            tensor<int32, []> var_745 = const()[name = tensor<string, []>("op_745"), val = tensor<int32, []>(1)];
            tensor<bool, []> var_746 = const()[name = tensor<string, []>("op_746"), val = tensor<bool, []>(true)];
            tensor<int32, [1]> var_758 = const()[name = tensor<string, []>("op_758"), val = tensor<int32, [1]>([1])];
            tensor<fp16, [1, 1, 1, 1]> channels_mean_19_cast_fp16 = reduce_mean(axes = var_758, keep_dims = var_746, x = inputs_19_cast_fp16)[name = tensor<string, []>("channels_mean_19_cast_fp16")];
            tensor<fp16, [1, 768, 1, 1]> zero_mean_19_cast_fp16 = sub(x = inputs_19_cast_fp16, y = channels_mean_19_cast_fp16)[name = tensor<string, []>("zero_mean_19_cast_fp16")];
            tensor<fp16, [1, 768, 1, 1]> zero_mean_sq_19_cast_fp16 = mul(x = zero_mean_19_cast_fp16, y = zero_mean_19_cast_fp16)[name = tensor<string, []>("zero_mean_sq_19_cast_fp16")];
            tensor<int32, [1]> var_762 = const()[name = tensor<string, []>("op_762"), val = tensor<int32, [1]>([1])];
            tensor<fp16, [1, 1, 1, 1]> var_763_cast_fp16 = reduce_mean(axes = var_762, keep_dims = var_746, x = zero_mean_sq_19_cast_fp16)[name = tensor<string, []>("op_763_cast_fp16")];
            tensor<fp16, []> var_764_to_fp16 = const()[name = tensor<string, []>("op_764_to_fp16"), val = tensor<fp16, []>(0x1.5p-17)];
            tensor<fp16, [1, 1, 1, 1]> var_765_cast_fp16 = add(x = var_763_cast_fp16, y = var_764_to_fp16)[name = tensor<string, []>("op_765_cast_fp16")];
            tensor<fp16, []> denom_19_epsilon_0_to_fp16 = const()[name = tensor<string, []>("denom_19_epsilon_0_to_fp16"), val = tensor<fp16, []>(0x1p-24)];
            tensor<fp16, [1, 1, 1, 1]> denom_19_cast_fp16 = rsqrt(epsilon = denom_19_epsilon_0_to_fp16, x = var_765_cast_fp16)[name = tensor<string, []>("denom_19_cast_fp16")];
            tensor<fp16, [1, 768, 1, 1]> out_19_cast_fp16 = mul(x = zero_mean_19_cast_fp16, y = denom_19_cast_fp16)[name = tensor<string, []>("out_19_cast_fp16")];
            tensor<fp16, [768]> obj_43_gamma_0_to_fp16 = const()[name = tensor<string, []>("obj_43_gamma_0_to_fp16"), val = tensor<fp16, [768]>(BLOBFILE(path = tensor<string, []>("@model_path/weights/weight.bin"), offset = tensor<uint64, []>(137060672)))];
            tensor<fp16, [768]> obj_43_beta_0_to_fp16 = const()[name = tensor<string, []>("obj_43_beta_0_to_fp16"), val = tensor<fp16, [768]>(BLOBFILE(path = tensor<string, []>("@model_path/weights/weight.bin"), offset = tensor<uint64, []>(137062272)))];
            tensor<fp16, []> obj_43_epsilon_0_to_fp16 = const()[name = tensor<string, []>("obj_43_epsilon_0_to_fp16"), val = tensor<fp16, []>(0x1.5p-17)];
            tensor<fp16, [1, 768, 1, 1]> obj_43_cast_fp16 = batch_norm(beta = obj_43_beta_0_to_fp16, epsilon = obj_43_epsilon_0_to_fp16, gamma = obj_43_gamma_0_to_fp16, mean = obj_1_mean_0_to_fp16, variance = obj_1_variance_0_to_fp16, x = out_19_cast_fp16)[name = tensor<string, []>("obj_43_cast_fp16")];
            tensor<int32, [2]> var_780 = const()[name = tensor<string, []>("op_780"), val = tensor<int32, [2]>([1, 1])];
            tensor<int32, [2]> var_782 = const()[name = tensor<string, []>("op_782"), val = tensor<int32, [2]>([1, 1])];
            tensor<string, []> query_13_pad_type_0 = const()[name = tensor<string, []>("query_13_pad_type_0"), val = tensor<string, []>("custom")];
            tensor<int32, [4]> query_13_pad_0 = const()[name = tensor<string, []>("query_13_pad_0"), val = tensor<int32, [4]>([0, 0, 0, 0])];
            tensor<fp16, [768, 768, 1, 1]> layers_3_self_attn_q_proj_weight_to_fp16 = const()[name = tensor<string, []>("layers_3_self_attn_q_proj_weight_to_fp16"), val = tensor<fp16, [768, 768, 1, 1]>(BLOBFILE(path = tensor<string, []>("@model_path/weights/weight.bin"), offset = tensor<uint64, []>(137063872)))];
            tensor<fp16, [768]> layers_3_self_attn_q_proj_bias_to_fp16 = const()[name = tensor<string, []>("layers_3_self_attn_q_proj_bias_to_fp16"), val = tensor<fp16, [768]>(BLOBFILE(path = tensor<string, []>("@model_path/weights/weight.bin"), offset = tensor<uint64, []>(138243584)))];
            tensor<fp16, [1, 768, 1, 1]> query_13_cast_fp16 = conv(bias = layers_3_self_attn_q_proj_bias_to_fp16, dilations = var_782, groups = var_745, pad = query_13_pad_0, pad_type = query_13_pad_type_0, strides = var_780, weight = layers_3_self_attn_q_proj_weight_to_fp16, x = obj_43_cast_fp16)[name = tensor<string, []>("query_13_cast_fp16")];
            tensor<int32, [2]> var_786 = const()[name = tensor<string, []>("op_786"), val = tensor<int32, [2]>([1, 1])];
            tensor<int32, [2]> var_788 = const()[name = tensor<string, []>("op_788"), val = tensor<int32, [2]>([1, 1])];
            tensor<string, []> current_key_7_pad_type_0 = const()[name = tensor<string, []>("current_key_7_pad_type_0"), val = tensor<string, []>("custom")];
            tensor<int32, [4]> current_key_7_pad_0 = const()[name = tensor<string, []>("current_key_7_pad_0"), val = tensor<int32, [4]>([0, 0, 0, 0])];
            tensor<fp16, [768, 768, 1, 1]> layers_3_self_attn_k_proj_weight_to_fp16 = const()[name = tensor<string, []>("layers_3_self_attn_k_proj_weight_to_fp16"), val = tensor<fp16, [768, 768, 1, 1]>(BLOBFILE(path = tensor<string, []>("@model_path/weights/weight.bin"), offset = tensor<uint64, []>(138245184)))];
            tensor<fp16, [1, 768, 1, 1]> current_key_7_cast_fp16 = conv(dilations = var_788, groups = var_745, pad = current_key_7_pad_0, pad_type = current_key_7_pad_type_0, strides = var_786, weight = layers_3_self_attn_k_proj_weight_to_fp16, x = obj_43_cast_fp16)[name = tensor<string, []>("current_key_7_cast_fp16")];
            tensor<int32, [2]> var_793 = const()[name = tensor<string, []>("op_793"), val = tensor<int32, [2]>([1, 1])];
            tensor<int32, [2]> var_795 = const()[name = tensor<string, []>("op_795"), val = tensor<int32, [2]>([1, 1])];
            tensor<string, []> current_value_7_pad_type_0 = const()[name = tensor<string, []>("current_value_7_pad_type_0"), val = tensor<string, []>("custom")];
            tensor<int32, [4]> current_value_7_pad_0 = const()[name = tensor<string, []>("current_value_7_pad_0"), val = tensor<int32, [4]>([0, 0, 0, 0])];
            tensor<fp16, [768, 768, 1, 1]> layers_3_self_attn_v_proj_weight_to_fp16 = const()[name = tensor<string, []>("layers_3_self_attn_v_proj_weight_to_fp16"), val = tensor<fp16, [768, 768, 1, 1]>(BLOBFILE(path = tensor<string, []>("@model_path/weights/weight.bin"), offset = tensor<uint64, []>(139424896)))];
            tensor<fp16, [768]> layers_3_self_attn_v_proj_bias_to_fp16 = const()[name = tensor<string, []>("layers_3_self_attn_v_proj_bias_to_fp16"), val = tensor<fp16, [768]>(BLOBFILE(path = tensor<string, []>("@model_path/weights/weight.bin"), offset = tensor<uint64, []>(140604608)))];
            tensor<fp16, [1, 768, 1, 1]> current_value_7_cast_fp16 = conv(bias = layers_3_self_attn_v_proj_bias_to_fp16, dilations = var_795, groups = var_745, pad = current_value_7_pad_0, pad_type = current_value_7_pad_type_0, strides = var_793, weight = layers_3_self_attn_v_proj_weight_to_fp16, x = obj_43_cast_fp16)[name = tensor<string, []>("current_value_7_cast_fp16")];
            tensor<fp16, [1, 768, 1, 224]> var_802_cast_fp16 = mul(x = current_key_7_cast_fp16, y = var_158_cast_fp16)[name = tensor<string, []>("op_802_cast_fp16")];
            tensor<fp16, [1, 768, 1, 224]> var_804_cast_fp16 = mul(x = var_63_cast_fp16_3, y = var_161_cast_fp16)[name = tensor<string, []>("op_804_cast_fp16")];
            tensor<fp16, [1, 768, 1, 224]> key_13_cast_fp16 = add(x = var_802_cast_fp16, y = var_804_cast_fp16)[name = tensor<string, []>("key_13_cast_fp16")];
            tensor<fp16, [1, 768, 1, 224]> var_806_cast_fp16 = mul(x = current_value_7_cast_fp16, y = var_158_cast_fp16)[name = tensor<string, []>("op_806_cast_fp16")];
            tensor<fp16, [1, 768, 1, 224]> var_808_cast_fp16 = mul(x = var_78_cast_fp16_3, y = var_161_cast_fp16)[name = tensor<string, []>("op_808_cast_fp16")];
            tensor<fp16, [1, 768, 1, 224]> value_13_cast_fp16 = add(x = var_806_cast_fp16, y = var_808_cast_fp16)[name = tensor<string, []>("value_13_cast_fp16")];
            tensor<int32, [4]> var_811 = const()[name = tensor<string, []>("op_811"), val = tensor<int32, [4]>([1, 12, 64, -1])];
            tensor<fp16, [1, 12, 64, 1]> var_812_cast_fp16 = reshape(shape = var_811, x = query_13_cast_fp16)[name = tensor<string, []>("op_812_cast_fp16")];
            tensor<fp16, []> var_813_to_fp16 = const()[name = tensor<string, []>("op_813_to_fp16"), val = tensor<fp16, []>(0x1p-3)];
            tensor<fp16, [1, 12, 64, 1]> var_814_cast_fp16 = mul(x = var_812_cast_fp16, y = var_813_to_fp16)[name = tensor<string, []>("op_814_cast_fp16")];
            tensor<int32, [4]> var_815 = const()[name = tensor<string, []>("op_815"), val = tensor<int32, [4]>([1, 12, 64, -1])];
            tensor<fp16, [1, 12, 64, 224]> var_816_cast_fp16 = reshape(shape = var_815, x = key_13_cast_fp16)[name = tensor<string, []>("op_816_cast_fp16")];
            tensor<bool, []> mh_w_19_transpose_x_0 = const()[name = tensor<string, []>("mh_w_19_transpose_x_0"), val = tensor<bool, []>(true)];
            tensor<bool, []> mh_w_19_transpose_y_0 = const()[name = tensor<string, []>("mh_w_19_transpose_y_0"), val = tensor<bool, []>(false)];
            tensor<fp16, [1, 12, 1, 224]> mh_w_19_cast_fp16 = matmul(transpose_x = mh_w_19_transpose_x_0, transpose_y = mh_w_19_transpose_y_0, x = var_814_cast_fp16, y = var_816_cast_fp16)[name = tensor<string, []>("mh_w_19_cast_fp16")];
            tensor<fp16, [1, 12, 1, 224]> mh_w_21_cast_fp16 = add(x = mh_w_19_cast_fp16, y = var_179_cast_fp16)[name = tensor<string, []>("mh_w_21_cast_fp16")];
            tensor<fp16, [1, 12, 1, 224]> var_824_cast_fp16 = softmax(axis = var_738, x = mh_w_21_cast_fp16)[name = tensor<string, []>("op_824_cast_fp16")];
            tensor<int32, [4]> var_825 = const()[name = tensor<string, []>("op_825"), val = tensor<int32, [4]>([1, 12, 64, -1])];
            tensor<fp16, [1, 12, 64, 224]> var_826_cast_fp16 = reshape(shape = var_825, x = value_13_cast_fp16)[name = tensor<string, []>("op_826_cast_fp16")];
            tensor<bool, []> attn_13_transpose_x_0 = const()[name = tensor<string, []>("attn_13_transpose_x_0"), val = tensor<bool, []>(false)];
            tensor<bool, []> attn_13_transpose_y_0 = const()[name = tensor<string, []>("attn_13_transpose_y_0"), val = tensor<bool, []>(true)];
            tensor<fp16, [1, 12, 64, 1]> attn_13_cast_fp16 = matmul(transpose_x = attn_13_transpose_x_0, transpose_y = attn_13_transpose_y_0, x = var_826_cast_fp16, y = var_824_cast_fp16)[name = tensor<string, []>("attn_13_cast_fp16")];
            tensor<int32, [4]> var_829 = const()[name = tensor<string, []>("op_829"), val = tensor<int32, [4]>([1, 768, 1, -1])];
            tensor<fp16, [1, 768, 1, 1]> input_31_cast_fp16 = reshape(shape = var_829, x = attn_13_cast_fp16)[name = tensor<string, []>("input_31_cast_fp16")];
            tensor<int32, [2]> var_833 = const()[name = tensor<string, []>("op_833"), val = tensor<int32, [2]>([1, 1])];
            tensor<int32, [2]> var_835 = const()[name = tensor<string, []>("op_835"), val = tensor<int32, [2]>([1, 1])];
            tensor<string, []> obj_49_pad_type_0 = const()[name = tensor<string, []>("obj_49_pad_type_0"), val = tensor<string, []>("custom")];
            tensor<int32, [4]> obj_49_pad_0 = const()[name = tensor<string, []>("obj_49_pad_0"), val = tensor<int32, [4]>([0, 0, 0, 0])];
            tensor<fp16, [768, 768, 1, 1]> layers_3_self_attn_o_proj_weight_to_fp16 = const()[name = tensor<string, []>("layers_3_self_attn_o_proj_weight_to_fp16"), val = tensor<fp16, [768, 768, 1, 1]>(BLOBFILE(path = tensor<string, []>("@model_path/weights/weight.bin"), offset = tensor<uint64, []>(140606208)))];
            tensor<fp16, [768]> layers_3_self_attn_o_proj_bias_to_fp16 = const()[name = tensor<string, []>("layers_3_self_attn_o_proj_bias_to_fp16"), val = tensor<fp16, [768]>(BLOBFILE(path = tensor<string, []>("@model_path/weights/weight.bin"), offset = tensor<uint64, []>(141785920)))];
            tensor<fp16, [1, 768, 1, 1]> obj_49_cast_fp16 = conv(bias = layers_3_self_attn_o_proj_bias_to_fp16, dilations = var_835, groups = var_745, pad = obj_49_pad_0, pad_type = obj_49_pad_type_0, strides = var_833, weight = layers_3_self_attn_o_proj_weight_to_fp16, x = input_31_cast_fp16)[name = tensor<string, []>("obj_49_cast_fp16")];
            tensor<fp16, [1, 768, 1, 1]> inputs_21_cast_fp16 = add(x = inputs_19_cast_fp16, y = obj_49_cast_fp16)[name = tensor<string, []>("inputs_21_cast_fp16")];
            tensor<int32, [1]> var_845 = const()[name = tensor<string, []>("op_845"), val = tensor<int32, [1]>([1])];
            tensor<fp16, [1, 1, 1, 1]> channels_mean_21_cast_fp16 = reduce_mean(axes = var_845, keep_dims = var_746, x = inputs_21_cast_fp16)[name = tensor<string, []>("channels_mean_21_cast_fp16")];
            tensor<fp16, [1, 768, 1, 1]> zero_mean_21_cast_fp16 = sub(x = inputs_21_cast_fp16, y = channels_mean_21_cast_fp16)[name = tensor<string, []>("zero_mean_21_cast_fp16")];
            tensor<fp16, [1, 768, 1, 1]> zero_mean_sq_21_cast_fp16 = mul(x = zero_mean_21_cast_fp16, y = zero_mean_21_cast_fp16)[name = tensor<string, []>("zero_mean_sq_21_cast_fp16")];
            tensor<int32, [1]> var_849 = const()[name = tensor<string, []>("op_849"), val = tensor<int32, [1]>([1])];
            tensor<fp16, [1, 1, 1, 1]> var_850_cast_fp16 = reduce_mean(axes = var_849, keep_dims = var_746, x = zero_mean_sq_21_cast_fp16)[name = tensor<string, []>("op_850_cast_fp16")];
            tensor<fp16, []> var_851_to_fp16 = const()[name = tensor<string, []>("op_851_to_fp16"), val = tensor<fp16, []>(0x1.5p-17)];
            tensor<fp16, [1, 1, 1, 1]> var_852_cast_fp16 = add(x = var_850_cast_fp16, y = var_851_to_fp16)[name = tensor<string, []>("op_852_cast_fp16")];
            tensor<fp16, []> denom_21_epsilon_0_to_fp16 = const()[name = tensor<string, []>("denom_21_epsilon_0_to_fp16"), val = tensor<fp16, []>(0x1p-24)];
            tensor<fp16, [1, 1, 1, 1]> denom_21_cast_fp16 = rsqrt(epsilon = denom_21_epsilon_0_to_fp16, x = var_852_cast_fp16)[name = tensor<string, []>("denom_21_cast_fp16")];
            tensor<fp16, [1, 768, 1, 1]> out_21_cast_fp16 = mul(x = zero_mean_21_cast_fp16, y = denom_21_cast_fp16)[name = tensor<string, []>("out_21_cast_fp16")];
            tensor<fp16, [768]> obj_51_gamma_0_to_fp16 = const()[name = tensor<string, []>("obj_51_gamma_0_to_fp16"), val = tensor<fp16, [768]>(BLOBFILE(path = tensor<string, []>("@model_path/weights/weight.bin"), offset = tensor<uint64, []>(141787520)))];
            tensor<fp16, [768]> obj_51_beta_0_to_fp16 = const()[name = tensor<string, []>("obj_51_beta_0_to_fp16"), val = tensor<fp16, [768]>(BLOBFILE(path = tensor<string, []>("@model_path/weights/weight.bin"), offset = tensor<uint64, []>(141789120)))];
            tensor<fp16, []> obj_51_epsilon_0_to_fp16 = const()[name = tensor<string, []>("obj_51_epsilon_0_to_fp16"), val = tensor<fp16, []>(0x1.5p-17)];
            tensor<fp16, [1, 768, 1, 1]> obj_51_cast_fp16 = batch_norm(beta = obj_51_beta_0_to_fp16, epsilon = obj_51_epsilon_0_to_fp16, gamma = obj_51_gamma_0_to_fp16, mean = obj_1_mean_0_to_fp16, variance = obj_1_variance_0_to_fp16, x = out_21_cast_fp16)[name = tensor<string, []>("obj_51_cast_fp16")];
            tensor<int32, [2]> var_867 = const()[name = tensor<string, []>("op_867"), val = tensor<int32, [2]>([1, 1])];
            tensor<int32, [2]> var_869 = const()[name = tensor<string, []>("op_869"), val = tensor<int32, [2]>([1, 1])];
            tensor<string, []> query_15_pad_type_0 = const()[name = tensor<string, []>("query_15_pad_type_0"), val = tensor<string, []>("custom")];
            tensor<int32, [4]> query_15_pad_0 = const()[name = tensor<string, []>("query_15_pad_0"), val = tensor<int32, [4]>([0, 0, 0, 0])];
            tensor<fp16, [768, 768, 1, 1]> layers_3_encoder_attn_q_proj_weight_to_fp16 = const()[name = tensor<string, []>("layers_3_encoder_attn_q_proj_weight_to_fp16"), val = tensor<fp16, [768, 768, 1, 1]>(BLOBFILE(path = tensor<string, []>("@model_path/weights/weight.bin"), offset = tensor<uint64, []>(141790720)))];
            tensor<fp16, [768]> layers_3_encoder_attn_q_proj_bias_to_fp16 = const()[name = tensor<string, []>("layers_3_encoder_attn_q_proj_bias_to_fp16"), val = tensor<fp16, [768]>(BLOBFILE(path = tensor<string, []>("@model_path/weights/weight.bin"), offset = tensor<uint64, []>(142970432)))];
            tensor<fp16, [1, 768, 1, 1]> query_15_cast_fp16 = conv(bias = layers_3_encoder_attn_q_proj_bias_to_fp16, dilations = var_869, groups = var_745, pad = query_15_pad_0, pad_type = query_15_pad_type_0, strides = var_867, weight = layers_3_encoder_attn_q_proj_weight_to_fp16, x = obj_51_cast_fp16)[name = tensor<string, []>("query_15_cast_fp16")];
            tensor<int32, [2]> var_873 = const()[name = tensor<string, []>("op_873"), val = tensor<int32, [2]>([1, 1])];
            tensor<int32, [2]> var_875 = const()[name = tensor<string, []>("op_875"), val = tensor<int32, [2]>([1, 1])];
            tensor<string, []> key_15_pad_type_0 = const()[name = tensor<string, []>("key_15_pad_type_0"), val = tensor<string, []>("custom")];
            tensor<int32, [4]> key_15_pad_0 = const()[name = tensor<string, []>("key_15_pad_0"), val = tensor<int32, [4]>([0, 0, 0, 0])];
            tensor<fp16, [768, 768, 1, 1]> layers_3_encoder_attn_k_proj_weight_to_fp16 = const()[name = tensor<string, []>("layers_3_encoder_attn_k_proj_weight_to_fp16"), val = tensor<fp16, [768, 768, 1, 1]>(BLOBFILE(path = tensor<string, []>("@model_path/weights/weight.bin"), offset = tensor<uint64, []>(142972032)))];
            tensor<fp16, [1, 768, 1, 1500]> key_15_cast_fp16 = conv(dilations = var_875, groups = var_745, pad = key_15_pad_0, pad_type = key_15_pad_type_0, strides = var_873, weight = layers_3_encoder_attn_k_proj_weight_to_fp16, x = encoder_output_embeds)[name = tensor<string, []>("key_15_cast_fp16")];
            tensor<int32, [2]> var_880 = const()[name = tensor<string, []>("op_880"), val = tensor<int32, [2]>([1, 1])];
            tensor<int32, [2]> var_882 = const()[name = tensor<string, []>("op_882"), val = tensor<int32, [2]>([1, 1])];
            tensor<string, []> value_15_pad_type_0 = const()[name = tensor<string, []>("value_15_pad_type_0"), val = tensor<string, []>("custom")];
            tensor<int32, [4]> value_15_pad_0 = const()[name = tensor<string, []>("value_15_pad_0"), val = tensor<int32, [4]>([0, 0, 0, 0])];
            tensor<fp16, [768, 768, 1, 1]> layers_3_encoder_attn_v_proj_weight_to_fp16 = const()[name = tensor<string, []>("layers_3_encoder_attn_v_proj_weight_to_fp16"), val = tensor<fp16, [768, 768, 1, 1]>(BLOBFILE(path = tensor<string, []>("@model_path/weights/weight.bin"), offset = tensor<uint64, []>(144151744)))];
            tensor<fp16, [768]> layers_3_encoder_attn_v_proj_bias_to_fp16 = const()[name = tensor<string, []>("layers_3_encoder_attn_v_proj_bias_to_fp16"), val = tensor<fp16, [768]>(BLOBFILE(path = tensor<string, []>("@model_path/weights/weight.bin"), offset = tensor<uint64, []>(145331456)))];
            tensor<fp16, [1, 768, 1, 1500]> value_15_cast_fp16 = conv(bias = layers_3_encoder_attn_v_proj_bias_to_fp16, dilations = var_882, groups = var_745, pad = value_15_pad_0, pad_type = value_15_pad_type_0, strides = var_880, weight = layers_3_encoder_attn_v_proj_weight_to_fp16, x = encoder_output_embeds)[name = tensor<string, []>("value_15_cast_fp16")];
            tensor<int32, [4]> var_886 = const()[name = tensor<string, []>("op_886"), val = tensor<int32, [4]>([1, 12, 64, -1])];
            tensor<fp16, [1, 12, 64, 1]> var_887_cast_fp16 = reshape(shape = var_886, x = query_15_cast_fp16)[name = tensor<string, []>("op_887_cast_fp16")];
            tensor<fp16, []> var_888_to_fp16 = const()[name = tensor<string, []>("op_888_to_fp16"), val = tensor<fp16, []>(0x1p-3)];
            tensor<fp16, [1, 12, 64, 1]> var_889_cast_fp16 = mul(x = var_887_cast_fp16, y = var_888_to_fp16)[name = tensor<string, []>("op_889_cast_fp16")];
            tensor<int32, [4]> var_890 = const()[name = tensor<string, []>("op_890"), val = tensor<int32, [4]>([1, 12, 64, -1])];
            tensor<fp16, [1, 12, 64, 1500]> var_891_cast_fp16 = reshape(shape = var_890, x = key_15_cast_fp16)[name = tensor<string, []>("op_891_cast_fp16")];
            tensor<bool, []> mh_w_23_transpose_x_0 = const()[name = tensor<string, []>("mh_w_23_transpose_x_0"), val = tensor<bool, []>(true)];
            tensor<bool, []> mh_w_23_transpose_y_0 = const()[name = tensor<string, []>("mh_w_23_transpose_y_0"), val = tensor<bool, []>(false)];
            tensor<fp16, [1, 12, 1, 1500]> mh_w_23_cast_fp16 = matmul(transpose_x = mh_w_23_transpose_x_0, transpose_y = mh_w_23_transpose_y_0, x = var_889_cast_fp16, y = var_891_cast_fp16)[name = tensor<string, []>("mh_w_23_cast_fp16")];
            tensor<fp16, [1, 12, 1, 1500]> obj_55_cast_fp16 = softmax(axis = var_738, x = mh_w_23_cast_fp16)[name = tensor<string, []>("obj_55_cast_fp16")];
            tensor<int32, [4]> var_895 = const()[name = tensor<string, []>("op_895"), val = tensor<int32, [4]>([1, 12, 64, -1])];
            tensor<fp16, [1, 12, 64, 1500]> var_896_cast_fp16 = reshape(shape = var_895, x = value_15_cast_fp16)[name = tensor<string, []>("op_896_cast_fp16")];
            tensor<bool, []> attn_15_transpose_x_0 = const()[name = tensor<string, []>("attn_15_transpose_x_0"), val = tensor<bool, []>(false)];
            tensor<bool, []> attn_15_transpose_y_0 = const()[name = tensor<string, []>("attn_15_transpose_y_0"), val = tensor<bool, []>(true)];
            tensor<fp16, [1, 12, 64, 1]> attn_15_cast_fp16 = matmul(transpose_x = attn_15_transpose_x_0, transpose_y = attn_15_transpose_y_0, x = var_896_cast_fp16, y = obj_55_cast_fp16)[name = tensor<string, []>("attn_15_cast_fp16")];
            tensor<int32, [4]> var_899 = const()[name = tensor<string, []>("op_899"), val = tensor<int32, [4]>([1, 768, 1, -1])];
            tensor<fp16, [1, 768, 1, 1]> input_33_cast_fp16 = reshape(shape = var_899, x = attn_15_cast_fp16)[name = tensor<string, []>("input_33_cast_fp16")];
            tensor<int32, [2]> var_903 = const()[name = tensor<string, []>("op_903"), val = tensor<int32, [2]>([1, 1])];
            tensor<int32, [2]> var_905 = const()[name = tensor<string, []>("op_905"), val = tensor<int32, [2]>([1, 1])];
            tensor<string, []> obj_53_pad_type_0 = const()[name = tensor<string, []>("obj_53_pad_type_0"), val = tensor<string, []>("custom")];
            tensor<int32, [4]> obj_53_pad_0 = const()[name = tensor<string, []>("obj_53_pad_0"), val = tensor<int32, [4]>([0, 0, 0, 0])];
            tensor<fp16, [768, 768, 1, 1]> layers_3_encoder_attn_o_proj_weight_to_fp16 = const()[name = tensor<string, []>("layers_3_encoder_attn_o_proj_weight_to_fp16"), val = tensor<fp16, [768, 768, 1, 1]>(BLOBFILE(path = tensor<string, []>("@model_path/weights/weight.bin"), offset = tensor<uint64, []>(145333056)))];
            tensor<fp16, [768]> layers_3_encoder_attn_o_proj_bias_to_fp16 = const()[name = tensor<string, []>("layers_3_encoder_attn_o_proj_bias_to_fp16"), val = tensor<fp16, [768]>(BLOBFILE(path = tensor<string, []>("@model_path/weights/weight.bin"), offset = tensor<uint64, []>(146512768)))];
            tensor<fp16, [1, 768, 1, 1]> obj_53_cast_fp16 = conv(bias = layers_3_encoder_attn_o_proj_bias_to_fp16, dilations = var_905, groups = var_745, pad = obj_53_pad_0, pad_type = obj_53_pad_type_0, strides = var_903, weight = layers_3_encoder_attn_o_proj_weight_to_fp16, x = input_33_cast_fp16)[name = tensor<string, []>("obj_53_cast_fp16")];
            tensor<fp16, [1, 768, 1, 1]> inputs_23_cast_fp16 = add(x = inputs_21_cast_fp16, y = obj_53_cast_fp16)[name = tensor<string, []>("inputs_23_cast_fp16")];
            tensor<int32, [1]> var_911 = const()[name = tensor<string, []>("op_911"), val = tensor<int32, [1]>([1])];
            tensor<fp16, [1, 1, 1, 1]> channels_mean_23_cast_fp16 = reduce_mean(axes = var_911, keep_dims = var_746, x = inputs_23_cast_fp16)[name = tensor<string, []>("channels_mean_23_cast_fp16")];
            tensor<fp16, [1, 768, 1, 1]> zero_mean_23_cast_fp16 = sub(x = inputs_23_cast_fp16, y = channels_mean_23_cast_fp16)[name = tensor<string, []>("zero_mean_23_cast_fp16")];
            tensor<fp16, [1, 768, 1, 1]> zero_mean_sq_23_cast_fp16 = mul(x = zero_mean_23_cast_fp16, y = zero_mean_23_cast_fp16)[name = tensor<string, []>("zero_mean_sq_23_cast_fp16")];
            tensor<int32, [1]> var_915 = const()[name = tensor<string, []>("op_915"), val = tensor<int32, [1]>([1])];
            tensor<fp16, [1, 1, 1, 1]> var_916_cast_fp16 = reduce_mean(axes = var_915, keep_dims = var_746, x = zero_mean_sq_23_cast_fp16)[name = tensor<string, []>("op_916_cast_fp16")];
            tensor<fp16, []> var_917_to_fp16 = const()[name = tensor<string, []>("op_917_to_fp16"), val = tensor<fp16, []>(0x1.5p-17)];
            tensor<fp16, [1, 1, 1, 1]> var_918_cast_fp16 = add(x = var_916_cast_fp16, y = var_917_to_fp16)[name = tensor<string, []>("op_918_cast_fp16")];
            tensor<fp16, []> denom_23_epsilon_0_to_fp16 = const()[name = tensor<string, []>("denom_23_epsilon_0_to_fp16"), val = tensor<fp16, []>(0x1p-24)];
            tensor<fp16, [1, 1, 1, 1]> denom_23_cast_fp16 = rsqrt(epsilon = denom_23_epsilon_0_to_fp16, x = var_918_cast_fp16)[name = tensor<string, []>("denom_23_cast_fp16")];
            tensor<fp16, [1, 768, 1, 1]> out_23_cast_fp16 = mul(x = zero_mean_23_cast_fp16, y = denom_23_cast_fp16)[name = tensor<string, []>("out_23_cast_fp16")];
            tensor<fp16, [768]> input_35_gamma_0_to_fp16 = const()[name = tensor<string, []>("input_35_gamma_0_to_fp16"), val = tensor<fp16, [768]>(BLOBFILE(path = tensor<string, []>("@model_path/weights/weight.bin"), offset = tensor<uint64, []>(146514368)))];
            tensor<fp16, [768]> input_35_beta_0_to_fp16 = const()[name = tensor<string, []>("input_35_beta_0_to_fp16"), val = tensor<fp16, [768]>(BLOBFILE(path = tensor<string, []>("@model_path/weights/weight.bin"), offset = tensor<uint64, []>(146515968)))];
            tensor<fp16, []> input_35_epsilon_0_to_fp16 = const()[name = tensor<string, []>("input_35_epsilon_0_to_fp16"), val = tensor<fp16, []>(0x1.5p-17)];
            tensor<fp16, [1, 768, 1, 1]> input_35_cast_fp16 = batch_norm(beta = input_35_beta_0_to_fp16, epsilon = input_35_epsilon_0_to_fp16, gamma = input_35_gamma_0_to_fp16, mean = obj_1_mean_0_to_fp16, variance = obj_1_variance_0_to_fp16, x = out_23_cast_fp16)[name = tensor<string, []>("input_35_cast_fp16")];
            tensor<int32, [2]> var_929 = const()[name = tensor<string, []>("op_929"), val = tensor<int32, [2]>([1, 1])];
            tensor<int32, [2]> var_931 = const()[name = tensor<string, []>("op_931"), val = tensor<int32, [2]>([1, 1])];
            tensor<string, []> input_37_pad_type_0 = const()[name = tensor<string, []>("input_37_pad_type_0"), val = tensor<string, []>("custom")];
            tensor<int32, [4]> input_37_pad_0 = const()[name = tensor<string, []>("input_37_pad_0"), val = tensor<int32, [4]>([0, 0, 0, 0])];
            tensor<fp16, [3072, 768, 1, 1]> layers_3_fc1_weight_to_fp16 = const()[name = tensor<string, []>("layers_3_fc1_weight_to_fp16"), val = tensor<fp16, [3072, 768, 1, 1]>(BLOBFILE(path = tensor<string, []>("@model_path/weights/weight.bin"), offset = tensor<uint64, []>(146517568)))];
            tensor<fp16, [3072]> layers_3_fc1_bias_to_fp16 = const()[name = tensor<string, []>("layers_3_fc1_bias_to_fp16"), val = tensor<fp16, [3072]>(BLOBFILE(path = tensor<string, []>("@model_path/weights/weight.bin"), offset = tensor<uint64, []>(151236224)))];
            tensor<fp16, [1, 3072, 1, 1]> input_37_cast_fp16 = conv(bias = layers_3_fc1_bias_to_fp16, dilations = var_931, groups = var_745, pad = input_37_pad_0, pad_type = input_37_pad_type_0, strides = var_929, weight = layers_3_fc1_weight_to_fp16, x = input_35_cast_fp16)[name = tensor<string, []>("input_37_cast_fp16")];
            tensor<string, []> input_39_mode_0 = const()[name = tensor<string, []>("input_39_mode_0"), val = tensor<string, []>("EXACT")];
            tensor<fp16, [1, 3072, 1, 1]> input_39_cast_fp16 = gelu(mode = input_39_mode_0, x = input_37_cast_fp16)[name = tensor<string, []>("input_39_cast_fp16")];
            tensor<int32, [2]> var_937 = const()[name = tensor<string, []>("op_937"), val = tensor<int32, [2]>([1, 1])];
            tensor<int32, [2]> var_939 = const()[name = tensor<string, []>("op_939"), val = tensor<int32, [2]>([1, 1])];
            tensor<string, []> hidden_states_9_pad_type_0 = const()[name = tensor<string, []>("hidden_states_9_pad_type_0"), val = tensor<string, []>("custom")];
            tensor<int32, [4]> hidden_states_9_pad_0 = const()[name = tensor<string, []>("hidden_states_9_pad_0"), val = tensor<int32, [4]>([0, 0, 0, 0])];
            tensor<fp16, [768, 3072, 1, 1]> layers_3_fc2_weight_to_fp16 = const()[name = tensor<string, []>("layers_3_fc2_weight_to_fp16"), val = tensor<fp16, [768, 3072, 1, 1]>(BLOBFILE(path = tensor<string, []>("@model_path/weights/weight.bin"), offset = tensor<uint64, []>(151242432)))];
            tensor<fp16, [768]> layers_3_fc2_bias_to_fp16 = const()[name = tensor<string, []>("layers_3_fc2_bias_to_fp16"), val = tensor<fp16, [768]>(BLOBFILE(path = tensor<string, []>("@model_path/weights/weight.bin"), offset = tensor<uint64, []>(155961088)))];
            tensor<fp16, [1, 768, 1, 1]> hidden_states_9_cast_fp16 = conv(bias = layers_3_fc2_bias_to_fp16, dilations = var_939, groups = var_745, pad = hidden_states_9_pad_0, pad_type = hidden_states_9_pad_type_0, strides = var_937, weight = layers_3_fc2_weight_to_fp16, x = input_39_cast_fp16)[name = tensor<string, []>("hidden_states_9_cast_fp16")];
            tensor<fp16, [1, 768, 1, 1]> inputs_25_cast_fp16 = add(x = inputs_23_cast_fp16, y = hidden_states_9_cast_fp16)[name = tensor<string, []>("inputs_25_cast_fp16")];
            tensor<int32, []> var_952 = const()[name = tensor<string, []>("op_952"), val = tensor<int32, []>(3)];
            tensor<int32, []> var_959 = const()[name = tensor<string, []>("op_959"), val = tensor<int32, []>(1)];
            tensor<bool, []> var_960 = const()[name = tensor<string, []>("op_960"), val = tensor<bool, []>(true)];
            tensor<int32, [1]> var_972 = const()[name = tensor<string, []>("op_972"), val = tensor<int32, [1]>([1])];
            tensor<fp16, [1, 1, 1, 1]> channels_mean_25_cast_fp16 = reduce_mean(axes = var_972, keep_dims = var_960, x = inputs_25_cast_fp16)[name = tensor<string, []>("channels_mean_25_cast_fp16")];
            tensor<fp16, [1, 768, 1, 1]> zero_mean_25_cast_fp16 = sub(x = inputs_25_cast_fp16, y = channels_mean_25_cast_fp16)[name = tensor<string, []>("zero_mean_25_cast_fp16")];
            tensor<fp16, [1, 768, 1, 1]> zero_mean_sq_25_cast_fp16 = mul(x = zero_mean_25_cast_fp16, y = zero_mean_25_cast_fp16)[name = tensor<string, []>("zero_mean_sq_25_cast_fp16")];
            tensor<int32, [1]> var_976 = const()[name = tensor<string, []>("op_976"), val = tensor<int32, [1]>([1])];
            tensor<fp16, [1, 1, 1, 1]> var_977_cast_fp16 = reduce_mean(axes = var_976, keep_dims = var_960, x = zero_mean_sq_25_cast_fp16)[name = tensor<string, []>("op_977_cast_fp16")];
            tensor<fp16, []> var_978_to_fp16 = const()[name = tensor<string, []>("op_978_to_fp16"), val = tensor<fp16, []>(0x1.5p-17)];
            tensor<fp16, [1, 1, 1, 1]> var_979_cast_fp16 = add(x = var_977_cast_fp16, y = var_978_to_fp16)[name = tensor<string, []>("op_979_cast_fp16")];
            tensor<fp16, []> denom_25_epsilon_0_to_fp16 = const()[name = tensor<string, []>("denom_25_epsilon_0_to_fp16"), val = tensor<fp16, []>(0x1p-24)];
            tensor<fp16, [1, 1, 1, 1]> denom_25_cast_fp16 = rsqrt(epsilon = denom_25_epsilon_0_to_fp16, x = var_979_cast_fp16)[name = tensor<string, []>("denom_25_cast_fp16")];
            tensor<fp16, [1, 768, 1, 1]> out_25_cast_fp16 = mul(x = zero_mean_25_cast_fp16, y = denom_25_cast_fp16)[name = tensor<string, []>("out_25_cast_fp16")];
            tensor<fp16, [768]> obj_57_gamma_0_to_fp16 = const()[name = tensor<string, []>("obj_57_gamma_0_to_fp16"), val = tensor<fp16, [768]>(BLOBFILE(path = tensor<string, []>("@model_path/weights/weight.bin"), offset = tensor<uint64, []>(155962688)))];
            tensor<fp16, [768]> obj_57_beta_0_to_fp16 = const()[name = tensor<string, []>("obj_57_beta_0_to_fp16"), val = tensor<fp16, [768]>(BLOBFILE(path = tensor<string, []>("@model_path/weights/weight.bin"), offset = tensor<uint64, []>(155964288)))];
            tensor<fp16, []> obj_57_epsilon_0_to_fp16 = const()[name = tensor<string, []>("obj_57_epsilon_0_to_fp16"), val = tensor<fp16, []>(0x1.5p-17)];
            tensor<fp16, [1, 768, 1, 1]> obj_57_cast_fp16 = batch_norm(beta = obj_57_beta_0_to_fp16, epsilon = obj_57_epsilon_0_to_fp16, gamma = obj_57_gamma_0_to_fp16, mean = obj_1_mean_0_to_fp16, variance = obj_1_variance_0_to_fp16, x = out_25_cast_fp16)[name = tensor<string, []>("obj_57_cast_fp16")];
            tensor<int32, [2]> var_994 = const()[name = tensor<string, []>("op_994"), val = tensor<int32, [2]>([1, 1])];
            tensor<int32, [2]> var_996 = const()[name = tensor<string, []>("op_996"), val = tensor<int32, [2]>([1, 1])];
            tensor<string, []> query_17_pad_type_0 = const()[name = tensor<string, []>("query_17_pad_type_0"), val = tensor<string, []>("custom")];
            tensor<int32, [4]> query_17_pad_0 = const()[name = tensor<string, []>("query_17_pad_0"), val = tensor<int32, [4]>([0, 0, 0, 0])];
            tensor<fp16, [768, 768, 1, 1]> layers_4_self_attn_q_proj_weight_to_fp16 = const()[name = tensor<string, []>("layers_4_self_attn_q_proj_weight_to_fp16"), val = tensor<fp16, [768, 768, 1, 1]>(BLOBFILE(path = tensor<string, []>("@model_path/weights/weight.bin"), offset = tensor<uint64, []>(155965888)))];
            tensor<fp16, [768]> layers_4_self_attn_q_proj_bias_to_fp16 = const()[name = tensor<string, []>("layers_4_self_attn_q_proj_bias_to_fp16"), val = tensor<fp16, [768]>(BLOBFILE(path = tensor<string, []>("@model_path/weights/weight.bin"), offset = tensor<uint64, []>(157145600)))];
            tensor<fp16, [1, 768, 1, 1]> query_17_cast_fp16 = conv(bias = layers_4_self_attn_q_proj_bias_to_fp16, dilations = var_996, groups = var_959, pad = query_17_pad_0, pad_type = query_17_pad_type_0, strides = var_994, weight = layers_4_self_attn_q_proj_weight_to_fp16, x = obj_57_cast_fp16)[name = tensor<string, []>("query_17_cast_fp16")];
            tensor<int32, [2]> var_1000 = const()[name = tensor<string, []>("op_1000"), val = tensor<int32, [2]>([1, 1])];
            tensor<int32, [2]> var_1002 = const()[name = tensor<string, []>("op_1002"), val = tensor<int32, [2]>([1, 1])];
            tensor<string, []> current_key_9_pad_type_0 = const()[name = tensor<string, []>("current_key_9_pad_type_0"), val = tensor<string, []>("custom")];
            tensor<int32, [4]> current_key_9_pad_0 = const()[name = tensor<string, []>("current_key_9_pad_0"), val = tensor<int32, [4]>([0, 0, 0, 0])];
            tensor<fp16, [768, 768, 1, 1]> layers_4_self_attn_k_proj_weight_to_fp16 = const()[name = tensor<string, []>("layers_4_self_attn_k_proj_weight_to_fp16"), val = tensor<fp16, [768, 768, 1, 1]>(BLOBFILE(path = tensor<string, []>("@model_path/weights/weight.bin"), offset = tensor<uint64, []>(157147200)))];
            tensor<fp16, [1, 768, 1, 1]> current_key_9_cast_fp16 = conv(dilations = var_1002, groups = var_959, pad = current_key_9_pad_0, pad_type = current_key_9_pad_type_0, strides = var_1000, weight = layers_4_self_attn_k_proj_weight_to_fp16, x = obj_57_cast_fp16)[name = tensor<string, []>("current_key_9_cast_fp16")];
            tensor<int32, [2]> var_1007 = const()[name = tensor<string, []>("op_1007"), val = tensor<int32, [2]>([1, 1])];
            tensor<int32, [2]> var_1009 = const()[name = tensor<string, []>("op_1009"), val = tensor<int32, [2]>([1, 1])];
            tensor<string, []> current_value_9_pad_type_0 = const()[name = tensor<string, []>("current_value_9_pad_type_0"), val = tensor<string, []>("custom")];
            tensor<int32, [4]> current_value_9_pad_0 = const()[name = tensor<string, []>("current_value_9_pad_0"), val = tensor<int32, [4]>([0, 0, 0, 0])];
            tensor<fp16, [768, 768, 1, 1]> layers_4_self_attn_v_proj_weight_to_fp16 = const()[name = tensor<string, []>("layers_4_self_attn_v_proj_weight_to_fp16"), val = tensor<fp16, [768, 768, 1, 1]>(BLOBFILE(path = tensor<string, []>("@model_path/weights/weight.bin"), offset = tensor<uint64, []>(158326912)))];
            tensor<fp16, [768]> layers_4_self_attn_v_proj_bias_to_fp16 = const()[name = tensor<string, []>("layers_4_self_attn_v_proj_bias_to_fp16"), val = tensor<fp16, [768]>(BLOBFILE(path = tensor<string, []>("@model_path/weights/weight.bin"), offset = tensor<uint64, []>(159506624)))];
            tensor<fp16, [1, 768, 1, 1]> current_value_9_cast_fp16 = conv(bias = layers_4_self_attn_v_proj_bias_to_fp16, dilations = var_1009, groups = var_959, pad = current_value_9_pad_0, pad_type = current_value_9_pad_type_0, strides = var_1007, weight = layers_4_self_attn_v_proj_weight_to_fp16, x = obj_57_cast_fp16)[name = tensor<string, []>("current_value_9_cast_fp16")];
            tensor<fp16, [1, 768, 1, 224]> var_1016_cast_fp16 = mul(x = current_key_9_cast_fp16, y = var_158_cast_fp16)[name = tensor<string, []>("op_1016_cast_fp16")];
            tensor<fp16, [1, 768, 1, 224]> var_1018_cast_fp16 = mul(x = var_63_cast_fp16_4, y = var_161_cast_fp16)[name = tensor<string, []>("op_1018_cast_fp16")];
            tensor<fp16, [1, 768, 1, 224]> key_17_cast_fp16 = add(x = var_1016_cast_fp16, y = var_1018_cast_fp16)[name = tensor<string, []>("key_17_cast_fp16")];
            tensor<fp16, [1, 768, 1, 224]> var_1020_cast_fp16 = mul(x = current_value_9_cast_fp16, y = var_158_cast_fp16)[name = tensor<string, []>("op_1020_cast_fp16")];
            tensor<fp16, [1, 768, 1, 224]> var_1022_cast_fp16 = mul(x = var_78_cast_fp16_4, y = var_161_cast_fp16)[name = tensor<string, []>("op_1022_cast_fp16")];
            tensor<fp16, [1, 768, 1, 224]> value_17_cast_fp16 = add(x = var_1020_cast_fp16, y = var_1022_cast_fp16)[name = tensor<string, []>("value_17_cast_fp16")];
            tensor<int32, [4]> var_1025 = const()[name = tensor<string, []>("op_1025"), val = tensor<int32, [4]>([1, 12, 64, -1])];
            tensor<fp16, [1, 12, 64, 1]> var_1026_cast_fp16 = reshape(shape = var_1025, x = query_17_cast_fp16)[name = tensor<string, []>("op_1026_cast_fp16")];
            tensor<fp16, []> var_1027_to_fp16 = const()[name = tensor<string, []>("op_1027_to_fp16"), val = tensor<fp16, []>(0x1p-3)];
            tensor<fp16, [1, 12, 64, 1]> var_1028_cast_fp16 = mul(x = var_1026_cast_fp16, y = var_1027_to_fp16)[name = tensor<string, []>("op_1028_cast_fp16")];
            tensor<int32, [4]> var_1029 = const()[name = tensor<string, []>("op_1029"), val = tensor<int32, [4]>([1, 12, 64, -1])];
            tensor<fp16, [1, 12, 64, 224]> var_1030_cast_fp16 = reshape(shape = var_1029, x = key_17_cast_fp16)[name = tensor<string, []>("op_1030_cast_fp16")];
            tensor<bool, []> mh_w_25_transpose_x_0 = const()[name = tensor<string, []>("mh_w_25_transpose_x_0"), val = tensor<bool, []>(true)];
            tensor<bool, []> mh_w_25_transpose_y_0 = const()[name = tensor<string, []>("mh_w_25_transpose_y_0"), val = tensor<bool, []>(false)];
            tensor<fp16, [1, 12, 1, 224]> mh_w_25_cast_fp16 = matmul(transpose_x = mh_w_25_transpose_x_0, transpose_y = mh_w_25_transpose_y_0, x = var_1028_cast_fp16, y = var_1030_cast_fp16)[name = tensor<string, []>("mh_w_25_cast_fp16")];
            tensor<fp16, [1, 12, 1, 224]> mh_w_27_cast_fp16 = add(x = mh_w_25_cast_fp16, y = var_179_cast_fp16)[name = tensor<string, []>("mh_w_27_cast_fp16")];
            tensor<fp16, [1, 12, 1, 224]> var_1038_cast_fp16 = softmax(axis = var_952, x = mh_w_27_cast_fp16)[name = tensor<string, []>("op_1038_cast_fp16")];
            tensor<int32, [4]> var_1039 = const()[name = tensor<string, []>("op_1039"), val = tensor<int32, [4]>([1, 12, 64, -1])];
            tensor<fp16, [1, 12, 64, 224]> var_1040_cast_fp16 = reshape(shape = var_1039, x = value_17_cast_fp16)[name = tensor<string, []>("op_1040_cast_fp16")];
            tensor<bool, []> attn_17_transpose_x_0 = const()[name = tensor<string, []>("attn_17_transpose_x_0"), val = tensor<bool, []>(false)];
            tensor<bool, []> attn_17_transpose_y_0 = const()[name = tensor<string, []>("attn_17_transpose_y_0"), val = tensor<bool, []>(true)];
            tensor<fp16, [1, 12, 64, 1]> attn_17_cast_fp16 = matmul(transpose_x = attn_17_transpose_x_0, transpose_y = attn_17_transpose_y_0, x = var_1040_cast_fp16, y = var_1038_cast_fp16)[name = tensor<string, []>("attn_17_cast_fp16")];
            tensor<int32, [4]> var_1043 = const()[name = tensor<string, []>("op_1043"), val = tensor<int32, [4]>([1, 768, 1, -1])];
            tensor<fp16, [1, 768, 1, 1]> input_41_cast_fp16 = reshape(shape = var_1043, x = attn_17_cast_fp16)[name = tensor<string, []>("input_41_cast_fp16")];
            tensor<int32, [2]> var_1047 = const()[name = tensor<string, []>("op_1047"), val = tensor<int32, [2]>([1, 1])];
            tensor<int32, [2]> var_1049 = const()[name = tensor<string, []>("op_1049"), val = tensor<int32, [2]>([1, 1])];
            tensor<string, []> obj_63_pad_type_0 = const()[name = tensor<string, []>("obj_63_pad_type_0"), val = tensor<string, []>("custom")];
            tensor<int32, [4]> obj_63_pad_0 = const()[name = tensor<string, []>("obj_63_pad_0"), val = tensor<int32, [4]>([0, 0, 0, 0])];
            tensor<fp16, [768, 768, 1, 1]> layers_4_self_attn_o_proj_weight_to_fp16 = const()[name = tensor<string, []>("layers_4_self_attn_o_proj_weight_to_fp16"), val = tensor<fp16, [768, 768, 1, 1]>(BLOBFILE(path = tensor<string, []>("@model_path/weights/weight.bin"), offset = tensor<uint64, []>(159508224)))];
            tensor<fp16, [768]> layers_4_self_attn_o_proj_bias_to_fp16 = const()[name = tensor<string, []>("layers_4_self_attn_o_proj_bias_to_fp16"), val = tensor<fp16, [768]>(BLOBFILE(path = tensor<string, []>("@model_path/weights/weight.bin"), offset = tensor<uint64, []>(160687936)))];
            tensor<fp16, [1, 768, 1, 1]> obj_63_cast_fp16 = conv(bias = layers_4_self_attn_o_proj_bias_to_fp16, dilations = var_1049, groups = var_959, pad = obj_63_pad_0, pad_type = obj_63_pad_type_0, strides = var_1047, weight = layers_4_self_attn_o_proj_weight_to_fp16, x = input_41_cast_fp16)[name = tensor<string, []>("obj_63_cast_fp16")];
            tensor<fp16, [1, 768, 1, 1]> inputs_27_cast_fp16 = add(x = inputs_25_cast_fp16, y = obj_63_cast_fp16)[name = tensor<string, []>("inputs_27_cast_fp16")];
            tensor<int32, [1]> var_1059 = const()[name = tensor<string, []>("op_1059"), val = tensor<int32, [1]>([1])];
            tensor<fp16, [1, 1, 1, 1]> channels_mean_27_cast_fp16 = reduce_mean(axes = var_1059, keep_dims = var_960, x = inputs_27_cast_fp16)[name = tensor<string, []>("channels_mean_27_cast_fp16")];
            tensor<fp16, [1, 768, 1, 1]> zero_mean_27_cast_fp16 = sub(x = inputs_27_cast_fp16, y = channels_mean_27_cast_fp16)[name = tensor<string, []>("zero_mean_27_cast_fp16")];
            tensor<fp16, [1, 768, 1, 1]> zero_mean_sq_27_cast_fp16 = mul(x = zero_mean_27_cast_fp16, y = zero_mean_27_cast_fp16)[name = tensor<string, []>("zero_mean_sq_27_cast_fp16")];
            tensor<int32, [1]> var_1063 = const()[name = tensor<string, []>("op_1063"), val = tensor<int32, [1]>([1])];
            tensor<fp16, [1, 1, 1, 1]> var_1064_cast_fp16 = reduce_mean(axes = var_1063, keep_dims = var_960, x = zero_mean_sq_27_cast_fp16)[name = tensor<string, []>("op_1064_cast_fp16")];
            tensor<fp16, []> var_1065_to_fp16 = const()[name = tensor<string, []>("op_1065_to_fp16"), val = tensor<fp16, []>(0x1.5p-17)];
            tensor<fp16, [1, 1, 1, 1]> var_1066_cast_fp16 = add(x = var_1064_cast_fp16, y = var_1065_to_fp16)[name = tensor<string, []>("op_1066_cast_fp16")];
            tensor<fp16, []> denom_27_epsilon_0_to_fp16 = const()[name = tensor<string, []>("denom_27_epsilon_0_to_fp16"), val = tensor<fp16, []>(0x1p-24)];
            tensor<fp16, [1, 1, 1, 1]> denom_27_cast_fp16 = rsqrt(epsilon = denom_27_epsilon_0_to_fp16, x = var_1066_cast_fp16)[name = tensor<string, []>("denom_27_cast_fp16")];
            tensor<fp16, [1, 768, 1, 1]> out_27_cast_fp16 = mul(x = zero_mean_27_cast_fp16, y = denom_27_cast_fp16)[name = tensor<string, []>("out_27_cast_fp16")];
            tensor<fp16, [768]> obj_65_gamma_0_to_fp16 = const()[name = tensor<string, []>("obj_65_gamma_0_to_fp16"), val = tensor<fp16, [768]>(BLOBFILE(path = tensor<string, []>("@model_path/weights/weight.bin"), offset = tensor<uint64, []>(160689536)))];
            tensor<fp16, [768]> obj_65_beta_0_to_fp16 = const()[name = tensor<string, []>("obj_65_beta_0_to_fp16"), val = tensor<fp16, [768]>(BLOBFILE(path = tensor<string, []>("@model_path/weights/weight.bin"), offset = tensor<uint64, []>(160691136)))];
            tensor<fp16, []> obj_65_epsilon_0_to_fp16 = const()[name = tensor<string, []>("obj_65_epsilon_0_to_fp16"), val = tensor<fp16, []>(0x1.5p-17)];
            tensor<fp16, [1, 768, 1, 1]> obj_65_cast_fp16 = batch_norm(beta = obj_65_beta_0_to_fp16, epsilon = obj_65_epsilon_0_to_fp16, gamma = obj_65_gamma_0_to_fp16, mean = obj_1_mean_0_to_fp16, variance = obj_1_variance_0_to_fp16, x = out_27_cast_fp16)[name = tensor<string, []>("obj_65_cast_fp16")];
            tensor<int32, [2]> var_1081 = const()[name = tensor<string, []>("op_1081"), val = tensor<int32, [2]>([1, 1])];
            tensor<int32, [2]> var_1083 = const()[name = tensor<string, []>("op_1083"), val = tensor<int32, [2]>([1, 1])];
            tensor<string, []> query_19_pad_type_0 = const()[name = tensor<string, []>("query_19_pad_type_0"), val = tensor<string, []>("custom")];
            tensor<int32, [4]> query_19_pad_0 = const()[name = tensor<string, []>("query_19_pad_0"), val = tensor<int32, [4]>([0, 0, 0, 0])];
            tensor<fp16, [768, 768, 1, 1]> layers_4_encoder_attn_q_proj_weight_to_fp16 = const()[name = tensor<string, []>("layers_4_encoder_attn_q_proj_weight_to_fp16"), val = tensor<fp16, [768, 768, 1, 1]>(BLOBFILE(path = tensor<string, []>("@model_path/weights/weight.bin"), offset = tensor<uint64, []>(160692736)))];
            tensor<fp16, [768]> layers_4_encoder_attn_q_proj_bias_to_fp16 = const()[name = tensor<string, []>("layers_4_encoder_attn_q_proj_bias_to_fp16"), val = tensor<fp16, [768]>(BLOBFILE(path = tensor<string, []>("@model_path/weights/weight.bin"), offset = tensor<uint64, []>(161872448)))];
            tensor<fp16, [1, 768, 1, 1]> query_19_cast_fp16 = conv(bias = layers_4_encoder_attn_q_proj_bias_to_fp16, dilations = var_1083, groups = var_959, pad = query_19_pad_0, pad_type = query_19_pad_type_0, strides = var_1081, weight = layers_4_encoder_attn_q_proj_weight_to_fp16, x = obj_65_cast_fp16)[name = tensor<string, []>("query_19_cast_fp16")];
            tensor<int32, [2]> var_1087 = const()[name = tensor<string, []>("op_1087"), val = tensor<int32, [2]>([1, 1])];
            tensor<int32, [2]> var_1089 = const()[name = tensor<string, []>("op_1089"), val = tensor<int32, [2]>([1, 1])];
            tensor<string, []> key_19_pad_type_0 = const()[name = tensor<string, []>("key_19_pad_type_0"), val = tensor<string, []>("custom")];
            tensor<int32, [4]> key_19_pad_0 = const()[name = tensor<string, []>("key_19_pad_0"), val = tensor<int32, [4]>([0, 0, 0, 0])];
            tensor<fp16, [768, 768, 1, 1]> layers_4_encoder_attn_k_proj_weight_to_fp16 = const()[name = tensor<string, []>("layers_4_encoder_attn_k_proj_weight_to_fp16"), val = tensor<fp16, [768, 768, 1, 1]>(BLOBFILE(path = tensor<string, []>("@model_path/weights/weight.bin"), offset = tensor<uint64, []>(161874048)))];
            tensor<fp16, [1, 768, 1, 1500]> key_19_cast_fp16 = conv(dilations = var_1089, groups = var_959, pad = key_19_pad_0, pad_type = key_19_pad_type_0, strides = var_1087, weight = layers_4_encoder_attn_k_proj_weight_to_fp16, x = encoder_output_embeds)[name = tensor<string, []>("key_19_cast_fp16")];
            tensor<int32, [2]> var_1094 = const()[name = tensor<string, []>("op_1094"), val = tensor<int32, [2]>([1, 1])];
            tensor<int32, [2]> var_1096 = const()[name = tensor<string, []>("op_1096"), val = tensor<int32, [2]>([1, 1])];
            tensor<string, []> value_19_pad_type_0 = const()[name = tensor<string, []>("value_19_pad_type_0"), val = tensor<string, []>("custom")];
            tensor<int32, [4]> value_19_pad_0 = const()[name = tensor<string, []>("value_19_pad_0"), val = tensor<int32, [4]>([0, 0, 0, 0])];
            tensor<fp16, [768, 768, 1, 1]> layers_4_encoder_attn_v_proj_weight_to_fp16 = const()[name = tensor<string, []>("layers_4_encoder_attn_v_proj_weight_to_fp16"), val = tensor<fp16, [768, 768, 1, 1]>(BLOBFILE(path = tensor<string, []>("@model_path/weights/weight.bin"), offset = tensor<uint64, []>(163053760)))];
            tensor<fp16, [768]> layers_4_encoder_attn_v_proj_bias_to_fp16 = const()[name = tensor<string, []>("layers_4_encoder_attn_v_proj_bias_to_fp16"), val = tensor<fp16, [768]>(BLOBFILE(path = tensor<string, []>("@model_path/weights/weight.bin"), offset = tensor<uint64, []>(164233472)))];
            tensor<fp16, [1, 768, 1, 1500]> value_19_cast_fp16 = conv(bias = layers_4_encoder_attn_v_proj_bias_to_fp16, dilations = var_1096, groups = var_959, pad = value_19_pad_0, pad_type = value_19_pad_type_0, strides = var_1094, weight = layers_4_encoder_attn_v_proj_weight_to_fp16, x = encoder_output_embeds)[name = tensor<string, []>("value_19_cast_fp16")];
            tensor<int32, [4]> var_1100 = const()[name = tensor<string, []>("op_1100"), val = tensor<int32, [4]>([1, 12, 64, -1])];
            tensor<fp16, [1, 12, 64, 1]> var_1101_cast_fp16 = reshape(shape = var_1100, x = query_19_cast_fp16)[name = tensor<string, []>("op_1101_cast_fp16")];
            tensor<fp16, []> var_1102_to_fp16 = const()[name = tensor<string, []>("op_1102_to_fp16"), val = tensor<fp16, []>(0x1p-3)];
            tensor<fp16, [1, 12, 64, 1]> var_1103_cast_fp16 = mul(x = var_1101_cast_fp16, y = var_1102_to_fp16)[name = tensor<string, []>("op_1103_cast_fp16")];
            tensor<int32, [4]> var_1104 = const()[name = tensor<string, []>("op_1104"), val = tensor<int32, [4]>([1, 12, 64, -1])];
            tensor<fp16, [1, 12, 64, 1500]> var_1105_cast_fp16 = reshape(shape = var_1104, x = key_19_cast_fp16)[name = tensor<string, []>("op_1105_cast_fp16")];
            tensor<bool, []> mh_w_29_transpose_x_0 = const()[name = tensor<string, []>("mh_w_29_transpose_x_0"), val = tensor<bool, []>(true)];
            tensor<bool, []> mh_w_29_transpose_y_0 = const()[name = tensor<string, []>("mh_w_29_transpose_y_0"), val = tensor<bool, []>(false)];
            tensor<fp16, [1, 12, 1, 1500]> mh_w_29_cast_fp16 = matmul(transpose_x = mh_w_29_transpose_x_0, transpose_y = mh_w_29_transpose_y_0, x = var_1103_cast_fp16, y = var_1105_cast_fp16)[name = tensor<string, []>("mh_w_29_cast_fp16")];
            tensor<fp16, [1, 12, 1, 1500]> obj_69_cast_fp16 = softmax(axis = var_952, x = mh_w_29_cast_fp16)[name = tensor<string, []>("obj_69_cast_fp16")];
            tensor<int32, [4]> var_1109 = const()[name = tensor<string, []>("op_1109"), val = tensor<int32, [4]>([1, 12, 64, -1])];
            tensor<fp16, [1, 12, 64, 1500]> var_1110_cast_fp16 = reshape(shape = var_1109, x = value_19_cast_fp16)[name = tensor<string, []>("op_1110_cast_fp16")];
            tensor<bool, []> attn_19_transpose_x_0 = const()[name = tensor<string, []>("attn_19_transpose_x_0"), val = tensor<bool, []>(false)];
            tensor<bool, []> attn_19_transpose_y_0 = const()[name = tensor<string, []>("attn_19_transpose_y_0"), val = tensor<bool, []>(true)];
            tensor<fp16, [1, 12, 64, 1]> attn_19_cast_fp16 = matmul(transpose_x = attn_19_transpose_x_0, transpose_y = attn_19_transpose_y_0, x = var_1110_cast_fp16, y = obj_69_cast_fp16)[name = tensor<string, []>("attn_19_cast_fp16")];
            tensor<int32, [4]> var_1113 = const()[name = tensor<string, []>("op_1113"), val = tensor<int32, [4]>([1, 768, 1, -1])];
            tensor<fp16, [1, 768, 1, 1]> input_43_cast_fp16 = reshape(shape = var_1113, x = attn_19_cast_fp16)[name = tensor<string, []>("input_43_cast_fp16")];
            tensor<int32, [2]> var_1117 = const()[name = tensor<string, []>("op_1117"), val = tensor<int32, [2]>([1, 1])];
            tensor<int32, [2]> var_1119 = const()[name = tensor<string, []>("op_1119"), val = tensor<int32, [2]>([1, 1])];
            tensor<string, []> obj_67_pad_type_0 = const()[name = tensor<string, []>("obj_67_pad_type_0"), val = tensor<string, []>("custom")];
            tensor<int32, [4]> obj_67_pad_0 = const()[name = tensor<string, []>("obj_67_pad_0"), val = tensor<int32, [4]>([0, 0, 0, 0])];
…
            tensor<fp16, [1, 768, 1, 1]> query_cast_fp16 = conv(bias = layers_11_encoder_attn_q_proj_bias_to_fp16, dilations = var_2601, groups = var_2477, pad = query_pad_0, pad_type = query_pad_type_0, strides = var_2599, weight = layers_11_encoder_attn_q_proj_weight_to_fp16, x = obj_163_cast_fp16)[name = tensor<string, []>("query_cast_fp16")];
            tensor<int32, [2]> var_2605 = const()[name = tensor<string, []>("op_2605"), val = tensor<int32, [2]>([1, 1])];
            tensor<int32, [2]> var_2607 = const()[name = tensor<string, []>("op_2607"), val = tensor<int32, [2]>([1, 1])];
            tensor<string, []> key_pad_type_0 = const()[name = tensor<string, []>("key_pad_type_0"), val = tensor<string, []>("custom")];
            tensor<int32, [4]> key_pad_0 = const()[name = tensor<string, []>("key_pad_0"), val = tensor<int32, [4]>([0, 0, 0, 0])];
            tensor<fp16, [768, 768, 1, 1]> layers_11_encoder_attn_k_proj_weight_to_fp16 = const()[name = tensor<string, []>("layers_11_encoder_attn_k_proj_weight_to_fp16"), val = tensor<fp16, [768, 768, 1, 1]>(BLOBFILE(path = tensor<string, []>("@model_path/weights/weight.bin"), offset = tensor<uint64, []>(294188160)))];
            tensor<fp16, [1, 768, 1, 1500]> key_cast_fp16 = conv(dilations = var_2607, groups = var_2477, pad = key_pad_0, pad_type = key_pad_type_0, strides = var_2605, weight = layers_11_encoder_attn_k_proj_weight_to_fp16, x = encoder_output_embeds)[name = tensor<string, []>("key_cast_fp16")];
            tensor<int32, [2]> var_2612 = const()[name = tensor<string, []>("op_2612"), val = tensor<int32, [2]>([1, 1])];
            tensor<int32, [2]> var_2614 = const()[name = tensor<string, []>("op_2614"), val = tensor<int32, [2]>([1, 1])];
            tensor<string, []> value_pad_type_0 = const()[name = tensor<string, []>("value_pad_type_0"), val = tensor<string, []>("custom")];
            tensor<int32, [4]> value_pad_0 = const()[name = tensor<string, []>("value_pad_0"), val = tensor<int32, [4]>([0, 0, 0, 0])];
            tensor<fp16, [768, 768, 1, 1]> layers_11_encoder_attn_v_proj_weight_to_fp16 = const()[name = tensor<string, []>("layers_11_encoder_attn_v_proj_weight_to_fp16"), val = tensor<fp16, [768, 768, 1, 1]>(BLOBFILE(path = tensor<string, []>("@model_path/weights/weight.bin"), offset = tensor<uint64, []>(295367872)))];
            tensor<fp16, [768]> layers_11_encoder_attn_v_proj_bias_to_fp16 = const()[name = tensor<string, []>("layers_11_encoder_attn_v_proj_bias_to_fp16"), val = tensor<fp16, [768]>(BLOBFILE(path = tensor<string, []>("@model_path/weights/weight.bin"), offset = tensor<uint64, []>(296547584)))];
            tensor<fp16, [1, 768, 1, 1500]> value_cast_fp16 = conv(bias = layers_11_encoder_attn_v_proj_bias_to_fp16, dilations = var_2614, groups = var_2477, pad = value_pad_0, pad_type = value_pad_type_0, strides = var_2612, weight = layers_11_encoder_attn_v_proj_weight_to_fp16, x = encoder_output_embeds)[name = tensor<string, []>("value_cast_fp16")];
            tensor<int32, [4]> var_2618 = const()[name = tensor<string, []>("op_2618"), val = tensor<int32, [4]>([1, 12, 64, -1])];
            tensor<fp16, [1, 12, 64, 1]> var_2619_cast_fp16 = reshape(shape = var_2618, x = query_cast_fp16)[name = tensor<string, []>("op_2619_cast_fp16")];
            tensor<fp16, []> var_2620_to_fp16 = const()[name = tensor<string, []>("op_2620_to_fp16"), val = tensor<fp16, []>(0x1p-3)];
            tensor<fp16, [1, 12, 64, 1]> var_2621_cast_fp16 = mul(x = var_2619_cast_fp16, y = var_2620_to_fp16)[name = tensor<string, []>("op_2621_cast_fp16")];
            tensor<int32, [4]> var_2622 = const()[name = tensor<string, []>("op_2622"), val = tensor<int32, [4]>([1, 12, 64, -1])];
            tensor<fp16, [1, 12, 64, 1500]> var_2623_cast_fp16 = reshape(shape = var_2622, x = key_cast_fp16)[name = tensor<string, []>("op_2623_cast_fp16")];
            tensor<bool, []> mh_w_transpose_x_0 = const()[name = tensor<string, []>("mh_w_transpose_x_0"), val = tensor<bool, []>(true)];
            tensor<bool, []> mh_w_transpose_y_0 = const()[name = tensor<string, []>("mh_w_transpose_y_0"), val = tensor<bool, []>(false)];
            tensor<fp16, [1, 12, 1, 1500]> mh_w_cast_fp16 = matmul(transpose_x = mh_w_transpose_x_0, transpose_y = mh_w_transpose_y_0, x = var_2621_cast_fp16, y = var_2623_cast_fp16)[name = tensor<string, []>("mh_w_cast_fp16")];
            tensor<fp16, [1, 12, 1, 1500]> obj_167_cast_fp16 = softmax(axis = var_2470, x = mh_w_cast_fp16)[name = tensor<string, []>("obj_167_cast_fp16")];
            tensor<int32, [4]> var_2627 = const()[name = tensor<string, []>("op_2627"), val = tensor<int32, [4]>([1, 12, 64, -1])];
            tensor<fp16, [1, 12, 64, 1500]> var_2628_cast_fp16 = reshape(shape = var_2627, x = value_cast_fp16)[name = tensor<string, []>("op_2628_cast_fp16")];
            tensor<bool, []> attn_transpose_x_0 = const()[name = tensor<string, []>("attn_transpose_x_0"), val = tensor<bool, []>(false)];
            tensor<bool, []> attn_transpose_y_0 = const()[name = tensor<string, []>("attn_transpose_y_0"), val = tensor<bool, []>(true)];
            tensor<fp16, [1, 12, 64, 1]> attn_cast_fp16 = matmul(transpose_x = attn_transpose_x_0, transpose_y = attn_transpose_y_0, x = var_2628_cast_fp16, y = obj_167_cast_fp16)[name = tensor<string, []>("attn_cast_fp16")];
            tensor<int32, [4]> var_2631 = const()[name = tensor<string, []>("op_2631"), val = tensor<int32, [4]>([1, 768, 1, -1])];
            tensor<fp16, [1, 768, 1, 1]> input_113_cast_fp16 = reshape(shape = var_2631, x = attn_cast_fp16)[name = tensor<string, []>("input_113_cast_fp16")];
            tensor<int32, [2]> var_2635 = const()[name = tensor<string, []>("op_2635"), val = tensor<int32, [2]>([1, 1])];
            tensor<int32, [2]> var_2637 = const()[name = tensor<string, []>("op_2637"), val = tensor<int32, [2]>([1, 1])];
            tensor<string, []> obj_165_pad_type_0 = const()[name = tensor<string, []>("obj_165_pad_type_0"), val = tensor<string, []>("custom")];
            tensor<int32, [4]> obj_165_pad_0 = const()[name = tensor<string, []>("obj_165_pad_0"), val = tensor<int32, [4]>([0, 0, 0, 0])];
            tensor<fp16, [768, 768, 1, 1]> layers_11_encoder_attn_o_proj_weight_to_fp16 = const()[name = tensor<string, []>("layers_11_encoder_attn_o_proj_weight_to_fp16"), val = tensor<fp16, [768, 768, 1, 1]>(BLOBFILE(path = tensor<string, []>("@model_path/weights/weight.bin"), offset = tensor<uint64, []>(296549184)))];
            tensor<fp16, [768]> layers_11_encoder_attn_o_proj_bias_to_fp16 = const()[name = tensor<string, []>("layers_11_encoder_attn_o_proj_bias_to_fp16"), val = tensor<fp16, [768]>(BLOBFILE(path = tensor<string, []>("@model_path/weights/weight.bin"), offset = tensor<uint64, []>(297728896)))];
            tensor<fp16, [1, 768, 1, 1]> obj_165_cast_fp16 = conv(bias = layers_11_encoder_attn_o_proj_bias_to_fp16, dilations = var_2637, groups = var_2477, pad = obj_165_pad_0, pad_type = obj_165_pad_type_0, strides = var_2635, weight = layers_11_encoder_attn_o_proj_weight_to_fp16, x = input_113_cast_fp16)[name = tensor<string, []>("obj_165_cast_fp16")];
            tensor<fp16, [1, 768, 1, 1]> inputs_71_cast_fp16 = add(x = inputs_69_cast_fp16, y = obj_165_cast_fp16)[name = tensor<string, []>("inputs_71_cast_fp16")];
            tensor<int32, [1]> var_2646 = const()[name = tensor<string, []>("op_2646"), val = tensor<int32, [1]>([1])];
            tensor<fp16, [1, 1, 1, 1]> channels_mean_71_cast_fp16 = reduce_mean(axes = var_2646, keep_dims = var_2478, x = inputs_71_cast_fp16)[name = tensor<string, []>("channels_mean_71_cast_fp16")];
            tensor<fp16, [1, 768, 1, 1]> zero_mean_71_cast_fp16 = sub(x = inputs_71_cast_fp16, y = channels_mean_71_cast_fp16)[name = tensor<string, []>("zero_mean_71_cast_fp16")];
            tensor<fp16, [1, 768, 1, 1]> zero_mean_sq_71_cast_fp16 = mul(x = zero_mean_71_cast_fp16, y = zero_mean_71_cast_fp16)[name = tensor<string, []>("zero_mean_sq_71_cast_fp16")];
            tensor<int32, [1]> var_2650 = const()[name = tensor<string, []>("op_2650"), val = tensor<int32, [1]>([1])];
            tensor<fp16, [1, 1, 1, 1]> var_2651_cast_fp16 = reduce_mean(axes = var_2650, keep_dims = var_2478, x = zero_mean_sq_71_cast_fp16)[name = tensor<string, []>("op_2651_cast_fp16")];
            tensor<fp16, []> var_2652_to_fp16 = const()[name = tensor<string, []>("op_2652_to_fp16"), val = tensor<fp16, []>(0x1.5p-17)];
            tensor<fp16, [1, 1, 1, 1]> var_2653_cast_fp16 = add(x = var_2651_cast_fp16, y = var_2652_to_fp16)[name = tensor<string, []>("op_2653_cast_fp16")];
            tensor<fp16, []> denom_71_epsilon_0_to_fp16 = const()[name = tensor<string, []>("denom_71_epsilon_0_to_fp16"), val = tensor<fp16, []>(0x1p-24)];
            tensor<fp16, [1, 1, 1, 1]> denom_71_cast_fp16 = rsqrt(epsilon = denom_71_epsilon_0_to_fp16, x = var_2653_cast_fp16)[name = tensor<string, []>("denom_71_cast_fp16")];
            tensor<fp16, [1, 768, 1, 1]> out_71_cast_fp16 = mul(x = zero_mean_71_cast_fp16, y = denom_71_cast_fp16)[name = tensor<string, []>("out_71_cast_fp16")];
            tensor<fp16, [768]> input_115_gamma_0_to_fp16 = const()[name = tensor<string, []>("input_115_gamma_0_to_fp16"), val = tensor<fp16, [768]>(BLOBFILE(path = tensor<string, []>("@model_path/weights/weight.bin"), offset = tensor<uint64, []>(297730496)))];
            tensor<fp16, [768]> input_115_beta_0_to_fp16 = const()[name = tensor<string, []>("input_115_beta_0_to_fp16"), val = tensor<fp16, [768]>(BLOBFILE(path = tensor<string, []>("@model_path/weights/weight.bin"), offset = tensor<uint64, []>(297732096)))];
            tensor<fp16, []> input_115_epsilon_0_to_fp16 = const()[name = tensor<string, []>("input_115_epsilon_0_to_fp16"), val = tensor<fp16, []>(0x1.5p-17)];
            tensor<fp16, [1, 768, 1, 1]> input_115_cast_fp16 = batch_norm(beta = input_115_beta_0_to_fp16, epsilon = input_115_epsilon_0_to_fp16, gamma = input_115_gamma_0_to_fp16, mean = obj_1_mean_0_to_fp16, variance = obj_1_variance_0_to_fp16, x = out_71_cast_fp16)[name = tensor<string, []>("input_115_cast_fp16")];
            tensor<int32, [2]> var_2664 = const()[name = tensor<string, []>("op_2664"), val = tensor<int32, [2]>([1, 1])];
            tensor<int32, [2]> var_2666 = const()[name = tensor<string, []>("op_2666"), val = tensor<int32, [2]>([1, 1])];
            tensor<string, []> input_117_pad_type_0 = const()[name = tensor<string, []>("input_117_pad_type_0"), val = tensor<string, []>("custom")];
            tensor<int32, [4]> input_117_pad_0 = const()[name = tensor<string, []>("input_117_pad_0"), val = tensor<int32, [4]>([0, 0, 0, 0])];
            tensor<fp16, [3072, 768, 1, 1]> layers_11_fc1_weight_to_fp16 = const()[name = tensor<string, []>("layers_11_fc1_weight_to_fp16"), val = tensor<fp16, [3072, 768, 1, 1]>(BLOBFILE(path = tensor<string, []>("@model_path/weights/weight.bin"), offset = tensor<uint64, []>(297733696)))];
            tensor<fp16, [3072]> layers_11_fc1_bias_to_fp16 = const()[name = tensor<string, []>("layers_11_fc1_bias_to_fp16"), val = tensor<fp16, [3072]>(BLOBFILE(path = tensor<string, []>("@model_path/weights/weight.bin"), offset = tensor<uint64, []>(302452352)))];
            tensor<fp16, [1, 3072, 1, 1]> input_117_cast_fp16 = conv(bias = layers_11_fc1_bias_to_fp16, dilations = var_2666, groups = var_2477, pad = input_117_pad_0, pad_type = input_117_pad_type_0, strides = var_2664, weight = layers_11_fc1_weight_to_fp16, x = input_115_cast_fp16)[name = tensor<string, []>("input_117_cast_fp16")];
            tensor<string, []> input_mode_0 = const()[name = tensor<string, []>("input_mode_0"), val = tensor<string, []>("EXACT")];
            tensor<fp16, [1, 3072, 1, 1]> input_cast_fp16 = gelu(mode = input_mode_0, x = input_117_cast_fp16)[name = tensor<string, []>("input_cast_fp16")];
            tensor<int32, [2]> var_2672 = const()[name = tensor<string, []>("op_2672"), val = tensor<int32, [2]>([1, 1])];
            tensor<int32, [2]> var_2674 = const()[name = tensor<string, []>("op_2674"), val = tensor<int32, [2]>([1, 1])];
            tensor<string, []> hidden_states_25_pad_type_0 = const()[name = tensor<string, []>("hidden_states_25_pad_type_0"), val = tensor<string, []>("custom")];
            tensor<int32, [4]> hidden_states_25_pad_0 = const()[name = tensor<string, []>("hidden_states_25_pad_0"), val = tensor<int32, [4]>([0, 0, 0, 0])];
            tensor<fp16, [768, 3072, 1, 1]> layers_11_fc2_weight_to_fp16 = const()[name = tensor<string, []>("layers_11_fc2_weight_to_fp16"), val = tensor<fp16, [768, 3072, 1, 1]>(BLOBFILE(path = tensor<string, []>("@model_path/weights/weight.bin"), offset = tensor<uint64, []>(302458560)))];
            tensor<fp16, [768]> layers_11_fc2_bias_to_fp16 = const()[name = tensor<string, []>("layers_11_fc2_bias_to_fp16"), val = tensor<fp16, [768]>(BLOBFILE(path = tensor<string, []>("@model_path/weights/weight.bin"), offset = tensor<uint64, []>(307177216)))];
            tensor<fp16, [1, 768, 1, 1]> hidden_states_25_cast_fp16 = conv(bias = layers_11_fc2_bias_to_fp16, dilations = var_2674, groups = var_2477, pad = hidden_states_25_pad_0, pad_type = hidden_states_25_pad_type_0, strides = var_2672, weight = layers_11_fc2_weight_to_fp16, x = input_cast_fp16)[name = tensor<string, []>("hidden_states_25_cast_fp16")];
            tensor<fp16, [1, 768, 1, 1]> inputs_cast_fp16 = add(x = inputs_71_cast_fp16, y = hidden_states_25_cast_fp16)[name = tensor<string, []>("inputs_cast_fp16")];
            tensor<bool, []> var_2685 = const()[name = tensor<string, []>("op_2685"), val = tensor<bool, []>(true)];
            tensor<int32, [1]> var_2689 = const()[name = tensor<string, []>("op_2689"), val = tensor<int32, [1]>([1])];
            tensor<fp16, [1, 1, 1, 1]> channels_mean_cast_fp16 = reduce_mean(axes = var_2689, keep_dims = var_2685, x = inputs_cast_fp16)[name = tensor<string, []>("channels_mean_cast_fp16")];
            tensor<fp16, [1, 768, 1, 1]> zero_mean_cast_fp16 = sub(x = inputs_cast_fp16, y = channels_mean_cast_fp16)[name = tensor<string, []>("zero_mean_cast_fp16")];
            tensor<fp16, [1, 768, 1, 1]> zero_mean_sq_cast_fp16 = mul(x = zero_mean_cast_fp16, y = zero_mean_cast_fp16)[name = tensor<string, []>("zero_mean_sq_cast_fp16")];
            tensor<int32, [1]> var_2693 = const()[name = tensor<string, []>("op_2693"), val = tensor<int32, [1]>([1])];
            tensor<fp16, [1, 1, 1, 1]> var_2694_cast_fp16 = reduce_mean(axes = var_2693, keep_dims = var_2685, x = zero_mean_sq_cast_fp16)[name = tensor<string, []>("op_2694_cast_fp16")];
            tensor<fp16, []> var_2695_to_fp16 = const()[name = tensor<string, []>("op_2695_to_fp16"), val = tensor<fp16, []>(0x1.5p-17)];
            tensor<fp16, [1, 1, 1, 1]> var_2696_cast_fp16 = add(x = var_2694_cast_fp16, y = var_2695_to_fp16)[name = tensor<string, []>("op_2696_cast_fp16")];
            tensor<fp16, []> denom_epsilon_0_to_fp16 = const()[name = tensor<string, []>("denom_epsilon_0_to_fp16"), val = tensor<fp16, []>(0x1p-24)];
            tensor<fp16, [1, 1, 1, 1]> denom_cast_fp16 = rsqrt(epsilon = denom_epsilon_0_to_fp16, x = var_2696_cast_fp16)[name = tensor<string, []>("denom_cast_fp16")];
            tensor<fp16, [1, 768, 1, 1]> out_cast_fp16 = mul(x = zero_mean_cast_fp16, y = denom_cast_fp16)[name = tensor<string, []>("out_cast_fp16")];
            tensor<fp16, [768]> hidden_states_gamma_0_to_fp16 = const()[name = tensor<string, []>("hidden_states_gamma_0_to_fp16"), val = tensor<fp16, [768]>(BLOBFILE(path = tensor<string, []>("@model_path/weights/weight.bin"), offset = tensor<uint64, []>(307178816)))];
            tensor<fp16, [768]> hidden_states_beta_0_to_fp16 = const()[name = tensor<string, []>("hidden_states_beta_0_to_fp16"), val = tensor<fp16, [768]>(BLOBFILE(path = tensor<string, []>("@model_path/weights/weight.bin"), offset = tensor<uint64, []>(307180416)))];
            tensor<fp16, []> hidden_states_epsilon_0_to_fp16 = const()[name = tensor<string, []>("hidden_states_epsilon_0_to_fp16"), val = tensor<fp16, []>(0x1.5p-17)];
            tensor<fp16, [1, 768, 1, 1]> hidden_states_cast_fp16 = batch_norm(beta = hidden_states_beta_0_to_fp16, epsilon = hidden_states_epsilon_0_to_fp16, gamma = hidden_states_gamma_0_to_fp16, mean = obj_1_mean_0_to_fp16, variance = obj_1_variance_0_to_fp16, x = out_cast_fp16)[name = tensor<string, []>("hidden_states_cast_fp16")];
            tensor<int32, [1]> var_2706_axes_0 = const()[name = tensor<string, []>("op_2706_axes_0"), val = tensor<int32, [1]>([2])];
            tensor<fp16, [1, 768, 1]> var_2706_cast_fp16 = squeeze(axes = var_2706_axes_0, x = hidden_states_cast_fp16)[name = tensor<string, []>("op_2706_cast_fp16")];
            tensor<int32, [3]> var_2709_perm_0 = const()[name = tensor<string, []>("op_2709_perm_0"), val = tensor<int32, [3]>([0, 2, 1])];
            tensor<fp16, [51864]> linear_0_bias_0_to_fp16 = const()[name = tensor<string, []>("linear_0_bias_0_to_fp16"), val = tensor<fp16, [51864]>(BLOBFILE(path = tensor<string, []>("@model_path/weights/weight.bin"), offset = tensor<uint64, []>(307182016)))];
            tensor<fp16, [1, 1, 768]> transpose_0 = transpose(perm = var_2709_perm_0, x = var_2706_cast_fp16)[name = tensor<string, []>("transpose_0")];
            tensor<fp16, [1, 1, 51864]> logits = linear(bias = linear_0_bias_0_to_fp16, weight = embed_tokens_weight_to_fp16, x = transpose_0)[name = tensor<string, []>("linear_0_cast_fp16")];
            tensor<int32, []> var_2713 = const()[name = tensor<string, []>("op_2713"), val = tensor<int32, []>(1)];
            tensor<bool, []> obj_171_interleave_0 = const()[name = tensor<string, []>("obj_171_interleave_0"), val = tensor<bool, []>(false)];
            tensor<fp16, [1, 9216, 1, 1]> key_cache_updates = concat(axis = var_2713, interleave = obj_171_interleave_0, values = (current_key_1_cast_fp16, current_key_3_cast_fp16, current_key_5_cast_fp16, current_key_7_cast_fp16, current_key_9_cast_fp16, current_key_11_cast_fp16, current_key_13_cast_fp16, current_key_15_cast_fp16, current_key_17_cast_fp16, current_key_19_cast_fp16, current_key_21_cast_fp16, current_key_cast_fp16))[name = tensor<string, []>("obj_171_cast_fp16")];
            tensor<int32, []> var_2716 = const()[name = tensor<string, []>("op_2716"), val = tensor<int32, []>(1)];
            tensor<bool, []> obj_173_interleave_0 = const()[name = tensor<string, []>("obj_173_interleave_0"), val = tensor<bool, []>(false)];
            tensor<fp16, [1, 9216, 1, 1]> value_cache_updates = concat(axis = var_2716, interleave = obj_173_interleave_0, values = (current_value_1_cast_fp16, current_value_3_cast_fp16, current_value_5_cast_fp16, current_value_7_cast_fp16, current_value_9_cast_fp16, current_value_11_cast_fp16, current_value_13_cast_fp16, current_value_15_cast_fp16, current_value_17_cast_fp16, current_value_19_cast_fp16, current_value_21_cast_fp16, current_value_cast_fp16))[name = tensor<string, []>("obj_173_cast_fp16")];
            tensor<int32, [4]> var_2727_begin_0 = const()[name = tensor<string, []>("op_2727_begin_0"), val = tensor<int32, [4]>([0, 6, 0, 0])];
            tensor<int32, [4]> var_2727_end_0 = const()[name = tensor<string, []>("op_2727_end_0"), val = tensor<int32, [4]>([1, 7, 1, 1500])];
            tensor<bool, [4]> var_2727_end_mask_0 = const()[name = tensor<string, []>("op_2727_end_mask_0"), val = tensor<bool, [4]>([true, false, true, true])];
            tensor<fp16, [1, 1, 1, 1500]> var_2727_cast_fp16 = slice_by_index(begin = var_2727_begin_0, end = var_2727_end_0, end_mask = var_2727_end_mask_0, x = obj_97_cast_fp16)[name = tensor<string, []>("op_2727_cast_fp16")];
            tensor<int32, [4]> var_2730_begin_0 = const()[name = tensor<string, []>("op_2730_begin_0"), val = tensor<int32, [4]>([0, 0, 0, 0])];
            tensor<int32, [4]> var_2730_end_0 = const()[name = tensor<string, []>("op_2730_end_0"), val = tensor<int32, [4]>([1, 1, 1, 1500])];
            tensor<bool, [4]> var_2730_end_mask_0 = const()[name = tensor<string, []>("op_2730_end_mask_0"), val = tensor<bool, [4]>([true, true, false, true])];
            tensor<bool, [4]> var_2730_squeeze_mask_0 = const()[name = tensor<string, []>("op_2730_squeeze_mask_0"), val = tensor<bool, [4]>([false, false, true, false])];
            tensor<fp16, [1, 1, 1500]> var_2730_cast_fp16 = slice_by_index(begin = var_2730_begin_0, end = var_2730_end_0, end_mask = var_2730_end_mask_0, squeeze_mask = var_2730_squeeze_mask_0, x = var_2727_cast_fp16)[name = tensor<string, []>("op_2730_cast_fp16")];
            tensor<int32, [4]> var_2745_begin_0 = const()[name = tensor<string, []>("op_2745_begin_0"), val = tensor<int32, [4]>([0, 0, 0, 0])];
            tensor<int32, [4]> var_2745_end_0 = const()[name = tensor<string, []>("op_2745_end_0"), val = tensor<int32, [4]>([1, 1, 1, 1500])];
            tensor<bool, [4]> var_2745_end_mask_0 = const()[name = tensor<string, []>("op_2745_end_mask_0"), val = tensor<bool, [4]>([true, false, true, true])];
            tensor<fp16, [1, 1, 1, 1500]> var_2745_cast_fp16 = slice_by_index(begin = var_2745_begin_0, end = var_2745_end_0, end_mask = var_2745_end_mask_0, x = obj_111_cast_fp16)[name = tensor<string, []>("op_2745_cast_fp16")];
            tensor<int32, [4]> var_2748_begin_0 = const()[name = tensor<string, []>("op_2748_begin_0"), val = tensor<int32, [4]>([0, 0, 0, 0])];
            tensor<int32, [4]> var_2748_end_0 = const()[name = tensor<string, []>("op_2748_end_0"), val = tensor<int32, [4]>([1, 1, 1, 1500])];
            tensor<bool, [4]> var_2748_end_mask_0 = const()[name = tensor<string, []>("op_2748_end_mask_0"), val = tensor<bool, [4]>([true, true, false, true])];
            tensor<bool, [4]> var_2748_squeeze_mask_0 = const()[name = tensor<string, []>("op_2748_squeeze_mask_0"), val = tensor<bool, [4]>([false, false, true, false])];
            tensor<fp16, [1, 1, 1500]> var_2748_cast_fp16 = slice_by_index(begin = var_2748_begin_0, end = var_2748_end_0, end_mask = var_2748_end_mask_0, squeeze_mask = var_2748_squeeze_mask_0, x = var_2745_cast_fp16)[name = tensor<string, []>("op_2748_cast_fp16")];
            tensor<int32, [4]> var_2763_begin_0 = const()[name = tensor<string, []>("op_2763_begin_0"), val = tensor<int32, [4]>([0, 3, 0, 0])];
            tensor<int32, [4]> var_2763_end_0 = const()[name = tensor<string, []>("op_2763_end_0"), val = tensor<int32, [4]>([1, 4, 1, 1500])];
            tensor<bool, [4]> var_2763_end_mask_0 = const()[name = tensor<string, []>("op_2763_end_mask_0"), val = tensor<bool, [4]>([true, false, true, true])];
            tensor<fp16, [1, 1, 1, 1500]> var_2763_cast_fp16 = slice_by_index(begin = var_2763_begin_0, end = var_2763_end_0, end_mask = var_2763_end_mask_0, x = obj_111_cast_fp16)[name = tensor<string, []>("op_2763_cast_fp16")];
            tensor<int32, [4]> var_2766_begin_0 = const()[name = tensor<string, []>("op_2766_begin_0"), val = tensor<int32, [4]>([0, 0, 0, 0])];
            tensor<int32, [4]> var_2766_end_0 = const()[name = tensor<string, []>("op_2766_end_0"), val = tensor<int32, [4]>([1, 1, 1, 1500])];
            tensor<bool, [4]> var_2766_end_mask_0 = const()[name = tensor<string, []>("op_2766_end_mask_0"), val = tensor<bool, [4]>([true, true, false, true])];
            tensor<bool, [4]> var_2766_squeeze_mask_0 = const()[name = tensor<string, []>("op_2766_squeeze_mask_0"), val = tensor<bool, [4]>([false, false, true, false])];
            tensor<fp16, [1, 1, 1500]> var_2766_cast_fp16 = slice_by_index(begin = var_2766_begin_0, end = var_2766_end_0, end_mask = var_2766_end_mask_0, squeeze_mask = var_2766_squeeze_mask_0, x = var_2763_cast_fp16)[name = tensor<string, []>("op_2766_cast_fp16")];
            tensor<int32, [4]> var_2781_begin_0 = const()[name = tensor<string, []>("op_2781_begin_0"), val = tensor<int32, [4]>([0, 8, 0, 0])];
            tensor<int32, [4]> var_2781_end_0 = const()[name = tensor<string, []>("op_2781_end_0"), val = tensor<int32, [4]>([1, 9, 1, 1500])];
            tensor<bool, [4]> var_2781_end_mask_0 = const()[name = tensor<string, []>("op_2781_end_mask_0"), val = tensor<bool, [4]>([true, false, true, true])];
            tensor<fp16, [1, 1, 1, 1500]> var_2781_cast_fp16 = slice_by_index(begin = var_2781_begin_0, end = var_2781_end_0, end_mask = var_2781_end_mask_0, x = obj_111_cast_fp16)[name = tensor<string, []>("op_2781_cast_fp16")];
            tensor<int32, [4]> var_2784_begin_0 = const()[name = tensor<string, []>("op_2784_begin_0"), val = tensor<int32, [4]>([0, 0, 0, 0])];
            tensor<int32, [4]> var_2784_end_0 = const()[name = tensor<string, []>("op_2784_end_0"), val = tensor<int32, [4]>([1, 1, 1, 1500])];
            tensor<bool, [4]> var_2784_end_mask_0 = const()[name = tensor<string, []>("op_2784_end_mask_0"), val = tensor<bool, [4]>([true, true, false, true])];
            tensor<bool, [4]> var_2784_squeeze_mask_0 = const()[name = tensor<string, []>("op_2784_squeeze_mask_0"), val = tensor<bool, [4]>([false, false, true, false])];
            tensor<fp16, [1, 1, 1500]> var_2784_cast_fp16 = slice_by_index(begin = var_2784_begin_0, end = var_2784_end_0, end_mask = var_2784_end_mask_0, squeeze_mask = var_2784_squeeze_mask_0, x = var_2781_cast_fp16)[name = tensor<string, []>("op_2784_cast_fp16")];
            tensor<int32, [4]> var_2799_begin_0 = const()[name = tensor<string, []>("op_2799_begin_0"), val = tensor<int32, [4]>([0, 2, 0, 0])];
            tensor<int32, [4]> var_2799_end_0 = const()[name = tensor<string, []>("op_2799_end_0"), val = tensor<int32, [4]>([1, 3, 1, 1500])];
            tensor<bool, [4]> var_2799_end_mask_0 = const()[name = tensor<string, []>("op_2799_end_mask_0"), val = tensor<bool, [4]>([true, false, true, true])];
            tensor<fp16, [1, 1, 1, 1500]> var_2799_cast_fp16 = slice_by_index(begin = var_2799_begin_0, end = var_2799_end_0, end_mask = var_2799_end_mask_0, x = obj_125_cast_fp16)[name = tensor<string, []>("op_2799_cast_fp16")];
            tensor<int32, [4]> var_2802_begin_0 = const()[name = tensor<string, []>("op_2802_begin_0"), val = tensor<int32, [4]>([0, 0, 0, 0])];
            tensor<int32, [4]> var_2802_end_0 = const()[name = tensor<string, []>("op_2802_end_0"), val = tensor<int32, [4]>([1, 1, 1, 1500])];
            tensor<bool, [4]> var_2802_end_mask_0 = const()[name = tensor<string, []>("op_2802_end_mask_0"), val = tensor<bool, [4]>([true, true, false, true])];
            tensor<bool, [4]> var_2802_squeeze_mask_0 = const()[name = tensor<string, []>("op_2802_squeeze_mask_0"), val = tensor<bool, [4]>([false, false, true, false])];
            tensor<fp16, [1, 1, 1500]> var_2802_cast_fp16 = slice_by_index(begin = var_2802_begin_0, end = var_2802_end_0, end_mask = var_2802_end_mask_0, squeeze_mask = var_2802_squeeze_mask_0, x = var_2799_cast_fp16)[name = tensor<string, []>("op_2802_cast_fp16")];
            tensor<int32, [4]> var_2817_begin_0 = const()[name = tensor<string, []>("op_2817_begin_0"), val = tensor<int32, [4]>([0, 5, 0, 0])];
            tensor<int32, [4]> var_2817_end_0 = const()[name = tensor<string, []>("op_2817_end_0"), val = tensor<int32, [4]>([1, 6, 1, 1500])];
            tensor<bool, [4]> var_2817_end_mask_0 = const()[name = tensor<string, []>("op_2817_end_mask_0"), val = tensor<bool, [4]>([true, false, true, true])];
            tensor<fp16, [1, 1, 1, 1500]> var_2817_cast_fp16 = slice_by_index(begin = var_2817_begin_0, end = var_2817_end_0, end_mask = var_2817_end_mask_0, x = obj_125_cast_fp16)[name = tensor<string, []>("op_2817_cast_fp16")];
            tensor<int32, [4]> var_2820_begin_0 = const()[name = tensor<string, []>("op_2820_begin_0"), val = tensor<int32, [4]>([0, 0, 0, 0])];
            tensor<int32, [4]> var_2820_end_0 = const()[name = tensor<string, []>("op_2820_end_0"), val = tensor<int32, [4]>([1, 1, 1, 1500])];
            tensor<bool, [4]> var_2820_end_mask_0 = const()[name = tensor<string, []>("op_2820_end_mask_0"), val = tensor<bool, [4]>([true, true, false, true])];
            tensor<bool, [4]> var_2820_squeeze_mask_0 = const()[name = tensor<string, []>("op_2820_squeeze_mask_0"), val = tensor<bool, [4]>([false, false, true, false])];
            tensor<fp16, [1, 1, 1500]> var_2820_cast_fp16 = slice_by_index(begin = var_2820_begin_0, end = var_2820_end_0, end_mask = var_2820_end_mask_0, squeeze_mask = var_2820_squeeze_mask_0, x = var_2817_cast_fp16)[name = tensor<string, []>("op_2820_cast_fp16")];
            tensor<int32, [4]> var_2835_begin_0 = const()[name = tensor<string, []>("op_2835_begin_0"), val = tensor<int32, [4]>([0, 7, 0, 0])];
            tensor<int32, [4]> var_2835_end_0 = const()[name = tensor<string, []>("op_2835_end_0"), val = tensor<int32, [4]>([1, 8, 1, 1500])];
            tensor<bool, [4]> var_2835_end_mask_0 = const()[name = tensor<string, []>("op_2835_end_mask_0"), val = tensor<bool, [4]>([true, false, true, true])];
            tensor<fp16, [1, 1, 1, 1500]> var_2835_cast_fp16 = slice_by_index(begin = var_2835_begin_0, end = var_2835_end_0, end_mask = var_2835_end_mask_0, x = obj_125_cast_fp16)[name = tensor<string, []>("op_2835_cast_fp16")];
            tensor<int32, [4]> var_2838_begin_0 = const()[name = tensor<string, []>("op_2838_begin_0"), val = tensor<int32, [4]>([0, 0, 0, 0])];
            tensor<int32, [4]> var_2838_end_0 = const()[name = tensor<string, []>("op_2838_end_0"), val = tensor<int32, [4]>([1, 1, 1, 1500])];
            tensor<bool, [4]> var_2838_end_mask_0 = const()[name = tensor<string, []>("op_2838_end_mask_0"), val = tensor<bool, [4]>([true, true, false, true])];
            tensor<bool, [4]> var_2838_squeeze_mask_0 = const()[name = tensor<string, []>("op_2838_squeeze_mask_0"), val = tensor<bool, [4]>([false, false, true, false])];
            tensor<fp16, [1, 1, 1500]> var_2838_cast_fp16 = slice_by_index(begin = var_2838_begin_0, end = var_2838_end_0, end_mask = var_2838_end_mask_0, squeeze_mask = var_2838_squeeze_mask_0, x = var_2835_cast_fp16)[name = tensor<string, []>("op_2838_cast_fp16")];
            tensor<int32, [4]> var_2853_begin_0 = const()[name = tensor<string, []>("op_2853_begin_0"), val = tensor<int32, [4]>([0, 0, 0, 0])];
            tensor<int32, [4]> var_2853_end_0 = const()[name = tensor<string, []>("op_2853_end_0"), val = tensor<int32, [4]>([1, 1, 1, 1500])];
            tensor<bool, [4]> var_2853_end_mask_0 = const()[name = tensor<string, []>("op_2853_end_mask_0"), val = tensor<bool, [4]>([true, false, true, true])];
            tensor<fp16, [1, 1, 1, 1500]> var_2853_cast_fp16 = slice_by_index(begin = var_2853_begin_0, end = var_2853_end_0, end_mask = var_2853_end_mask_0, x = obj_139_cast_fp16)[name = tensor<string, []>("op_2853_cast_fp16")];
            tensor<int32, [4]> var_2856_begin_0 = const()[name = tensor<string, []>("op_2856_begin_0"), val = tensor<int32, [4]>([0, 0, 0, 0])];
            tensor<int32, [4]> var_2856_end_0 = const()[name = tensor<string, []>("op_2856_end_0"), val = tensor<int32, [4]>([1, 1, 1, 1500])];
            tensor<bool, [4]> var_2856_end_mask_0 = const()[name = tensor<string, []>("op_2856_end_mask_0"), val = tensor<bool, [4]>([true, true, false, true])];
            tensor<bool, [4]> var_2856_squeeze_mask_0 = const()[name = tensor<string, []>("op_2856_squeeze_mask_0"), val = tensor<bool, [4]>([false, false, true, false])];
            tensor<fp16, [1, 1, 1500]> var_2856_cast_fp16 = slice_by_index(begin = var_2856_begin_0, end = var_2856_end_0, end_mask = var_2856_end_mask_0, squeeze_mask = var_2856_squeeze_mask_0, x = var_2853_cast_fp16)[name = tensor<string, []>("op_2856_cast_fp16")];
            tensor<int32, [4]> var_2871_begin_0 = const()[name = tensor<string, []>("op_2871_begin_0"), val = tensor<int32, [4]>([0, 4, 0, 0])];
            tensor<int32, [4]> var_2871_end_0 = const()[name = tensor<string, []>("op_2871_end_0"), val = tensor<int32, [4]>([1, 5, 1, 1500])];
            tensor<bool, [4]> var_2871_end_mask_0 = const()[name = tensor<string, []>("op_2871_end_mask_0"), val = tensor<bool, [4]>([true, false, true, true])];
            tensor<fp16, [1, 1, 1, 1500]> var_2871_cast_fp16 = slice_by_index(begin = var_2871_begin_0, end = var_2871_end_0, end_mask = var_2871_end_mask_0, x = obj_139_cast_fp16)[name = tensor<string, []>("op_2871_cast_fp16")];
            tensor<int32, [4]> var_2874_begin_0 = const()[name = tensor<string, []>("op_2874_begin_0"), val = tensor<int32, [4]>([0, 0, 0, 0])];
            tensor<int32, [4]> var_2874_end_0 = const()[name = tensor<string, []>("op_2874_end_0"), val = tensor<int32, [4]>([1, 1, 1, 1500])];
            tensor<bool, [4]> var_2874_end_mask_0 = const()[name = tensor<string, []>("op_2874_end_mask_0"), val = tensor<bool, [4]>([true, true, false, true])];
            tensor<bool, [4]> var_2874_squeeze_mask_0 = const()[name = tensor<string, []>("op_2874_squeeze_mask_0"), val = tensor<bool, [4]>([false, false, true, false])];
            tensor<fp16, [1, 1, 1500]> var_2874_cast_fp16 = slice_by_index(begin = var_2874_begin_0, end = var_2874_end_0, end_mask = var_2874_end_mask_0, squeeze_mask = var_2874_squeeze_mask_0, x = var_2871_cast_fp16)[name = tensor<string, []>("op_2874_cast_fp16")];
            tensor<int32, [4]> var_2889_begin_0 = const()[name = tensor<string, []>("op_2889_begin_0"), val = tensor<int32, [4]>([0, 8, 0, 0])];
            tensor<int32, [4]> var_2889_end_0 = const()[name = tensor<string, []>("op_2889_end_0"), val = tensor<int32, [4]>([1, 9, 1, 1500])];
            tensor<bool, [4]> var_2889_end_mask_0 = const()[name = tensor<string, []>("op_2889_end_mask_0"), val = tensor<bool, [4]>([true, false, true, true])];
            tensor<fp16, [1, 1, 1, 1500]> var_2889_cast_fp16 = slice_by_index(begin = var_2889_begin_0, end = var_2889_end_0, end_mask = var_2889_end_mask_0, x = obj_139_cast_fp16)[name = tensor<string, []>("op_2889_cast_fp16")];
            tensor<int32, [4]> var_2892_begin_0 = const()[name = tensor<string, []>("op_2892_begin_0"), val = tensor<int32, [4]>([0, 0, 0, 0])];
            tensor<int32, [4]> var_2892_end_0 = const()[name = tensor<string, []>("op_2892_end_0"), val = tensor<int32, [4]>([1, 1, 1, 1500])];
            tensor<bool, [4]> var_2892_end_mask_0 = const()[name = tensor<string, []>("op_2892_end_mask_0"), val = tensor<bool, [4]>([true, true, false, true])];
            tensor<bool, [4]> var_2892_squeeze_mask_0 = const()[name = tensor<string, []>("op_2892_squeeze_mask_0"), val = tensor<bool, [4]>([false, false, true, false])];
            tensor<fp16, [1, 1, 1500]> var_2892_cast_fp16 = slice_by_index(begin = var_2892_begin_0, end = var_2892_end_0, end_mask = var_2892_end_mask_0, squeeze_mask = var_2892_squeeze_mask_0, x = var_2889_cast_fp16)[name = tensor<string, []>("op_2892_cast_fp16")];
            tensor<int32, [4]> var_2907_begin_0 = const()[name = tensor<string, []>("op_2907_begin_0"), val = tensor<int32, [4]>([0, 10, 0, 0])];
            tensor<int32, [4]> var_2907_end_0 = const()[name = tensor<string, []>("op_2907_end_0"), val = tensor<int32, [4]>([1, 11, 1, 1500])];
            tensor<bool, [4]> var_2907_end_mask_0 = const()[name = tensor<string, []>("op_2907_end_mask_0"), val = tensor<bool, [4]>([true, false, true, true])];
            tensor<fp16, [1, 1, 1, 1500]> var_2907_cast_fp16 = slice_by_index(begin = var_2907_begin_0, end = var_2907_end_0, end_mask = var_2907_end_mask_0, x = obj_139_cast_fp16)[name = tensor<string, []>("op_2907_cast_fp16")];
            tensor<int32, [4]> var_2910_begin_0 = const()[name = tensor<string, []>("op_2910_begin_0"), val = tensor<int32, [4]>([0, 0, 0, 0])];
            tensor<int32, [4]> var_2910_end_0 = const()[name = tensor<string, []>("op_2910_end_0"), val = tensor<int32, [4]>([1, 1, 1, 1500])];
            tensor<bool, [4]> var_2910_end_mask_0 = const()[name = tensor<string, []>("op_2910_end_mask_0"), val = tensor<bool, [4]>([true, true, false, true])];
            tensor<bool, [4]> var_2910_squeeze_mask_0 = const()[name = tensor<string, []>("op_2910_squeeze_mask_0"), val = tensor<bool, [4]>([false, false, true, false])];
            tensor<fp16, [1, 1, 1500]> var_2910_cast_fp16 = slice_by_index(begin = var_2910_begin_0, end = var_2910_end_0, end_mask = var_2910_end_mask_0, squeeze_mask = var_2910_squeeze_mask_0, x = var_2907_cast_fp16)[name = tensor<string, []>("op_2910_cast_fp16")];
            tensor<int32, [4]> var_2925_begin_0 = const()[name = tensor<string, []>("op_2925_begin_0"), val = tensor<int32, [4]>([0, 0, 0, 0])];
            tensor<int32, [4]> var_2925_end_0 = const()[name = tensor<string, []>("op_2925_end_0"), val = tensor<int32, [4]>([1, 1, 1, 1500])];
            tensor<bool, [4]> var_2925_end_mask_0 = const()[name = tensor<string, []>("op_2925_end_mask_0"), val = tensor<bool, [4]>([true, false, true, true])];
            tensor<fp16, [1, 1, 1, 1500]> var_2925_cast_fp16 = slice_by_index(begin = var_2925_begin_0, end = var_2925_end_0, end_mask = var_2925_end_mask_0, x = obj_153_cast_fp16)[name = tensor<string, []>("op_2925_cast_fp16")];
            tensor<int32, [4]> var_2928_begin_0 = const()[name = tensor<string, []>("op_2928_begin_0"), val = tensor<int32, [4]>([0, 0, 0, 0])];
            tensor<int32, [4]> var_2928_end_0 = const()[name = tensor<string, []>("op_2928_end_0"), val = tensor<int32, [4]>([1, 1, 1, 1500])];
            tensor<bool, [4]> var_2928_end_mask_0 = const()[name = tensor<string, []>("op_2928_end_mask_0"), val = tensor<bool, [4]>([true, true, false, true])];
            tensor<bool, [4]> var_2928_squeeze_mask_0 = const()[name = tensor<string, []>("op_2928_squeeze_mask_0"), val = tensor<bool, [4]>([false, false, true, false])];
            tensor<fp16, [1, 1, 1500]> var_2928_cast_fp16 = slice_by_index(begin = var_2928_begin_0, end = var_2928_end_0, end_mask = var_2928_end_mask_0, squeeze_mask = var_2928_squeeze_mask_0, x = var_2925_cast_fp16)[name = tensor<string, []>("op_2928_cast_fp16")];
            tensor<int32, [4]> var_2943_begin_0 = const()[name = tensor<string, []>("op_2943_begin_0"), val = tensor<int32, [4]>([0, 1, 0, 0])];
            tensor<int32, [4]> var_2943_end_0 = const()[name = tensor<string, []>("op_2943_end_0"), val = tensor<int32, [4]>([1, 2, 1, 1500])];
            tensor<bool, [4]> var_2943_end_mask_0 = const()[name = tensor<string, []>("op_2943_end_mask_0"), val = tensor<bool, [4]>([true, false, true, true])];
            tensor<fp16, [1, 1, 1, 1500]> var_2943_cast_fp16 = slice_by_index(begin = var_2943_begin_0, end = var_2943_end_0, end_mask = var_2943_end_mask_0, x = obj_153_cast_fp16)[name = tensor<string, []>("op_2943_cast_fp16")];
            tensor<int32, [4]> var_2946_begin_0 = const()[name = tensor<string, []>("op_2946_begin_0"), val = tensor<int32, [4]>([0, 0, 0, 0])];
            tensor<int32, [4]> var_2946_end_0 = const()[name = tensor<string, []>("op_2946_end_0"), val = tensor<int32, [4]>([1, 1, 1, 1500])];
            tensor<bool, [4]> var_2946_end_mask_0 = const()[name = tensor<string, []>("op_2946_end_mask_0"), val = tensor<bool, [4]>([true, true, false, true])];
            tensor<bool, [4]> var_2946_squeeze_mask_0 = const()[name = tensor<string, []>("op_2946_squeeze_mask_0"), val = tensor<bool, [4]>([false, false, true, false])];
            tensor<fp16, [1, 1, 1500]> var_2946_cast_fp16 = slice_by_index(begin = var_2946_begin_0, end = var_2946_end_0, end_mask = var_2946_end_mask_0, squeeze_mask = var_2946_squeeze_mask_0, x = var_2943_cast_fp16)[name = tensor<string, []>("op_2946_cast_fp16")];
            tensor<int32, [4]> var_2961_begin_0 = const()[name = tensor<string, []>("op_2961_begin_0"), val = tensor<int32, [4]>([0, 2, 0, 0])];
            tensor<int32, [4]> var_2961_end_0 = const()[name = tensor<string, []>("op_2961_end_0"), val = tensor<int32, [4]>([1, 3, 1, 1500])];
            tensor<bool, [4]> var_2961_end_mask_0 = const()[name = tensor<string, []>("op_2961_end_mask_0"), val = tensor<bool, [4]>([true, false, true, true])];
            tensor<fp16, [1, 1, 1, 1500]> var_2961_cast_fp16 = slice_by_index(begin = var_2961_begin_0, end = var_2961_end_0, end_mask = var_2961_end_mask_0, x = obj_153_cast_fp16)[name = tensor<string, []>("op_2961_cast_fp16")];
            tensor<int32, [4]> var_2964_begin_0 = const()[name = tensor<string, []>("op_2964_begin_0"), val = tensor<int32, [4]>([0, 0, 0, 0])];
            tensor<int32, [4]> var_2964_end_0 = const()[name = tensor<string, []>("op_2964_end_0"), val = tensor<int32, [4]>([1, 1, 1, 1500])];
            tensor<bool, [4]> var_2964_end_mask_0 = const()[name = tensor<string, []>("op_2964_end_mask_0"), val = tensor<bool, [4]>([true, true, false, true])];
            tensor<bool, [4]> var_2964_squeeze_mask_0 = const()[name = tensor<string, []>("op_2964_squeeze_mask_0"), val = tensor<bool, [4]>([false, false, true, false])];
            tensor<fp16, [1, 1, 1500]> var_2964_cast_fp16 = slice_by_index(begin = var_2964_begin_0, end = var_2964_end_0, end_mask = var_2964_end_mask_0, squeeze_mask = var_2964_squeeze_mask_0, x = var_2961_cast_fp16)[name = tensor<string, []>("op_2964_cast_fp16")];
            tensor<int32, [4]> var_2979_begin_0 = const()[name = tensor<string, []>("op_2979_begin_0"), val = tensor<int32, [4]>([0, 3, 0, 0])];
            tensor<int32, [4]> var_2979_end_0 = const()[name = tensor<string, []>("op_2979_end_0"), val = tensor<int32, [4]>([1, 4, 1, 1500])];
            tensor<bool, [4]> var_2979_end_mask_0 = const()[name = tensor<string, []>("op_2979_end_mask_0"), val = tensor<bool, [4]>([true, false, true, true])];
            tensor<fp16, [1, 1, 1, 1500]> var_2979_cast_fp16 = slice_by_index(begin = var_2979_begin_0, end = var_2979_end_0, end_mask = var_2979_end_mask_0, x = obj_153_cast_fp16)[name = tensor<string, []>("op_2979_cast_fp16")];
            tensor<int32, [4]> var_2982_begin_0 = const()[name = tensor<string, []>("op_2982_begin_0"), val = tensor<int32, [4]>([0, 0, 0, 0])];
            tensor<int32, [4]> var_2982_end_0 = const()[name = tensor<string, []>("op_2982_end_0"), val = tensor<int32, [4]>([1, 1, 1, 1500])];
            tensor<bool, [4]> var_2982_end_mask_0 = const()[name = tensor<string, []>("op_2982_end_mask_0"), val = tensor<bool, [4]>([true, true, false, true])];
            tensor<bool, [4]> var_2982_squeeze_mask_0 = const()[name = tensor<string, []>("op_2982_squeeze_mask_0"), val = tensor<bool, [4]>([false, false, true, false])];
            tensor<fp16, [1, 1, 1500]> var_2982_cast_fp16 = slice_by_index(begin = var_2982_begin_0, end = var_2982_end_0, end_mask = var_2982_end_mask_0, squeeze_mask = var_2982_squeeze_mask_0, x = var_2979_cast_fp16)[name = tensor<string, []>("op_2982_cast_fp16")];
            tensor<int32, [4]> var_2997_begin_0 = const()[name = tensor<string, []>("op_2997_begin_0"), val = tensor<int32, [4]>([0, 6, 0, 0])];
            tensor<int32, [4]> var_2997_end_0 = const()[name = tensor<string, []>("op_2997_end_0"), val = tensor<int32, [4]>([1, 7, 1, 1500])];
            tensor<bool, [4]> var_2997_end_mask_0 = const()[name = tensor<string, []>("op_2997_end_mask_0"), val = tensor<bool, [4]>([true, false, true, true])];
            tensor<fp16, [1, 1, 1, 1500]> var_2997_cast_fp16 = slice_by_index(begin = var_2997_begin_0, end = var_2997_end_0, end_mask = var_2997_end_mask_0, x = obj_153_cast_fp16)[name = tensor<string, []>("op_2997_cast_fp16")];
            tensor<int32, [4]> var_3000_begin_0 = const()[name = tensor<string, []>("op_3000_begin_0"), val = tensor<int32, [4]>([0, 0, 0, 0])];
            tensor<int32, [4]> var_3000_end_0 = const()[name = tensor<string, []>("op_3000_end_0"), val = tensor<int32, [4]>([1, 1, 1, 1500])];
            tensor<bool, [4]> var_3000_end_mask_0 = const()[name = tensor<string, []>("op_3000_end_mask_0"), val = tensor<bool, [4]>([true, true, false, true])];
            tensor<bool, [4]> var_3000_squeeze_mask_0 = const()[name = tensor<string, []>("op_3000_squeeze_mask_0"), val = tensor<bool, [4]>([false, false, true, false])];
            tensor<fp16, [1, 1, 1500]> var_3000_cast_fp16 = slice_by_index(begin = var_3000_begin_0, end = var_3000_end_0, end_mask = var_3000_end_mask_0, squeeze_mask = var_3000_squeeze_mask_0, x = var_2997_cast_fp16)[name = tensor<string, []>("op_3000_cast_fp16")];
            tensor<int32, [4]> var_3015_begin_0 = const()[name = tensor<string, []>("op_3015_begin_0"), val = tensor<int32, [4]>([0, 11, 0, 0])];
            tensor<int32, [4]> var_3015_end_0 = const()[name = tensor<string, []>("op_3015_end_0"), val = tensor<int32, [4]>([1, 12, 1, 1500])];
            tensor<bool, [4]> var_3015_end_mask_0 = const()[name = tensor<string, []>("op_3015_end_mask_0"), val = tensor<bool, [4]>([true, false, true, true])];
            tensor<fp16, [1, 1, 1, 1500]> var_3015_cast_fp16 = slice_by_index(begin = var_3015_begin_0, end = var_3015_end_0, end_mask = var_3015_end_mask_0, x = obj_153_cast_fp16)[name = tensor<string, []>("op_3015_cast_fp16")];
            tensor<int32, [4]> var_3018_begin_0 = const()[name = tensor<string, []>("op_3018_begin_0"), val = tensor<int32, [4]>([0, 0, 0, 0])];
            tensor<int32, [4]> var_3018_end_0 = const()[name = tensor<string, []>("op_3018_end_0"), val = tensor<int32, [4]>([1, 1, 1, 1500])];
            tensor<bool, [4]> var_3018_end_mask_0 = const()[name = tensor<string, []>("op_3018_end_mask_0"), val = tensor<bool, [4]>([true, true, false, true])];
            tensor<bool, [4]> var_3018_squeeze_mask_0 = const()[name = tensor<string, []>("op_3018_squeeze_mask_0"), val = tensor<bool, [4]>([false, false, true, false])];
            tensor<fp16, [1, 1, 1500]> var_3018_cast_fp16 = slice_by_index(begin = var_3018_begin_0, end = var_3018_end_0, end_mask = var_3018_end_mask_0, squeeze_mask = var_3018_squeeze_mask_0, x = var_3015_cast_fp16)[name = tensor<string, []>("op_3018_cast_fp16")];
            tensor<int32, [4]> var_3033_begin_0 = const()[name = tensor<string, []>("op_3033_begin_0"), val = tensor<int32, [4]>([0, 2, 0, 0])];
            tensor<int32, [4]> var_3033_end_0 = const()[name = tensor<string, []>("op_3033_end_0"), val = tensor<int32, [4]>([1, 3, 1, 1500])];
            tensor<bool, [4]> var_3033_end_mask_0 = const()[name = tensor<string, []>("op_3033_end_mask_0"), val = tensor<bool, [4]>([true, false, true, true])];
            tensor<fp16, [1, 1, 1, 1500]> var_3033_cast_fp16 = slice_by_index(begin = var_3033_begin_0, end = var_3033_end_0, end_mask = var_3033_end_mask_0, x = obj_167_cast_fp16)[name = tensor<string, []>("op_3033_cast_fp16")];
            tensor<int32, [4]> var_3036_begin_0 = const()[name = tensor<string, []>("op_3036_begin_0"), val = tensor<int32, [4]>([0, 0, 0, 0])];
            tensor<int32, [4]> var_3036_end_0 = const()[name = tensor<string, []>("op_3036_end_0"), val = tensor<int32, [4]>([1, 1, 1, 1500])];
            tensor<bool, [4]> var_3036_end_mask_0 = const()[name = tensor<string, []>("op_3036_end_mask_0"), val = tensor<bool, [4]>([true, true, false, true])];
            tensor<bool, [4]> var_3036_squeeze_mask_0 = const()[name = tensor<string, []>("op_3036_squeeze_mask_0"), val = tensor<bool, [4]>([false, false, true, false])];
            tensor<fp16, [1, 1, 1500]> var_3036_cast_fp16 = slice_by_index(begin = var_3036_begin_0, end = var_3036_end_0, end_mask = var_3036_end_mask_0, squeeze_mask = var_3036_squeeze_mask_0, x = var_3033_cast_fp16)[name = tensor<string, []>("op_3036_cast_fp16")];
            tensor<int32, [4]> var_3051_begin_0 = const()[name = tensor<string, []>("op_3051_begin_0"), val = tensor<int32, [4]>([0, 4, 0, 0])];
            tensor<int32, [4]> var_3051_end_0 = const()[name = tensor<string, []>("op_3051_end_0"), val = tensor<int32, [4]>([1, 5, 1, 1500])];
            tensor<bool, [4]> var_3051_end_mask_0 = const()[name = tensor<string, []>("op_3051_end_mask_0"), val = tensor<bool, [4]>([true, false, true, true])];
            tensor<fp16, [1, 1, 1, 1500]> var_3051_cast_fp16 = slice_by_index(begin = var_3051_begin_0, end = var_3051_end_0, end_mask = var_3051_end_mask_0, x = obj_167_cast_fp16)[name = tensor<string, []>("op_3051_cast_fp16")];
            tensor<int32, [4]> var_3054_begin_0 = const()[name = tensor<string, []>("op_3054_begin_0"), val = tensor<int32, [4]>([0, 0, 0, 0])];
            tensor<int32, [4]> var_3054_end_0 = const()[name = tensor<string, []>("op_3054_end_0"), val = tensor<int32, [4]>([1, 1, 1, 1500])];
            tensor<bool, [4]> var_3054_end_mask_0 = const()[name = tensor<string, []>("op_3054_end_mask_0"), val = tensor<bool, [4]>([true, true, false, true])];
            tensor<bool, [4]> var_3054_squeeze_mask_0 = const()[name = tensor<string, []>("op_3054_squeeze_mask_0"), val = tensor<bool, [4]>([false, false, true, false])];
            tensor<fp16, [1, 1, 1500]> var_3054_cast_fp16 = slice_by_index(begin = var_3054_begin_0, end = var_3054_end_0, end_mask = var_3054_end_mask_0, squeeze_mask = var_3054_squeeze_mask_0, x = var_3051_cast_fp16)[name = tensor<string, []>("op_3054_cast_fp16")];
            tensor<int32, []> var_3061 = const()[name = tensor<string, []>("op_3061"), val = tensor<int32, []>(1)];
            tensor<bool, []> var_3062_interleave_0 = const()[name = tensor<string, []>("op_3062_interleave_0"), val = tensor<bool, []>(false)];
            tensor<fp16, [1, 19, 1500]> var_3062_cast_fp16 = concat(axis = var_3061, interleave = var_3062_interleave_0, values = (var_2730_cast_fp16, var_2748_cast_fp16, var_2766_cast_fp16, var_2784_cast_fp16, var_2802_cast_fp16, var_2820_cast_fp16, var_2838_cast_fp16, var_2856_cast_fp16, var_2874_cast_fp16, var_2892_cast_fp16, var_2910_cast_fp16, var_2928_cast_fp16, var_2946_cast_fp16, var_2964_cast_fp16, var_2982_cast_fp16, var_3000_cast_fp16, var_3018_cast_fp16, var_3036_cast_fp16, var_3054_cast_fp16))[name = tensor<string, []>("op_3062_cast_fp16")];
            tensor<int32, [1]> var_3064 = const()[name = tensor<string, []>("op_3064"), val = tensor<int32, [1]>([1])];
            tensor<bool, []> var_3065 = const()[name = tensor<string, []>("op_3065"), val = tensor<bool, []>(false)];
            tensor<fp16, [1, 1500]> alignment_heads_weights = reduce_mean(axes = var_3064, keep_dims = var_3065, x = var_3062_cast_fp16)[name = tensor<string, []>("obj_cast_fp16")];
        } -> (logits, key_cache_updates, value_cache_updates, alignment_heads_weights);
}