program(1.0)
[buildInfo = dict<tensor<string, []>, tensor<string, []>>({{"coremlc-component-MIL", "5.33.5"}, {"coremlc-version", "1877.40.3"}, {"coremltools-component-torch", "2.2.1"}, {"coremltools-source-dialect", "TorchScript"}, {"coremltools-version", "7.1"}})]
{
    func main<ios16>(tensor<int32, [1]> cache_length, tensor<fp16, [1, 448]> decoder_key_padding_mask, tensor<fp16, [1, 1280, 1, 1500]> encoder_output_embeds, tensor<int32, [1]> input_ids, tensor<fp16, [1, 40960, 1, 448]> key_cache, tensor<fp16, [1, 448]> kv_cache_update_mask, tensor<fp16, [1, 40960, 1, 448]> value_cache) {
            tensor<int32, []> var_80_axis_0 = const()[name = tensor<string, []>("op_80_axis_0"), val = tensor<int32, []>(0)];
            tensor<int32, []> var_80_batch_dims_0 = const()[name = tensor<string, []>("op_80_batch_dims_0"), val = tensor<int32, []>(0)];
            tensor<fp16, [51865, 1280]> embed_tokens_weight_to_fp16 = const()[name = tensor<string, []>("embed_tokens_weight_to_fp16"), val = tensor<fp16, [51865, 1280]>(BLOBFILE(path = tensor<string, []>("@model_path/weights/weight.bin"), offset = tensor<uint64, []>(64)))];
            tensor<fp16, [1, 1280]> var_80_cast_fp16 = gather(axis = var_80_axis_0, batch_dims = var_80_batch_dims_0, indices = input_ids, x = embed_tokens_weight_to_fp16)[name = tensor<string, []>("op_80_cast_fp16")];
            tensor<int32, []> var_84_axis_0 = const()[name = tensor<string, []>("op_84_axis_0"), val = tensor<int32, []>(0)];
            tensor<int32, []> var_84_batch_dims_0 = const()[name = tensor<string, []>("op_84_batch_dims_0"), val = tensor<int32, []>(0)];
            tensor<fp16, [448, 1280]> embed_positions_weight_to_fp16 = const()[name = tensor<string, []>("embed_positions_weight_to_fp16"), val = tensor<fp16, [448, 1280]>(BLOBFILE(path = tensor<string, []>("@model_path/weights/weight.bin"), offset = tensor<uint64, []>(132774528)))];
            tensor<fp16, [1, 1280]> var_84_cast_fp16 = gather(axis = var_84_axis_0, batch_dims = var_84_batch_dims_0, indices = cache_length, x = embed_positions_weight_to_fp16)[name = tensor<string, []>("op_84_cast_fp16")];
            tensor<fp16, [1, 1280]> hidden_states_1_cast_fp16 = add(x = var_80_cast_fp16, y = var_84_cast_fp16)[name = tensor<string, []>("hidden_states_1_cast_fp16")];
            tensor<int32, [1]> var_98_axes_0 = const()[name = tensor<string, []>("op_98_axes_0"), val = tensor<int32, [1]>([2])];
            tensor<fp16, [1, 1280, 1]> var_98_cast_fp16 = expand_dims(axes = var_98_axes_0, x = hidden_states_1_cast_fp16)[name = tensor<string, []>("op_98_cast_fp16")];
            tensor<int32, [1]> inputs_1_axes_0 = const()[name = tensor<string, []>("inputs_1_axes_0"), val = tensor<int32, [1]>([3])];
            tensor<fp16, [1, 1280, 1, 1]> inputs_1_cast_fp16 = expand_dims(axes = inputs_1_axes_0, x = var_98_cast_fp16)[name = tensor<string, []>("inputs_1_cast_fp16")];
            tensor<int32, [32]> tile_0 = const()[name = tensor<string, []>("tile_0"), val = tensor<int32, [32]>([1280, 1280, 1280, 1280, 1280, 1280, 1280, 1280, 1280, 1280, 1280, 1280, 1280, 1280, 1280, 1280, 1280, 1280, 1280, 1280, 1280, 1280, 1280, 1280, 1280, 1280, 1280, 1280, 1280, 1280, 1280, 1280])];
            tensor<int32, []> var_103_axis_0 = const()[name = tensor<string, []>("op_103_axis_0"), val = tensor<int32, []>(1)];
            tensor<fp16, [1, 1280, 1, 448]> var_103_cast_fp16_0, tensor<fp16, [1, 1280, 1, 448]> var_103_cast_fp16_1, tensor<fp16, [1, 1280, 1, 448]> var_103_cast_fp16_2, tensor<fp16, [1, 1280, 1, 448]> var_103_cast_fp16_3, tensor<fp16, [1, 1280, 1, 448]> var_103_cast_fp16_4, tensor<fp16, [1, 1280, 1, 448]> var_103_cast_fp16_5, tensor<fp16, [1, 1280, 1, 448]> var_103_cast_fp16_6, tensor<fp16, [1, 1280, 1, 448]> var_103_cast_fp16_7, tensor<fp16, [1, 1280, 1, 448]> var_103_cast_fp16_8, tensor<fp16, [1, 1280, 1, 448]> var_103_cast_fp16_9, tensor<fp16, [1, 1280, 1, 448]> var_103_cast_fp16_10, tensor<fp16, [1, 1280, 1, 448]> var_103_cast_fp16_11, tensor<fp16, [1, 1280, 1, 448]> var_103_cast_fp16_12, tensor<fp16, [1, 1280, 1, 448]> var_103_cast_fp16_13, tensor<fp16, [1, 1280, 1, 448]> var_103_cast_fp16_14, tensor<fp16, [1, 1280, 1, 448]> var_103_cast_fp16_15, tensor<fp16, [1, 1280, 1, 448]> var_103_cast_fp16_16, tensor<fp16, [1, 1280, 1, 448]> var_103_cast_fp16_17, tensor<fp16, [1, 1280, 1, 448]> var_103_cast_fp16_18, tensor<fp16, [1, 1280, 1, 448]> var_103_cast_fp16_19, tensor<fp16, [1, 1280, 1, 448]> var_103_cast_fp16_20, tensor<fp16, [1, 1280, 1, 448]> var_103_cast_fp16_21, tensor<fp16, [1, 1280, 1, 448]> var_103_cast_fp16_22, tensor<fp16, [1, 1280, 1, 448]> var_103_cast_fp16_23, tensor<fp16, [1, 1280, 1, 448]> var_103_cast_fp16_24, tensor<fp16, [1, 1280, 1, 448]> var_103_cast_fp16_25, tensor<fp16, [1, 1280, 1, 448]> var_103_cast_fp16_26, tensor<fp16, [1, 1280, 1, 448]> var_103_cast_fp16_27, tensor<fp16, [1, 1280, 1, 448]> var_103_cast_fp16_28, tensor<fp16, [1, 1280, 1, 448]> var_103_cast_fp16_29, tensor<fp16, [1, 1280, 1, 448]> var_103_cast_fp16_30, tensor<fp16, [1, 1280, 1, 448]> var_103_cast_fp16_31 = split(axis = var_103_axis_0, split_sizes = tile_0, x = key_cache)[name = tensor<string, []>("op_103_cast_fp16")];
            tensor<int32, [32]> tile_1 = const()[name = tensor<string, []>("tile_1"), val = tensor<int32, [32]>([1280, 1280, 1280, 1280, 1280, 1280, 1280, 1280, 1280, 1280, 1280, 1280, 1280, 1280, 1280, 1280, 1280, 1280, 1280, 1280, 1280, 1280, 1280, 1280, 1280, 1280, 1280, 1280, 1280, 1280, 1280, 1280])];
            tensor<int32, []> var_138_axis_0 = const()[name = tensor<string, []>("op_138_axis_0"), val = tensor<int32, []>(1)];
            tensor<fp16, [1, 1280, 1, 448]> var_138_cast_fp16_0, tensor<fp16, [1, 1280, 1, 448]> var_138_cast_fp16_1, tensor<fp16, [1, 1280, 1, 448]> var_138_cast_fp16_2, tensor<fp16, [1, 1280, 1, 448]> var_138_cast_fp16_3, tensor<fp16, [1, 1280, 1, 448]> var_138_cast_fp16_4, tensor<fp16, [1, 1280, 1, 448]> var_138_cast_fp16_5, tensor<fp16, [1, 1280, 1, 448]> var_138_cast_fp16_6, tensor<fp16, [1, 1280, 1, 448]> var_138_cast_fp16_7, tensor<fp16, [1, 1280, 1, 448]> var_138_cast_fp16_8, tensor<fp16, [1, 1280, 1, 448]> var_138_cast_fp16_9, tensor<fp16, [1, 1280, 1, 448]> var_138_cast_fp16_10, tensor<fp16, [1, 1280, 1, 448]> var_138_cast_fp16_11, tensor<fp16, [1, 1280, 1, 448]> var_138_cast_fp16_12, tensor<fp16, [1, 1280, 1, 448]> var_138_cast_fp16_13, tensor<fp16, [1, 1280, 1, 448]> var_138_cast_fp16_14, tensor<fp16, [1, 1280, 1, 448]> var_138_cast_fp16_15, tensor<fp16, [1, 1280, 1, 448]> var_138_cast_fp16_16, tensor<fp16, [1, 1280, 1, 448]> var_138_cast_fp16_17, tensor<fp16, [1, 1280, 1, 448]> var_138_cast_fp16_18, tensor<fp16, [1, 1280, 1, 448]> var_138_cast_fp16_19, tensor<fp16, [1, 1280, 1, 448]> var_138_cast_fp16_20, tensor<fp16, [1, 1280, 1, 448]> var_138_cast_fp16_21, tensor<fp16, [1, 1280, 1, 448]> var_138_cast_fp16_22, tensor<fp16, [1, 1280, 1, 448]> var_138_cast_fp16_23, tensor<fp16, [1, 1280, 1, 448]> var_138_cast_fp16_24, tensor<fp16, [1, 1280, 1, 448]> var_138_cast_fp16_25, tensor<fp16, [1, 1280, 1, 448]> var_138_cast_fp16_26, tensor<fp16, [1, 1280, 1, 448]> var_138_cast_fp16_27, tensor<fp16, [1, 1280, 1, 448]> var_138_cast_fp16_28, tensor<fp16, [1, 1280, 1, 448]> var_138_cast_fp16_29, tensor<fp16, [1, 1280, 1, 448]> var_138_cast_fp16_30, tensor<fp16, [1, 1280, 1, 448]> var_138_cast_fp16_31 = split(axis = var_138_axis_0, split_sizes = tile_1, x = value_cache)[name = tensor<string, []>("op_138_cast_fp16")];
            tensor<int32, []> var_176 = const()[name = tensor<string, []>("op_176"), val = tensor<int32, []>(3)];
            tensor<int32, []> var_183 = const()[name = tensor<string, []>("op_183"), val = tensor<int32, []>(1)];
            tensor<bool, []> var_184 = const()[name = tensor<string, []>("op_184"), val = tensor<bool, []>(true)];
            tensor<int32, [1]> var_196 = const()[name = tensor<string, []>("op_196"), val = tensor<int32, [1]>([1])];
            tensor<fp16, [1, 1, 1, 1]> channels_mean_1_cast_fp16 = reduce_mean(axes = var_196, keep_dims = var_184, x = inputs_1_cast_fp16)[name = tensor<string, []>("channels_mean_1_cast_fp16")];
            tensor<fp16, [1, 1280, 1, 1]> zero_mean_1_cast_fp16 = sub(x = inputs_1_cast_fp16, y = channels_mean_1_cast_fp16)[name = tensor<string, []>("zero_mean_1_cast_fp16")];
            tensor<fp16, [1, 1280, 1, 1]> zero_mean_sq_1_cast_fp16 = mul(x = zero_mean_1_cast_fp16, y = zero_mean_1_cast_fp16)[name = tensor<string, []>("zero_mean_sq_1_cast_fp16")];
            tensor<int32, [1]> var_200 = const()[name = tensor<string, []>("op_200"), val = tensor<int32, [1]>([1])];
            tensor<fp16, [1, 1, 1, 1]> var_201_cast_fp16 = reduce_mean(axes = var_200, keep_dims = var_184, x = zero_mean_sq_1_cast_fp16)[name = tensor<string, []>("op_201_cast_fp16")];
            tensor<fp16, []> var_202_to_fp16 = const()[name = tensor<string, []>("op_202_to_fp16"), val = tensor<fp16, []>(0x1.5p-17)];
            tensor<fp16, [1, 1, 1, 1]> var_203_cast_fp16 = add(x = var_201_cast_fp16, y = var_202_to_fp16)[name = tensor<string, []>("op_203_cast_fp16")];
            tensor<fp16, []> denom_1_epsilon_0_to_fp16 = const()[name = tensor<string, []>("denom_1_epsilon_0_to_fp16"), val = tensor<fp16, []>(0x1p-24)];
            tensor<fp16, [1, 1, 1, 1]> denom_1_cast_fp16 = rsqrt(epsilon = denom_1_epsilon_0_to_fp16, x = var_203_cast_fp16)[name = tensor<string, []>("denom_1_cast_fp16")];
            tensor<fp16, [1, 1280, 1, 1]> out_1_cast_fp16 = mul(x = zero_mean_1_cast_fp16, y = denom_1_cast_fp16)[name = tensor<string, []>("out_1_cast_fp16")];
            tensor<fp16, [1280]> obj_1_mean_0_to_fp16 = const()[name = tensor<string, []>("obj_1_mean_0_to_fp16"), val = tensor<fp16, [1280]>(BLOBFILE(path = tensor<string, []>("@model_path/weights/weight.bin"), offset = tensor<uint64, []>(133921472)))];
            tensor<fp16, [1280]> obj_1_variance_0_to_fp16 = const()[name = tensor<string, []>("obj_1_variance_0_to_fp16"), val = tensor<fp16, [1280]>(BLOBFILE(path = tensor<string, []>("@model_path/weights/weight.bin"), offset = tensor<uint64, []>(133924096)))];
            tensor<fp16, [1280]> obj_1_gamma_0_to_fp16 = const()[name = tensor<string, []>("obj_1_gamma_0_to_fp16"), val = tensor<fp16, [1280]>(BLOBFILE(path = tensor<string, []>("@model_path/weights/weight.bin"), offset = tensor<uint64, []>(133926720)))];
            tensor<fp16, [1280]> obj_1_beta_0_to_fp16 = const()[name = tensor<string, []>("obj_1_beta_0_to_fp16"), val = tensor<fp16, [1280]>(BLOBFILE(path = tensor<string, []>("@model_path/weights/weight.bin"), offset = tensor<uint64, []>(133929344)))];
            tensor<fp16, []> obj_1_epsilon_0_to_fp16 = const()[name = tensor<string, []>("obj_1_epsilon_0_to_fp16"), val = tensor<fp16, []>(0x1.5p-17)];
            tensor<fp16, [1, 1280, 1, 1]> obj_1_cast_fp16 = batch_norm(beta = obj_1_beta_0_to_fp16, epsilon = obj_1_epsilon_0_to_fp16, gamma = obj_1_gamma_0_to_fp16, mean = obj_1_mean_0_to_fp16, variance = obj_1_variance_0_to_fp16, x = out_1_cast_fp16)[name = tensor<string, []>("obj_1_cast_fp16")];
            tensor<int32, [2]> var_218 = const()[name = tensor<string, []>("op_218"), val = tensor<int32, [2]>([1, 1])];
            tensor<int32, [2]> var_220 = const()[name = tensor<string, []>("op_220"), val = tensor<int32, [2]>([1, 1])];
            tensor<string, []> query_1_pad_type_0 = const()[name = tensor<string, []>("query_1_pad_type_0"), val = tensor<string, []>("custom")];
            tensor<int32, [4]> query_1_pad_0 = const()[name = tensor<string, []>("query_1_pad_0"), val = tensor<int32, [4]>([0, 0, 0, 0])];
            tensor<fp16, [1280, 1280, 1, 1]> layers_0_self_attn_q_proj_weight_to_fp16 = const()[name = tensor<string, []>("layers_0_self_attn_q_proj_weight_to_fp16"), val = tensor<fp16, [1280, 1280, 1, 1]>(BLOBFILE(path = tensor<string, []>("@model_path/weights/weight.bin"), offset = tensor<uint64, []>(133931968)))];
            tensor<fp16, [1280]> layers_0_self_attn_q_proj_bias_to_fp16 = const()[name = tensor<string, []>("layers_0_self_attn_q_proj_bias_to_fp16"), val = tensor<fp16, [1280]>(BLOBFILE(path = tensor<string, []>("@model_path/weights/weight.bin"), offset = tensor<uint64, []>(137208832)))];
            tensor<fp16, [1, 1280, 1, 1]> query_1_cast_fp16 = conv(bias = layers_0_self_attn_q_proj_bias_to_fp16, dilations = var_220, groups = var_183, pad = query_1_pad_0, pad_type = query_1_pad_type_0, strides = var_218, weight = layers_0_self_attn_q_proj_weight_to_fp16, x = obj_1_cast_fp16)[name = tensor<string, []>("query_1_cast_fp16")];
            tensor<int32, [2]> var_224 = const()[name = tensor<string, []>("op_224"), val = tensor<int32, [2]>([1, 1])];
            tensor<int32, [2]> var_226 = const()[name = tensor<string, []>("op_226"), val = tensor<int32, [2]>([1, 1])];
            tensor<string, []> current_key_1_pad_type_0 = const()[name = tensor<string, []>("current_key_1_pad_type_0"), val = tensor<string, []>("custom")];
            tensor<int32, [4]> current_key_1_pad_0 = const()[name = tensor<string, []>("current_key_1_pad_0"), val = tensor<int32, [4]>([0, 0, 0, 0])];
            tensor<fp16, [1280, 1280, 1, 1]> layers_0_self_attn_k_proj_weight_to_fp16 = const()[name = tensor<string, []>("layers_0_self_attn_k_proj_weight_to_fp16"), val = tensor<fp16, [1280, 1280, 1, 1]>(BLOBFILE(path = tensor<string, []>("@model_path/weights/weight.bin"), offset = tensor<uint64, []>(137211456)))];
            tensor<fp16, [1, 1280, 1, 1]> current_key_1_cast_fp16 = conv(dilations = var_226, groups = var_183, pad = current_key_1_pad_0, pad_type = current_key_1_pad_type_0, strides = var_224, weight = layers_0_self_attn_k_proj_weight_to_fp16, x = obj_1_cast_fp16)[name = tensor<string, []>("current_key_1_cast_fp16")];
            tensor<int32, [2]> var_231 = const()[name = tensor<string, []>("op_231"), val = tensor<int32, [2]>([1, 1])];
            tensor<int32, [2]> var_233 = const()[name = tensor<string, []>("op_233"), val = tensor<int32, [2]>([1, 1])];
            tensor<string, []> current_value_1_pad_type_0 = const()[name = tensor<string, []>("current_value_1_pad_type_0"), val = tensor<string, []>("custom")];
            tensor<int32, [4]> current_value_1_pad_0 = const()[name = tensor<string, []>("current_value_1_pad_0"), val = tensor<int32, [4]>([0, 0, 0, 0])];
            tensor<fp16, [1280, 1280, 1, 1]> layers_0_self_attn_v_proj_weight_to_fp16 = const()[name = tensor<string, []>("layers_0_self_attn_v_proj_weight_to_fp16"), val = tensor<fp16, [1280, 1280, 1, 1]>(BLOBFILE(path = tensor<string, []>("@model_path/weights/weight.bin"), offset = tensor<uint64, []>(140488320)))];
            tensor<fp16, [1280]> layers_0_self_attn_v_proj_bias_to_fp16 = const()[name = tensor<string, []>("layers_0_self_attn_v_proj_bias_to_fp16"), val = tensor<fp16, [1280]>(BLOBFILE(path = tensor<string, []>("@model_path/weights/weight.bin"), offset = tensor<uint64, []>(143765184)))];
            tensor<fp16, [1, 1280, 1, 1]> current_value_1_cast_fp16 = conv(bias = layers_0_self_attn_v_proj_bias_to_fp16, dilations = var_233, groups = var_183, pad = current_value_1_pad_0, pad_type = current_value_1_pad_type_0, strides = var_231, weight = layers_0_self_attn_v_proj_weight_to_fp16, x = obj_1_cast_fp16)[name = tensor<string, []>("current_value_1_cast_fp16")];
            tensor<int32, [1]> var_237_axes_0 = const()[name = tensor<string, []>("op_237_axes_0"), val = tensor<int32, [1]>([1])];
            tensor<fp16, [1, 1, 448]> var_237_cast_fp16 = expand_dims(axes = var_237_axes_0, x = kv_cache_update_mask)[name = tensor<string, []>("op_237_cast_fp16")];
            tensor<int32, [1]> var_238_axes_0 = const()[name = tensor<string, []>("op_238_axes_0"), val = tensor<int32, [1]>([2])];
            tensor<fp16, [1, 1, 1, 448]> var_238_cast_fp16 = expand_dims(axes = var_238_axes_0, x = var_237_cast_fp16)[name = tensor<string, []>("op_238_cast_fp16")];
            tensor<fp16, [1, 1280, 1, 448]> var_240_cast_fp16 = mul(x = current_key_1_cast_fp16, y = var_238_cast_fp16)[name = tensor<string, []>("op_240_cast_fp16")];
            tensor<fp16, []> var_177_to_fp16 = const()[name = tensor<string, []>("op_177_to_fp16"), val = tensor<fp16, []>(0x1p+0)];
            tensor<fp16, [1, 1, 1, 448]> var_241_cast_fp16 = sub(x = var_177_to_fp16, y = var_238_cast_fp16)[name = tensor<string, []>("op_241_cast_fp16")];
            tensor<fp16, [1, 1280, 1, 448]> var_242_cast_fp16 = mul(x = var_103_cast_fp16_0, y = var_241_cast_fp16)[name = tensor<string, []>("op_242_cast_fp16")];
            tensor<fp16, [1, 1280, 1, 448]> key_1_cast_fp16 = add(x = var_240_cast_fp16, y = var_242_cast_fp16)[name = tensor<string, []>("key_1_cast_fp16")];
            tensor<fp16, [1, 1280, 1, 448]> var_244_cast_fp16 = mul(x = current_value_1_cast_fp16, y = var_238_cast_fp16)[name = tensor<string, []>("op_244_cast_fp16")];
            tensor<fp16, [1, 1280, 1, 448]> var_246_cast_fp16 = mul(x = var_138_cast_fp16_0, y = var_241_cast_fp16)[name = tensor<string, []>("op_246_cast_fp16")];
            tensor<fp16, [1, 1280, 1, 448]> value_1_cast_fp16 = add(x = var_244_cast_fp16, y = var_246_cast_fp16)[name = tensor<string, []>("value_1_cast_fp16")];
            tensor<int32, [4]> var_249 = const()[name = tensor<string, []>("op_249"), val = tensor<int32, [4]>([1, 20, 64, -1])];
            tensor<fp16, [1, 20, 64, 1]> var_250_cast_fp16 = reshape(shape = var_249, x = query_1_cast_fp16)[name = tensor<string, []>("op_250_cast_fp16")];
            tensor<fp16, []> var_251_to_fp16 = const()[name = tensor<string, []>("op_251_to_fp16"), val = tensor<fp16, []>(0x1p-3)];
            tensor<fp16, [1, 20, 64, 1]> var_252_cast_fp16 = mul(x = var_250_cast_fp16, y = var_251_to_fp16)[name = tensor<string, []>("op_252_cast_fp16")];
            tensor<int32, [4]> var_253 = const()[name = tensor<string, []>("op_253"), val = tensor<int32, [4]>([1, 20, 64, -1])];
            tensor<fp16, [1, 20, 64, 448]> var_254_cast_fp16 = reshape(shape = var_253, x = key_1_cast_fp16)[name = tensor<string, []>("op_254_cast_fp16")];
            tensor<bool, []> mh_w_1_transpose_x_0 = const()[name = tensor<string, []>("mh_w_1_transpose_x_0"), val = tensor<bool, []>(true)];
            tensor<bool, []> mh_w_1_transpose_y_0 = const()[name = tensor<string, []>("mh_w_1_transpose_y_0"), val = tensor<bool, []>(false)];
            tensor<fp16, [1, 20, 1, 448]> mh_w_1_cast_fp16 = matmul(transpose_x = mh_w_1_transpose_x_0, transpose_y = mh_w_1_transpose_y_0, x = var_252_cast_fp16, y = var_254_cast_fp16)[name = tensor<string, []>("mh_w_1_cast_fp16")];
            tensor<int32, [1]> var_258_axes_0 = const()[name = tensor<string, []>("op_258_axes_0"), val = tensor<int32, [1]>([1])];
            tensor<fp16, [1, 1, 448]> var_258_cast_fp16 = expand_dims(axes = var_258_axes_0, x = decoder_key_padding_mask)[name = tensor<string, []>("op_258_cast_fp16")];
            tensor<int32, [1]> var_259_axes_0 = const()[name = tensor<string, []>("op_259_axes_0"), val = tensor<int32, [1]>([2])];
            tensor<fp16, [1, 1, 1, 448]> var_259_cast_fp16 = expand_dims(axes = var_259_axes_0, x = var_258_cast_fp16)[name = tensor<string, []>("op_259_cast_fp16")];
            tensor<fp16, [1, 20, 1, 448]> mh_w_3_cast_fp16 = add(x = mh_w_1_cast_fp16, y = var_259_cast_fp16)[name = tensor<string, []>("mh_w_3_cast_fp16")];
            tensor<fp16, [1, 20, 1, 448]> var_262_cast_fp16 = softmax(axis = var_176, x = mh_w_3_cast_fp16)[name = tensor<string, []>("op_262_cast_fp16")];
            tensor<int32, [4]> var_263 = const()[name = tensor<string, []>("op_263"), val = tensor<int32, [4]>([1, 20, 64, -1])];
            tensor<fp16, [1, 20, 64, 448]> var_264_cast_fp16 = reshape(shape = var_263, x = value_1_cast_fp16)[name = tensor<string, []>("op_264_cast_fp16")];
            tensor<bool, []> attn_1_transpose_x_0 = const()[name = tensor<string, []>("attn_1_transpose_x_0"), val = tensor<bool, []>(false)];
            tensor<bool, []> attn_1_transpose_y_0 = const()[name = tensor<string, []>("attn_1_transpose_y_0"), val = tensor<bool, []>(true)];
            tensor<fp16, [1, 20, 64, 1]> attn_1_cast_fp16 = matmul(transpose_x = attn_1_transpose_x_0, transpose_y = attn_1_transpose_y_0, x = var_264_cast_fp16, y = var_262_cast_fp16)[name = tensor<string, []>("attn_1_cast_fp16")];
            tensor<int32, [4]> var_267 = const()[name = tensor<string, []>("op_267"), val = tensor<int32, [4]>([1, 1280, 1, -1])];
            tensor<fp16, [1, 1280, 1, 1]> input_1_cast_fp16 = reshape(shape = var_267, x = attn_1_cast_fp16)[name = tensor<string, []>("input_1_cast_fp16")];
            tensor<int32, [2]> var_271 = const()[name = tensor<string, []>("op_271"), val = tensor<int32, [2]>([1, 1])];
            tensor<int32, [2]> var_273 = const()[name = tensor<string, []>("op_273"), val = tensor<int32, [2]>([1, 1])];
            tensor<string, []> obj_7_pad_type_0 = const()[name = tensor<string, []>("obj_7_pad_type_0"), val = tensor<string, []>("custom")];
            tensor<int32, [4]> obj_7_pad_0 = const()[name = tensor<string, []>("obj_7_pad_0"), val = tensor<int32, [4]>([0, 0, 0, 0])];
            tensor<fp16, [1280, 1280, 1, 1]> layers_0_self_attn_o_proj_weight_to_fp16 = const()[name = tensor<string, []>("layers_0_self_attn_o_proj_weight_to_fp16"), val = tensor<fp16, [1280, 1280, 1, 1]>(BLOBFILE(path = tensor<string, []>("@model_path/weights/weight.bin"), offset = tensor<uint64, []>(143767808)))];
            tensor<fp16, [1280]> layers_0_self_attn_o_proj_bias_to_fp16 = const()[name = tensor<string, []>("layers_0_self_attn_o_proj_bias_to_fp16"), val = tensor<fp16, [1280]>(BLOBFILE(path = tensor<string, []>("@model_path/weights/weight.bin"), offset = tensor<uint64, []>(147044672)))];
            tensor<fp16, [1, 1280, 1, 1]> obj_7_cast_fp16 = conv(bias = layers_0_self_attn_o_proj_bias_to_fp16, dilations = var_273, groups = var_183, pad = obj_7_pad_0, pad_type = obj_7_pad_type_0, strides = var_271, weight = layers_0_self_attn_o_proj_weight_to_fp16, x = input_1_cast_fp16)[name = tensor<string, []>("obj_7_cast_fp16")];
            tensor<fp16, [1, 1280, 1, 1]> inputs_3_cast_fp16 = add(x = inputs_1_cast_fp16, y = obj_7_cast_fp16)[name = tensor<string, []>("inputs_3_cast_fp16")];
            tensor<int32, [1]> var_283 = const()[name = tensor<string, []>("op_283"), val = tensor<int32, [1]>([1])];
            tensor<fp16, [1, 1, 1, 1]> channels_mean_3_cast_fp16 = reduce_mean(axes = var_283, keep_dims = var_184, x = inputs_3_cast_fp16)[name = tensor<string, []>("channels_mean_3_cast_fp16")];
            tensor<fp16, [1, 1280, 1, 1]> zero_mean_3_cast_fp16 = sub(x = inputs_3_cast_fp16, y = channels_mean_3_cast_fp16)[name = tensor<string, []>("zero_mean_3_cast_fp16")];
            tensor<fp16, [1, 1280, 1, 1]> zero_mean_sq_3_cast_fp16 = mul(x = zero_mean_3_cast_fp16, y = zero_mean_3_cast_fp16)[name = tensor<string, []>("zero_mean_sq_3_cast_fp16")];
            tensor<int32, [1]> var_287 = const()[name = tensor<string, []>("op_287"), val = tensor<int32, [1]>([1])];
            tensor<fp16, [1, 1, 1, 1]> var_288_cast_fp16 = reduce_mean(axes = var_287, keep_dims = var_184, x = zero_mean_sq_3_cast_fp16)[name = tensor<string, []>("op_288_cast_fp16")];
            tensor<fp16, []> var_289_to_fp16 = const()[name = tensor<string, []>("op_289_to_fp16"), val = tensor<fp16, []>(0x1.5p-17)];
            tensor<fp16, [1, 1, 1, 1]> var_290_cast_fp16 = add(x = var_288_cast_fp16, y = var_289_to_fp16)[name = tensor<string, []>("op_290_cast_fp16")];
            tensor<fp16, []> denom_3_epsilon_0_to_fp16 = const()[name = tensor<string, []>("denom_3_epsilon_0_to_fp16"), val = tensor<fp16, []>(0x1p-24)];
            tensor<fp16, [1, 1, 1, 1]> denom_3_cast_fp16 = rsqrt(epsilon = denom_3_epsilon_0_to_fp16, x = var_290_cast_fp16)[name = tensor<string, []>("denom_3_cast_fp16")];
            tensor<fp16, [1, 1280, 1, 1]> out_3_cast_fp16 = mul(x = zero_mean_3_cast_fp16, y = denom_3_cast_fp16)[name = tensor<string, []>("out_3_cast_fp16")];
            tensor<fp16, [1280]> obj_9_gamma_0_to_fp16 = const()[name = tensor<string, []>("obj_9_gamma_0_to_fp16"), val = tensor<fp16, [1280]>(BLOBFILE(path = tensor<string, []>("@model_path/weights/weight.bin"), offset = tensor<uint64, []>(147047296)))];
            tensor<fp16, [1280]> obj_9_beta_0_to_fp16 = const()[name = tensor<string, []>("obj_9_beta_0_to_fp16"), val = tensor<fp16, [1280]>(BLOBFILE(path = tensor<string, []>("@model_path/weights/weight.bin"), offset = tensor<uint64, []>(147049920)))];
            tensor<fp16, []> obj_9_epsilon_0_to_fp16 = const()[name = tensor<string, []>("obj_9_epsilon_0_to_fp16"), val = tensor<fp16, []>(0x1.5p-17)];
            tensor<fp16, [1, 1280, 1, 1]> obj_9_cast_fp16 = batch_norm(beta = obj_9_beta_0_to_fp16, epsilon = obj_9_epsilon_0_to_fp16, gamma = obj_9_gamma_0_to_fp16, mean = obj_1_mean_0_to_fp16, variance = obj_1_variance_0_to_fp16, x = out_3_cast_fp16)[name = tensor<string, []>("obj_9_cast_fp16")];
            tensor<int32, [2]> var_305 = const()[name = tensor<string, []>("op_305"), val = tensor<int32, [2]>([1, 1])];
            tensor<int32, [2]> var_307 = const()[name = tensor<string, []>("op_307"), val = tensor<int32, [2]>([1, 1])];
            tensor<string, []> query_3_pad_type_0 = const()[name = tensor<string, []>("query_3_pad_type_0"), val = tensor<string, []>("custom")];
            tensor<int32, [4]> query_3_pad_0 = const()[name = tensor<string, []>("query_3_pad_0"), val = tensor<int32, [4]>([0, 0, 0, 0])];
            tensor<fp16, [1280, 1280, 1, 1]> layers_0_encoder_attn_q_proj_weight_to_fp16 = const()[name = tensor<string, []>("layers_0_encoder_attn_q_proj_weight_to_fp16"), val = tensor<fp16, [1280, 1280, 1, 1]>(BLOBFILE(path = tensor<string, []>("@model_path/weights/weight.bin"), offset = tensor<uint64, []>(147052544)))];
            tensor<fp16, [1280]> layers_0_encoder_attn_q_proj_bias_to_fp16 = const()[name = tensor<string, []>("layers_0_encoder_attn_q_proj_bias_to_fp16"), val = tensor<fp16, [1280]>(BLOBFILE(path = tensor<string, []>("@model_path/weights/weight.bin"), offset = tensor<uint64, []>(150329408)))];
            tensor<fp16, [1, 1280, 1, 1]> query_3_cast_fp16 = conv(bias = layers_0_encoder_attn_q_proj_bias_to_fp16, dilations = var_307, groups = var_183, pad = query_3_pad_0, pad_type = query_3_pad_type_0, strides = var_305, weight = layers_0_encoder_attn_q_proj_weight_to_fp16, x = obj_9_cast_fp16)[name = tensor<string, []>("query_3_cast_fp16")];
            tensor<int32, [2]> var_311 = const()[name = tensor<string, []>("op_311"), val = tensor<int32, [2]>([1, 1])];
            tensor<int32, [2]> var_313 = const()[name = tensor<string, []>("op_313"), val = tensor<int32, [2]>([1, 1])];
            tensor<string, []> key_3_pad_type_0 = const()[name = tensor<string, []>("key_3_pad_type_0"), val = tensor<string, []>("custom")];
            tensor<int32, [4]> key_3_pad_0 = const()[name = tensor<string, []>("key_3_pad_0"), val = tensor<int32, [4]>([0, 0, 0, 0])];
            tensor<fp16, [1280, 1280, 1, 1]> layers_0_encoder_attn_k_proj_weight_to_fp16 = const()[name = tensor<string, []>("layers_0_encoder_attn_k_proj_weight_to_fp16"), val = tensor<fp16, [1280, 1280, 1, 1]>(BLOBFILE(path = tensor<string, []>("@model_path/weights/weight.bin"), offset = tensor<uint64, []>(150332032)))];
            tensor<fp16, [1, 1280, 1, 1500]> key_3_cast_fp16 = conv(dilations = var_313, groups = var_183, pad = key_3_pad_0, pad_type = key_3_pad_type_0, strides = var_311, weight = layers_0_encoder_attn_k_proj_weight_to_fp16, x = encoder_output_embeds)[name = tensor<string, []>("key_3_cast_fp16")];
            tensor<int32, [2]> var_318 = const()[name = tensor<string, []>("op_318"), val = tensor<int32, [2]>([1, 1])];
            tensor<int32, [2]> var_320 = const()[name = tensor<string, []>("op_320"), val = tensor<int32, [2]>([1, 1])];
            tensor<string, []> value_3_pad_type_0 = const()[name = tensor<string, []>("value_3_pad_type_0"), val = tensor<string, []>("custom")];
            tensor<int32, [4]> value_3_pad_0 = const()[name = tensor<string, []>("value_3_pad_0"), val = tensor<int32, [4]>([0, 0, 0, 0])];
            tensor<fp16, [1280, 1280, 1, 1]> layers_0_encoder_attn_v_proj_weight_to_fp16 = const()[name = tensor<string, []>("layers_0_encoder_attn_v_proj_weight_to_fp16"), val = tensor<fp16, [1280, 1280, 1, 1]>(BLOBFILE(path = tensor<string, []>("@model_path/weights/weight.bin"), offset = tensor<uint64, []>(153608896)))];
            tensor<fp16, [1280]> layers_0_encoder_attn_v_proj_bias_to_fp16 = const()[name = tensor<string, []>("layers_0_encoder_attn_v_proj_bias_to_fp16"), val = tensor<fp16, [1280]>(BLOBFILE(path = tensor<string, []>("@model_path/weights/weight.bin"), offset = tensor<uint64, []>(156885760)))];
            tensor<fp16, [1, 1280, 1, 1500]> value_3_cast_fp16 = conv(bias = layers_0_encoder_attn_v_proj_bias_to_fp16, dilations = var_320, groups = var_183, pad = value_3_pad_0, pad_type = value_3_pad_type_0, strides = var_318, weight = layers_0_encoder_attn_v_proj_weight_to_fp16, x = encoder_output_embeds)[name = tensor<string, []>("value_3_cast_fp16")];
            tensor<int32, [4]> var_324 = const()[name = tensor<string, []>("op_324"), val = tensor<int32, [4]>([1, 20, 64, -1])];
            tensor<fp16, [1, 20, 64, 1]> var_325_cast_fp16 = reshape(shape = var_324, x = query_3_cast_fp16)[name = tensor<string, []>("op_325_cast_fp16")];
            tensor<fp16, []> var_326_to_fp16 = const()[name = tensor<string, []>("op_326_to_fp16"), val = tensor<fp16, []>(0x1p-3)];
            tensor<fp16, [1, 20, 64, 1]> var_327_cast_fp16 = mul(x = var_325_cast_fp16, y = var_326_to_fp16)[name = tensor<string, []>("op_327_cast_fp16")];
            tensor<int32, [4]> var_328 = const()[name = tensor<string, []>("op_328"), val = tensor<int32, [4]>([1, 20, 64, -1])];
            tensor<fp16, [1, 20, 64, 1500]> var_329_cast_fp16 = reshape(shape = var_328, x = key_3_cast_fp16)[name = tensor<string, []>("op_329_cast_fp16")];
            tensor<bool, []> mh_w_5_transpose_x_0 = const()[name = tensor<string, []>("mh_w_5_transpose_x_0"), val = tensor<bool, []>(true)];
            tensor<bool, []> mh_w_5_transpose_y_0 = const()[name = tensor<string, []>("mh_w_5_transpose_y_0"), val = tensor<bool, []>(false)];
            tensor<fp16, [1, 20, 1, 1500]> mh_w_5_cast_fp16 = matmul(transpose_x = mh_w_5_transpose_x_0, transpose_y = mh_w_5_transpose_y_0, x = var_327_cast_fp16, y = var_329_cast_fp16)[name = tensor<string, []>("mh_w_5_cast_fp16")];
            tensor<fp16, [1, 20, 1, 1500]> obj_13_cast_fp16 = softmax(axis = var_176, x = mh_w_5_cast_fp16)[name = tensor<string, []>("obj_13_cast_fp16")];
            tensor<int32, [4]> var_333 = const()[name = tensor<string, []>("op_333"), val = tensor<int32, [4]>([1, 20, 64, -1])];
            tensor<fp16, [1, 20, 64, 1500]> var_334_cast_fp16 = reshape(shape = var_333, x = value_3_cast_fp16)[name = tensor<string, []>("op_334_cast_fp16")];
            tensor<bool, []> attn_3_transpose_x_0 = const()[name = tensor<string, []>("attn_3_transpose_x_0"), val = tensor<bool, []>(false)];
            tensor<bool, []> attn_3_transpose_y_0 = const()[name = tensor<string, []>("attn_3_transpose_y_0"), val = tensor<bool, []>(true)];
            tensor<fp16, [1, 20, 64, 1]> attn_3_cast_fp16 = matmul(transpose_x = attn_3_transpose_x_0, transpose_y = attn_3_transpose_y_0, x = var_334_cast_fp16, y = obj_13_cast_fp16)[name = tensor<string, []>("attn_3_cast_fp16")];
            tensor<int32, [4]> var_337 = const()[name = tensor<string, []>("op_337"), val = tensor<int32, [4]>([1, 1280, 1, -1])];
            tensor<fp16, [1, 1280, 1, 1]> input_3_cast_fp16 = reshape(shape = var_337, x = attn_3_cast_fp16)[name = tensor<string, []>("input_3_cast_fp16")];
            tensor<int32, [2]> var_341 = const()[name = tensor<string, []>("op_341"), val = tensor<int32, [2]>([1, 1])];
            tensor<int32, [2]> var_343 = const()[name = tensor<string, []>("op_343"), val = tensor<int32, [2]>([1, 1])];
            tensor<string, []> obj_11_pad_type_0 = const()[name = tensor<string, []>("obj_11_pad_type_0"), val = tensor<string, []>("custom")];
            tensor<int32, [4]> obj_11_pad_0 = const()[name = tensor<string, []>("obj_11_pad_0"), val = tensor<int32, [4]>([0, 0, 0, 0])];
            tensor<fp16, [1280, 1280, 1, 1]> layers_0_encoder_attn_o_proj_weight_to_fp16 = const()[name = tensor<string, []>("layers_0_encoder_attn_o_proj_weight_to_fp16"), val = tensor<fp16, [1280, 1280, 1, 1]>(BLOBFILE(path = tensor<string, []>("@model_path/weights/weight.bin"), offset = tensor<uint64, []>(156888384)))];
            tensor<fp16, [1280]> layers_0_encoder_attn_o_proj_bias_to_fp16 = const()[name = tensor<string, []>("layers_0_encoder_attn_o_proj_bias_to_fp16"), val = tensor<fp16, [1280]>(BLOBFILE(path = tensor<string, []>("@model_path/weights/weight.bin"), offset = tensor<uint64, []>(160165248)))];
            tensor<fp16, [1, 1280, 1, 1]> obj_11_cast_fp16 = conv(bias = layers_0_encoder_attn_o_proj_bias_to_fp16, dilations = var_343, groups = var_183, pad = obj_11_pad_0, pad_type = obj_11_pad_type_0, strides = var_341, weight = layers_0_encoder_attn_o_proj_weight_to_fp16, x = input_3_cast_fp16)[name = tensor<string, []>("obj_11_cast_fp16")];
            tensor<fp16, [1, 1280, 1, 1]> inputs_5_cast_fp16 = add(x = inputs_3_cast_fp16, y = obj_11_cast_fp16)[name = tensor<string, []>("inputs_5_cast_fp16")];
            tensor<int32, [1]> var_349 = const()[name = tensor<string, []>("op_349"), val = tensor<int32, [1]>([1])];
            tensor<fp16, [1, 1, 1, 1]> channels_mean_5_cast_fp16 = reduce_mean(axes = var_349, keep_dims = var_184, x = inputs_5_cast_fp16)[name = tensor<string, []>("channels_mean_5_cast_fp16")];
            tensor<fp16, [1, 1280, 1, 1]> zero_mean_5_cast_fp16 = sub(x = inputs_5_cast_fp16, y = channels_mean_5_cast_fp16)[name = tensor<string, []>("zero_mean_5_cast_fp16")];
            tensor<fp16, [1, 1280, 1, 1]> zero_mean_sq_5_cast_fp16 = mul(x = zero_mean_5_cast_fp16, y = zero_mean_5_cast_fp16)[name = tensor<string, []>("zero_mean_sq_5_cast_fp16")];
            tensor<int32, [1]> var_353 = const()[name = tensor<string, []>("op_353"), val = tensor<int32, [1]>([1])];
            tensor<fp16, [1, 1, 1, 1]> var_354_cast_fp16 = reduce_mean(axes = var_353, keep_dims = var_184, x = zero_mean_sq_5_cast_fp16)[name = tensor<string, []>("op_354_cast_fp16")];
            tensor<fp16, []> var_355_to_fp16 = const()[name = tensor<string, []>("op_355_to_fp16"), val = tensor<fp16, []>(0x1.5p-17)];
            tensor<fp16, [1, 1, 1, 1]> var_356_cast_fp16 = add(x = var_354_cast_fp16, y = var_355_to_fp16)[name = tensor<string, []>("op_356_cast_fp16")];
            tensor<fp16, []> denom_5_epsilon_0_to_fp16 = const()[name = tensor<string, []>("denom_5_epsilon_0_to_fp16"), val = tensor<fp16, []>(0x1p-24)];
            tensor<fp16, [1, 1, 1, 1]> denom_5_cast_fp16 = rsqrt(epsilon = denom_5_epsilon_0_to_fp16, x = var_356_cast_fp16)[name = tensor<string, []>("denom_5_cast_fp16")];
            tensor<fp16, [1, 1280, 1, 1]> out_5_cast_fp16 = mul(x = zero_mean_5_cast_fp16, y = denom_5_cast_fp16)[name = tensor<string, []>("out_5_cast_fp16")];
            tensor<fp16, [1280]> input_5_gamma_0_to_fp16 = const()[name = tensor<string, []>("input_5_gamma_0_to_fp16"), val = tensor<fp16, [1280]>(BLOBFILE(path = tensor<string, []>("@model_path/weights/weight.bin"), offset = tensor<uint64, []>(160167872)))];
            tensor<fp16, [1280]> input_5_beta_0_to_fp16 = const()[name = tensor<string, []>("input_5_beta_0_to_fp16"), val = tensor<fp16, [1280]>(BLOBFILE(path = tensor<string, []>("@model_path/weights/weight.bin"), offset = tensor<uint64, []>(160170496)))];
            tensor<fp16, []> input_5_epsilon_0_to_fp16 = const()[name = tensor<string, []>("input_5_epsilon_0_to_fp16"), val = tensor<fp16, []>(0x1.5p-17)];
            tensor<fp16, [1, 1280, 1, 1]> input_5_cast_fp16 = batch_norm(beta = input_5_beta_0_to_fp16, epsilon = input_5_epsilon_0_to_fp16, gamma = input_5_gamma_0_to_fp16, mean = obj_1_mean_0_to_fp16, variance = obj_1_variance_0_to_fp16, x = out_5_cast_fp16)[name = tensor<string, []>("input_5_cast_fp16")];
            tensor<int32, [2]> var_367 = const()[name = tensor<string, []>("op_367"), val = tensor<int32, [2]>([1, 1])];
            tensor<int32, [2]> var_369 = const()[name = tensor<string, []>("op_369"), val = tensor<int32, [2]>([1, 1])];
            tensor<string, []> input_7_pad_type_0 = const()[name = tensor<string, []>("input_7_pad_type_0"), val = tensor<string, []>("custom")];
            tensor<int32, [4]> input_7_pad_0 = const()[name = tensor<string, []>("input_7_pad_0"), val = tensor<int32, [4]>([0, 0, 0, 0])];
            tensor<fp16, [5120, 1280, 1, 1]> layers_0_fc1_weight_to_fp16 = const()[name = tensor<string, []>("layers_0_fc1_weight_to_fp16"), val = tensor<fp16, [5120, 1280, 1, 1]>(BLOBFILE(path = tensor<string, []>("@model_path/weights/weight.bin"), offset = tensor<uint64, []>(160173120)))];
            tensor<fp16, [5120]> layers_0_fc1_bias_to_fp16 = const()[name = tensor<string, []>("layers_0_fc1_bias_to_fp16"), val = tensor<fp16, [5120]>(BLOBFILE(path = tensor<string, []>("@model_path/weights/weight.bin"), offset = tensor<uint64, []>(173280384)))];
            tensor<fp16, [1, 5120, 1, 1]> input_7_cast_fp16 = conv(bias = layers_0_fc1_bias_to_fp16, dilations = var_369, groups = var_183, pad = input_7_pad_0, pad_type = input_7_pad_type_0, strides = var_367, weight = layers_0_fc1_weight_to_fp16, x = input_5_cast_fp16)[name = tensor<string, []>("input_7_cast_fp16")];
            tensor<string, []> input_9_mode_0 = const()[name = tensor<string, []>("input_9_mode_0"), val = tensor<string, []>("EXACT")];
            tensor<fp16, [1, 5120, 1, 1]> input_9_cast_fp16 = gelu(mode = input_9_mode_0, x = input_7_cast_fp16)[name = tensor<string, []>("input_9_cast_fp16")];
            tensor<int32, [2]> var_375 = const()[name = tensor<string, []>("op_375"), val = tensor<int32, [2]>([1, 1])];
            tensor<int32, [2]> var_377 = const()[name = tensor<string, []>("op_377"), val = tensor<int32, [2]>([1, 1])];
            tensor<string, []> hidden_states_3_pad_type_0 = const()[name = tensor<string, []>("hidden_states_3_pad_type_0"), val = tensor<string, []>("custom")];
            tensor<int32, [4]> hidden_states_3_pad_0 = const()[name = tensor<string, []>("hidden_states_3_pad_0"), val = tensor<int32, [4]>([0, 0, 0, 0])];
            tensor<fp16, [1280, 5120, 1, 1]> layers_0_fc2_weight_to_fp16 = const()[name = tensor<string, []>("layers_0_fc2_weight_to_fp16"), val = tensor<fp16, [1280, 5120, 1, 1]>(BLOBFILE(path = tensor<string, []>("@model_path/weights/weight.bin"), offset = tensor<uint64, []>(173290688)))];
            tensor<fp16, [1280]> layers_0_fc2_bias_to_fp16 = const()[name = tensor<string, []>("layers_0_fc2_bias_to_fp16"), val = tensor<fp16, [1280]>(BLOBFILE(path = tensor<string, []>("@model_path/weights/weight.bin"), offset = tensor<uint64, []>(186397952)))];
            tensor<fp16, [1, 1280, 1, 1]> hidden_states_3_cast_fp16 = conv(bias = layers_0_fc2_bias_to_fp16, dilations = var_377, groups = var_183, pad = hidden_states_3_pad_0, pad_type = hidden_states_3_pad_type_0, strides = var_375, weight = layers_0_fc2_weight_to_fp16, x = input_9_cast_fp16)[name = tensor<string, []>("hidden_states_3_cast_fp16")];
            tensor<fp16, [1, 1280, 1, 1]> inputs_7_cast_fp16 = add(x = inputs_5_cast_fp16, y = hidden_states_3_cast_fp16)[name = tensor<string, []>("inputs_7_cast_fp16")];
            tensor<int32, []> var_390 = const()[name = tensor<string, []>("op_390"), val = tensor<int32, []>(3)];
            tensor<int32, []> var_397 = const()[name = tensor<string, []>("op_397"), val = tensor<int32, []>(1)];
            tensor<bool, []> var_398 = const()[name = tensor<string, []>("op_398"), val = tensor<bool, []>(true)];
            tensor<int32, [1]> var_410 = const()[name = tensor<string, []>("op_410"), val = tensor<int32, [1]>([1])];
            tensor<fp16, [1, 1, 1, 1]> channels_mean_7_cast_fp16 = reduce_mean(axes = var_410, keep_dims = var_398, x = inputs_7_cast_fp16)[name = tensor<string, []>("channels_mean_7_cast_fp16")];
            tensor<fp16, [1, 1280, 1, 1]> zero_mean_7_cast_fp16 = sub(x = inputs_7_cast_fp16, y = channels_mean_7_cast_fp16)[name = tensor<string, []>("zero_mean_7_cast_fp16")];
            tensor<fp16, [1, 1280, 1, 1]> zero_mean_sq_7_cast_fp16 = mul(x = zero_mean_7_cast_fp16, y = zero_mean_7_cast_fp16)[name = tensor<string, []>("zero_mean_sq_7_cast_fp16")];
            tensor<int32, [1]> var_414 = const()[name = tensor<string, []>("op_414"), val = tensor<int32, [1]>([1])];
            tensor<fp16, [1, 1, 1, 1]> var_415_cast_fp16 = reduce_mean(axes = var_414, keep_dims = var_398, x = zero_mean_sq_7_cast_fp16)[name = tensor<string, []>("op_415_cast_fp16")];
            tensor<fp16, []> var_416_to_fp16 = const()[name = tensor<string, []>("op_416_to_fp16"), val = tensor<fp16, []>(0x1.5p-17)];
            tensor<fp16, [1, 1, 1, 1]> var_417_cast_fp16 = add(x = var_415_cast_fp16, y = var_416_to_fp16)[name = tensor<string, []>("op_417_cast_fp16")];
            tensor<fp16, []> denom_7_epsilon_0_to_fp16 = const()[name = tensor<string, []>("denom_7_epsilon_0_to_fp16"), val = tensor<fp16, []>(0x1p-24)];
            tensor<fp16, [1, 1, 1, 1]> denom_7_cast_fp16 = rsqrt(epsilon = denom_7_epsilon_0_to_fp16, x = var_417_cast_fp16)[name = tensor<string, []>("denom_7_cast_fp16")];
            tensor<fp16, [1, 1280, 1, 1]> out_7_cast_fp16 = mul(x = zero_mean_7_cast_fp16, y = denom_7_cast_fp16)[name = tensor<string, []>("out_7_cast_fp16")];
            tensor<fp16, [1280]> obj_15_gamma_0_to_fp16 = const()[name = tensor<string, []>("obj_15_gamma_0_to_fp16"), val = tensor<fp16, [1280]>(BLOBFILE(path = tensor<string, []>("@model_path/weights/weight.bin"), offset = tensor<uint64, []>(186400576)))];
            tensor<fp16, [1280]> obj_15_beta_0_to_fp16 = const()[name = tensor<string, []>("obj_15_beta_0_to_fp16"), val = tensor<fp16, [1280]>(BLOBFILE(path = tensor<string, []>("@model_path/weights/weight.bin"), offset = tensor<uint64, []>(186403200)))];
            tensor<fp16, []> obj_15_epsilon_0_to_fp16 = const()[name = tensor<string, []>("obj_15_epsilon_0_to_fp16"), val = tensor<fp16, []>(0x1.5p-17)];
            tensor<fp16, [1, 1280, 1, 1]> obj_15_cast_fp16 = batch_norm(beta = obj_15_beta_0_to_fp16, epsilon = obj_15_epsilon_0_to_fp16, gamma = obj_15_gamma_0_to_fp16, mean = obj_1_mean_0_to_fp16, variance = obj_1_variance_0_to_fp16, x = out_7_cast_fp16)[name = tensor<string, []>("obj_15_cast_fp16")];
            tensor<int32, [2]> var_432 = const()[name = tensor<string, []>("op_432"), val = tensor<int32, [2]>([1, 1])];
            tensor<int32, [2]> var_434 = const()[name = tensor<string, []>("op_434"), val = tensor<int32, [2]>([1, 1])];
            tensor<string, []> query_5_pad_type_0 = const()[name = tensor<string, []>("query_5_pad_type_0"), val = tensor<string, []>("custom")];
            tensor<int32, [4]> query_5_pad_0 = const()[name = tensor<string, []>("query_5_pad_0"), val = tensor<int32, [4]>([0, 0, 0, 0])];
            tensor<fp16, [1280, 1280, 1, 1]> layers_1_self_attn_q_proj_weight_to_fp16 = const()[name = tensor<string, []>("layers_1_self_attn_q_proj_weight_to_fp16"), val = tensor<fp16, [1280, 1280, 1, 1]>(BLOBFILE(path = tensor<string, []>("@model_path/weights/weight.bin"), offset = tensor<uint64, []>(186405824)))];
            tensor<fp16, [1280]> layers_1_self_attn_q_proj_bias_to_fp16 = const()[name = tensor<string, []>("layers_1_self_attn_q_proj_bias_to_fp16"), val = tensor<fp16, [1280]>(BLOBFILE(path = tensor<string, []>("@model_path/weights/weight.bin"), offset = tensor<uint64, []>(189682688)))];
            tensor<fp16, [1, 1280, 1, 1]> query_5_cast_fp16 = conv(bias = layers_1_self_attn_q_proj_bias_to_fp16, dilations = var_434, groups = var_397, pad = query_5_pad_0, pad_type = query_5_pad_type_0, strides = var_432, weight = layers_1_self_attn_q_proj_weight_to_fp16, x = obj_15_cast_fp16)[name = tensor<string, []>("query_5_cast_fp16")];
            tensor<int32, [2]> var_438 = const()[name = tensor<string, []>("op_438"), val = tensor<int32, [2]>([1, 1])];
            tensor<int32, [2]> var_440 = const()[name = tensor<string, []>("op_440"), val = tensor<int32, [2]>([1, 1])];
            tensor<string, []> current_key_3_pad_type_0 = const()[name = tensor<string, []>("current_key_3_pad_type_0"), val = tensor<string, []>("custom")];
            tensor<int32, [4]> current_key_3_pad_0 = const()[name = tensor<string, []>("current_key_3_pad_0"), val = tensor<int32, [4]>([0, 0, 0, 0])];
            tensor<fp16, [1280, 1280, 1, 1]> layers_1_self_attn_k_proj_weight_to_fp16 = const()[name = tensor<string, []>("layers_1_self_attn_k_proj_weight_to_fp16"), val = tensor<fp16, [1280, 1280, 1, 1]>(BLOBFILE(path = tensor<string, []>("@model_path/weights/weight.bin"), offset = tensor<uint64, []>(189685312)))];
            tensor<fp16, [1, 1280, 1, 1]> current_key_3_cast_fp16 = conv(dilations = var_440, groups = var_397, pad = current_key_3_pad_0, pad_type = current_key_3_pad_type_0, strides = var_438, weight = layers_1_self_attn_k_proj_weight_to_fp16, x = obj_15_cast_fp16)[name = tensor<string, []>("current_key_3_cast_fp16")];
            tensor<int32, [2]> var_445 = const()[name = tensor<string, []>("op_445"), val = tensor<int32, [2]>([1, 1])];
            tensor<int32, [2]> var_447 = const()[name = tensor<string, []>("op_447"), val = tensor<int32, [2]>([1, 1])];
            tensor<string, []> current_value_3_pad_type_0 = const()[name = tensor<string, []>("current_value_3_pad_type_0"), val = tensor<string, []>("custom")];
            tensor<int32, [4]> current_value_3_pad_0 = const()[name = tensor<string, []>("current_value_3_pad_0"), val = tensor<int32, [4]>([0, 0, 0, 0])];
            tensor<fp16, [1280, 1280, 1, 1]> layers_1_self_attn_v_proj_weight_to_fp16 = const()[name = tensor<string, []>("layers_1_self_attn_v_proj_weight_to_fp16"), val = tensor<fp16, [1280, 1280, 1, 1]>(BLOBFILE(path = tensor<string, []>("@model_path/weights/weight.bin"), offset = tensor<uint64, []>(192962176)))];
            tensor<fp16, [1280]> layers_1_self_attn_v_proj_bias_to_fp16 = const()[name = tensor<string, []>("layers_1_self_attn_v_proj_bias_to_fp16"), val = tensor<fp16, [1280]>(BLOBFILE(path = tensor<string, []>("@model_path/weights/weight.bin"), offset = tensor<uint64, []>(196239040)))];
            tensor<fp16, [1, 1280, 1, 1]> current_value_3_cast_fp16 = conv(bias = layers_1_self_attn_v_proj_bias_to_fp16, dilations = var_447, groups = var_397, pad = current_value_3_pad_0, pad_type = current_value_3_pad_type_0, strides = var_445, weight = layers_1_self_attn_v_proj_weight_to_fp16, x = obj_15_cast_fp16)[name = tensor<string, []>("current_value_3_cast_fp16")];
            tensor<fp16, [1, 1280, 1, 448]> var_454_cast_fp16 = mul(x = current_key_3_cast_fp16, y = var_238_cast_fp16)[name = tensor<string, []>("op_454_cast_fp16")];
            tensor<fp16, [1, 1280, 1, 448]> var_456_cast_fp16 = mul(x = var_103_cast_fp16_1, y = var_241_cast_fp16)[name = tensor<string, []>("op_456_cast_fp16")];
            tensor<fp16, [1, 1280, 1, 448]> key_5_cast_fp16 = add(x = var_454_cast_fp16, y = var_456_cast_fp16)[name = tensor<string, []>("key_5_cast_fp16")];
            tensor<fp16, [1, 1280, 1, 448]> var_458_cast_fp16 = mul(x = current_value_3_cast_fp16, y = var_238_cast_fp16)[name = tensor<string, []>("op_458_cast_fp16")];
            tensor<fp16, [1, 1280, 1, 448]> var_460_cast_fp16 = mul(x = var_138_cast_fp16_1, y = var_241_cast_fp16)[name = tensor<string, []>("op_460_cast_fp16")];
            tensor<fp16, [1, 1280, 1, 448]> value_5_cast_fp16 = add(x = var_458_cast_fp16, y = var_460_cast_fp16)[name = tensor<string, []>("value_5_cast_fp16")];
            tensor<int32, [4]> var_463 = const()[name = tensor<string, []>("op_463"), val = tensor<int32, [4]>([1, 20, 64, -1])];
            tensor<fp16, [1, 20, 64, 1]> var_464_cast_fp16 = reshape(shape = var_463, x = query_5_cast_fp16)[name = tensor<string, []>("op_464_cast_fp16")];
            tensor<fp16, []> var_465_to_fp16 = const()[name = tensor<string, []>("op_465_to_fp16"), val = tensor<fp16, []>(0x1p-3)];
            tensor<fp16, [1, 20, 64, 1]> var_466_cast_fp16 = mul(x = var_464_cast_fp16, y = var_465_to_fp16)[name = tensor<string, []>("op_466_cast_fp16")];
            tensor<int32, [4]> var_467 = const()[name = tensor<string, []>("op_467"), val = tensor<int32, [4]>([1, 20, 64, -1])];
            tensor<fp16, [1, 20, 64, 448]> var_468_cast_fp16 = reshape(shape = var_467, x = key_5_cast_fp16)[name = tensor<string, []>("op_468_cast_fp16")];
            tensor<bool, []> mh_w_7_transpose_x_0 = const()[name = tensor<string, []>("mh_w_7_transpose_x_0"), val = tensor<bool, []>(true)];
            tensor<bool, []> mh_w_7_transpose_y_0 = const()[name = tensor<string, []>("mh_w_7_transpose_y_0"), val = tensor<bool, []>(false)];
            tensor<fp16, [1, 20, 1, 448]> mh_w_7_cast_fp16 = matmul(transpose_x = mh_w_7_transpose_x_0, transpose_y = mh_w_7_transpose_y_0, x = var_466_cast_fp16, y = var_468_cast_fp16)[name = tensor<string, []>("mh_w_7_cast_fp16")];
            tensor<fp16, [1, 20, 1, 448]> mh_w_9_cast_fp16 = add(x = mh_w_7_cast_fp16, y = var_259_cast_fp16)[name = tensor<string, []>("mh_w_9_cast_fp16")];
            tensor<fp16, [1, 20, 1, 448]> var_476_cast_fp16 = softmax(axis = var_390, x = mh_w_9_cast_fp16)[name = tensor<string, []>("op_476_cast_fp16")];
            tensor<int32, [4]> var_477 = const()[name = tensor<string, []>("op_477"), val = tensor<int32, [4]>([1, 20, 64, -1])];
            tensor<fp16, [1, 20, 64, 448]> var_478_cast_fp16 = reshape(shape = var_477, x = value_5_cast_fp16)[name = tensor<string, []>("op_478_cast_fp16")];
            tensor<bool, []> attn_5_transpose_x_0 = const()[name = tensor<string, []>("attn_5_transpose_x_0"), val = tensor<bool, []>(false)];
            tensor<bool, []> attn_5_transpose_y_0 = const()[name = tensor<string, []>("attn_5_transpose_y_0"), val = tensor<bool, []>(true)];
            tensor<fp16, [1, 20, 64, 1]> attn_5_cast_fp16 = matmul(transpose_x = attn_5_transpose_x_0, transpose_y = attn_5_transpose_y_0, x = var_478_cast_fp16, y = var_476_cast_fp16)[name = tensor<string, []>("attn_5_cast_fp16")];
            tensor<int32, [4]> var_481 = const()[name = tensor<string, []>("op_481"), val = tensor<int32, [4]>([1, 1280, 1, -1])];
            tensor<fp16, [1, 1280, 1, 1]> input_11_cast_fp16 = reshape(shape = var_481, x = attn_5_cast_fp16)[name = tensor<string, []>("input_11_cast_fp16")];
            tensor<int32, [2]> var_485 = const()[name = tensor<string, []>("op_485"), val = tensor<int32, [2]>([1, 1])];
            tensor<int32, [2]> var_487 = const()[name = tensor<string, []>("op_487"), val = tensor<int32, [2]>([1, 1])];
            tensor<string, []> obj_21_pad_type_0 = const()[name = tensor<string, []>("obj_21_pad_type_0"), val = tensor<string, []>("custom")];
            tensor<int32, [4]> obj_21_pad_0 = const()[name = tensor<string, []>("obj_21_pad_0"), val = tensor<int32, [4]>([0, 0, 0, 0])];
            tensor<fp16, [1280, 1280, 1, 1]> layers_1_self_attn_o_proj_weight_to_fp16 = const()[name = tensor<string, []>("layers_1_self_attn_o_proj_weight_to_fp16"), val = tensor<fp16, [1280, 1280, 1, 1]>(BLOBFILE(path = tensor<string, []>("@model_path/weights/weight.bin"), offset = tensor<uint64, []>(196241664)))];
            tensor<fp16, [1280]> layers_1_self_attn_o_proj_bias_to_fp16 = const()[name = tensor<string, []>("layers_1_self_attn_o_proj_bias_to_fp16"), val = tensor<fp16, [1280]>(BLOBFILE(path = tensor<string, []>("@model_path/weights/weight.bin"), offset = tensor<uint64, []>(199518528)))];
            tensor<fp16, [1, 1280, 1, 1]> obj_21_cast_fp16 = conv(bias = layers_1_self_attn_o_proj_bias_to_fp16, dilations = var_487, groups = var_397, pad = obj_21_pad_0, pad_type = obj_21_pad_type_0, strides = var_485, weight = layers_1_self_attn_o_proj_weight_to_fp16, x = input_11_cast_fp16)[name = tensor<string, []>("obj_21_cast_fp16")];
            tensor<fp16, [1, 1280, 1, 1]> inputs_9_cast_fp16 = add(x = inputs_7_cast_fp16, y = obj_21_cast_fp16)[name = tensor<string, []>("inputs_9_cast_fp16")];
            tensor<int32, [1]> var_497 = const()[name = tensor<string, []>("op_497"), val = tensor<int32, [1]>([1])];
            tensor<fp16, [1, 1, 1, 1]> channels_mean_9_cast_fp16 = reduce_mean(axes = var_497, keep_dims = var_398, x = inputs_9_cast_fp16)[name = tensor<string, []>("channels_mean_9_cast_fp16")];
            tensor<fp16, [1, 1280, 1, 1]> zero_mean_9_cast_fp16 = sub(x = inputs_9_cast_fp16, y = channels_mean_9_cast_fp16)[name = tensor<string, []>("zero_mean_9_cast_fp16")];
            tensor<fp16, [1, 1280, 1, 1]> zero_mean_sq_9_cast_fp16 = mul(x = zero_mean_9_cast_fp16, y = zero_mean_9_cast_fp16)[name = tensor<string, []>("zero_mean_sq_9_cast_fp16")];
            tensor<int32, [1]> var_501 = const()[name = tensor<string, []>("op_501"), val = tensor<int32, [1]>([1])];
            tensor<fp16, [1, 1, 1, 1]> var_502_cast_fp16 = reduce_mean(axes = var_501, keep_dims = var_398, x = zero_mean_sq_9_cast_fp16)[name = tensor<string, []>("op_502_cast_fp16")];
            tensor<fp16, []> var_503_to_fp16 = const()[name = tensor<string, []>("op_503_to_fp16"), val = tensor<fp16, []>(0x1.5p-17)];
            tensor<fp16, [1, 1, 1, 1]> var_504_cast_fp16 = add(x = var_502_cast_fp16, y = var_503_to_fp16)[name = tensor<string, []>("op_504_cast_fp16")];
            tensor<fp16, []> denom_9_epsilon_0_to_fp16 = const()[name = tensor<string, []>("denom_9_epsilon_0_to_fp16"), val = tensor<fp16, []>(0x1p-24)];
            tensor<fp16, [1, 1, 1, 1]> denom_9_cast_fp16 = rsqrt(epsilon = denom_9_epsilon_0_to_fp16, x = var_504_cast_fp16)[name = tensor<string, []>("denom_9_cast_fp16")];
            tensor<fp16, [1, 1280, 1, 1]> out_9_cast_fp16 = mul(x = zero_mean_9_cast_fp16, y = denom_9_cast_fp16)[name = tensor<string, []>("out_9_cast_fp16")];
            tensor<fp16, [1280]> obj_23_gamma_0_to_fp16 = const()[name = tensor<string, []>("obj_23_gamma_0_to_fp16"), val = tensor<fp16, [1280]>(BLOBFILE(path = tensor<string, []>("@model_path/weights/weight.bin"), offset = tensor<uint64, []>(199521152)))];
            tensor<fp16, [1280]> obj_23_beta_0_to_fp16 = const()[name = tensor<string, []>("obj_23_beta_0_to_fp16"), val = tensor<fp16, [1280]>(BLOBFILE(path = tensor<string, []>("@model_path/weights/weight.bin"), offset = tensor<uint64, []>(199523776)))];
            tensor<fp16, []> obj_23_epsilon_0_to_fp16 = const()[name = tensor<string, []>("obj_23_epsilon_0_to_fp16"), val = tensor<fp16, []>(0x1.5p-17)];
            tensor<fp16, [1, 1280, 1, 1]> obj_23_cast_fp16 = batch_norm(beta = obj_23_beta_0_to_fp16, epsilon = obj_23_epsilon_0_to_fp16, gamma = obj_23_gamma_0_to_fp16, mean = obj_1_mean_0_to_fp16, variance = obj_1_variance_0_to_fp16, x = out_9_cast_fp16)[name = tensor<string, []>("obj_23_cast_fp16")];
            tensor<int32, [2]> var_519 = const()[name = tensor<string, []>("op_519"), val = tensor<int32, [2]>([1, 1])];
            tensor<int32, [2]> var_521 = const()[name = tensor<string, []>("op_521"), val = tensor<int32, [2]>([1, 1])];
            tensor<string, []> query_7_pad_type_0 = const()[name = tensor<string, []>("query_7_pad_type_0"), val = tensor<string, []>("custom")];
            tensor<int32, [4]> query_7_pad_0 = const()[name = tensor<string, []>("query_7_pad_0"), val = tensor<int32, [4]>([0, 0, 0, 0])];
            tensor<fp16, [1280, 1280, 1, 1]> layers_1_encoder_attn_q_proj_weight_to_fp16 = const()[name = tensor<string, []>("layers_1_encoder_attn_q_proj_weight_to_fp16"), val = tensor<fp16, [1280, 1280, 1, 1]>(BLOBFILE(path = tensor<string, []>("@model_path/weights/weight.bin"), offset = tensor<uint64, []>(199526400)))];
            tensor<fp16, [1280]> layers_1_encoder_attn_q_proj_bias_to_fp16 = const()[name = tensor<string, []>("layers_1_encoder_attn_q_proj_bias_to_fp16"), val = tensor<fp16, [1280]>(BLOBFILE(path = tensor<string, []>("@model_path/weights/weight.bin"), offset = tensor<uint64, []>(202803264)))];
            tensor<fp16, [1, 1280, 1, 1]> query_7_cast_fp16 = conv(bias = layers_1_encoder_attn_q_proj_bias_to_fp16, dilations = var_521, groups = var_397, pad = query_7_pad_0, pad_type = query_7_pad_type_0, strides = var_519, weight = layers_1_encoder_attn_q_proj_weight_to_fp16, x = obj_23_cast_fp16)[name = tensor<string, []>("query_7_cast_fp16")];
            tensor<int32, [2]> var_525 = const()[name = tensor<string, []>("op_525"), val = tensor<int32, [2]>([1, 1])];
            tensor<int32, [2]> var_527 = const()[name = tensor<string, []>("op_527"), val = tensor<int32, [2]>([1, 1])];
            tensor<string, []> key_7_pad_type_0 = const()[name = tensor<string, []>("key_7_pad_type_0"), val = tensor<string, []>("custom")];
            tensor<int32, [4]> key_7_pad_0 = const()[name = tensor<string, []>("key_7_pad_0"), val = tensor<int32, [4]>([0, 0, 0, 0])];
            tensor<fp16, [1280, 1280, 1, 1]> layers_1_encoder_attn_k_proj_weight_to_fp16 = const()[name = tensor<string, []>("layers_1_encoder_attn_k_proj_weight_to_fp16"), val = tensor<fp16, [1280, 1280, 1, 1]>(BLOBFILE(path = tensor<string, []>("@model_path/weights/weight.bin"), offset = tensor<uint64, []>(202805888)))];
            tensor<fp16, [1, 1280, 1, 1500]> key_7_cast_fp16 = conv(dilations = var_527, groups = var_397, pad = key_7_pad_0, pad_type = key_7_pad_type_0, strides = var_525, weight = layers_1_encoder_attn_k_proj_weight_to_fp16, x = encoder_output_embeds)[name = tensor<string, []>("key_7_cast_fp16")];
            tensor<int32, [2]> var_532 = const()[name = tensor<string, []>("op_532"), val = tensor<int32, [2]>([1, 1])];
            tensor<int32, [2]> var_534 = const()[name = tensor<string, []>("op_534"), val = tensor<int32, [2]>([1, 1])];
            tensor<string, []> value_7_pad_type_0 = const()[name = tensor<string, []>("value_7_pad_type_0"), val = tensor<string, []>("custom")];
            tensor<int32, [4]> value_7_pad_0 = const()[name = tensor<string, []>("value_7_pad_0"), val = tensor<int32, [4]>([0, 0, 0, 0])];
            tensor<fp16, [1280, 1280, 1, 1]> layers_1_encoder_attn_v_proj_weight_to_fp16 = const()[name = tensor<string, []>("layers_1_encoder_attn_v_proj_weight_to_fp16"), val = tensor<fp16, [1280, 1280, 1, 1]>(BLOBFILE(path = tensor<string, []>("@model_path/weights/weight.bin"), offset = tensor<uint64, []>(206082752)))];
            tensor<fp16, [1280]> layers_1_encoder_attn_v_proj_bias_to_fp16 = const()[name = tensor<string, []>("layers_1_encoder_attn_v_proj_bias_to_fp16"), val = tensor<fp16, [1280]>(BLOBFILE(path = tensor<string, []>("@model_path/weights/weight.bin"), offset = tensor<uint64, []>(209359616)))];
            tensor<fp16, [1, 1280, 1, 1500]> value_7_cast_fp16 = conv(bias = layers_1_encoder_attn_v_proj_bias_to_fp16, dilations = var_534, groups = var_397, pad = value_7_pad_0, pad_type = value_7_pad_type_0, strides = var_532, weight = layers_1_encoder_attn_v_proj_weight_to_fp16, x = encoder_output_embeds)[name = tensor<string, []>("value_7_cast_fp16")];
            tensor<int32, [4]> var_538 = const()[name = tensor<string, []>("op_538"), val = tensor<int32, [4]>([1, 20, 64, -1])];
            tensor<fp16, [1, 20, 64, 1]> var_539_cast_fp16 = reshape(shape = var_538, x = query_7_cast_fp16)[name = tensor<string, []>("op_539_cast_fp16")];
            tensor<fp16, []> var_540_to_fp16 = const()[name = tensor<string, []>("op_540_to_fp16"), val = tensor<fp16, []>(0x1p-3)];
            tensor<fp16, [1, 20, 64, 1]> var_541_cast_fp16 = mul(x = var_539_cast_fp16, y = var_540_to_fp16)[name = tensor<string, []>("op_541_cast_fp16")];
            tensor<int32, [4]> var_542 = const()[name = tensor<string, []>("op_542"), val = tensor<int32, [4]>([1, 20, 64, -1])];
            tensor<fp16, [1, 20, 64, 1500]> var_543_cast_fp16 = reshape(shape = var_542, x = key_7_cast_fp16)[name = tensor<string, []>("op_543_cast_fp16")];
            tensor<bool, []> mh_w_11_transpose_x_0 = const()[name = tensor<string, []>("mh_w_11_transpose_x_0"), val = tensor<bool, []>(true)];
            tensor<bool, []> mh_w_11_transpose_y_0 = const()[name = tensor<string, []>("mh_w_11_transpose_y_0"), val = tensor<bool, []>(false)];
            tensor<fp16, [1, 20, 1, 1500]> mh_w_11_cast_fp16 = matmul(transpose_x = mh_w_11_transpose_x_0, transpose_y = mh_w_11_transpose_y_0, x = var_541_cast_fp16, y = var_543_cast_fp16)[name = tensor<string, []>("mh_w_11_cast_fp16")];
            tensor<fp16, [1, 20, 1, 1500]> obj_27_cast_fp16 = softmax(axis = var_390, x = mh_w_11_cast_fp16)[name = tensor<string, []>("obj_27_cast_fp16")];
            tensor<int32, [4]> var_547 = const()[name = tensor<string, []>("op_547"), val = tensor<int32, [4]>([1, 20, 64, -1])];
            tensor<fp16, [1, 20, 64, 1500]> var_548_cast_fp16 = reshape(shape = var_547, x = value_7_cast_fp16)[name = tensor<string, []>("op_548_cast_fp16")];
            tensor<bool, []> attn_7_transpose_x_0 = const()[name = tensor<string, []>("attn_7_transpose_x_0"), val = tensor<bool, []>(false)];
            tensor<bool, []> attn_7_transpose_y_0 = const()[name = tensor<string, []>("attn_7_transpose_y_0"), val = tensor<bool, []>(true)];
            tensor<fp16, [1, 20, 64, 1]> attn_7_cast_fp16 = matmul(transpose_x = attn_7_transpose_x_0, transpose_y = attn_7_transpose_y_0, x = var_548_cast_fp16, y = obj_27_cast_fp16)[name = tensor<string, []>("attn_7_cast_fp16")];
            tensor<int32, [4]> var_551 = const()[name = tensor<string, []>("op_551"), val = tensor<int32, [4]>([1, 1280, 1, -1])];
            tensor<fp16, [1, 1280, 1, 1]> input_13_cast_fp16 = reshape(shape = var_551, x = attn_7_cast_fp16)[name = tensor<string, []>("input_13_cast_fp16")];
            tensor<int32, [2]> var_555 = const()[name = tensor<string, []>("op_555"), val = tensor<int32, [2]>([1, 1])];
            tensor<int32, [2]> var_557 = const()[name = tensor<string, []>("op_557"), val = tensor<int32, [2]>([1, 1])];
            tensor<string, []> obj_25_pad_type_0 = const()[name = tensor<string, []>("obj_25_pad_type_0"), val = tensor<string, []>("custom")];
            tensor<int32, [4]> obj_25_pad_0 = const()[name = tensor<string, []>("obj_25_pad_0"), val = tensor<int32, [4]>([0, 0, 0, 0])];
            tensor<fp16, [1280, 1280, 1, 1]> layers_1_encoder_attn_o_proj_weight_to_fp16 = const()[name = tensor<string, []>("layers_1_encoder_attn_o_proj_weight_to_fp16"), val = tensor<fp16, [1280, 1280, 1, 1]>(BLOBFILE(path = tensor<string, []>("@model_path/weights/weight.bin"), offset = tensor<uint64, []>(209362240)))];
            tensor<fp16, [1280]> layers_1_encoder_attn_o_proj_bias_to_fp16 = const()[name = tensor<string, []>("layers_1_encoder_attn_o_proj_bias_to_fp16"), val = tensor<fp16, [1280]>(BLOBFILE(path = tensor<string, []>("@model_path/weights/weight.bin"), offset = tensor<uint64, []>(212639104)))];
            tensor<fp16, [1, 1280, 1, 1]> obj_25_cast_fp16 = conv(bias = layers_1_encoder_attn_o_proj_bias_to_fp16, dilations = var_557, groups = var_397, pad = obj_25_pad_0, pad_type = obj_25_pad_type_0, strides = var_555, weight = layers_1_encoder_attn_o_proj_weight_to_fp16, x = input_13_cast_fp16)[name = tensor<string, []>("obj_25_cast_fp16")];
            tensor<fp16, [1, 1280, 1, 1]> inputs_11_cast_fp16 = add(x = inputs_9_cast_fp16, y = obj_25_cast_fp16)[name = tensor<string, []>("inputs_11_cast_fp16")];
            tensor<int32, [1]> var_563 = const()[name = tensor<string, []>("op_563"), val = tensor<int32, [1]>([1])];
            tensor<fp16, [1, 1, 1, 1]> channels_mean_11_cast_fp16 = reduce_mean(axes = var_563, keep_dims = var_398, x = inputs_11_cast_fp16)[name = tensor<string, []>("channels_mean_11_cast_fp16")];
            tensor<fp16, [1, 1280, 1, 1]> zero_mean_11_cast_fp16 = sub(x = inputs_11_cast_fp16, y = channels_mean_11_cast_fp16)[name = tensor<string, []>("zero_mean_11_cast_fp16")];
            tensor<fp16, [1, 1280, 1, 1]> zero_mean_sq_11_cast_fp16 = mul(x = zero_mean_11_cast_fp16, y = zero_mean_11_cast_fp16)[name = tensor<string, []>("zero_mean_sq_11_cast_fp16")];
            tensor<int32, [1]> var_567 = const()[name = tensor<string, []>("op_567"), val = tensor<int32, [1]>([1])];
            tensor<fp16, [1, 1, 1, 1]> var_568_cast_fp16 = reduce_mean(axes = var_567, keep_dims = var_398, x = zero_mean_sq_11_cast_fp16)[name = tensor<string, []>("op_568_cast_fp16")];
            tensor<fp16, []> var_569_to_fp16 = const()[name = tensor<string, []>("op_569_to_fp16"), val = tensor<fp16, []>(0x1.5p-17)];
            tensor<fp16, [1, 1, 1, 1]> var_570_cast_fp16 = add(x = var_568_cast_fp16, y = var_569_to_fp16)[name = tensor<string, []>("op_570_cast_fp16")];
            tensor<fp16, []> denom_11_epsilon_0_to_fp16 = const()[name = tensor<string, []>("denom_11_epsilon_0_to_fp16"), val = tensor<fp16, []>(0x1p-24)];
            tensor<fp16, [1, 1, 1, 1]> denom_11_cast_fp16 = rsqrt(epsilon = denom_11_epsilon_0_to_fp16, x = var_570_cast_fp16)[name = tensor<string, []>("denom_11_cast_fp16")];
            tensor<fp16, [1, 1280, 1, 1]> out_11_cast_fp16 = mul(x = zero_mean_11_cast_fp16, y = denom_11_cast_fp16)[name = tensor<string, []>("out_11_cast_fp16")];
            tensor<fp16, [1280]> input_15_gamma_0_to_fp16 = const()[name = tensor<string, []>("input_15_gamma_0_to_fp16"), val = tensor<fp16, [1280]>(BLOBFILE(path = tensor<string, []>("@model_path/weights/weight.bin"), offset = tensor<uint64, []>(212641728)))];
            tensor<fp16, [1280]> input_15_beta_0_to_fp16 = const()[name = tensor<string, []>("input_15_beta_0_to_fp16"), val = tensor<fp16, [1280]>(BLOBFILE(path = tensor<string, []>("@model_path/weights/weight.bin"), offset = tensor<uint64, []>(212644352)))];
            tensor<fp16, []> input_15_epsilon_0_to_fp16 = const()[name = tensor<string, []>("input_15_epsilon_0_to_fp16"), val = tensor<fp16, []>(0x1.5p-17)];
            tensor<fp16, [1, 1280, 1, 1]> input_15_cast_fp16 = batch_norm(beta = input_15_beta_0_to_fp16, epsilon = input_15_epsilon_0_to_fp16, gamma = input_15_gamma_0_to_fp16, mean = obj_1_mean_0_to_fp16, variance = obj_1_variance_0_to_fp16, x = out_11_cast_fp16)[name = tensor<string, []>("input_15_cast_fp16")];
            tensor<int32, [2]> var_581 = const()[name = tensor<string, []>("op_581"), val = tensor<int32, [2]>([1, 1])];
            tensor<int32, [2]> var_583 = const()[name = tensor<string, []>("op_583"), val = tensor<int32, [2]>([1, 1])];
            tensor<string, []> input_17_pad_type_0 = const()[name = tensor<string, []>("input_17_pad_type_0"), val = tensor<string, []>("custom")];
            tensor<int32, [4]> input_17_pad_0 = const()[name = tensor<string, []>("input_17_pad_0"), val = tensor<int32, [4]>([0, 0, 0, 0])];
            tensor<fp16, [5120, 1280, 1, 1]> layers_1_fc1_weight_to_fp16 = const()[name = tensor<string, []>("layers_1_fc1_weight_to_fp16"), val = tensor<fp16, [5120, 1280, 1, 1]>(BLOBFILE(path = tensor<string, []>("@model_path/weights/weight.bin"), offset = tensor<uint64, []>(212646976)))];
            tensor<fp16, [5120]> layers_1_fc1_bias_to_fp16 = const()[name = tensor<string, []>("layers_1_fc1_bias_to_fp16"), val = tensor<fp16, [5120]>(BLOBFILE(path = tensor<string, []>("@model_path/weights/weight.bin"), offset = tensor<uint64, []>(225754240)))];
            tensor<fp16, [1, 5120, 1, 1]> input_17_cast_fp16 = conv(bias = layers_1_fc1_bias_to_fp16, dilations = var_583, groups = var_397, pad = input_17_pad_0, pad_type = input_17_pad_type_0, strides = var_581, weight = layers_1_fc1_weight_to_fp16, x = input_15_cast_fp16)[name = tensor<string, []>("input_17_cast_fp16")];
            tensor<string, []> input_19_mode_0 = const()[name = tensor<string, []>("input_19_mode_0"), val = tensor<string, []>("EXACT")];
            tensor<fp16, [1, 5120, 1, 1]> input_19_cast_fp16 = gelu(mode = input_19_mode_0, x = input_17_cast_fp16)[name = tensor<string, []>("input_19_cast_fp16")];
            tensor<int32, [2]> var_589 = const()[name = tensor<string, []>("op_589"), val = tensor<int32, [2]>([1, 1])];
            tensor<int32, [2]> var_591 = const()[name = tensor<string, []>("op_591"), val = tensor<int32, [2]>([1, 1])];
            tensor<string, []> hidden_states_5_pad_type_0 = const()[name = tensor<string, []>("hidden_states_5_pad_type_0"), val = tensor<string, []>("custom")];
            tensor<int32, [4]> hidden_states_5_pad_0 = const()[name = tensor<string, []>("hidden_states_5_pad_0"), val = tensor<int32, [4]>([0, 0, 0, 0])];
            tensor<fp16, [1280, 5120, 1, 1]> layers_1_fc2_weight_to_fp16 = const()[name = tensor<string, []>("layers_1_fc2_weight_to_fp16"), val = tensor<fp16, [1280, 5120, 1, 1]>(BLOBFILE(path = tensor<string, []>("@model_path/weights/weight.bin"), offset = tensor<uint64, []>(225764544)))];
            tensor<fp16, [1280]> layers_1_fc2_bias_to_fp16 = const()[name = tensor<string, []>("layers_1_fc2_bias_to_fp16"), val = tensor<fp16, [1280]>(BLOBFILE(path = tensor<string, []>("@model_path/weights/weight.bin"), offset = tensor<uint64, []>(238871808)))];
            tensor<fp16, [1, 1280, 1, 1]> hidden_states_5_cast_fp16 = conv(bias = layers_1_fc2_bias_to_fp16, dilations = var_591, groups = var_397, pad = hidden_states_5_pad_0, pad_type = hidden_states_5_pad_type_0, strides = var_589, weight = layers_1_fc2_weight_to_fp16, x = input_19_cast_fp16)[name = tensor<string, []>("hidden_states_5_cast_fp16")];
            tensor<fp16, [1, 1280, 1, 1]> inputs_13_cast_fp16 = add(x = inputs_11_cast_fp16, y = hidden_states_5_cast_fp16)[name = tensor<string, []>("inputs_13_cast_fp16")];
            tensor<int32, []> var_604 = const()[name = tensor<string, []>("op_604"), val = tensor<int32, []>(3)];
            tensor<int32, []> var_611 = const()[name = tensor<string, []>("op_611"), val = tensor<int32, []>(1)];
            tensor<bool, []> var_612 = const()[name = tensor<string, []>("op_612"), val = tensor<bool, []>(true)];
            tensor<int32, [1]> var_624 = const()[name = tensor<string, []>("op_624"), val = tensor<int32, [1]>([1])];
            tensor<fp16, [1, 1, 1, 1]> channels_mean_13_cast_fp16 = reduce_mean(axes = var_624, keep_dims = var_612, x = inputs_13_cast_fp16)[name = tensor<string, []>("channels_mean_13_cast_fp16")];
            tensor<fp16, [1, 1280, 1, 1]> zero_mean_13_cast_fp16 = sub(x = inputs_13_cast_fp16, y = channels_mean_13_cast_fp16)[name = tensor<string, []>("zero_mean_13_cast_fp16")];
            tensor<fp16, [1, 1280, 1, 1]> zero_mean_sq_13_cast_fp16 = mul(x = zero_mean_13_cast_fp16, y = zero_mean_13_cast_fp16)[name = tensor<string, []>("zero_mean_sq_13_cast_fp16")];
            tensor<int32, [1]> var_628 = const()[name = tensor<string, []>("op_628"), val = tensor<int32, [1]>([1])];
            tensor<fp16, [1, 1, 1, 1]> var_629_cast_fp16 = reduce_mean(axes = var_628, keep_dims = var_612, x = zero_mean_sq_13_cast_fp16)[name = tensor<string, []>("op_629_cast_fp16")];
            tensor<fp16, []> var_630_to_fp16 = const()[name = tensor<string, []>("op_630_to_fp16"), val = tensor<fp16, []>(0x1.5p-17)];
            tensor<fp16, [1, 1, 1, 1]> var_631_cast_fp16 = add(x = var_629_cast_fp16, y = var_630_to_fp16)[name = tensor<string, []>("op_631_cast_fp16")];
            tensor<fp16, []> denom_13_epsilon_0_to_fp16 = const()[name = tensor<string, []>("denom_13_epsilon_0_to_fp16"), val = tensor<fp16, []>(0x1p-24)];
            tensor<fp16, [1, 1, 1, 1]> denom_13_cast_fp16 = rsqrt(epsilon = denom_13_epsilon_0_to_fp16, x = var_631_cast_fp16)[name = tensor<string, []>("denom_13_cast_fp16")];
            tensor<fp16, [1, 1280, 1, 1]> out_13_cast_fp16 = mul(x = zero_mean_13_cast_fp16, y = denom_13_cast_fp16)[name = tensor<string, []>("out_13_cast_fp16")];
            tensor<fp16, [1280]> obj_29_gamma_0_to_fp16 = const()[name = tensor<string, []>("obj_29_gamma_0_to_fp16"), val = tensor<fp16, [1280]>(BLOBFILE(path = tensor<string, []>("@model_path/weights/weight.bin"), offset = tensor<uint64, []>(238874432)))];
            tensor<fp16, [1280]> obj_29_beta_0_to_fp16 = const()[name = tensor<string, []>("obj_29_beta_0_to_fp16"), val = tensor<fp16, [1280]>(BLOBFILE(path = tensor<string, []>("@model_path/weights/weight.bin"), offset = tensor<uint64, []>(238877056)))];
            tensor<fp16, []> obj_29_epsilon_0_to_fp16 = const()[name = tensor<string, []>("obj_29_epsilon_0_to_fp16"), val = tensor<fp16, []>(0x1.5p-17)];
            tensor<fp16, [1, 1280, 1, 1]> obj_29_cast_fp16 = batch_norm(beta = obj_29_beta_0_to_fp16, epsilon = obj_29_epsilon_0_to_fp16, gamma = obj_29_gamma_0_to_fp16, mean = obj_1_mean_0_to_fp16, variance = obj_1_variance_0_to_fp16, x = out_13_cast_fp16)[name = tensor<string, []>("obj_29_cast_fp16")];
            tensor<int32, [2]> var_646 = const()[name = tensor<string, []>("op_646"), val = tensor<int32, [2]>([1, 1])];
            tensor<int32, [2]> var_648 = const()[name = tensor<string, []>("op_648"), val = tensor<int32, [2]>([1, 1])];
            tensor<string, []> query_9_pad_type_0 = const()[name = tensor<string, []>("query_9_pad_type_0"), val = tensor<string, []>("custom")];
            tensor<int32, [4]> query_9_pad_0 = const()[name = tensor<string, []>("query_9_pad_0"), val = tensor<int32, [4]>([0, 0, 0, 0])];
            tensor<fp16, [1280, 1280, 1, 1]> layers_2_self_attn_q_proj_weight_to_fp16 = const()[name = tensor<string, []>("layers_2_self_attn_q_proj_weight_to_fp16"), val = tensor<fp16, [1280, 1280, 1, 1]>(BLOBFILE(path = tensor<string, []>("@model_path/weights/weight.bin"), offset = tensor<uint64, []>(238879680)))];
            tensor<fp16, [1280]> layers_2_self_attn_q_proj_bias_to_fp16 = const()[name = tensor<string, []>("layers_2_self_attn_q_proj_bias_to_fp16"), val = tensor<fp16, [1280]>(BLOBFILE(path = tensor<string, []>("@model_path/weights/weight.bin"), offset = tensor<uint64, []>(242156544)))];
            tensor<fp16, [1, 1280, 1, 1]> query_9_cast_fp16 = conv(bias = layers_2_self_attn_q_proj_bias_to_fp16, dilations = var_648, groups = var_611, pad = query_9_pad_0, pad_type = query_9_pad_type_0, strides = var_646, weight = layers_2_self_attn_q_proj_weight_to_fp16, x = obj_29_cast_fp16)[name = tensor<string, []>("query_9_cast_fp16")];
            tensor<int32, [2]> var_652 = const()[name = tensor<string, []>("op_652"), val = tensor<int32, [2]>([1, 1])];
            tensor<int32, [2]> var_654 = const()[name = tensor<string, []>("op_654"), val = tensor<int32, [2]>([1, 1])];
            tensor<string, []> current_key_5_pad_type_0 = const()[name = tensor<string, []>("current_key_5_pad_type_0"), val = tensor<string, []>("custom")];
            tensor<int32, [4]> current_key_5_pad_0 = const()[name = tensor<string, []>("current_key_5_pad_0"), val = tensor<int32, [4]>([0, 0, 0, 0])];
            tensor<fp16, [1280, 1280, 1, 1]> layers_2_self_attn_k_proj_weight_to_fp16 = const()[name = tensor<string, []>("layers_2_self_attn_k_proj_weight_to_fp16"), val = tensor<fp16, [1280, 1280, 1, 1]>(BLOBFILE(path = tensor<string, []>("@model_path/weights/weight.bin"), offset = tensor<uint64, []>(242159168)))];
            tensor<fp16, [1, 1280, 1, 1]> current_key_5_cast_fp16 = conv(dilations = var_654, groups = var_611, pad = current_key_5_pad_0, pad_type = current_key_5_pad_type_0, strides = var_652, weight = layers_2_self_attn_k_proj_weight_to_fp16, x = obj_29_cast_fp16)[name = tensor<string, []>("current_key_5_cast_fp16")];
            tensor<int32, [2]> var_659 = const()[name = tensor<string, []>("op_659"), val = tensor<int32, [2]>([1, 1])];
            tensor<int32, [2]> var_661 = const()[name = tensor<string, []>("op_661"), val = tensor<int32, [2]>([1, 1])];
            tensor<string, []> current_value_5_pad_type_0 = const()[name = tensor<string, []>("current_value_5_pad_type_0"), val = tensor<string, []>("custom")];
            tensor<int32, [4]> current_value_5_pad_0 = const()[name = tensor<string, []>("current_value_5_pad_0"), val = tensor<int32, [4]>([0, 0, 0, 0])];
            tensor<fp16, [1280, 1280, 1, 1]> layers_2_self_attn_v_proj_weight_to_fp16 = const()[name = tensor<string, []>("layers_2_self_attn_v_proj_weight_to_fp16"), val = tensor<fp16, [1280, 1280, 1, 1]>(BLOBFILE(path = tensor<string, []>("@model_path/weights/weight.bin"), offset = tensor<uint64, []>(245436032)))];
            tensor<fp16, [1280]> layers_2_self_attn_v_proj_bias_to_fp16 = const()[name = tensor<string, []>("layers_2_self_attn_v_proj_bias_to_fp16"), val = tensor<fp16, [1280]>(BLOBFILE(path = tensor<string, []>("@model_path/weights/weight.bin"), offset = tensor<uint64, []>(248712896)))];
            tensor<fp16, [1, 1280, 1, 1]> current_value_5_cast_fp16 = conv(bias = layers_2_self_attn_v_proj_bias_to_fp16, dilations = var_661, groups = var_611, pad = current_value_5_pad_0, pad_type = current_value_5_pad_type_0, strides = var_659, weight = layers_2_self_attn_v_proj_weight_to_fp16, x = obj_29_cast_fp16)[name = tensor<string, []>("current_value_5_cast_fp16")];
            tensor<fp16, [1, 1280, 1, 448]> var_668_cast_fp16 = mul(x = current_key_5_cast_fp16, y = var_238_cast_fp16)[name = tensor<string, []>("op_668_cast_fp16")];
            tensor<fp16, [1, 1280, 1, 448]> var_670_cast_fp16 = mul(x = var_103_cast_fp16_2, y = var_241_cast_fp16)[name = tensor<string, []>("op_670_cast_fp16")];
            tensor<fp16, [1, 1280, 1, 448]> key_9_cast_fp16 = add(x = var_668_cast_fp16, y = var_670_cast_fp16)[name = tensor<string, []>("key_9_cast_fp16")];
            tensor<fp16, [1, 1280, 1, 448]> var_672_cast_fp16 = mul(x = current_value_5_cast_fp16, y = var_238_cast_fp16)[name = tensor<string, []>("op_672_cast_fp16")];
            tensor<fp16, [1, 1280, 1, 448]> var_674_cast_fp16 = mul(x = var_138_cast_fp16_2, y = var_241_cast_fp16)[name = tensor<string, []>("op_674_cast_fp16")];
            tensor<fp16, [1, 1280, 1, 448]> value_9_cast_fp16 = add(x = var_672_cast_fp16, y = var_674_cast_fp16)[name = tensor<string, []>("value_9_cast_fp16")];
            tensor<int32, [4]> var_677 = const()[name = tensor<string, []>("op_677"), val = tensor<int32, [4]>([1, 20, 64, -1])];
            tensor<fp16, [1, 20, 64, 1]> var_678_cast_fp16 = reshape(shape = var_677, x = query_9_cast_fp16)[name = tensor<string, []>("op_678_cast_fp16")];
            tensor<fp16, []> var_679_to_fp16 = const()[name = tensor<string, []>("op_679_to_fp16"), val = tensor<fp16, []>(0x1p-3)];
            tensor<fp16, [1, 20, 64, 1]> var_680_cast_fp16 = mul(x = var_678_cast_fp16, y = var_679_to_fp16)[name = tensor<string, []>("op_680_cast_fp16")];
            tensor<int32, [4]> var_681 = const()[name = tensor<string, []>("op_681"), val = tensor<int32, [4]>([1, 20, 64, -1])];
            tensor<fp16, [1, 20, 64, 448]> var_682_cast_fp16 = reshape(shape = var_681, x = key_9_cast_fp16)[name = tensor<string, []>("op_682_cast_fp16")];
            tensor<bool, []> mh_w_13_transpose_x_0 = const()[name = tensor<string, []>("mh_w_13_transpose_x_0"), val = tensor<bool, []>(true)];
            tensor<bool, []> mh_w_13_transpose_y_0 = const()[name = tensor<string, []>("mh_w_13_transpose_y_0"), val = tensor<bool, []>(false)];
            tensor<fp16, [1, 20, 1, 448]> mh_w_13_cast_fp16 = matmul(transpose_x = mh_w_13_transpose_x_0, transpose_y = mh_w_13_transpose_y_0, x = var_680_cast_fp16, y = var_682_cast_fp16)[name = tensor<string, []>("mh_w_13_cast_fp16")];
            tensor<fp16, [1, 20, 1, 448]> mh_w_15_cast_fp16 = add(x = mh_w_13_cast_fp16, y = var_259_cast_fp16)[name = tensor<string, []>("mh_w_15_cast_fp16")];
            tensor<fp16, [1, 20, 1, 448]> var_690_cast_fp16 = softmax(axis = var_604, x = mh_w_15_cast_fp16)[name = tensor<string, []>("op_690_cast_fp16")];
            tensor<int32, [4]> var_691 = const()[name = tensor<string, []>("op_691"), val = tensor<int32, [4]>([1, 20, 64, -1])];
            tensor<fp16, [1, 20, 64, 448]> var_692_cast_fp16 = reshape(shape = var_691, x = value_9_cast_fp16)[name = tensor<string, []>("op_692_cast_fp16")];
            tensor<bool, []> attn_9_transpose_x_0 = const()[name = tensor<string, []>("attn_9_transpose_x_0"), val = tensor<bool, []>(false)];
            tensor<bool, []> attn_9_transpose_y_0 = const()[name = tensor<string, []>("attn_9_transpose_y_0"), val = tensor<bool, []>(true)];
            tensor<fp16, [1, 20, 64, 1]> attn_9_cast_fp16 = matmul(transpose_x = attn_9_transpose_x_0, transpose_y = attn_9_transpose_y_0, x = var_692_cast_fp16, y = var_690_cast_fp16)[name = tensor<string, []>("attn_9_cast_fp16")];
            tensor<int32, [4]> var_695 = const()[name = tensor<string, []>("op_695"), val = tensor<int32, [4]>([1, 1280, 1, -1])];
            tensor<fp16, [1, 1280, 1, 1]> input_21_cast_fp16 = reshape(shape = var_695, x = attn_9_cast_fp16)[name = tensor<string, []>("input_21_cast_fp16")];
            tensor<int32, [2]> var_699 = const()[name = tensor<string, []>("op_699"), val = tensor<int32, [2]>([1, 1])];
            tensor<int32, [2]> var_701 = const()[name = tensor<string, []>("op_701"), val = tensor<int32, [2]>([1, 1])];
            tensor<string, []> obj_35_pad_type_0 = const()[name = tensor<string, []>("obj_35_pad_type_0"), val = tensor<string, []>("custom")];
            tensor<int32, [4]> obj_35_pad_0 = const()[name = tensor<string, []>("obj_35_pad_0"), val = tensor<int32, [4]>([0, 0, 0, 0])];
            tensor<fp16, [1280, 1280, 1, 1]> layers_2_self_attn_o_proj_weight_to_fp16 = const()[name = tensor<string, []>("layers_2_self_attn_o_proj_weight_to_fp16"), val = tensor<fp16, [1280, 1280, 1, 1]>(BLOBFILE(path = tensor<string, []>("@model_path/weights/weight.bin"), offset = tensor<uint64, []>(248715520)))];
            tensor<fp16, [1280]> layers_2_self_attn_o_proj_bias_to_fp16 = const()[name = tensor<string, []>("layers_2_self_attn_o_proj_bias_to_fp16"), val = tensor<fp16, [1280]>(BLOBFILE(path = tensor<string, []>("@model_path/weights/weight.bin"), offset = tensor<uint64, []>(251992384)))];
            tensor<fp16, [1, 1280, 1, 1]> obj_35_cast_fp16 = conv(bias = layers_2_self_attn_o_proj_bias_to_fp16, dilations = var_701, groups = var_611, pad = obj_35_pad_0, pad_type = obj_35_pad_type_0, strides = var_699, weight = layers_2_self_attn_o_proj_weight_to_fp16, x = input_21_cast_fp16)[name = tensor<string, []>("obj_35_cast_fp16")];
            tensor<fp16, [1, 1280, 1, 1]> inputs_15_cast_fp16 = add(x = inputs_13_cast_fp16, y = obj_35_cast_fp16)[name = tensor<string, []>("inputs_15_cast_fp16")];
            tensor<int32, [1]> var_711 = const()[name = tensor<string, []>("op_711"), val = tensor<int32, [1]>([1])];
            tensor<fp16, [1, 1, 1, 1]> channels_mean_15_cast_fp16 = reduce_mean(axes = var_711, keep_dims = var_612, x = inputs_15_cast_fp16)[name = tensor<string, []>("channels_mean_15_cast_fp16")];
            tensor<fp16, [1, 1280, 1, 1]> zero_mean_15_cast_fp16 = sub(x = inputs_15_cast_fp16, y = channels_mean_15_cast_fp16)[name = tensor<string, []>("zero_mean_15_cast_fp16")];
            tensor<fp16, [1, 1280, 1, 1]> zero_mean_sq_15_cast_fp16 = mul(x = zero_mean_15_cast_fp16, y = zero_mean_15_cast_fp16)[name = tensor<string, []>("zero_mean_sq_15_cast_fp16")];
            tensor<int32, [1]> var_715 = const()[name = tensor<string, []>("op_715"), val = tensor<int32, [1]>([1])];
            tensor<fp16, [1, 1, 1, 1]> var_716_cast_fp16 = reduce_mean(axes = var_715, keep_dims = var_612, x = zero_mean_sq_15_cast_fp16)[name = tensor<string, []>("op_716_cast_fp16")];
            tensor<fp16, []> var_717_to_fp16 = const()[name = tensor<string, []>("op_717_to_fp16"), val = tensor<fp16, []>(0x1.5p-17)];
            tensor<fp16, [1, 1, 1, 1]> var_718_cast_fp16 = add(x = var_716_cast_fp16, y = var_717_to_fp16)[name = tensor<string, []>("op_718_cast_fp16")];
            tensor<fp16, []> denom_15_epsilon_0_to_fp16 = const()[name = tensor<string, []>("denom_15_epsilon_0_to_fp16"), val = tensor<fp16, []>(0x1p-24)];
            tensor<fp16, [1, 1, 1, 1]> denom_15_cast_fp16 = rsqrt(epsilon = denom_15_epsilon_0_to_fp16, x = var_718_cast_fp16)[name = tensor<string, []>("denom_15_cast_fp16")];
            tensor<fp16, [1, 1280, 1, 1]> out_15_cast_fp16 = mul(x = zero_mean_15_cast_fp16, y = denom_15_cast_fp16)[name = tensor<string, []>("out_15_cast_fp16")];
            tensor<fp16, [1280]> obj_37_gamma_0_to_fp16 = const()[name = tensor<string, []>("obj_37_gamma_0_to_fp16"), val = tensor<fp16, [1280]>(BLOBFILE(path = tensor<string, []>("@model_path/weights/weight.bin"), offset = tensor<uint64, []>(251995008)))];
            tensor<fp16, [1280]> obj_37_beta_0_to_fp16 = const()[name = tensor<string, []>("obj_37_beta_0_to_fp16"), val = tensor<fp16, [1280]>(BLOBFILE(path = tensor<string, []>("@model_path/weights/weight.bin"), offset = tensor<uint64, []>(251997632)))];
            tensor<fp16, []> obj_37_epsilon_0_to_fp16 = const()[name = tensor<string, []>("obj_37_epsilon_0_to_fp16"), val = tensor<fp16, []>(0x1.5p-17)];
            tensor<fp16, [1, 1280, 1, 1]> obj_37_cast_fp16 = batch_norm(beta = obj_37_beta_0_to_fp16, epsilon = obj_37_epsilon_0_to_fp16, gamma = obj_37_gamma_0_to_fp16, mean = obj_1_mean_0_to_fp16, variance = obj_1_variance_0_to_fp16, x = out_15_cast_fp16)[name = tensor<string, []>("obj_37_cast_fp16")];
            tensor<int32, [2]> var_733 = const()[name = tensor<string, []>("op_733"), val = tensor<int32, [2]>([1, 1])];
            tensor<int32, [2]> var_735 = const()[name = tensor<string, []>("op_735"), val = tensor<int32, [2]>([1, 1])];
            tensor<string, []> query_11_pad_type_0 = const()[name = tensor<string, []>("query_11_pad_type_0"), val = tensor<string, []>("custom")];
            tensor<int32, [4]> query_11_pad_0 = const()[name = tensor<string, []>("query_11_pad_0"), val = tensor<int32, [4]>([0, 0, 0, 0])];
            tensor<fp16, [1280, 1280, 1, 1]> layers_2_encoder_attn_q_proj_weight_to_fp16 = const()[name = tensor<string, []>("layers_2_encoder_attn_q_proj_weight_to_fp16"), val = tensor<fp16, [1280, 1280, 1, 1]>(BLOBFILE(path = tensor<string, []>("@model_path/weights/weight.bin"), offset = tensor<uint64, []>(252000256)))];
            tensor<fp16, [1280]> layers_2_encoder_attn_q_proj_bias_to_fp16 = const()[name = tensor<string, []>("layers_2_encoder_attn_q_proj_bias_to_fp16"), val = tensor<fp16, [1280]>(BLOBFILE(path = tensor<string, []>("@model_path/weights/weight.bin"), offset = tensor<uint64, []>(255277120)))];
            tensor<fp16, [1, 1280, 1, 1]> query_11_cast_fp16 = conv(bias = layers_2_encoder_attn_q_proj_bias_to_fp16, dilations = var_735, groups = var_611, pad = query_11_pad_0, pad_type = query_11_pad_type_0, strides = var_733, weight = layers_2_encoder_attn_q_proj_weight_to_fp16, x = obj_37_cast_fp16)[name = tensor<string, []>("query_11_cast_fp16")];
            tensor<int32, [2]> var_739 = const()[name = tensor<string, []>("op_739"), val = tensor<int32, [2]>([1, 1])];
            tensor<int32, [2]> var_741 = const()[name = tensor<string, []>("op_741"), val = tensor<int32, [2]>([1, 1])];
            tensor<string, []> key_11_pad_type_0 = const()[name = tensor<string, []>("key_11_pad_type_0"), val = tensor<string, []>("custom")];
            tensor<int32, [4]> key_11_pad_0 = const()[name = tensor<string, []>("key_11_pad_0"), val = tensor<int32, [4]>([0, 0, 0, 0])];
            tensor<fp16, [1280, 1280, 1, 1]> layers_2_encoder_attn_k_proj_weight_to_fp16 = const()[name = tensor<string, []>("layers_2_encoder_attn_k_proj_weight_to_fp16"), val = tensor<fp16, [1280, 1280, 1, 1]>(BLOBFILE(path = tensor<string, []>("@model_path/weights/weight.bin"), offset = tensor<uint64, []>(255279744)))];
            tensor<fp16, [1, 1280, 1, 1500]> key_11_cast_fp16 = conv(dilations = var_741, groups = var_611, pad = key_11_pad_0, pad_type = key_11_pad_type_0, strides = var_739, weight = layers_2_encoder_attn_k_proj_weight_to_fp16, x = encoder_output_embeds)[name = tensor<string, []>("key_11_cast_fp16")];
            tensor<int32, [2]> var_746 = const()[name = tensor<string, []>("op_746"), val = tensor<int32, [2]>([1, 1])];
            tensor<int32, [2]> var_748 = const()[name = tensor<string, []>("op_748"), val = tensor<int32, [2]>([1, 1])];
            tensor<string, []> value_11_pad_type_0 = const()[name = tensor<string, []>("value_11_pad_type_0"), val = tensor<string, []>("custom")];
            tensor<int32, [4]> value_11_pad_0 = const()[name = tensor<string, []>("value_11_pad_0"), val = tensor<int32, [4]>([0, 0, 0, 0])];
            tensor<fp16, [1280, 1280, 1, 1]> layers_2_encoder_attn_v_proj_weight_to_fp16 = const()[name = tensor<string, []>("layers_2_encoder_attn_v_proj_weight_to_fp16"), val = tensor<fp16, [1280, 1280, 1, 1]>(BLOBFILE(path = tensor<string, []>("@model_path/weights/weight.bin"), offset = tensor<uint64, []>(258556608)))];
            tensor<fp16, [1280]> layers_2_encoder_attn_v_proj_bias_to_fp16 = const()[name = tensor<string, []>("layers_2_encoder_attn_v_proj_bias_to_fp16"), val = tensor<fp16, [1280]>(BLOBFILE(path = tensor<string, []>("@model_path/weights/weight.bin"), offset = tensor<uint64, []>(261833472)))];
            tensor<fp16, [1, 1280, 1, 1500]> value_11_cast_fp16 = conv(bias = layers_2_encoder_attn_v_proj_bias_to_fp16, dilations = var_748, groups = var_611, pad = value_11_pad_0, pad_type = value_11_pad_type_0, strides = var_746, weight = layers_2_encoder_attn_v_proj_weight_to_fp16, x = encoder_output_embeds)[name = tensor<string, []>("value_11_cast_fp16")];
            tensor<int32, [4]> var_752 = const()[name = tensor<string, []>("op_752"), val = tensor<int32, [4]>([1, 20, 64, -1])];
            tensor<fp16, [1, 20, 64, 1]> var_753_cast_fp16 = reshape(shape = var_752, x = query_11_cast_fp16)[name = tensor<string, []>("op_753_cast_fp16")];
            tensor<fp16, []> var_754_to_fp16 = const()[name = tensor<string, []>("op_754_to_fp16"), val = tensor<fp16, []>(0x1p-3)];
            tensor<fp16, [1, 20, 64, 1]> var_755_cast_fp16 = mul(x = var_753_cast_fp16, y = var_754_to_fp16)[name = tensor<string, []>("op_755_cast_fp16")];
            tensor<int32, [4]> var_756 = const()[name = tensor<string, []>("op_756"), val = tensor<int32, [4]>([1, 20, 64, -1])];
            tensor<fp16, [1, 20, 64, 1500]> var_757_cast_fp16 = reshape(shape = var_756, x = key_11_cast_fp16)[name = tensor<string, []>("op_757_cast_fp16")];
            tensor<bool, []> mh_w_17_transpose_x_0 = const()[name = tensor<string, []>("mh_w_17_transpose_x_0"), val = tensor<bool, []>(true)];
            tensor<bool, []> mh_w_17_transpose_y_0 = const()[name = tensor<string, []>("mh_w_17_transpose_y_0"), val = tensor<bool, []>(false)];
            tensor<fp16, [1, 20, 1, 1500]> mh_w_17_cast_fp16 = matmul(transpose_x = mh_w_17_transpose_x_0, transpose_y = mh_w_17_transpose_y_0, x = var_755_cast_fp16, y = var_757_cast_fp16)[name = tensor<string, []>("mh_w_17_cast_fp16")];
            tensor<fp16, [1, 20, 1, 1500]> obj_41_cast_fp16 = softmax(axis = var_604, x = mh_w_17_cast_fp16)[name = tensor<string, []>("obj_41_cast_fp16")];
            tensor<int32, [4]> var_761 = const()[name = tensor<string, []>("op_761"), val = tensor<int32, [4]>([1, 20, 64, -1])];
            tensor<fp16, [1, 20, 64, 1500]> var_762_cast_fp16 = reshape(shape = var_761, x = value_11_cast_fp16)[name = tensor<string, []>("op_762_cast_fp16")];
            tensor<bool, []> attn_11_transpose_x_0 = const()[name = tensor<string, []>("attn_11_transpose_x_0"), val = tensor<bool, []>(false)];
            tensor<bool, []> attn_11_transpose_y_0 = const()[name = tensor<string, []>("attn_11_transpose_y_0"), val = tensor<bool, []>(true)];
            tensor<fp16, [1, 20, 64, 1]> attn_11_cast_fp16 = matmul(transpose_x = attn_11_transpose_x_0, transpose_y = attn_11_transpose_y_0, x = var_762_cast_fp16, y = obj_41_cast_fp16)[name = tensor<string, []>("attn_11_cast_fp16")];
            tensor<int32, [4]> var_765 = const()[name = tensor<string, []>("op_765"), val = tensor<int32, [4]>([1, 1280, 1, -1])];
            tensor<fp16, [1, 1280, 1, 1]> input_23_cast_fp16 = reshape(shape = var_765, x = attn_11_cast_fp16)[name = tensor<string, []>("input_23_cast_fp16")];
            tensor<int32, [2]> var_769 = const()[name = tensor<string, []>("op_769"), val = tensor<int32, [2]>([1, 1])];
            tensor<int32, [2]> var_771 = const()[name = tensor<string, []>("op_771"), val = tensor<int32, [2]>([1, 1])];
            tensor<string, []> obj_39_pad_type_0 = const()[name = tensor<string, []>("obj_39_pad_type_0"), val = tensor<string, []>("custom")];
            tensor<int32, [4]> obj_39_pad_0 = const()[name = tensor<string, []>("obj_39_pad_0"), val = tensor<int32, [4]>([0, 0, 0, 0])];
            tensor<fp16, [1280, 1280, 1, 1]> layers_2_encoder_attn_o_proj_weight_to_fp16 = const()[name = tensor<string, []>("layers_2_encoder_attn_o_proj_weight_to_fp16"), val = tensor<fp16, [1280, 1280, 1, 1]>(BLOBFILE(path = tensor<string, []>("@model_path/weights/weight.bin"), offset = tensor<uint64, []>(261836096)))];
            tensor<fp16, [1280]> layers_2_encoder_attn_o_proj_bias_to_fp16 = const()[name = tensor<string, []>("layers_2_encoder_attn_o_proj_bias_to_fp16"), val = tensor<fp16, [1280]>(BLOBFILE(path = tensor<string, []>("@model_path/weights/weight.bin"), offset = tensor<uint64, []>(265112960)))];
            tensor<fp16, [1, 1280, 1, 1]> obj_39_cast_fp16 = conv(bias = layers_2_encoder_attn_o_proj_bias_to_fp16, dilations = var_771, groups = var_611, pad = obj_39_pad_0, pad_type = obj_39_pad_type_0, strides = var_769, weight = layers_2_encoder_attn_o_proj_weight_to_fp16, x = input_23_cast_fp16)[name = tensor<string, []>("obj_39_cast_fp16")];
            tensor<fp16, [1, 1280, 1, 1]> inputs_17_cast_fp16 = add(x = inputs_15_cast_fp16, y = obj_39_cast_fp16)[name = tensor<string, []>("inputs_17_cast_fp16")];
            tensor<int32, [1]> var_777 = const()[name = tensor<string, []>("op_777"), val = tensor<int32, [1]>([1])];
            tensor<fp16, [1, 1, 1, 1]> channels_mean_17_cast_fp16 = reduce_mean(axes = var_777, keep_dims = var_612, x = inputs_17_cast_fp16)[name = tensor<string, []>("channels_mean_17_cast_fp16")];
            tensor<fp16, [1, 1280, 1, 1]> zero_mean_17_cast_fp16 = sub(x = inputs_17_cast_fp16, y = channels_mean_17_cast_fp16)[name = tensor<string, []>("zero_mean_17_cast_fp16")];
            tensor<fp16, [1, 1280, 1, 1]> zero_mean_sq_17_cast_fp16 = mul(x = zero_mean_17_cast_fp16, y = zero_mean_17_cast_fp16)[name = tensor<string, []>("zero_mean_sq_17_cast_fp16")];
            tensor<int32, [1]> var_781 = const()[name = tensor<string, []>("op_781"), val = tensor<int32, [1]>([1])];
            tensor<fp16, [1, 1, 1, 1]> var_782_cast_fp16 = reduce_mean(axes = var_781, keep_dims = var_612, x = zero_mean_sq_17_cast_fp16)[name = tensor<string, []>("op_782_cast_fp16")];
            tensor<fp16, []> var_783_to_fp16 = const()[name = tensor<string, []>("op_783_to_fp16"), val = tensor<fp16, []>(0x1.5p-17)];
            tensor<fp16, [1, 1, 1, 1]> var_784_cast_fp16 = add(x = var_782_cast_fp16, y = var_783_to_fp16)[name = tensor<string, []>("op_784_cast_fp16")];
            tensor<fp16, []> denom_17_epsilon_0_to_fp16 = const()[name = tensor<string, []>("denom_17_epsilon_0_to_fp16"), val = tensor<fp16, []>(0x1p-24)];
            tensor<fp16, [1, 1, 1, 1]> denom_17_cast_fp16 = rsqrt(epsilon = denom_17_epsilon_0_to_fp16, x = var_784_cast_fp16)[name = tensor<string, []>("denom_17_cast_fp16")];
            tensor<fp16, [1, 1280, 1, 1]> out_17_cast_fp16 = mul(x = zero_mean_17_cast_fp16, y = denom_17_cast_fp16)[name = tensor<string, []>("out_17_cast_fp16")];
            tensor<fp16, [1280]> input_25_gamma_0_to_fp16 = const()[name = tensor<string, []>("input_25_gamma_0_to_fp16"), val = tensor<fp16, [1280]>(BLOBFILE(path = tensor<string, []>("@model_path/weights/weight.bin"), offset = tensor<uint64, []>(265115584)))];
            tensor<fp16, [1280]> input_25_beta_0_to_fp16 = const()[name = tensor<string, []>("input_25_beta_0_to_fp16"), val = tensor<fp16, [1280]>(BLOBFILE(path = tensor<string, []>("@model_path/weights/weight.bin"), offset = tensor<uint64, []>(265118208)))];
            tensor<fp16, []> input_25_epsilon_0_to_fp16 = const()[name = tensor<string, []>("input_25_epsilon_0_to_fp16"), val = tensor<fp16, []>(0x1.5p-17)];
            tensor<fp16, [1, 1280, 1, 1]> input_25_cast_fp16 = batch_norm(beta = input_25_beta_0_to_fp16, epsilon = input_25_epsilon_0_to_fp16, gamma = input_25_gamma_0_to_fp16, mean = obj_1_mean_0_to_fp16, variance = obj_1_variance_0_to_fp16, x = out_17_cast_fp16)[name = tensor<string, []>("input_25_cast_fp16")];
            tensor<int32, [2]> var_795 = const()[name = tensor<string, []>("op_795"), val = tensor<int32, [2]>([1, 1])];
            tensor<int32, [2]> var_797 = const()[name = tensor<string, []>("op_797"), val = tensor<int32, [2]>([1, 1])];
            tensor<string, []> input_27_pad_type_0 = const()[name = tensor<string, []>("input_27_pad_type_0"), val = tensor<string, []>("custom")];
            tensor<int32, [4]> input_27_pad_0 = const()[name = tensor<string, []>("input_27_pad_0"), val = tensor<int32, [4]>([0, 0, 0, 0])];
            tensor<fp16, [5120, 1280, 1, 1]> layers_2_fc1_weight_to_fp16 = const()[name = tensor<string, []>("layers_2_fc1_weight_to_fp16"), val = tensor<fp16, [5120, 1280, 1, 1]>(BLOBFILE(path = tensor<string, []>("@model_path/weights/weight.bin"), offset = tensor<uint64, []>(265120832)))];
            tensor<fp16, [5120]> layers_2_fc1_bias_to_fp16 = const()[name = tensor<string, []>("layers_2_fc1_bias_to_fp16"), val = tensor<fp16, [5120]>(BLOBFILE(path = tensor<string, []>("@model_path/weights/weight.bin"), offset = tensor<uint64, []>(278228096)))];
            tensor<fp16, [1, 5120, 1, 1]> input_27_cast_fp16 = conv(bias = layers_2_fc1_bias_to_fp16, dilations = var_797, groups = var_611, pad = input_27_pad_0, pad_type = input_27_pad_type_0, strides = var_795, weight = layers_2_fc1_weight_to_fp16, x = input_25_cast_fp16)[name = tensor<string, []>("input_27_cast_fp16")];
            tensor<string, []> input_29_mode_0 = const()[name = tensor<string, []>("input_29_mode_0"), val = tensor<string, []>("EXACT")];
            tensor<fp16, [1, 5120, 1, 1]> input_29_cast_fp16 = gelu(mode = input_29_mode_0, x = input_27_cast_fp16)[name = tensor<string, []>("input_29_cast_fp16")];
            tensor<int32, [2]> var_803 = const()[name = tensor<string, []>("op_803"), val = tensor<int32, [2]>([1, 1])];
            tensor<int32, [2]> var_805 = const()[name = tensor<string, []>("op_805"), val = tensor<int32, [2]>([1, 1])];
            tensor<string, []> hidden_states_7_pad_type_0 = const()[name = tensor<string, []>("hidden_states_7_pad_type_0"), val = tensor<string, []>("custom")];
            tensor<int32, [4]> hidden_states_7_pad_0 = const()[name = tensor<string, []>("hidden_states_7_pad_0"), val = tensor<int32, [4]>([0, 0, 0, 0])];
            tensor<fp16, [1280, 5120, 1, 1]> layers_2_fc2_weight_to_fp16 = const()[name = tensor<string, []>("layers_2_fc2_weight_to_fp16"), val = tensor<fp16, [1280, 5120, 1, 1]>(BLOBFILE(path = tensor<string, []>("@model_path/weights/weight.bin"), offset = tensor<uint64, []>(278238400)))];
            tensor<fp16, [1280]> layers_2_fc2_bias_to_fp16 = const()[name = tensor<string, []>("layers_2_fc2_bias_to_fp16"), val = tensor<fp16, [1280]>(BLOBFILE(path = tensor<string, []>("@model_path/weights/weight.bin"), offset = tensor<uint64, []>(291345664)))];
            tensor<fp16, [1, 1280, 1, 1]> hidden_states_7_cast_fp16 = conv(bias = layers_2_fc2_bias_to_fp16, dilations = var_805, groups = var_611, pad = hidden_states_7_pad_0, pad_type = hidden_states_7_pad_type_0, strides = var_803, weight = layers_2_fc2_weight_to_fp16, x = input_29_cast_fp16)[name = tensor<string, []>("hidden_states_7_cast_fp16")];
            tensor<fp16, [1, 1280, 1, 1]> inputs_19_cast_fp16 = add(x = inputs_17_cast_fp16, y = hidden_states_7_cast_fp16)[name = tensor<string, []>("inputs_19_cast_fp16")];
            tensor<int32, []> var_818 = const()[name = tensor<string, []>("op_818"), val = tensor<int32, []>(3)];
            tensor<int32, []> var_825 = const()[name = tensor<string, []>("op_825"), val = tensor<int32, []>(1)];
            tensor<bool, []> var_826 = const()[name = tensor<string, []>("op_826"), val = tensor<bool, []>(true)];
            tensor<int32, [1]> var_838 = const()[name = tensor<string, []>("op_838"), val = tensor<int32, [1]>([1])];
            tensor<fp16, [1, 1, 1, 1]> channels_mean_19_cast_fp16 = reduce_mean(axes = var_838, keep_dims = var_826, x = inputs_19_cast_fp16)[name = tensor<string, []>("channels_mean_19_cast_fp16")];
            tensor<fp16, [1, 1280, 1, 1]> zero_mean_19_cast_fp16 = sub(x = inputs_19_cast_fp16, y = channels_mean_19_cast_fp16)[name = tensor<string, []>("zero_mean_19_cast_fp16")];
            tensor<fp16, [1, 1280, 1, 1]> zero_mean_sq_19_cast_fp16 = mul(x = zero_mean_19_cast_fp16, y = zero_mean_19_cast_fp16)[name = tensor<string, []>("zero_mean_sq_19_cast_fp16")];
            tensor<int32, [1]> var_842 = const()[name = tensor<string, []>("op_842"), val = tensor<int32, [1]>([1])];
            tensor<fp16, [1, 1, 1, 1]> var_843_cast_fp16 = reduce_mean(axes = var_842, keep_dims = var_826, x = zero_mean_sq_19_cast_fp16)[name = tensor<string, []>("op_843_cast_fp16")];
            tensor<fp16, []> var_844_to_fp16 = const()[name = tensor<string, []>("op_844_to_fp16"), val = tensor<fp16, []>(0x1.5p-17)];
            tensor<fp16, [1, 1, 1, 1]> var_845_cast_fp16 = add(x = var_843_cast_fp16, y = var_844_to_fp16)[name = tensor<string, []>("op_845_cast_fp16")];
            tensor<fp16, []> denom_19_epsilon_0_to_fp16 = const()[name = tensor<string, []>("denom_19_epsilon_0_to_fp16"), val = tensor<fp16, []>(0x1p-24)];
            tensor<fp16, [1, 1, 1, 1]> denom_19_cast_fp16 = rsqrt(epsilon = denom_19_epsilon_0_to_fp16, x = var_845_cast_fp16)[name = tensor<string, []>("denom_19_cast_fp16")];
            tensor<fp16, [1, 1280, 1, 1]> out_19_cast_fp16 = mul(x = zero_mean_19_cast_fp16, y = denom_19_cast_fp16)[name = tensor<string, []>("out_19_cast_fp16")];
            tensor<fp16, [1280]> obj_43_gamma_0_to_fp16 = const()[name = tensor<string, []>("obj_43_gamma_0_to_fp16"), val = tensor<fp16, [1280]>(BLOBFILE(path = tensor<string, []>("@model_path/weights/weight.bin"), offset = tensor<uint64, []>(291348288)))];
            tensor<fp16, [1280]> obj_43_beta_0_to_fp16 = const()[name = tensor<string, []>("obj_43_beta_0_to_fp16"), val = tensor<fp16, [1280]>(BLOBFILE(path = tensor<string, []>("@model_path/weights/weight.bin"), offset = tensor<uint64, []>(291350912)))];
            tensor<fp16, []> obj_43_epsilon_0_to_fp16 = const()[name = tensor<string, []>("obj_43_epsilon_0_to_fp16"), val = tensor<fp16, []>(0x1.5p-17)];
            tensor<fp16, [1, 1280, 1, 1]> obj_43_cast_fp16 = batch_norm(beta = obj_43_beta_0_to_fp16, epsilon = obj_43_epsilon_0_to_fp16, gamma = obj_43_gamma_0_to_fp16, mean = obj_1_mean_0_to_fp16, variance = obj_1_variance_0_to_fp16, x = out_19_cast_fp16)[name = tensor<string, []>("obj_43_cast_fp16")];
            tensor<int32, [2]> var_860 = const()[name = tensor<string, []>("op_860"), val = tensor<int32, [2]>([1, 1])];
            tensor<int32, [2]> var_862 = const()[name = tensor<string, []>("op_862"), val = tensor<int32, [2]>([1, 1])];
            tensor<string, []> query_13_pad_type_0 = const()[name = tensor<string, []>("query_13_pad_type_0"), val = tensor<string, []>("custom")];
            tensor<int32, [4]> query_13_pad_0 = const()[name = tensor<string, []>("query_13_pad_0"), val = tensor<int32, [4]>([0, 0, 0, 0])];
            tensor<fp16, [1280, 1280, 1, 1]> layers_3_self_attn_q_proj_weight_to_fp16 = const()[name = tensor<string, []>("layers_3_self_attn_q_proj_weight_to_fp16"), val = tensor<fp16, [1280, 1280, 1, 1]>(BLOBFILE(path = tensor<string, []>("@model_path/weights/weight.bin"), offset = tensor<uint64, []>(291353536)))];
            tensor<fp16, [1280]> layers_3_self_attn_q_proj_bias_to_fp16 = const()[name = tensor<string, []>("layers_3_self_attn_q_proj_bias_to_fp16"), val = tensor<fp16, [1280]>(BLOBFILE(path = tensor<string, []>("@model_path/weights/weight.bin"), offset = tensor<uint64, []>(294630400)))];
            tensor<fp16, [1, 1280, 1, 1]> query_13_cast_fp16 = conv(bias = layers_3_self_attn_q_proj_bias_to_fp16, dilations = var_862, groups = var_825, pad = query_13_pad_0, pad_type = query_13_pad_type_0, strides = var_860, weight = layers_3_self_attn_q_proj_weight_to_fp16, x = obj_43_cast_fp16)[name = tensor<string, []>("query_13_cast_fp16")];
            tensor<int32, [2]> var_866 = const()[name = tensor<string, []>("op_866"), val = tensor<int32, [2]>([1, 1])];
            tensor<int32, [2]> var_868 = const()[name = tensor<string, []>("op_868"), val = tensor<int32, [2]>([1, 1])];
            tensor<string, []> current_key_7_pad_type_0 = const()[name = tensor<string, []>("current_key_7_pad_type_0"), val = tensor<string, []>("custom")];
            tensor<int32, [4]> current_key_7_pad_0 = const()[name = tensor<string, []>("current_key_7_pad_0"), val = tensor<int32, [4]>([0, 0, 0, 0])];
            tensor<fp16, [1280, 1280, 1, 1]> layers_3_self_attn_k_proj_weight_to_fp16 = const()[name = tensor<string, []>("layers_3_self_attn_k_proj_weight_to_fp16"), val = tensor<fp16, [1280, 1280, 1, 1]>(BLOBFILE(path = tensor<string, []>("@model_path/weights/weight.bin"), offset = tensor<uint64, []>(294633024)))];
            tensor<fp16, [1, 1280, 1, 1]> current_key_7_cast_fp16 = conv(dilations = var_868, groups = var_825, pad = current_key_7_pad_0, pad_type = current_key_7_pad_type_0, strides = var_866, weight = layers_3_self_attn_k_proj_weight_to_fp16, x = obj_43_cast_fp16)[name = tensor<string, []>("current_key_7_cast_fp16")];
            tensor<int32, [2]> var_873 = const()[name = tensor<string, []>("op_873"), val = tensor<int32, [2]>([1, 1])];
            tensor<int32, [2]> var_875 = const()[name = tensor<string, []>("op_875"), val = tensor<int32, [2]>([1, 1])];
            tensor<string, []> current_value_7_pad_type_0 = const()[name = tensor<string, []>("current_value_7_pad_type_0"), val = tensor<string, []>("custom")];
            tensor<int32, [4]> current_value_7_pad_0 = const()[name = tensor<string, []>("current_value_7_pad_0"), val = tensor<int32, [4]>([0, 0, 0, 0])];
            tensor<fp16, [1280, 1280, 1, 1]> layers_3_self_attn_v_proj_weight_to_fp16 = const()[name = tensor<string, []>("layers_3_self_attn_v_proj_weight_to_fp16"), val = tensor<fp16, [1280, 1280, 1, 1]>(BLOBFILE(path = tensor<string, []>("@model_path/weights/weight.bin"), offset = tensor<uint64, []>(297909888)))];
            tensor<fp16, [1280]> layers_3_self_attn_v_proj_bias_to_fp16 = const()[name = tensor<string, []>("layers_3_self_attn_v_proj_bias_to_fp16"), val = tensor<fp16, [1280]>(BLOBFILE(path = tensor<string, []>("@model_path/weights/weight.bin"), offset = tensor<uint64, []>(301186752)))];
            tensor<fp16, [1, 1280, 1, 1]> current_value_7_cast_fp16 = conv(bias = layers_3_self_attn_v_proj_bias_to_fp16, dilations = var_875, groups = var_825, pad = current_value_7_pad_0, pad_type = current_value_7_pad_type_0, strides = var_873, weight = layers_3_self_attn_v_proj_weight_to_fp16, x = obj_43_cast_fp16)[name = tensor<string, []>("current_value_7_cast_fp16")];
            tensor<fp16, [1, 1280, 1, 448]> var_882_cast_fp16 = mul(x = current_key_7_cast_fp16, y = var_238_cast_fp16)[name = tensor<string, []>("op_882_cast_fp16")];
            tensor<fp16, [1, 1280, 1, 448]> var_884_cast_fp16 = mul(x = var_103_cast_fp16_3, y = var_241_cast_fp16)[name = tensor<string, []>("op_884_cast_fp16")];
            tensor<fp16, [1, 1280, 1, 448]> key_13_cast_fp16 = add(x = var_882_cast_fp16, y = var_884_cast_fp16)[name = tensor<string, []>("key_13_cast_fp16")];
            tensor<fp16, [1, 1280, 1, 448]> var_886_cast_fp16 = mul(x = current_value_7_cast_fp16, y = var_238_cast_fp16)[name = tensor<string, []>("op_886_cast_fp16")];
            tensor<fp16, [1, 1280, 1, 448]> var_888_cast_fp16 = mul(x = var_138_cast_fp16_3, y = var_241_cast_fp16)[name = tensor<string, []>("op_888_cast_fp16")];
            tensor<fp16, [1, 1280, 1, 448]> value_13_cast_fp16 = add(x = var_886_cast_fp16, y = var_888_cast_fp16)[name = tensor<string, []>("value_13_cast_fp16")];
            tensor<int32, [4]> var_891 = const()[name = tensor<string, []>("op_891"), val = tensor<int32, [4]>([1, 20, 64, -1])];
            tensor<fp16, [1, 20, 64, 1]> var_892_cast_fp16 = reshape(shape = var_891, x = query_13_cast_fp16)[name = tensor<string, []>("op_892_cast_fp16")];
            tensor<fp16, []> var_893_to_fp16 = const()[name = tensor<string, []>("op_893_to_fp16"), val = tensor<fp16, []>(0x1p-3)];
            tensor<fp16, [1, 20, 64, 1]> var_894_cast_fp16 = mul(x = var_892_cast_fp16, y = var_893_to_fp16)[name = tensor<string, []>("op_894_cast_fp16")];
            tensor<int32, [4]> var_895 = const()[name = tensor<string, []>("op_895"), val = tensor<int32, [4]>([1, 20, 64, -1])];
            tensor<fp16, [1, 20, 64, 448]> var_896_cast_fp16 = reshape(shape = var_895, x = key_13_cast_fp16)[name = tensor<string, []>("op_896_cast_fp16")];
            tensor<bool, []> mh_w_19_transpose_x_0 = const()[name = tensor<string, []>("mh_w_19_transpose_x_0"), val = tensor<bool, []>(true)];
            tensor<bool, []> mh_w_19_transpose_y_0 = const()[name = tensor<string, []>("mh_w_19_transpose_y_0"), val = tensor<bool, []>(false)];
            tensor<fp16, [1, 20, 1, 448]> mh_w_19_cast_fp16 = matmul(transpose_x = mh_w_19_transpose_x_0, transpose_y = mh_w_19_transpose_y_0, x = var_894_cast_fp16, y = var_896_cast_fp16)[name = tensor<string, []>("mh_w_19_cast_fp16")];
            tensor<fp16, [1, 20, 1, 448]> mh_w_21_cast_fp16 = add(x = mh_w_19_cast_fp16, y = var_259_cast_fp16)[name = tensor<string, []>("mh_w_21_cast_fp16")];
            tensor<fp16, [1, 20, 1, 448]> var_904_cast_fp16 = softmax(axis = var_818, x = mh_w_21_cast_fp16)[name = tensor<string, []>("op_904_cast_fp16")];
            tensor<int32, [4]> var_905 = const()[name = tensor<string, []>("op_905"), val = tensor<int32, [4]>([1, 20, 64, -1])];
            tensor<fp16, [1, 20, 64, 448]> var_906_cast_fp16 = reshape(shape = var_905, x = value_13_cast_fp16)[name = tensor<string, []>("op_906_cast_fp16")];
            tensor<bool, []> attn_13_transpose_x_0 = const()[name = tensor<string, []>("attn_13_transpose_x_0"), val = tensor<bool, []>(false)];
            tensor<bool, []> attn_13_transpose_y_0 = const()[name = tensor<string, []>("attn_13_transpose_y_0"), val = tensor<bool, []>(true)];
            tensor<fp16, [1, 20, 64, 1]> attn_13_cast_fp16 = matmul(transpose_x = attn_13_transpose_x_0, transpose_y = attn_13_transpose_y_0, x = var_906_cast_fp16, y = var_904_cast_fp16)[name = tensor<string, []>("attn_13_cast_fp16")];
            tensor<int32, [4]> var_909 = const()[name = tensor<string, []>("op_909"), val = tensor<int32, [4]>([1, 1280, 1, -1])];
            tensor<fp16, [1, 1280, 1, 1]> input_31_cast_fp16 = reshape(shape = var_909, x = attn_13_cast_fp16)[name = tensor<string, []>("input_31_cast_fp16")];
            tensor<int32, [2]> var_913 = const()[name = tensor<string, []>("op_913"), val = tensor<int32, [2]>([1, 1])];
            tensor<int32, [2]> var_915 = const()[name = tensor<string, []>("op_915"), val = tensor<int32, [2]>([1, 1])];
            tensor<string, []> obj_49_pad_type_0 = const()[name = tensor<string, []>("obj_49_pad_type_0"), val = tensor<string, []>("custom")];
            tensor<int32, [4]> obj_49_pad_0 = const()[name = tensor<string, []>("obj_49_pad_0"), val = tensor<int32, [4]>([0, 0, 0, 0])];
            tensor<fp16, [1280, 1280, 1, 1]> layers_3_self_attn_o_proj_weight_to_fp16 = const()[name = tensor<string, []>("layers_3_self_attn_o_proj_weight_to_fp16"), val = tensor<fp16, [1280, 1280, 1, 1]>(BLOBFILE(path = tensor<string, []>("@model_path/weights/weight.bin"), offset = tensor<uint64, []>(301189376)))];
            tensor<fp16, [1280]> layers_3_self_attn_o_proj_bias_to_fp16 = const()[name = tensor<string, []>("layers_3_self_attn_o_proj_bias_to_fp16"), val = tensor<fp16, [1280]>(BLOBFILE(path = tensor<string, []>("@model_path/weights/weight.bin"), offset = tensor<uint64, []>(304466240)))];
            tensor<fp16, [1, 1280, 1, 1]> obj_49_cast_fp16 = conv(bias = layers_3_self_attn_o_proj_bias_to_fp16, dilations = var_915, groups = var_825, pad = obj_49_pad_0, pad_type = obj_49_pad_type_0, strides = var_913, weight = layers_3_self_attn_o_proj_weight_to_fp16, x = input_31_cast_fp16)[name = tensor<string, []>("obj_49_cast_fp16")];
            tensor<fp16, [1, 1280, 1, 1]> inputs_21_cast_fp16 = add(x = inputs_19_cast_fp16, y = obj_49_cast_fp16)[name = tensor<string, []>("inputs_21_cast_fp16")];
            tensor<int32, [1]> var_925 = const()[name = tensor<string, []>("op_925"), val = tensor<int32, [1]>([1])];
            tensor<fp16, [1, 1, 1, 1]> channels_mean_21_cast_fp16 = reduce_mean(axes = var_925, keep_dims = var_826, x = inputs_21_cast_fp16)[name = tensor<string, []>("channels_mean_21_cast_fp16")];
            tensor<fp16, [1, 1280, 1, 1]> zero_mean_21_cast_fp16 = sub(x = inputs_21_cast_fp16, y = channels_mean_21_cast_fp16)[name = tensor<string, []>("zero_mean_21_cast_fp16")];
            tensor<fp16, [1, 1280, 1, 1]> zero_mean_sq_21_cast_fp16 = mul(x = zero_mean_21_cast_fp16, y = zero_mean_21_cast_fp16)[name = tensor<string, []>("zero_mean_sq_21_cast_fp16")];
            tensor<int32, [1]> var_929 = const()[name = tensor<string, []>("op_929"), val = tensor<int32, [1]>([1])];
            tensor<fp16, [1, 1, 1, 1]> var_930_cast_fp16 = reduce_mean(axes = var_929, keep_dims = var_826, x = zero_mean_sq_21_cast_fp16)[name = tensor<string, []>("op_930_cast_fp16")];
            tensor<fp16, []> var_931_to_fp16 = const()[name = tensor<string, []>("op_931_to_fp16"), val = tensor<fp16, []>(0x1.5p-17)];
            tensor<fp16, [1, 1, 1, 1]> var_932_cast_fp16 = add(x = var_930_cast_fp16, y = var_931_to_fp16)[name = tensor<string, []>("op_932_cast_fp16")];
            tensor<fp16, []> denom_21_epsilon_0_to_fp16 = const()[name = tensor<string, []>("denom_21_epsilon_0_to_fp16"), val = tensor<fp16, []>(0x1p-24)];
            tensor<fp16, [1, 1, 1, 1]> denom_21_cast_fp16 = rsqrt(epsilon = denom_21_epsilon_0_to_fp16, x = var_932_cast_fp16)[name = tensor<string, []>("denom_21_cast_fp16")];
            tensor<fp16, [1, 1280, 1, 1]> out_21_cast_fp16 = mul(x = zero_mean_21_cast_fp16, y = denom_21_cast_fp16)[name = tensor<string, []>("out_21_cast_fp16")];
            tensor<fp16, [1280]> obj_51_gamma_0_to_fp16 = const()[name = tensor<string, []>("obj_51_gamma_0_to_fp16"), val = tensor<fp16, [1280]>(BLOBFILE(path = tensor<string, []>("@model_path/weights/weight.bin"), offset = tensor<uint64, []>(304468864)))];
            tensor<fp16, [1280]> obj_51_beta_0_to_fp16 = const()[name = tensor<string, []>("obj_51_beta_0_to_fp16"), val = tensor<fp16, [1280]>(BLOBFILE(path = tensor<string, []>("@model_path/weights/weight.bin"), offset = tensor<uint64, []>(304471488)))];
            tensor<fp16, []> obj_51_epsilon_0_to_fp16 = const()[name = tensor<string, []>("obj_51_epsilon_0_to_fp16"), val = tensor<fp16, []>(0x1.5p-17)];
            tensor<fp16, [1, 1280, 1, 1]> obj_51_cast_fp16 = batch_norm(beta = obj_51_beta_0_to_fp16, epsilon = obj_51_epsilon_0_to_fp16, gamma = obj_51_gamma_0_to_fp16, mean = obj_1_mean_0_to_fp16, variance = obj_1_variance_0_to_fp16, x = out_21_cast_fp16)[name = tensor<string, []>("obj_51_cast_fp16")];
            tensor<int32, [2]> var_947 = const()[name = tensor<string, []>("op_947"), val = tensor<int32, [2]>([1, 1])];
            tensor<int32, [2]> var_949 = const()[name = tensor<string, []>("op_949"), val = tensor<int32, [2]>([1, 1])];
            tensor<string, []> query_15_pad_type_0 = const()[name = tensor<string, []>("query_15_pad_type_0"), val = tensor<string, []>("custom")];
            tensor<int32, [4]> query_15_pad_0 = const()[name = tensor<string, []>("query_15_pad_0"), val = tensor<int32, [4]>([0, 0, 0, 0])];
            tensor<fp16, [1280, 1280, 1, 1]> layers_3_encoder_attn_q_proj_weight_to_fp16 = const()[name = tensor<string, []>("layers_3_encoder_attn_q_proj_weight_to_fp16"), val = tensor<fp16, [1280, 1280, 1, 1]>(BLOBFILE(path = tensor<string, []>("@model_path/weights/weight.bin"), offset = tensor<uint64, []>(304474112)))];
            tensor<fp16, [1280]> layers_3_encoder_attn_q_proj_bias_to_fp16 = const()[name = tensor<string, []>("layers_3_encoder_attn_q_proj_bias_to_fp16"), val = tensor<fp16, [1280]>(BLOBFILE(path = tensor<string, []>("@model_path/weights/weight.bin"), offset = tensor<uint64, []>(307750976)))];
            tensor<fp16, [1, 1280, 1, 1]> query_15_cast_fp16 = conv(bias = layers_3_encoder_attn_q_proj_bias_to_fp16, dilations = var_949, groups = var_825, pad = query_15_pad_0, pad_type = query_15_pad_type_0, strides = var_947, weight = layers_3_encoder_attn_q_proj_weight_to_fp16, x = obj_51_cast_fp16)[name = tensor<string, []>("query_15_cast_fp16")];
            tensor<int32, [2]> var_953 = const()[name = tensor<string, []>("op_953"), val = tensor<int32, [2]>([1, 1])];
            tensor<int32, [2]> var_955 = const()[name = tensor<string, []>("op_955"), val = tensor<int32, [2]>([1, 1])];
            tensor<string, []> key_15_pad_type_0 = const()[name = tensor<string, []>("key_15_pad_type_0"), val = tensor<string, []>("custom")];
            tensor<int32, [4]> key_15_pad_0 = const()[name = tensor<string, []>("key_15_pad_0"), val = tensor<int32, [4]>([0, 0, 0, 0])];
            tensor<fp16, [1280, 1280, 1, 1]> layers_3_encoder_attn_k_proj_weight_to_fp16 = const()[name = tensor<string, []>("layers_3_encoder_attn_k_proj_weight_to_fp16"), val = tensor<fp16, [1280, 1280, 1, 1]>(BLOBFILE(path = tensor<string, []>("@model_path/weights/weight.bin"), offset = tensor<uint64, []>(307753600)))];
            tensor<fp16, [1, 1280, 1, 1500]> key_15_cast_fp16 = conv(dilations = var_955, groups = var_825, pad = key_15_pad_0, pad_type = key_15_pad_type_0, strides = var_953, weight = layers_3_encoder_attn_k_proj_weight_to_fp16, x = encoder_output_embeds)[name = tensor<string, []>("key_15_cast_fp16")];
            tensor<int32, [2]> var_960 = const()[name = tensor<string, []>("op_960"), val = tensor<int32, [2]>([1, 1])];
            tensor<int32, [2]> var_962 = const()[name = tensor<string, []>("op_962"), val = tensor<int32, [2]>([1, 1])];
            tensor<string, []> value_15_pad_type_0 = const()[name = tensor<string, []>("value_15_pad_type_0"), val = tensor<string, []>("custom")];
            tensor<int32, [4]> value_15_pad_0 = const()[name = tensor<string, []>("value_15_pad_0"), val = tensor<int32, [4]>([0, 0, 0, 0])];
            tensor<fp16, [1280, 1280, 1, 1]> layers_3_encoder_attn_v_proj_weight_to_fp16 = const()[name = tensor<string, []>("layers_3_encoder_attn_v_proj_weight_to_fp16"), val = tensor<fp16, [1280, 1280, 1, 1]>(BLOBFILE(path = tensor<string, []>("@model_path/weights/weight.bin"), offset = tensor<uint64, []>(311030464)))];
            tensor<fp16, [1280]> layers_3_encoder_attn_v_proj_bias_to_fp16 = const()[name = tensor<string, []>("layers_3_encoder_attn_v_proj_bias_to_fp16"), val = tensor<fp16, [1280]>(BLOBFILE(path = tensor<string, []>("@model_path/weights/weight.bin"), offset = tensor<uint64, []>(314307328)))];
            tensor<fp16, [1, 1280, 1, 1500]> value_15_cast_fp16 = conv(bias = layers_3_encoder_attn_v_proj_bias_to_fp16, dilations = var_962, groups = var_825, pad = value_15_pad_0, pad_type = value_15_pad_type_0, strides = var_960, weight = layers_3_encoder_attn_v_proj_weight_to_fp16, x = encoder_output_embeds)[name = tensor<string, []>("value_15_cast_fp16")];
            tensor<int32, [4]> var_966 = const()[name = tensor<string, []>("op_966"), val = tensor<int32, [4]>([1, 20, 64, -1])];
            tensor<fp16, [1, 20, 64, 1]> var_967_cast_fp16 = reshape(shape = var_966, x = query_15_cast_fp16)[name = tensor<string, []>("op_967_cast_fp16")];
            tensor<fp16, []> var_968_to_fp16 = const()[name = tensor<string, []>("op_968_to_fp16"), val = tensor<fp16, []>(0x1p-3)];
            tensor<fp16, [1, 20, 64, 1]> var_969_cast_fp16 = mul(x = var_967_cast_fp16, y = var_968_to_fp16)[name = tensor<string, []>("op_969_cast_fp16")];
            tensor<int32, [4]> var_970 = const()[name = tensor<string, []>("op_970"), val = tensor<int32, [4]>([1, 20, 64, -1])];
            tensor<fp16, [1, 20, 64, 1500]> var_971_cast_fp16 = reshape(shape = var_970, x = key_15_cast_fp16)[name = tensor<string, []>("op_971_cast_fp16")];
            tensor<bool, []> mh_w_23_transpose_x_0 = const()[name = tensor<string, []>("mh_w_23_transpose_x_0"), val = tensor<bool, []>(true)];
            tensor<bool, []> mh_w_23_transpose_y_0 = const()[name = tensor<string, []>("mh_w_23_transpose_y_0"), val = tensor<bool, []>(false)];
            tensor<fp16, [1, 20, 1, 1500]> mh_w_23_cast_fp16 = matmul(transpose_x = mh_w_23_transpose_x_0, transpose_y = mh_w_23_transpose_y_0, x = var_969_cast_fp16, y = var_971_cast_fp16)[name = tensor<string, []>("mh_w_23_cast_fp16")];
            tensor<fp16, [1, 20, 1, 1500]> obj_55_cast_fp16 = softmax(axis = var_818, x = mh_w_23_cast_fp16)[name = tensor<string, []>("obj_55_cast_fp16")];
            tensor<int32, [4]> var_975 = const()[name = tensor<string, []>("op_975"), val = tensor<int32, [4]>([1, 20, 64, -1])];
            tensor<fp16, [1, 20, 64, 1500]> var_976_cast_fp16 = reshape(shape = var_975, x = value_15_cast_fp16)[name = tensor<string, []>("op_976_cast_fp16")];
            tensor<bool, []> attn_15_transpose_x_0 = const()[name = tensor<string, []>("attn_15_transpose_x_0"), val = tensor<bool, []>(false)];
            tensor<bool, []> attn_15_transpose_y_0 = const()[name = tensor<string, []>("attn_15_transpose_y_0"), val = tensor<bool, []>(true)];
            tensor<fp16, [1, 20, 64, 1]> attn_15_cast_fp16 = matmul(transpose_x = attn_15_transpose_x_0, transpose_y = attn_15_transpose_y_0, x = var_976_cast_fp16, y = obj_55_cast_fp16)[name = tensor<string, []>("attn_15_cast_fp16")];
            tensor<int32, [4]> var_979 = const()[name = tensor<string, []>("op_979"), val = tensor<int32, [4]>([1, 1280, 1, -1])];
            tensor<fp16, [1, 1280, 1, 1]> input_33_cast_fp16 = reshape(shape = var_979, x = attn_15_cast_fp16)[name = tensor<string, []>("input_33_cast_fp16")];
            tensor<int32, [2]> var_983 = const()[name = tensor<string, []>("op_983"), val = tensor<int32, [2]>([1, 1])];
            tensor<int32, [2]> var_985 = const()[name = tensor<string, []>("op_985"), val = tensor<int32, [2]>([1, 1])];
            tensor<string, []> obj_53_pad_type_0 = const()[name = tensor<string, []>("obj_53_pad_type_0"), val = tensor<string, []>("custom")];
            tensor<int32, [4]> obj_53_pad_0 = const()[name = tensor<string, []>("obj_53_pad_0"), val = tensor<int32, [4]>([0, 0, 0, 0])];
            tensor<fp16, [1280, 1280, 1, 1]> layers_3_encoder_attn_o_proj_weight_to_fp16 = const()[name = tensor<string, []>("layers_3_encoder_attn_o_proj_weight_to_fp16"), val = tensor<fp16, [1280, 1280, 1, 1]>(BLOBFILE(path = tensor<string, []>("@model_path/weights/weight.bin"), offset = tensor<uint64, []>(314309952)))];
            tensor<fp16, [1280]> layers_3_encoder_attn_o_proj_bias_to_fp16 = const()[name = tensor<string, []>("layers_3_encoder_attn_o_proj_bias_to_fp16"), val = tensor<fp16, [1280]>(BLOBFILE(path = tensor<string, []>("@model_path/weights/weight.bin"), offset = tensor<uint64, []>(317586816)))];
            tensor<fp16, [1, 1280, 1, 1]> obj_53_cast_fp16 = conv(bias = layers_3_encoder_attn_o_proj_bias_to_fp16, dilations = var_985, groups = var_825, pad = obj_53_pad_0, pad_type = obj_53_pad_type_0, strides = var_983, weight = layers_3_encoder_attn_o_proj_weight_to_fp16, x = input_33_cast_fp16)[name = tensor<string, []>("obj_53_cast_fp16")];
            tensor<fp16, [1, 1280, 1, 1]> inputs_23_cast_fp16 = add(x = inputs_21_cast_fp16, y = obj_53_cast_fp16)[name = tensor<string, []>("inputs_23_cast_fp16")];
            tensor<int32, [1]> var_991 = const()[name = tensor<string, []>("op_991"), val = tensor<int32, [1]>([1])];
            tensor<fp16, [1, 1, 1, 1]> channels_mean_23_cast_fp16 = reduce_mean(axes = var_991, keep_dims = var_826, x = inputs_23_cast_fp16)[name = tensor<string, []>("channels_mean_23_cast_fp16")];
            tensor<fp16, [1, 1280, 1, 1]> zero_mean_23_cast_fp16 = sub(x = inputs_23_cast_fp16, y = channels_mean_23_cast_fp16)[name = tensor<string, []>("zero_mean_23_cast_fp16")];
            tensor<fp16, [1, 1280, 1, 1]> zero_mean_sq_23_cast_fp16 = mul(x = zero_mean_23_cast_fp16, y = zero_mean_23_cast_fp16)[name = tensor<string, []>("zero_mean_sq_23_cast_fp16")];
            tensor<int32, [1]> var_995 = const()[name = tensor<string, []>("op_995"), val = tensor<int32, [1]>([1])];
            tensor<fp16, [1, 1, 1, 1]> var_996_cast_fp16 = reduce_mean(axes = var_995, keep_dims = var_826, x = zero_mean_sq_23_cast_fp16)[name = tensor<string, []>("op_996_cast_fp16")];
            tensor<fp16, []> var_997_to_fp16 = const()[name = tensor<string, []>("op_997_to_fp16"), val = tensor<fp16, []>(0x1.5p-17)];
            tensor<fp16, [1, 1, 1, 1]> var_998_cast_fp16 = add(x = var_996_cast_fp16, y = var_997_to_fp16)[name = tensor<string, []>("op_998_cast_fp16")];
            tensor<fp16, []> denom_23_epsilon_0_to_fp16 = const()[name = tensor<string, []>("denom_23_epsilon_0_to_fp16"), val = tensor<fp16, []>(0x1p-24)];
            tensor<fp16, [1, 1, 1, 1]> denom_23_cast_fp16 = rsqrt(epsilon = denom_23_epsilon_0_to_fp16, x = var_998_cast_fp16)[name = tensor<string, []>("denom_23_cast_fp16")];
            tensor<fp16, [1, 1280, 1, 1]> out_23_cast_fp16 = mul(x = zero_mean_23_cast_fp16, y = denom_23_cast_fp16)[name = tensor<string, []>("out_23_cast_fp16")];
            tensor<fp16, [1280]> input_35_gamma_0_to_fp16 = const()[name = tensor<string, []>("input_35_gamma_0_to_fp16"), val = tensor<fp16, [1280]>(BLOBFILE(path = tensor<string, []>("@model_path/weights/weight.bin"), offset = tensor<uint64, []>(317589440)))];
            tensor<fp16, [1280]> input_35_beta_0_to_fp16 = const()[name = tensor<string, []>("input_35_beta_0_to_fp16"), val = tensor<fp16, [1280]>(BLOBFILE(path = tensor<string, []>("@model_path/weights/weight.bin"), offset = tensor<uint64, []>(317592064)))];
            tensor<fp16, []> input_35_epsilon_0_to_fp16 = const()[name = tensor<string, []>("input_35_epsilon_0_to_fp16"), val = tensor<fp16, []>(0x1.5p-17)];
            tensor<fp16, [1, 1280, 1, 1]> input_35_cast_fp16 = batch_norm(beta = input_35_beta_0_to_fp16, epsilon = input_35_epsilon_0_to_fp16, gamma = input_35_gamma_0_to_fp16, mean = obj_1_mean_0_to_fp16, variance = obj_1_variance_0_to_fp16, x = out_23_cast_fp16)[name = tensor<string, []>("input_35_cast_fp16")];
            tensor<int32, [2]> var_1009 = const()[name = tensor<string, []>("op_1009"), val = tensor<int32, [2]>([1, 1])];
            tensor<int32, [2]> var_1011 = const()[name = tensor<string, []>("op_1011"), val = tensor<int32, [2]>([1, 1])];
            tensor<string, []> input_37_pad_type_0 = const()[name = tensor<string, []>("input_37_pad_type_0"), val = tensor<string, []>("custom")];
            tensor<int32, [4]> input_37_pad_0 = const()[name = tensor<string, []>("input_37_pad_0"), val = tensor<int32, [4]>([0, 0, 0, 0])];
            tensor<fp16, [5120, 1280, 1, 1]> layers_3_fc1_weight_to_fp16 = const()[name = tensor<string, []>("layers_3_fc1_weight_to_fp16"), val = tensor<fp16, [5120, 1280, 1, 1]>(BLOBFILE(path = tensor<string, []>("@model_path/weights/weight.bin"), offset = tensor<uint64, []>(317594688)))];
            tensor<fp16, [5120]> layers_3_fc1_bias_to_fp16 = const()[name = tensor<string, []>("layers_3_fc1_bias_to_fp16"), val = tensor<fp16, [5120]>(BLOBFILE(path = tensor<string, []>("@model_path/weights/weight.bin"), offset = tensor<uint64, []>(330701952)))];
            tensor<fp16, [1, 5120, 1, 1]> input_37_cast_fp16 = conv(bias = layers_3_fc1_bias_to_fp16, dilations = var_1011, groups = var_825, pad = input_37_pad_0, pad_type = input_37_pad_type_0, strides = var_1009, weight = layers_3_fc1_weight_to_fp16, x = input_35_cast_fp16)[name = tensor<string, []>("input_37_cast_fp16")];
            tensor<string, []> input_39_mode_0 = const()[name = tensor<string, []>("input_39_mode_0"), val = tensor<string, []>("EXACT")];
            tensor<fp16, [1, 5120, 1, 1]> input_39_cast_fp16 = gelu(mode = input_39_mode_0, x = input_37_cast_fp16)[name = tensor<string, []>("input_39_cast_fp16")];
            tensor<int32, [2]> var_1017 = const()[name = tensor<string, []>("op_1017"), val = tensor<int32, [2]>([1, 1])];
            tensor<int32, [2]> var_1019 = const()[name = tensor<string, []>("op_1019"), val = tensor<int32, [2]>([1, 1])];
            tensor<string, []> hidden_states_9_pad_type_0 = const()[name = tensor<string, []>("hidden_states_9_pad_type_0"), val = tensor<string, []>("custom")];
            tensor<int32, [4]> hidden_states_9_pad_0 = const()[name = tensor<string, []>("hidden_states_9_pad_0"), val = tensor<int32, [4]>([0, 0, 0, 0])];
            tensor<fp16, [1280, 5120, 1, 1]> layers_3_fc2_weight_to_fp16 = const()[name = tensor<string, []>("layers_3_fc2_weight_to_fp16"), val = tensor<fp16, [1280, 5120, 1, 1]>(BLOBFILE(path = tensor<string, []>("@model_path/weights/weight.bin"), offset = tensor<uint64, []>(330712256)))];
            tensor<fp16, [1280]> layers_3_fc2_bias_to_fp16 = const()[name = tensor<string, []>("layers_3_fc2_bias_to_fp16"), val = tensor<fp16, [1280]>(BLOBFILE(path = tensor<string, []>("@model_path/weights/weight.bin"), offset = tensor<uint64, []>(343819520)))];
            tensor<fp16, [1, 1280, 1, 1]> hidden_states_9_cast_fp16 = conv(bias = layers_3_fc2_bias_to_fp16, dilations = var_1019, groups = var_825, pad = hidden_states_9_pad_0, pad_type = hidden_states_9_pad_type_0, strides = var_1017, weight = layers_3_fc2_weight_to_fp16, x = input_39_cast_fp16)[name = tensor<string, []>("hidden_states_9_cast_fp16")];
            tensor<fp16, [1, 1280, 1, 1]> inputs_25_cast_fp16 = add(x = inputs_23_cast_fp16, y = hidden_states_9_cast_fp16)[name = tensor<string, []>("inputs_25_cast_fp16")];
            tensor<int32, []> var_1032 = const()[name = tensor<string, []>("op_1032"), val = tensor<int32, []>(3)];
            tensor<int32, []> var_1039 = const()[name = tensor<string, []>("op_1039"), val = tensor<int32, []>(1)];
            tensor<bool, []> var_1040 = const()[name = tensor<string, []>("op_1040"), val = tensor<bool, []>(true)];
            tensor<int32, [1]> var_1052 = const()[name = tensor<string, []>("op_1052"), val = tensor<int32, [1]>([1])];
            tensor<fp16, [1, 1, 1, 1]> channels_mean_25_cast_fp16 = reduce_mean(axes = var_1052, keep_dims = var_1040, x = inputs_25_cast_fp16)[name = tensor<string, []>("channels_mean_25_cast_fp16")];
            tensor<fp16, [1, 1280, 1, 1]> zero_mean_25_cast_fp16 = sub(x = inputs_25_cast_fp16, y = channels_mean_25_cast_fp16)[name = tensor<string, []>("zero_mean_25_cast_fp16")];
            tensor<fp16, [1, 1280, 1, 1]> zero_mean_sq_25_cast_fp16 = mul(x = zero_mean_25_cast_fp16, y = zero_mean_25_cast_fp16)[name = tensor<string, []>("zero_mean_sq_25_cast_fp16")];
            tensor<int32, [1]> var_1056 = const()[name = tensor<string, []>("op_1056"), val = tensor<int32, [1]>([1])];
            tensor<fp16, [1, 1, 1, 1]> var_1057_cast_fp16 = reduce_mean(axes = var_1056, keep_dims = var_1040, x = zero_mean_sq_25_cast_fp16)[name = tensor<string, []>("op_1057_cast_fp16")];
            tensor<fp16, []> var_1058_to_fp16 = const()[name = tensor<string, []>("op_1058_to_fp16"), val = tensor<fp16, []>(0x1.5p-17)];
            tensor<fp16, [1, 1, 1, 1]> var_1059_cast_fp16 = add(x = var_1057_cast_fp16, y = var_1058_to_fp16)[name = tensor<string, []>("op_1059_cast_fp16")];
            tensor<fp16, []> denom_25_epsilon_0_to_fp16 = const()[name = tensor<string, []>("denom_25_epsilon_0_to_fp16"), val = tensor<fp16, []>(0x1p-24)];
            tensor<fp16, [1, 1, 1, 1]> denom_25_cast_fp16 = rsqrt(epsilon = denom_25_epsilon_0_to_fp16, x = var_1059_cast_fp16)[name = tensor<string, []>("denom_25_cast_fp16")];
            tensor<fp16, [1, 1280, 1, 1]> out_25_cast_fp16 = mul(x = zero_mean_25_cast_fp16, y = denom_25_cast_fp16)[name = tensor<string, []>("out_25_cast_fp16")];
            tensor<fp16, [1280]> obj_57_gamma_0_to_fp16 = const()[name = tensor<string, []>("obj_57_gamma_0_to_fp16"), val = tensor<fp16, [1280]>(BLOBFILE(path = tensor<string, []>("@model_path/weights/weight.bin"), offset = tensor<uint64, []>(343822144)))];
            tensor<fp16, [1280]> obj_57_beta_0_to_fp16 = const()[name = tensor<string, []>("obj_57_beta_0_to_fp16"), val = tensor<fp16, [1280]>(BLOBFILE(path = tensor<string, []>("@model_path/weights/weight.bin"), offset = tensor<uint64, []>(343824768)))];
            tensor<fp16, []> obj_57_epsilon_0_to_fp16 = const()[name = tensor<string, []>("obj_57_epsilon_0_to_fp16"), val = tensor<fp16, []>(0x1.5p-17)];
            tensor<fp16, [1, 1280, 1, 1]> obj_57_cast_fp16 = batch_norm(beta = obj_57_beta_0_to_fp16, epsilon = obj_57_epsilon_0_to_fp16, gamma = obj_57_gamma_0_to_fp16, mean = obj_1_mean_0_to_fp16, variance = obj_1_variance_0_to_fp16, x = out_25_cast_fp16)[name = tensor<string, []>("obj_57_cast_fp16")];
            tensor<int32, [2]> var_1074 = const()[name = tensor<string, []>("op_1074"), val = tensor<int32, [2]>([1, 1])];
            tensor<int32, [2]> var_1076 = const()[name = tensor<string, []>("op_1076"), val = tensor<int32, [2]>([1, 1])];
            tensor<string, []> query_17_pad_type_0 = const()[name = tensor<string, []>("query_17_pad_type_0"), val = tensor<string, []>("custom")];
            tensor<int32, [4]> query_17_pad_0 = const()[name = tensor<string, []>("query_17_pad_0"), val = tensor<int32, [4]>([0, 0, 0, 0])];
            tensor<fp16, [1280, 1280, 1, 1]> layers_4_self_attn_q_proj_weight_to_fp16 = const()[name = tensor<string, []>("layers_4_self_attn_q_proj_weight_to_fp16"), val = tensor<fp16, [1280, 1280, 1, 1]>(BLOBFILE(path = tensor<string, []>("@model_path/weights/weight.bin"), offset = tensor<uint64, []>(343827392)))];
            tensor<fp16, [1280]> layers_4_self_attn_q_proj_bias_to_fp16 = const()[name = tensor<string, []>("layers_4_self_attn_q_proj_bias_to_fp16"), val = tensor<fp16, [1280]>(BLOBFILE(path = tensor<string, []>("@model_path/weights/weight.bin"), offset = tensor<uint64, []>(347104256)))];
            tensor<fp16, [1, 1280, 1, 1]> query_17_cast_fp16 = conv(bias = layers_4_self_attn_q_proj_bias_to_fp16, dilations = var_1076, groups = var_1039, pad = query_17_pad_0, pad_type = query_17_pad_type_0, strides = var_1074, weight = layers_4_self_attn_q_proj_weight_to_fp16, x = obj_57_cast_fp16)[name = tensor<string, []>("query_17_cast_fp16")];
            tensor<int32, [2]> var_1080 = const()[name = tensor<string, []>("op_1080"), val = tensor<int32, [2]>([1, 1])];
            tensor<int32, [2]> var_1082 = const()[name = tensor<string, []>("op_1082"), val = tensor<int32, [2]>([1, 1])];
            tensor<string, []> current_key_9_pad_type_0 = const()[name = tensor<string, []>("current_key_9_pad_type_0"), val = tensor<string, []>("custom")];
            tensor<int32, [4]> current_key_9_pad_0 = const()[name = tensor<string, []>("current_key_9_pad_0"), val = tensor<int32, [4]>([0, 0, 0, 0])];
            tensor<fp16, [1280, 1280, 1, 1]> layers_4_self_attn_k_proj_weight_to_fp16 = const()[name = tensor<string, []>("layers_4_self_attn_k_proj_weight_to_fp16"), val = tensor<fp16, [1280, 1280, 1, 1]>(BLOBFILE(path = tensor<string, []>("@model_path/weights/weight.bin"), offset = tensor<uint64, []>(347106880)))];
            tensor<fp16, [1, 1280, 1, 1]> current_key_9_cast_fp16 = conv(dilations = var_1082, groups = var_1039, pad = current_key_9_pad_0, pad_type = current_key_9_pad_type_0, strides = var_1080, weight = layers_4_self_attn_k_proj_weight_to_fp16, x = obj_57_cast_fp16)[name = tensor<string, []>("current_key_9_cast_fp16")];
            tensor<int32, [2]> var_1087 = const()[name = tensor<string, []>("op_1087"), val = tensor<int32, [2]>([1, 1])];
            tensor<int32, [2]> var_1089 = const()[name = tensor<string, []>("op_1089"), val = tensor<int32, [2]>([1, 1])];
            tensor<string, []> current_value_9_pad_type_0 = const()[name = tensor<string, []>("current_value_9_pad_type_0"), val = tensor<string, []>("custom")];
            tensor<int32, [4]> current_value_9_pad_0 = const()[name = tensor<string, []>("current_value_9_pad_0"), val = tensor<int32, [4]>([0, 0, 0, 0])];
            tensor<fp16, [1280, 1280, 1, 1]> layers_4_self_attn_v_proj_weight_to_fp16 = const()[name = tensor<string, []>("layers_4_self_attn_v_proj_weight_to_fp16"), val = tensor<fp16, [1280, 1280, 1, 1]>(BLOBFILE(path = tensor<string, []>("@model_path/weights/weight.bin"), offset = tensor<uint64, []>(350383744)))];
            tensor<fp16, [1280]> layers_4_self_attn_v_proj_bias_to_fp16 = const()[name = tensor<string, []>("layers_4_self_attn_v_proj_bias_to_fp16"), val = tensor<fp16, [1280]>(BLOBFILE(path = tensor<string, []>("@model_path/weights/weight.bin"), offset = tensor<uint64, []>(353660608)))];
            tensor<fp16, [1, 1280, 1, 1]> current_value_9_cast_fp16 = conv(bias = layers_4_self_attn_v_proj_bias_to_fp16, dilations = var_1089, groups = var_1039, pad = current_value_9_pad_0, pad_type = current_value_9_pad_type_0, strides = var_1087, weight = layers_4_self_attn_v_proj_weight_to_fp16, x = obj_57_cast_fp16)[name = tensor<string, []>("current_value_9_cast_fp16")];
            tensor<fp16, [1, 1280, 1, 448]> var_1096_cast_fp16 = mul(x = current_key_9_cast_fp16, y = var_238_cast_fp16)[name = tensor<string, []>("op_1096_cast_fp16")];
            tensor<fp16, [1, 1280, 1, 448]> var_1098_cast_fp16 = mul(x = var_103_cast_fp16_4, y = var_241_cast_fp16)[name = tensor<string, []>("op_1098_cast_fp16")];
            tensor<fp16, [1, 1280, 1, 448]> key_17_cast_fp16 = add(x = var_1096_cast_fp16, y = var_1098_cast_fp16)[name = tensor<string, []>("key_17_cast_fp16")];
            tensor<fp16, [1, 1280, 1, 448]> var_1100_cast_fp16 = mul(x = current_value_9_cast_fp16, y = var_238_cast_fp16)[name = tensor<string, []>("op_1100_cast_fp16")];
            tensor<fp16, [1, 1280, 1, 448]> var_1102_cast_fp16 = mul(x = var_138_cast_fp16_4, y = var_241_cast_fp16)[name = tensor<string, []>("op_1102_cast_fp16")];
            tensor<fp16, [1, 1280, 1, 448]> value_17_cast_fp16 = add(x = var_1100_cast_fp16, y = var_1102_cast_fp16)[name = tensor<string, []>("value_17_cast_fp16")];
            tensor<int32, [4]> var_1105 = const()[name = tensor<string, []>("op_1105"), val = tensor<int32, [4]>([1, 20, 64, -1])];
            tensor<fp16, [1, 20, 64, 1]> var_1106_cast_fp16 = reshape(shape = var_1105, x = query_17_cast_fp16)[name = tensor<string, []>("op_1106_cast_fp16")];
            tensor<fp16, []> var_1107_to_fp16 = const()[name = tensor<string, []>("op_1107_to_fp16"), val = tensor<fp16, []>(0x1p-3)];
            tensor<fp16, [1, 20, 64, 1]> var_1108_cast_fp16 = mul(x = var_1106_cast_fp16, y = var_1107_to_fp16)[name = tensor<string, []>("op_1108_cast_fp16")];
            tensor<int32, [4]> var_1109 = const()[name = tensor<string, []>("op_1109"), val = tensor<int32, [4]>([1, 20, 64, -1])];
            tensor<fp16, [1, 20, 64, 448]> var_1110_cast_fp16 = reshape(shape = var_1109, x = key_17_cast_fp16)[name = tensor<string, []>("op_1110_cast_fp16")];
            tensor<bool, []> mh_w_25_transpose_x_0 = const()[name = tensor<string, []>("mh_w_25_transpose_x_0"), val = tensor<bool, []>(true)];
            tensor<bool, []> mh_w_25_transpose_y_0 = const()[name = tensor<string, []>("mh_w_25_transpose_y_0"), val = tensor<bool, []>(false)];
            tensor<fp16, [1, 20, 1, 448]> mh_w_25_cast_fp16 = matmul(transpose_x = mh_w_25_transpose_x_0, transpose_y = mh_w_25_transpose_y_0, x = var_1108_cast_fp16, y = var_1110_cast_fp16)[name = tensor<string, []>("mh_w_25_cast_fp16")];
            tensor<fp16, [1, 20, 1, 448]> mh_w_27_cast_fp16 = add(x = mh_w_25_cast_fp16, y = var_259_cast_fp16)[name = tensor<string, []>("mh_w_27_cast_fp16")];
            tensor<fp16, [1, 20, 1, 448]> var_1118_cast_fp16 = softmax(axis = var_1032, x = mh_w_27_cast_fp16)[name = tensor<string, []>("op_1118_cast_fp16")];
            tensor<int32, [4]> var_1119 = const()[name = tensor<string, []>("op_1119"), val = tensor<int32, [4]>([1, 20, 64, -1])];
            tensor<fp16, [1, 20, 64, 448]> var_1120_cast_fp16 = reshape(shape = var_1119, x = value_17_cast_fp16)[name = tensor<string, []>("op_1120_cast_fp16")];
            tensor<bool, []> attn_17_transpose_x_0 = const()[name = tensor<string, []>("attn_17_transpose_x_0"), val = tensor<bool, []>(false)];
            tensor<bool, []> attn_17_transpose_y_0 = const()[name = tensor<string, []>("attn_17_transpose_y_0"), val = tensor<bool, []>(true)];
            tensor<fp16, [1, 20, 64, 1]> attn_17_cast_fp16 = matmul(transpose_x = attn_17_transpose_x_0, transpose_y = attn_17_transpose_y_0, x = var_1120_cast_fp16, y = var_1118_cast_fp16)[name = tensor<string, []>("attn_17_cast_fp16")];
            tensor<int32, [4]> var_1123 = const()[name = tensor<string, []>("op_1123"), val = tensor<int32, [4]>([1, 1280, 1, -1])];
            tensor<fp16, [1, 1280, 1, 1]> input_41_cast_fp16 = reshape(shape = var_1123, x = attn_17_cast_fp16)[name = tensor<string, []>("input_41_cast_fp16")];
            tensor<int32, [2]> var_1127 = const()[name = tensor<string, []>("op_1127"), val = tensor<int32, [2]>([1, 1])];
            tensor<int32, [2]> var_1129 = const()[name = tensor<string, []>("op_1129"), val = tensor<int32, [2]>([1, 1])];
            tensor<string, []> obj_63_pad_type_0 = const()[name = tensor<string, []>("obj_63_pad_type_0"), val = tensor<string, []>("custom")];
            tensor<int32, [4]> obj_63_pad_0 = const()[name = tensor<string, []>("obj_63_pad_0"), val = tensor<int32, [4]>([0, 0, 0, 0])];
            tensor<fp16, [1280, 1280, 1, 1]> layers_4_self_attn_o_proj_weight_to_fp16 = const()[name = tensor<string, []>("layers_4_self_attn_o_proj_weight_to_fp16"), val = tensor<fp16, [1280, 1280, 1, 1]>(BLOBFILE(path = tensor<string, []>("@model_path/weights/weight.bin"), offset = tensor<uint64, []>(353663232)))];
            tensor<fp16, [1280]> layers_4_self_attn_o_proj_bias_to_fp16 = const()[name = tensor<string, []>("layers_4_self_attn_o_proj_bias_to_fp16"), val = tensor<fp16, [1280]>(BLOBFILE(path = tensor<string, []>("@model_path/weights/weight.bin"), offset = tensor<uint64, []>(356940096)))];
            tensor<fp16, [1, 1280, 1, 1]> obj_63_cast_fp16 = conv(bias = layers_4_self_attn_o_proj_bias_to_fp16, dilations = var_1129, groups = var_1039, pad = obj_63_pad_0, pad_type = obj_63_pad_type_0, strides = var_1127, weight = layers_4_self_attn_o_proj_weight_to_fp16, x = input_41_cast_fp16)[name = tensor<string, []>("obj_63_cast_fp16")];
            tensor<fp16, [1, 1280, 1, 1]> inputs_27_cast_fp16 = add(x = inputs_25_cast_fp16, y = obj_63_cast_fp16)[name = tensor<string, []>("inputs_27_cast_fp16")];
            tensor<int32, [1]> var_1139 = const()[name = tensor<string, []>("op_1139"), val = tensor<int32, [1]>([1])];
            tensor<fp16, [1, 1, 1, 1]> channels_mean_27_cast_fp16 = reduce_mean(axes = var_1139, keep_dims = var_1040, x = inputs_27_cast_fp16)[name = tensor<string, []>("channels_mean_27_cast_fp16")];
            tensor<fp16, [1, 1280, 1, 1]> zero_mean_27_cast_fp16 = sub(x = inputs_27_cast_fp16, y = channels_mean_27_cast_fp16)[name = tensor<string, []>("zero_mean_27_cast_fp16")];
            tensor<fp16, [1, 1280, 1, 1]> zero_mean_sq_27_cast_fp16 = mul(x = zero_mean_27_cast_fp16, y = zero_mean_27_cast_fp16)[name = tensor<string, []>("zero_mean_sq_27_cast_fp16")];
            tensor<int32, [1]> var_1143 = const()[name = tensor<string, []>("op_1143"), val = tensor<int32, [1]>([1])];
            tensor<fp16, [1, 1, 1, 1]> var_1144_cast_fp16 = reduce_mean(axes = var_1143, keep_dims = var_1040, x = zero_mean_sq_27_cast_fp16)[name = tensor<string, []>("op_1144_cast_fp16")];
            tensor<fp16, []> var_1145_to_fp16 = const()[name = tensor<string, []>("op_1145_to_fp16"), val = tensor<fp16, []>(0x1.5p-17)];
            tensor<fp16, [1, 1, 1, 1]> var_1146_cast_fp16 = add(x = var_1144_cast_fp16, y = var_1145_to_fp16)[name = tensor<string, []>("op_1146_cast_fp16")];
            tensor<fp16, []> denom_27_epsilon_0_to_fp16 = const()[name = tensor<string, []>("denom_27_epsilon_0_to_fp16"), val = tensor<fp16, []>(0x1p-24)];
            tensor<fp16, [1, 1, 1, 1]> denom_27_cast_fp16 = rsqrt(epsilon = denom_27_epsilon_0_to_fp16, x = var_1146_cast_fp16)[name = tensor<string, []>("denom_27_cast_fp16")];
            tensor<fp16, [1, 1280, 1, 1]> out_27_cast_fp16 = mul(x = zero_mean_27_cast_fp16, y = denom_27_cast_fp16)[name = tensor<string, []>("out_27_cast_fp16")];
            tensor<fp16, [1280]> obj_65_gamma_0_to_fp16 = const()[name = tensor<string, []>("obj_65_gamma_0_to_fp16"), val = tensor<fp16, [1280]>(BLOBFILE(path = tensor<string, []>("@model_path/weights/weight.bin"), offset = tensor<uint64, []>(356942720)))];
            tensor<fp16, [1280]> obj_65_beta_0_to_fp16 = const()[name = tensor<string, []>("obj_65_beta_0_to_fp16"), val = tensor<fp16, [1280]>(BLOBFILE(path = tensor<string, []>("@model_path/weights/weight.bin"), offset = tensor<uint64, []>(356945344)))];
            tensor<fp16, []> obj_65_epsilon_0_to_fp16 = const()[name = tensor<string, []>("obj_65_epsilon_0_to_fp16"), val = tensor<fp16, []>(0x1.5p-17)];
            tensor<fp16, [1, 1280, 1, 1]> obj_65_cast_fp16 = batch_norm(beta = obj_65_beta_0_to_fp16, epsilon = obj_65_epsilon_0_to_fp16, gamma = obj_65_gamma_0_to_fp16, mean = obj_1_mean_0_to_fp16, variance = obj_1_variance_0_to_fp16, x = out_27_cast_fp16)[name = tensor<string, []>("obj_65_cast_fp16")];
            tensor<int32, [2]> var_1161 = const()[name = tensor<string, []>("op_1161"), val = tensor<int32, [2]>([1, 1])];
            tensor<int32, [2]> var_1163 = const()[name = tensor<string, []>("op_1163"), val = tensor<int32, [2]>([1, 1])];
            tensor<string, []> query_19_pad_type_0 = const()[name = tensor<string, []>("query_19_pad_type_0"), val = tensor<string, []>("custom")];
            tensor<int32, [4]> query_19_pad_0 = const()[name = tensor<string, []>("query_19_pad_0"), val = tensor<int32, [4]>([0, 0, 0, 0])];
            tensor<fp16, [1280, 1280, 1, 1]> layers_4_encoder_attn_q_proj_weight_to_fp16 = const()[name = tensor<string, []>("layers_4_encoder_attn_q_proj_weight_to_fp16"), val = tensor<fp16, [1280, 1280, 1, 1]>(BLOBFILE(path = tensor<string, []>("@model_path/weights/weight.bin"), offset = tensor<uint64, []>(356947968)))];
            tensor<fp16, [1280]> layers_4_encoder_attn_q_proj_bias_to_fp16 = const()[name = tensor<string, []>("layers_4_encoder_attn_q_proj_bias_to_fp16"), val = tensor<fp16, [1280]>(BLOBFILE(path = tensor<string, []>("@model_path/weights/weight.bin"), offset = tensor<uint64, []>(360224832)))];
            tensor<fp16, [1, 1280, 1, 1]> query_19_cast_fp16 = conv(bias = layers_4_encoder_attn_q_proj_bias_to_fp16, dilations = var_1163, groups = var_1039, pad = query_19_pad_0, pad_type = query_19_pad_type_0, strides = var_1161, weight = layers_4_encoder_attn_q_proj_weight_to_fp16, x = obj_65_cast_fp16)[name = tensor<string, []>("query_19_cast_fp16")];
            tensor<int32, [2]> var_1167 = const()[name = tensor<string, []>("op_1167"), val = tensor<int32, [2]>([1, 1])];
            tensor<int32, [2]> var_1169 = const()[name = tensor<string, []>("op_1169"), val = tensor<int32, [2]>([1, 1])];
            tensor<string, []> key_19_pad_type_0 = const()[name = tensor<string, []>("key_19_pad_type_0"), val = tensor<string, []>("custom")];
            tensor<int32, [4]> key_19_pad_0 = const()[name = tensor<string, []>("key_19_pad_0"), val = tensor<int32, [4]>([0, 0, 0, 0])];
            tensor<fp16, [1280, 1280, 1, 1]> layers_4_encoder_attn_k_proj_weight_to_fp16 = const()[name = tensor<string, []>("layers_4_encoder_attn_k_proj_weight_to_fp16"), val = tensor<fp16, [1280, 1280, 1, 1]>(BLOBFILE(path = tensor<string, []>("@model_path/weights/weight.bin"), offset = tensor<uint64, []>(360227456)))];
            tensor<fp16, [1, 1280, 1, 1500]> key_19_cast_fp16 = conv(dilations = var_1169, groups = var_1039, pad = key_19_pad_0, pad_type = key_19_pad_type_0, strides = var_1167, weight = layers_4_encoder_attn_k_proj_weight_to_fp16, x = encoder_output_embeds)[name = tensor<string, []>("key_19_cast_fp16")];
            tensor<int32, [2]> var_1174 = const()[name = tensor<string, []>("op_1174"), val = tensor<int32, [2]>([1, 1])];
            tensor<int32, [2]> var_1176 = const()[name = tensor<string, []>("op_1176"), val = tensor<int32, [2]>([1, 1])];
            tensor<string, []> value_19_pad_type_0 = const()[name = tensor<string, []>("value_19_pad_type_0"), val = tensor<string, []>("custom")];
            tensor<int32, [4]> value_19_pad_0 = const()[name = tensor<string, []>("value_19_pad_0"), val = tensor<int32, [4]>([0, 0, 0, 0])];
            tensor<fp16, [1280, 1280, 1, 1]> layers_4_encoder_attn_v_proj_weight_to_fp16 = const()[name = tensor<string, []>("layers_4_encoder_attn_v_proj_weight_to_fp16"), val = tensor<fp16, [1280, 1280, 1, 1]>(BLOBFILE(path = tensor<string, []>("@model_path/weights/weight.bin"), offset = tensor<uint64, []>(363504320)))];
            tensor<fp16, [1280]> layers_4_encoder_attn_v_proj_bias_to_fp16 = const()[name = tensor<string, []>("layers_4_encoder_attn_v_proj_bias_to_fp16"), val = tensor<fp16, [1280]>(BLOBFILE(path = tensor<string, []>("@model_path/weights/weight.bin"), offset = tensor<uint64, []>(366781184)))];
            tensor<fp16, [1, 1280, 1, 1500]> value_19_cast_fp16 = conv(bias = layers_4_encoder_attn_v_proj_bias_to_fp16, dilations = var_1176, groups = var_1039, pad = value_19_pad_0, pad_type = value_19_pad_type_0, strides = var_1174, weight = layers_4_encoder_attn_v_proj_weight_to_fp16, x = encoder_output_embeds)[name = tensor<string, []>("value_19_cast_fp16")];
            tensor<int32, [4]> var_1180 = const()[name = tensor<string, []>("op_1180"), val = tensor<int32, [4]>([1, 20, 64, -1])];
…
            tensor<fp16, [1, 1280, 1, 1]> zero_mean_191_cast_fp16 = sub(x = inputs_191_cast_fp16, y = channels_mean_191_cast_fp16)[name = tensor<string, []>("zero_mean_191_cast_fp16")];
            tensor<fp16, [1, 1280, 1, 1]> zero_mean_sq_191_cast_fp16 = mul(x = zero_mean_191_cast_fp16, y = zero_mean_191_cast_fp16)[name = tensor<string, []>("zero_mean_sq_191_cast_fp16")];
            tensor<int32, [1]> var_7035 = const()[name = tensor<string, []>("op_7035"), val = tensor<int32, [1]>([1])];
            tensor<fp16, [1, 1, 1, 1]> var_7036_cast_fp16 = reduce_mean(axes = var_7035, keep_dims = var_6866, x = zero_mean_sq_191_cast_fp16)[name = tensor<string, []>("op_7036_cast_fp16")];
            tensor<fp16, []> var_7037_to_fp16 = const()[name = tensor<string, []>("op_7037_to_fp16"), val = tensor<fp16, []>(0x1.5p-17)];
            tensor<fp16, [1, 1, 1, 1]> var_7038_cast_fp16 = add(x = var_7036_cast_fp16, y = var_7037_to_fp16)[name = tensor<string, []>("op_7038_cast_fp16")];
            tensor<fp16, []> denom_191_epsilon_0_to_fp16 = const()[name = tensor<string, []>("denom_191_epsilon_0_to_fp16"), val = tensor<fp16, []>(0x1p-24)];
            tensor<fp16, [1, 1, 1, 1]> denom_191_cast_fp16 = rsqrt(epsilon = denom_191_epsilon_0_to_fp16, x = var_7038_cast_fp16)[name = tensor<string, []>("denom_191_cast_fp16")];
            tensor<fp16, [1, 1280, 1, 1]> out_191_cast_fp16 = mul(x = zero_mean_191_cast_fp16, y = denom_191_cast_fp16)[name = tensor<string, []>("out_191_cast_fp16")];
            tensor<fp16, [1280]> input_315_gamma_0_to_fp16 = const()[name = tensor<string, []>("input_315_gamma_0_to_fp16"), val = tensor<fp16, [1280]>(BLOBFILE(path = tensor<string, []>("@model_path/weights/weight.bin"), offset = tensor<uint64, []>(1786857408)))];
            tensor<fp16, [1280]> input_315_beta_0_to_fp16 = const()[name = tensor<string, []>("input_315_beta_0_to_fp16"), val = tensor<fp16, [1280]>(BLOBFILE(path = tensor<string, []>("@model_path/weights/weight.bin"), offset = tensor<uint64, []>(1786860032)))];
            tensor<fp16, []> input_315_epsilon_0_to_fp16 = const()[name = tensor<string, []>("input_315_epsilon_0_to_fp16"), val = tensor<fp16, []>(0x1.5p-17)];
            tensor<fp16, [1, 1280, 1, 1]> input_315_cast_fp16 = batch_norm(beta = input_315_beta_0_to_fp16, epsilon = input_315_epsilon_0_to_fp16, gamma = input_315_gamma_0_to_fp16, mean = obj_1_mean_0_to_fp16, variance = obj_1_variance_0_to_fp16, x = out_191_cast_fp16)[name = tensor<string, []>("input_315_cast_fp16")];
            tensor<int32, [2]> var_7049 = const()[name = tensor<string, []>("op_7049"), val = tensor<int32, [2]>([1, 1])];
            tensor<int32, [2]> var_7051 = const()[name = tensor<string, []>("op_7051"), val = tensor<int32, [2]>([1, 1])];
            tensor<string, []> input_317_pad_type_0 = const()[name = tensor<string, []>("input_317_pad_type_0"), val = tensor<string, []>("custom")];
            tensor<int32, [4]> input_317_pad_0 = const()[name = tensor<string, []>("input_317_pad_0"), val = tensor<int32, [4]>([0, 0, 0, 0])];
            tensor<fp16, [5120, 1280, 1, 1]> layers_31_fc1_weight_to_fp16 = const()[name = tensor<string, []>("layers_31_fc1_weight_to_fp16"), val = tensor<fp16, [5120, 1280, 1, 1]>(BLOBFILE(path = tensor<string, []>("@model_path/weights/weight.bin"), offset = tensor<uint64, []>(1786862656)))];
            tensor<fp16, [5120]> layers_31_fc1_bias_to_fp16 = const()[name = tensor<string, []>("layers_31_fc1_bias_to_fp16"), val = tensor<fp16, [5120]>(BLOBFILE(path = tensor<string, []>("@model_path/weights/weight.bin"), offset = tensor<uint64, []>(1799969920)))];
            tensor<fp16, [1, 5120, 1, 1]> input_317_cast_fp16 = conv(bias = layers_31_fc1_bias_to_fp16, dilations = var_7051, groups = var_6865, pad = input_317_pad_0, pad_type = input_317_pad_type_0, strides = var_7049, weight = layers_31_fc1_weight_to_fp16, x = input_315_cast_fp16)[name = tensor<string, []>("input_317_cast_fp16")];
            tensor<string, []> input_mode_0 = const()[name = tensor<string, []>("input_mode_0"), val = tensor<string, []>("EXACT")];
            tensor<fp16, [1, 5120, 1, 1]> input_cast_fp16 = gelu(mode = input_mode_0, x = input_317_cast_fp16)[name = tensor<string, []>("input_cast_fp16")];
            tensor<int32, [2]> var_7057 = const()[name = tensor<string, []>("op_7057"), val = tensor<int32, [2]>([1, 1])];
            tensor<int32, [2]> var_7059 = const()[name = tensor<string, []>("op_7059"), val = tensor<int32, [2]>([1, 1])];
            tensor<string, []> hidden_states_65_pad_type_0 = const()[name = tensor<string, []>("hidden_states_65_pad_type_0"), val = tensor<string, []>("custom")];
            tensor<int32, [4]> hidden_states_65_pad_0 = const()[name = tensor<string, []>("hidden_states_65_pad_0"), val = tensor<int32, [4]>([0, 0, 0, 0])];
            tensor<fp16, [1280, 5120, 1, 1]> layers_31_fc2_weight_to_fp16 = const()[name = tensor<string, []>("layers_31_fc2_weight_to_fp16"), val = tensor<fp16, [1280, 5120, 1, 1]>(BLOBFILE(path = tensor<string, []>("@model_path/weights/weight.bin"), offset = tensor<uint64, []>(1799980224)))];
            tensor<fp16, [1280]> layers_31_fc2_bias_to_fp16 = const()[name = tensor<string, []>("layers_31_fc2_bias_to_fp16"), val = tensor<fp16, [1280]>(BLOBFILE(path = tensor<string, []>("@model_path/weights/weight.bin"), offset = tensor<uint64, []>(1813087488)))];
            tensor<fp16, [1, 1280, 1, 1]> hidden_states_65_cast_fp16 = conv(bias = layers_31_fc2_bias_to_fp16, dilations = var_7059, groups = var_6865, pad = hidden_states_65_pad_0, pad_type = hidden_states_65_pad_type_0, strides = var_7057, weight = layers_31_fc2_weight_to_fp16, x = input_cast_fp16)[name = tensor<string, []>("hidden_states_65_cast_fp16")];
            tensor<fp16, [1, 1280, 1, 1]> inputs_cast_fp16 = add(x = inputs_191_cast_fp16, y = hidden_states_65_cast_fp16)[name = tensor<string, []>("inputs_cast_fp16")];
            tensor<bool, []> var_7069 = const()[name = tensor<string, []>("op_7069"), val = tensor<bool, []>(true)];
            tensor<int32, [1]> var_7073 = const()[name = tensor<string, []>("op_7073"), val = tensor<int32, [1]>([1])];
            tensor<fp16, [1, 1, 1, 1]> channels_mean_cast_fp16 = reduce_mean(axes = var_7073, keep_dims = var_7069, x = inputs_cast_fp16)[name = tensor<string, []>("channels_mean_cast_fp16")];
            tensor<fp16, [1, 1280, 1, 1]> zero_mean_cast_fp16 = sub(x = inputs_cast_fp16, y = channels_mean_cast_fp16)[name = tensor<string, []>("zero_mean_cast_fp16")];
            tensor<fp16, [1, 1280, 1, 1]> zero_mean_sq_cast_fp16 = mul(x = zero_mean_cast_fp16, y = zero_mean_cast_fp16)[name = tensor<string, []>("zero_mean_sq_cast_fp16")];
            tensor<int32, [1]> var_7077 = const()[name = tensor<string, []>("op_7077"), val = tensor<int32, [1]>([1])];
            tensor<fp16, [1, 1, 1, 1]> var_7078_cast_fp16 = reduce_mean(axes = var_7077, keep_dims = var_7069, x = zero_mean_sq_cast_fp16)[name = tensor<string, []>("op_7078_cast_fp16")];
            tensor<fp16, []> var_7079_to_fp16 = const()[name = tensor<string, []>("op_7079_to_fp16"), val = tensor<fp16, []>(0x1.5p-17)];
            tensor<fp16, [1, 1, 1, 1]> var_7080_cast_fp16 = add(x = var_7078_cast_fp16, y = var_7079_to_fp16)[name = tensor<string, []>("op_7080_cast_fp16")];
            tensor<fp16, []> denom_epsilon_0_to_fp16 = const()[name = tensor<string, []>("denom_epsilon_0_to_fp16"), val = tensor<fp16, []>(0x1p-24)];
            tensor<fp16, [1, 1, 1, 1]> denom_cast_fp16 = rsqrt(epsilon = denom_epsilon_0_to_fp16, x = var_7080_cast_fp16)[name = tensor<string, []>("denom_cast_fp16")];
            tensor<fp16, [1, 1280, 1, 1]> out_cast_fp16 = mul(x = zero_mean_cast_fp16, y = denom_cast_fp16)[name = tensor<string, []>("out_cast_fp16")];
            tensor<fp16, [1280]> hidden_states_gamma_0_to_fp16 = const()[name = tensor<string, []>("hidden_states_gamma_0_to_fp16"), val = tensor<fp16, [1280]>(BLOBFILE(path = tensor<string, []>("@model_path/weights/weight.bin"), offset = tensor<uint64, []>(1813090112)))];
            tensor<fp16, [1280]> hidden_states_beta_0_to_fp16 = const()[name = tensor<string, []>("hidden_states_beta_0_to_fp16"), val = tensor<fp16, [1280]>(BLOBFILE(path = tensor<string, []>("@model_path/weights/weight.bin"), offset = tensor<uint64, []>(1813092736)))];
            tensor<fp16, []> hidden_states_epsilon_0_to_fp16 = const()[name = tensor<string, []>("hidden_states_epsilon_0_to_fp16"), val = tensor<fp16, []>(0x1.5p-17)];
            tensor<fp16, [1, 1280, 1, 1]> hidden_states_cast_fp16 = batch_norm(beta = hidden_states_beta_0_to_fp16, epsilon = hidden_states_epsilon_0_to_fp16, gamma = hidden_states_gamma_0_to_fp16, mean = obj_1_mean_0_to_fp16, variance = obj_1_variance_0_to_fp16, x = out_cast_fp16)[name = tensor<string, []>("hidden_states_cast_fp16")];
            tensor<int32, [1]> var_7090_axes_0 = const()[name = tensor<string, []>("op_7090_axes_0"), val = tensor<int32, [1]>([2])];
            tensor<fp16, [1, 1280, 1]> var_7090_cast_fp16 = squeeze(axes = var_7090_axes_0, x = hidden_states_cast_fp16)[name = tensor<string, []>("op_7090_cast_fp16")];
            tensor<int32, [3]> var_7093_perm_0 = const()[name = tensor<string, []>("op_7093_perm_0"), val = tensor<int32, [3]>([0, 2, 1])];
            tensor<fp16, [51865]> linear_0_bias_0_to_fp16 = const()[name = tensor<string, []>("linear_0_bias_0_to_fp16"), val = tensor<fp16, [51865]>(BLOBFILE(path = tensor<string, []>("@model_path/weights/weight.bin"), offset = tensor<uint64, []>(1813095360)))];
            tensor<fp16, [1, 1, 1280]> transpose_0 = transpose(perm = var_7093_perm_0, x = var_7090_cast_fp16)[name = tensor<string, []>("transpose_0")];
            tensor<fp16, [1, 1, 51865]> logits = linear(bias = linear_0_bias_0_to_fp16, weight = embed_tokens_weight_to_fp16, x = transpose_0)[name = tensor<string, []>("linear_0_cast_fp16")];
            tensor<int32, []> var_7097 = const()[name = tensor<string, []>("op_7097"), val = tensor<int32, []>(1)];
            tensor<bool, []> obj_451_interleave_0 = const()[name = tensor<string, []>("obj_451_interleave_0"), val = tensor<bool, []>(false)];
            tensor<fp16, [1, 40960, 1, 1]> key_cache_updates = concat(axis = var_7097, interleave = obj_451_interleave_0, values = (current_key_1_cast_fp16, current_key_3_cast_fp16, current_key_5_cast_fp16, current_key_7_cast_fp16, current_key_9_cast_fp16, current_key_11_cast_fp16, current_key_13_cast_fp16, current_key_15_cast_fp16, current_key_17_cast_fp16, current_key_19_cast_fp16, current_key_21_cast_fp16, current_key_23_cast_fp16, current_key_25_cast_fp16, current_key_27_cast_fp16, current_key_29_cast_fp16, current_key_31_cast_fp16, current_key_33_cast_fp16, current_key_35_cast_fp16, current_key_37_cast_fp16, current_key_39_cast_fp16, current_key_41_cast_fp16, current_key_43_cast_fp16, current_key_45_cast_fp16, current_key_47_cast_fp16, current_key_49_cast_fp16, current_key_51_cast_fp16, current_key_53_cast_fp16, current_key_55_cast_fp16, current_key_57_cast_fp16, current_key_59_cast_fp16, current_key_61_cast_fp16, current_key_cast_fp16))[name = tensor<string, []>("obj_451_cast_fp16")];
            tensor<int32, []> var_7100 = const()[name = tensor<string, []>("op_7100"), val = tensor<int32, []>(1)];
            tensor<bool, []> obj_453_interleave_0 = const()[name = tensor<string, []>("obj_453_interleave_0"), val = tensor<bool, []>(false)];
            tensor<fp16, [1, 40960, 1, 1]> value_cache_updates = concat(axis = var_7100, interleave = obj_453_interleave_0, values = (current_value_1_cast_fp16, current_value_3_cast_fp16, current_value_5_cast_fp16, current_value_7_cast_fp16, current_value_9_cast_fp16, current_value_11_cast_fp16, current_value_13_cast_fp16, current_value_15_cast_fp16, current_value_17_cast_fp16, current_value_19_cast_fp16, current_value_21_cast_fp16, current_value_23_cast_fp16, current_value_25_cast_fp16, current_value_27_cast_fp16, current_value_29_cast_fp16, current_value_31_cast_fp16, current_value_33_cast_fp16, current_value_35_cast_fp16, current_value_37_cast_fp16, current_value_39_cast_fp16, current_value_41_cast_fp16, current_value_43_cast_fp16, current_value_45_cast_fp16, current_value_47_cast_fp16, current_value_49_cast_fp16, current_value_51_cast_fp16, current_value_53_cast_fp16, current_value_55_cast_fp16, current_value_57_cast_fp16, current_value_59_cast_fp16, current_value_61_cast_fp16, current_value_cast_fp16))[name = tensor<string, []>("obj_453_cast_fp16")];
            tensor<int32, [4]> var_7111_begin_0 = const()[name = tensor<string, []>("op_7111_begin_0"), val = tensor<int32, [4]>([0, 12, 0, 0])];
            tensor<int32, [4]> var_7111_end_0 = const()[name = tensor<string, []>("op_7111_end_0"), val = tensor<int32, [4]>([1, 13, 1, 1500])];
            tensor<bool, [4]> var_7111_end_mask_0 = const()[name = tensor<string, []>("op_7111_end_mask_0"), val = tensor<bool, [4]>([true, false, true, true])];
            tensor<fp16, [1, 1, 1, 1500]> var_7111_cast_fp16 = slice_by_index(begin = var_7111_begin_0, end = var_7111_end_0, end_mask = var_7111_end_mask_0, x = obj_153_cast_fp16)[name = tensor<string, []>("op_7111_cast_fp16")];
            tensor<int32, [4]> var_7114_begin_0 = const()[name = tensor<string, []>("op_7114_begin_0"), val = tensor<int32, [4]>([0, 0, 0, 0])];
            tensor<int32, [4]> var_7114_end_0 = const()[name = tensor<string, []>("op_7114_end_0"), val = tensor<int32, [4]>([1, 1, 1, 1500])];
            tensor<bool, [4]> var_7114_end_mask_0 = const()[name = tensor<string, []>("op_7114_end_mask_0"), val = tensor<bool, [4]>([true, true, false, true])];
            tensor<bool, [4]> var_7114_squeeze_mask_0 = const()[name = tensor<string, []>("op_7114_squeeze_mask_0"), val = tensor<bool, [4]>([false, false, true, false])];
            tensor<fp16, [1, 1, 1500]> var_7114_cast_fp16 = slice_by_index(begin = var_7114_begin_0, end = var_7114_end_0, end_mask = var_7114_end_mask_0, squeeze_mask = var_7114_squeeze_mask_0, x = var_7111_cast_fp16)[name = tensor<string, []>("op_7114_cast_fp16")];
            tensor<int32, [4]> var_7129_begin_0 = const()[name = tensor<string, []>("op_7129_begin_0"), val = tensor<int32, [4]>([0, 17, 0, 0])];
            tensor<int32, [4]> var_7129_end_0 = const()[name = tensor<string, []>("op_7129_end_0"), val = tensor<int32, [4]>([1, 18, 1, 1500])];
            tensor<bool, [4]> var_7129_end_mask_0 = const()[name = tensor<string, []>("op_7129_end_mask_0"), val = tensor<bool, [4]>([true, false, true, true])];
            tensor<fp16, [1, 1, 1, 1500]> var_7129_cast_fp16 = slice_by_index(begin = var_7129_begin_0, end = var_7129_end_0, end_mask = var_7129_end_mask_0, x = obj_195_cast_fp16)[name = tensor<string, []>("op_7129_cast_fp16")];
            tensor<int32, [4]> var_7132_begin_0 = const()[name = tensor<string, []>("op_7132_begin_0"), val = tensor<int32, [4]>([0, 0, 0, 0])];
            tensor<int32, [4]> var_7132_end_0 = const()[name = tensor<string, []>("op_7132_end_0"), val = tensor<int32, [4]>([1, 1, 1, 1500])];
            tensor<bool, [4]> var_7132_end_mask_0 = const()[name = tensor<string, []>("op_7132_end_mask_0"), val = tensor<bool, [4]>([true, true, false, true])];
            tensor<bool, [4]> var_7132_squeeze_mask_0 = const()[name = tensor<string, []>("op_7132_squeeze_mask_0"), val = tensor<bool, [4]>([false, false, true, false])];
            tensor<fp16, [1, 1, 1500]> var_7132_cast_fp16 = slice_by_index(begin = var_7132_begin_0, end = var_7132_end_0, end_mask = var_7132_end_mask_0, squeeze_mask = var_7132_squeeze_mask_0, x = var_7129_cast_fp16)[name = tensor<string, []>("op_7132_cast_fp16")];
            tensor<int32, [4]> var_7147_begin_0 = const()[name = tensor<string, []>("op_7147_begin_0"), val = tensor<int32, [4]>([0, 11, 0, 0])];
            tensor<int32, [4]> var_7147_end_0 = const()[name = tensor<string, []>("op_7147_end_0"), val = tensor<int32, [4]>([1, 12, 1, 1500])];
            tensor<bool, [4]> var_7147_end_mask_0 = const()[name = tensor<string, []>("op_7147_end_mask_0"), val = tensor<bool, [4]>([true, false, true, true])];
            tensor<fp16, [1, 1, 1, 1500]> var_7147_cast_fp16 = slice_by_index(begin = var_7147_begin_0, end = var_7147_end_0, end_mask = var_7147_end_mask_0, x = obj_237_cast_fp16)[name = tensor<string, []>("op_7147_cast_fp16")];
            tensor<int32, [4]> var_7150_begin_0 = const()[name = tensor<string, []>("op_7150_begin_0"), val = tensor<int32, [4]>([0, 0, 0, 0])];
            tensor<int32, [4]> var_7150_end_0 = const()[name = tensor<string, []>("op_7150_end_0"), val = tensor<int32, [4]>([1, 1, 1, 1500])];
            tensor<bool, [4]> var_7150_end_mask_0 = const()[name = tensor<string, []>("op_7150_end_mask_0"), val = tensor<bool, [4]>([true, true, false, true])];
            tensor<bool, [4]> var_7150_squeeze_mask_0 = const()[name = tensor<string, []>("op_7150_squeeze_mask_0"), val = tensor<bool, [4]>([false, false, true, false])];
            tensor<fp16, [1, 1, 1500]> var_7150_cast_fp16 = slice_by_index(begin = var_7150_begin_0, end = var_7150_end_0, end_mask = var_7150_end_mask_0, squeeze_mask = var_7150_squeeze_mask_0, x = var_7147_cast_fp16)[name = tensor<string, []>("op_7150_cast_fp16")];
            tensor<int32, [4]> var_7165_begin_0 = const()[name = tensor<string, []>("op_7165_begin_0"), val = tensor<int32, [4]>([0, 12, 0, 0])];
            tensor<int32, [4]> var_7165_end_0 = const()[name = tensor<string, []>("op_7165_end_0"), val = tensor<int32, [4]>([1, 13, 1, 1500])];
            tensor<bool, [4]> var_7165_end_mask_0 = const()[name = tensor<string, []>("op_7165_end_mask_0"), val = tensor<bool, [4]>([true, false, true, true])];
            tensor<fp16, [1, 1, 1, 1500]> var_7165_cast_fp16 = slice_by_index(begin = var_7165_begin_0, end = var_7165_end_0, end_mask = var_7165_end_mask_0, x = obj_237_cast_fp16)[name = tensor<string, []>("op_7165_cast_fp16")];
            tensor<int32, [4]> var_7168_begin_0 = const()[name = tensor<string, []>("op_7168_begin_0"), val = tensor<int32, [4]>([0, 0, 0, 0])];
            tensor<int32, [4]> var_7168_end_0 = const()[name = tensor<string, []>("op_7168_end_0"), val = tensor<int32, [4]>([1, 1, 1, 1500])];
            tensor<bool, [4]> var_7168_end_mask_0 = const()[name = tensor<string, []>("op_7168_end_mask_0"), val = tensor<bool, [4]>([true, true, false, true])];
            tensor<bool, [4]> var_7168_squeeze_mask_0 = const()[name = tensor<string, []>("op_7168_squeeze_mask_0"), val = tensor<bool, [4]>([false, false, true, false])];
            tensor<fp16, [1, 1, 1500]> var_7168_cast_fp16 = slice_by_index(begin = var_7168_begin_0, end = var_7168_end_0, end_mask = var_7168_end_mask_0, squeeze_mask = var_7168_squeeze_mask_0, x = var_7165_cast_fp16)[name = tensor<string, []>("op_7168_cast_fp16")];
            tensor<int32, [4]> var_7183_begin_0 = const()[name = tensor<string, []>("op_7183_begin_0"), val = tensor<int32, [4]>([0, 13, 0, 0])];
            tensor<int32, [4]> var_7183_end_0 = const()[name = tensor<string, []>("op_7183_end_0"), val = tensor<int32, [4]>([1, 14, 1, 1500])];
            tensor<bool, [4]> var_7183_end_mask_0 = const()[name = tensor<string, []>("op_7183_end_mask_0"), val = tensor<bool, [4]>([true, false, true, true])];
            tensor<fp16, [1, 1, 1, 1500]> var_7183_cast_fp16 = slice_by_index(begin = var_7183_begin_0, end = var_7183_end_0, end_mask = var_7183_end_mask_0, x = obj_237_cast_fp16)[name = tensor<string, []>("op_7183_cast_fp16")];
            tensor<int32, [4]> var_7186_begin_0 = const()[name = tensor<string, []>("op_7186_begin_0"), val = tensor<int32, [4]>([0, 0, 0, 0])];
            tensor<int32, [4]> var_7186_end_0 = const()[name = tensor<string, []>("op_7186_end_0"), val = tensor<int32, [4]>([1, 1, 1, 1500])];
            tensor<bool, [4]> var_7186_end_mask_0 = const()[name = tensor<string, []>("op_7186_end_mask_0"), val = tensor<bool, [4]>([true, true, false, true])];
            tensor<bool, [4]> var_7186_squeeze_mask_0 = const()[name = tensor<string, []>("op_7186_squeeze_mask_0"), val = tensor<bool, [4]>([false, false, true, false])];
            tensor<fp16, [1, 1, 1500]> var_7186_cast_fp16 = slice_by_index(begin = var_7186_begin_0, end = var_7186_end_0, end_mask = var_7186_end_mask_0, squeeze_mask = var_7186_squeeze_mask_0, x = var_7183_cast_fp16)[name = tensor<string, []>("op_7186_cast_fp16")];
            tensor<int32, [4]> var_7201_begin_0 = const()[name = tensor<string, []>("op_7201_begin_0"), val = tensor<int32, [4]>([0, 15, 0, 0])];
            tensor<int32, [4]> var_7201_end_0 = const()[name = tensor<string, []>("op_7201_end_0"), val = tensor<int32, [4]>([1, 16, 1, 1500])];
            tensor<bool, [4]> var_7201_end_mask_0 = const()[name = tensor<string, []>("op_7201_end_mask_0"), val = tensor<bool, [4]>([true, false, true, true])];
            tensor<fp16, [1, 1, 1, 1500]> var_7201_cast_fp16 = slice_by_index(begin = var_7201_begin_0, end = var_7201_end_0, end_mask = var_7201_end_mask_0, x = obj_251_cast_fp16)[name = tensor<string, []>("op_7201_cast_fp16")];
            tensor<int32, [4]> var_7204_begin_0 = const()[name = tensor<string, []>("op_7204_begin_0"), val = tensor<int32, [4]>([0, 0, 0, 0])];
            tensor<int32, [4]> var_7204_end_0 = const()[name = tensor<string, []>("op_7204_end_0"), val = tensor<int32, [4]>([1, 1, 1, 1500])];
            tensor<bool, [4]> var_7204_end_mask_0 = const()[name = tensor<string, []>("op_7204_end_mask_0"), val = tensor<bool, [4]>([true, true, false, true])];
            tensor<bool, [4]> var_7204_squeeze_mask_0 = const()[name = tensor<string, []>("op_7204_squeeze_mask_0"), val = tensor<bool, [4]>([false, false, true, false])];
            tensor<fp16, [1, 1, 1500]> var_7204_cast_fp16 = slice_by_index(begin = var_7204_begin_0, end = var_7204_end_0, end_mask = var_7204_end_mask_0, squeeze_mask = var_7204_squeeze_mask_0, x = var_7201_cast_fp16)[name = tensor<string, []>("op_7204_cast_fp16")];
            tensor<int32, [4]> var_7219_begin_0 = const()[name = tensor<string, []>("op_7219_begin_0"), val = tensor<int32, [4]>([0, 16, 0, 0])];
            tensor<int32, [4]> var_7219_end_0 = const()[name = tensor<string, []>("op_7219_end_0"), val = tensor<int32, [4]>([1, 17, 1, 1500])];
            tensor<bool, [4]> var_7219_end_mask_0 = const()[name = tensor<string, []>("op_7219_end_mask_0"), val = tensor<bool, [4]>([true, false, true, true])];
            tensor<fp16, [1, 1, 1, 1500]> var_7219_cast_fp16 = slice_by_index(begin = var_7219_begin_0, end = var_7219_end_0, end_mask = var_7219_end_mask_0, x = obj_251_cast_fp16)[name = tensor<string, []>("op_7219_cast_fp16")];
            tensor<int32, [4]> var_7222_begin_0 = const()[name = tensor<string, []>("op_7222_begin_0"), val = tensor<int32, [4]>([0, 0, 0, 0])];
            tensor<int32, [4]> var_7222_end_0 = const()[name = tensor<string, []>("op_7222_end_0"), val = tensor<int32, [4]>([1, 1, 1, 1500])];
            tensor<bool, [4]> var_7222_end_mask_0 = const()[name = tensor<string, []>("op_7222_end_mask_0"), val = tensor<bool, [4]>([true, true, false, true])];
            tensor<bool, [4]> var_7222_squeeze_mask_0 = const()[name = tensor<string, []>("op_7222_squeeze_mask_0"), val = tensor<bool, [4]>([false, false, true, false])];
            tensor<fp16, [1, 1, 1500]> var_7222_cast_fp16 = slice_by_index(begin = var_7222_begin_0, end = var_7222_end_0, end_mask = var_7222_end_mask_0, squeeze_mask = var_7222_squeeze_mask_0, x = var_7219_cast_fp16)[name = tensor<string, []>("op_7222_cast_fp16")];
            tensor<int32, [4]> var_7237_begin_0 = const()[name = tensor<string, []>("op_7237_begin_0"), val = tensor<int32, [4]>([0, 4, 0, 0])];
            tensor<int32, [4]> var_7237_end_0 = const()[name = tensor<string, []>("op_7237_end_0"), val = tensor<int32, [4]>([1, 5, 1, 1500])];
            tensor<bool, [4]> var_7237_end_mask_0 = const()[name = tensor<string, []>("op_7237_end_mask_0"), val = tensor<bool, [4]>([true, false, true, true])];
            tensor<fp16, [1, 1, 1, 1500]> var_7237_cast_fp16 = slice_by_index(begin = var_7237_begin_0, end = var_7237_end_0, end_mask = var_7237_end_mask_0, x = obj_265_cast_fp16)[name = tensor<string, []>("op_7237_cast_fp16")];
            tensor<int32, [4]> var_7240_begin_0 = const()[name = tensor<string, []>("op_7240_begin_0"), val = tensor<int32, [4]>([0, 0, 0, 0])];
            tensor<int32, [4]> var_7240_end_0 = const()[name = tensor<string, []>("op_7240_end_0"), val = tensor<int32, [4]>([1, 1, 1, 1500])];
            tensor<bool, [4]> var_7240_end_mask_0 = const()[name = tensor<string, []>("op_7240_end_mask_0"), val = tensor<bool, [4]>([true, true, false, true])];
            tensor<bool, [4]> var_7240_squeeze_mask_0 = const()[name = tensor<string, []>("op_7240_squeeze_mask_0"), val = tensor<bool, [4]>([false, false, true, false])];
            tensor<fp16, [1, 1, 1500]> var_7240_cast_fp16 = slice_by_index(begin = var_7240_begin_0, end = var_7240_end_0, end_mask = var_7240_end_mask_0, squeeze_mask = var_7240_squeeze_mask_0, x = var_7237_cast_fp16)[name = tensor<string, []>("op_7240_cast_fp16")];
            tensor<int32, [4]> var_7255_begin_0 = const()[name = tensor<string, []>("op_7255_begin_0"), val = tensor<int32, [4]>([0, 11, 0, 0])];
            tensor<int32, [4]> var_7255_end_0 = const()[name = tensor<string, []>("op_7255_end_0"), val = tensor<int32, [4]>([1, 12, 1, 1500])];
            tensor<bool, [4]> var_7255_end_mask_0 = const()[name = tensor<string, []>("op_7255_end_mask_0"), val = tensor<bool, [4]>([true, false, true, true])];
            tensor<fp16, [1, 1, 1, 1500]> var_7255_cast_fp16 = slice_by_index(begin = var_7255_begin_0, end = var_7255_end_0, end_mask = var_7255_end_mask_0, x = obj_265_cast_fp16)[name = tensor<string, []>("op_7255_cast_fp16")];
            tensor<int32, [4]> var_7258_begin_0 = const()[name = tensor<string, []>("op_7258_begin_0"), val = tensor<int32, [4]>([0, 0, 0, 0])];
            tensor<int32, [4]> var_7258_end_0 = const()[name = tensor<string, []>("op_7258_end_0"), val = tensor<int32, [4]>([1, 1, 1, 1500])];
            tensor<bool, [4]> var_7258_end_mask_0 = const()[name = tensor<string, []>("op_7258_end_mask_0"), val = tensor<bool, [4]>([true, true, false, true])];
            tensor<bool, [4]> var_7258_squeeze_mask_0 = const()[name = tensor<string, []>("op_7258_squeeze_mask_0"), val = tensor<bool, [4]>([false, false, true, false])];
            tensor<fp16, [1, 1, 1500]> var_7258_cast_fp16 = slice_by_index(begin = var_7258_begin_0, end = var_7258_end_0, end_mask = var_7258_end_mask_0, squeeze_mask = var_7258_squeeze_mask_0, x = var_7255_cast_fp16)[name = tensor<string, []>("op_7258_cast_fp16")];
            tensor<int32, [4]> var_7273_begin_0 = const()[name = tensor<string, []>("op_7273_begin_0"), val = tensor<int32, [4]>([0, 19, 0, 0])];
            tensor<int32, [4]> var_7273_end_0 = const()[name = tensor<string, []>("op_7273_end_0"), val = tensor<int32, [4]>([1, 20, 1, 1500])];
            tensor<bool, [4]> var_7273_end_mask_0 = const()[name = tensor<string, []>("op_7273_end_mask_0"), val = tensor<bool, [4]>([true, false, true, true])];
            tensor<fp16, [1, 1, 1, 1500]> var_7273_cast_fp16 = slice_by_index(begin = var_7273_begin_0, end = var_7273_end_0, end_mask = var_7273_end_mask_0, x = obj_265_cast_fp16)[name = tensor<string, []>("op_7273_cast_fp16")];
            tensor<int32, [4]> var_7276_begin_0 = const()[name = tensor<string, []>("op_7276_begin_0"), val = tensor<int32, [4]>([0, 0, 0, 0])];
            tensor<int32, [4]> var_7276_end_0 = const()[name = tensor<string, []>("op_7276_end_0"), val = tensor<int32, [4]>([1, 1, 1, 1500])];
            tensor<bool, [4]> var_7276_end_mask_0 = const()[name = tensor<string, []>("op_7276_end_mask_0"), val = tensor<bool, [4]>([true, true, false, true])];
            tensor<bool, [4]> var_7276_squeeze_mask_0 = const()[name = tensor<string, []>("op_7276_squeeze_mask_0"), val = tensor<bool, [4]>([false, false, true, false])];
            tensor<fp16, [1, 1, 1500]> var_7276_cast_fp16 = slice_by_index(begin = var_7276_begin_0, end = var_7276_end_0, end_mask = var_7276_end_mask_0, squeeze_mask = var_7276_squeeze_mask_0, x = var_7273_cast_fp16)[name = tensor<string, []>("op_7276_cast_fp16")];
            tensor<int32, [4]> var_7291_begin_0 = const()[name = tensor<string, []>("op_7291_begin_0"), val = tensor<int32, [4]>([0, 11, 0, 0])];
            tensor<int32, [4]> var_7291_end_0 = const()[name = tensor<string, []>("op_7291_end_0"), val = tensor<int32, [4]>([1, 12, 1, 1500])];
            tensor<bool, [4]> var_7291_end_mask_0 = const()[name = tensor<string, []>("op_7291_end_mask_0"), val = tensor<bool, [4]>([true, false, true, true])];
            tensor<fp16, [1, 1, 1, 1500]> var_7291_cast_fp16 = slice_by_index(begin = var_7291_begin_0, end = var_7291_end_0, end_mask = var_7291_end_mask_0, x = obj_279_cast_fp16)[name = tensor<string, []>("op_7291_cast_fp16")];
            tensor<int32, [4]> var_7294_begin_0 = const()[name = tensor<string, []>("op_7294_begin_0"), val = tensor<int32, [4]>([0, 0, 0, 0])];
            tensor<int32, [4]> var_7294_end_0 = const()[name = tensor<string, []>("op_7294_end_0"), val = tensor<int32, [4]>([1, 1, 1, 1500])];
            tensor<bool, [4]> var_7294_end_mask_0 = const()[name = tensor<string, []>("op_7294_end_mask_0"), val = tensor<bool, [4]>([true, true, false, true])];
            tensor<bool, [4]> var_7294_squeeze_mask_0 = const()[name = tensor<string, []>("op_7294_squeeze_mask_0"), val = tensor<bool, [4]>([false, false, true, false])];
            tensor<fp16, [1, 1, 1500]> var_7294_cast_fp16 = slice_by_index(begin = var_7294_begin_0, end = var_7294_end_0, end_mask = var_7294_end_mask_0, squeeze_mask = var_7294_squeeze_mask_0, x = var_7291_cast_fp16)[name = tensor<string, []>("op_7294_cast_fp16")];
            tensor<int32, [4]> var_7309_begin_0 = const()[name = tensor<string, []>("op_7309_begin_0"), val = tensor<int32, [4]>([0, 2, 0, 0])];
            tensor<int32, [4]> var_7309_end_0 = const()[name = tensor<string, []>("op_7309_end_0"), val = tensor<int32, [4]>([1, 3, 1, 1500])];
            tensor<bool, [4]> var_7309_end_mask_0 = const()[name = tensor<string, []>("op_7309_end_mask_0"), val = tensor<bool, [4]>([true, false, true, true])];
            tensor<fp16, [1, 1, 1, 1500]> var_7309_cast_fp16 = slice_by_index(begin = var_7309_begin_0, end = var_7309_end_0, end_mask = var_7309_end_mask_0, x = obj_307_cast_fp16)[name = tensor<string, []>("op_7309_cast_fp16")];
            tensor<int32, [4]> var_7312_begin_0 = const()[name = tensor<string, []>("op_7312_begin_0"), val = tensor<int32, [4]>([0, 0, 0, 0])];
            tensor<int32, [4]> var_7312_end_0 = const()[name = tensor<string, []>("op_7312_end_0"), val = tensor<int32, [4]>([1, 1, 1, 1500])];
            tensor<bool, [4]> var_7312_end_mask_0 = const()[name = tensor<string, []>("op_7312_end_mask_0"), val = tensor<bool, [4]>([true, true, false, true])];
            tensor<bool, [4]> var_7312_squeeze_mask_0 = const()[name = tensor<string, []>("op_7312_squeeze_mask_0"), val = tensor<bool, [4]>([false, false, true, false])];
            tensor<fp16, [1, 1, 1500]> var_7312_cast_fp16 = slice_by_index(begin = var_7312_begin_0, end = var_7312_end_0, end_mask = var_7312_end_mask_0, squeeze_mask = var_7312_squeeze_mask_0, x = var_7309_cast_fp16)[name = tensor<string, []>("op_7312_cast_fp16")];
            tensor<int32, [4]> var_7327_begin_0 = const()[name = tensor<string, []>("op_7327_begin_0"), val = tensor<int32, [4]>([0, 3, 0, 0])];
            tensor<int32, [4]> var_7327_end_0 = const()[name = tensor<string, []>("op_7327_end_0"), val = tensor<int32, [4]>([1, 4, 1, 1500])];
            tensor<bool, [4]> var_7327_end_mask_0 = const()[name = tensor<string, []>("op_7327_end_mask_0"), val = tensor<bool, [4]>([true, false, true, true])];
            tensor<fp16, [1, 1, 1, 1500]> var_7327_cast_fp16 = slice_by_index(begin = var_7327_begin_0, end = var_7327_end_0, end_mask = var_7327_end_mask_0, x = obj_307_cast_fp16)[name = tensor<string, []>("op_7327_cast_fp16")];
            tensor<int32, [4]> var_7330_begin_0 = const()[name = tensor<string, []>("op_7330_begin_0"), val = tensor<int32, [4]>([0, 0, 0, 0])];
            tensor<int32, [4]> var_7330_end_0 = const()[name = tensor<string, []>("op_7330_end_0"), val = tensor<int32, [4]>([1, 1, 1, 1500])];
            tensor<bool, [4]> var_7330_end_mask_0 = const()[name = tensor<string, []>("op_7330_end_mask_0"), val = tensor<bool, [4]>([true, true, false, true])];
            tensor<bool, [4]> var_7330_squeeze_mask_0 = const()[name = tensor<string, []>("op_7330_squeeze_mask_0"), val = tensor<bool, [4]>([false, false, true, false])];
            tensor<fp16, [1, 1, 1500]> var_7330_cast_fp16 = slice_by_index(begin = var_7330_begin_0, end = var_7330_end_0, end_mask = var_7330_end_mask_0, squeeze_mask = var_7330_squeeze_mask_0, x = var_7327_cast_fp16)[name = tensor<string, []>("op_7330_cast_fp16")];
            tensor<int32, [4]> var_7345_begin_0 = const()[name = tensor<string, []>("op_7345_begin_0"), val = tensor<int32, [4]>([0, 3, 0, 0])];
            tensor<int32, [4]> var_7345_end_0 = const()[name = tensor<string, []>("op_7345_end_0"), val = tensor<int32, [4]>([1, 4, 1, 1500])];
            tensor<bool, [4]> var_7345_end_mask_0 = const()[name = tensor<string, []>("op_7345_end_mask_0"), val = tensor<bool, [4]>([true, false, true, true])];
            tensor<fp16, [1, 1, 1, 1500]> var_7345_cast_fp16 = slice_by_index(begin = var_7345_begin_0, end = var_7345_end_0, end_mask = var_7345_end_mask_0, x = obj_321_cast_fp16)[name = tensor<string, []>("op_7345_cast_fp16")];
            tensor<int32, [4]> var_7348_begin_0 = const()[name = tensor<string, []>("op_7348_begin_0"), val = tensor<int32, [4]>([0, 0, 0, 0])];
            tensor<int32, [4]> var_7348_end_0 = const()[name = tensor<string, []>("op_7348_end_0"), val = tensor<int32, [4]>([1, 1, 1, 1500])];
            tensor<bool, [4]> var_7348_end_mask_0 = const()[name = tensor<string, []>("op_7348_end_mask_0"), val = tensor<bool, [4]>([true, true, false, true])];
            tensor<bool, [4]> var_7348_squeeze_mask_0 = const()[name = tensor<string, []>("op_7348_squeeze_mask_0"), val = tensor<bool, [4]>([false, false, true, false])];
            tensor<fp16, [1, 1, 1500]> var_7348_cast_fp16 = slice_by_index(begin = var_7348_begin_0, end = var_7348_end_0, end_mask = var_7348_end_mask_0, squeeze_mask = var_7348_squeeze_mask_0, x = var_7345_cast_fp16)[name = tensor<string, []>("op_7348_cast_fp16")];
            tensor<int32, [4]> var_7363_begin_0 = const()[name = tensor<string, []>("op_7363_begin_0"), val = tensor<int32, [4]>([0, 9, 0, 0])];
            tensor<int32, [4]> var_7363_end_0 = const()[name = tensor<string, []>("op_7363_end_0"), val = tensor<int32, [4]>([1, 10, 1, 1500])];
            tensor<bool, [4]> var_7363_end_mask_0 = const()[name = tensor<string, []>("op_7363_end_mask_0"), val = tensor<bool, [4]>([true, false, true, true])];
            tensor<fp16, [1, 1, 1, 1500]> var_7363_cast_fp16 = slice_by_index(begin = var_7363_begin_0, end = var_7363_end_0, end_mask = var_7363_end_mask_0, x = obj_321_cast_fp16)[name = tensor<string, []>("op_7363_cast_fp16")];
            tensor<int32, [4]> var_7366_begin_0 = const()[name = tensor<string, []>("op_7366_begin_0"), val = tensor<int32, [4]>([0, 0, 0, 0])];
            tensor<int32, [4]> var_7366_end_0 = const()[name = tensor<string, []>("op_7366_end_0"), val = tensor<int32, [4]>([1, 1, 1, 1500])];
            tensor<bool, [4]> var_7366_end_mask_0 = const()[name = tensor<string, []>("op_7366_end_mask_0"), val = tensor<bool, [4]>([true, true, false, true])];
            tensor<bool, [4]> var_7366_squeeze_mask_0 = const()[name = tensor<string, []>("op_7366_squeeze_mask_0"), val = tensor<bool, [4]>([false, false, true, false])];
            tensor<fp16, [1, 1, 1500]> var_7366_cast_fp16 = slice_by_index(begin = var_7366_begin_0, end = var_7366_end_0, end_mask = var_7366_end_mask_0, squeeze_mask = var_7366_squeeze_mask_0, x = var_7363_cast_fp16)[name = tensor<string, []>("op_7366_cast_fp16")];
            tensor<int32, [4]> var_7381_begin_0 = const()[name = tensor<string, []>("op_7381_begin_0"), val = tensor<int32, [4]>([0, 12, 0, 0])];
            tensor<int32, [4]> var_7381_end_0 = const()[name = tensor<string, []>("op_7381_end_0"), val = tensor<int32, [4]>([1, 13, 1, 1500])];
            tensor<bool, [4]> var_7381_end_mask_0 = const()[name = tensor<string, []>("op_7381_end_mask_0"), val = tensor<bool, [4]>([true, false, true, true])];
            tensor<fp16, [1, 1, 1, 1500]> var_7381_cast_fp16 = slice_by_index(begin = var_7381_begin_0, end = var_7381_end_0, end_mask = var_7381_end_mask_0, x = obj_321_cast_fp16)[name = tensor<string, []>("op_7381_cast_fp16")];
            tensor<int32, [4]> var_7384_begin_0 = const()[name = tensor<string, []>("op_7384_begin_0"), val = tensor<int32, [4]>([0, 0, 0, 0])];
            tensor<int32, [4]> var_7384_end_0 = const()[name = tensor<string, []>("op_7384_end_0"), val = tensor<int32, [4]>([1, 1, 1, 1500])];
            tensor<bool, [4]> var_7384_end_mask_0 = const()[name = tensor<string, []>("op_7384_end_mask_0"), val = tensor<bool, [4]>([true, true, false, true])];
            tensor<bool, [4]> var_7384_squeeze_mask_0 = const()[name = tensor<string, []>("op_7384_squeeze_mask_0"), val = tensor<bool, [4]>([false, false, true, false])];
            tensor<fp16, [1, 1, 1500]> var_7384_cast_fp16 = slice_by_index(begin = var_7384_begin_0, end = var_7384_end_0, end_mask = var_7384_end_mask_0, squeeze_mask = var_7384_squeeze_mask_0, x = var_7381_cast_fp16)[name = tensor<string, []>("op_7384_cast_fp16")];
            tensor<int32, [4]> var_7399_begin_0 = const()[name = tensor<string, []>("op_7399_begin_0"), val = tensor<int32, [4]>([0, 5, 0, 0])];
            tensor<int32, [4]> var_7399_end_0 = const()[name = tensor<string, []>("op_7399_end_0"), val = tensor<int32, [4]>([1, 6, 1, 1500])];
            tensor<bool, [4]> var_7399_end_mask_0 = const()[name = tensor<string, []>("op_7399_end_mask_0"), val = tensor<bool, [4]>([true, false, true, true])];
            tensor<fp16, [1, 1, 1, 1500]> var_7399_cast_fp16 = slice_by_index(begin = var_7399_begin_0, end = var_7399_end_0, end_mask = var_7399_end_mask_0, x = obj_335_cast_fp16)[name = tensor<string, []>("op_7399_cast_fp16")];
            tensor<int32, [4]> var_7402_begin_0 = const()[name = tensor<string, []>("op_7402_begin_0"), val = tensor<int32, [4]>([0, 0, 0, 0])];
            tensor<int32, [4]> var_7402_end_0 = const()[name = tensor<string, []>("op_7402_end_0"), val = tensor<int32, [4]>([1, 1, 1, 1500])];
            tensor<bool, [4]> var_7402_end_mask_0 = const()[name = tensor<string, []>("op_7402_end_mask_0"), val = tensor<bool, [4]>([true, true, false, true])];
            tensor<bool, [4]> var_7402_squeeze_mask_0 = const()[name = tensor<string, []>("op_7402_squeeze_mask_0"), val = tensor<bool, [4]>([false, false, true, false])];
            tensor<fp16, [1, 1, 1500]> var_7402_cast_fp16 = slice_by_index(begin = var_7402_begin_0, end = var_7402_end_0, end_mask = var_7402_end_mask_0, squeeze_mask = var_7402_squeeze_mask_0, x = var_7399_cast_fp16)[name = tensor<string, []>("op_7402_cast_fp16")];
            tensor<int32, [4]> var_7417_begin_0 = const()[name = tensor<string, []>("op_7417_begin_0"), val = tensor<int32, [4]>([0, 7, 0, 0])];
            tensor<int32, [4]> var_7417_end_0 = const()[name = tensor<string, []>("op_7417_end_0"), val = tensor<int32, [4]>([1, 8, 1, 1500])];
            tensor<bool, [4]> var_7417_end_mask_0 = const()[name = tensor<string, []>("op_7417_end_mask_0"), val = tensor<bool, [4]>([true, false, true, true])];
            tensor<fp16, [1, 1, 1, 1500]> var_7417_cast_fp16 = slice_by_index(begin = var_7417_begin_0, end = var_7417_end_0, end_mask = var_7417_end_mask_0, x = obj_335_cast_fp16)[name = tensor<string, []>("op_7417_cast_fp16")];
            tensor<int32, [4]> var_7420_begin_0 = const()[name = tensor<string, []>("op_7420_begin_0"), val = tensor<int32, [4]>([0, 0, 0, 0])];
            tensor<int32, [4]> var_7420_end_0 = const()[name = tensor<string, []>("op_7420_end_0"), val = tensor<int32, [4]>([1, 1, 1, 1500])];
            tensor<bool, [4]> var_7420_end_mask_0 = const()[name = tensor<string, []>("op_7420_end_mask_0"), val = tensor<bool, [4]>([true, true, false, true])];
            tensor<bool, [4]> var_7420_squeeze_mask_0 = const()[name = tensor<string, []>("op_7420_squeeze_mask_0"), val = tensor<bool, [4]>([false, false, true, false])];
            tensor<fp16, [1, 1, 1500]> var_7420_cast_fp16 = slice_by_index(begin = var_7420_begin_0, end = var_7420_end_0, end_mask = var_7420_end_mask_0, squeeze_mask = var_7420_squeeze_mask_0, x = var_7417_cast_fp16)[name = tensor<string, []>("op_7420_cast_fp16")];
            tensor<int32, [4]> var_7435_begin_0 = const()[name = tensor<string, []>("op_7435_begin_0"), val = tensor<int32, [4]>([0, 13, 0, 0])];
            tensor<int32, [4]> var_7435_end_0 = const()[name = tensor<string, []>("op_7435_end_0"), val = tensor<int32, [4]>([1, 14, 1, 1500])];
            tensor<bool, [4]> var_7435_end_mask_0 = const()[name = tensor<string, []>("op_7435_end_mask_0"), val = tensor<bool, [4]>([true, false, true, true])];
            tensor<fp16, [1, 1, 1, 1500]> var_7435_cast_fp16 = slice_by_index(begin = var_7435_begin_0, end = var_7435_end_0, end_mask = var_7435_end_mask_0, x = obj_335_cast_fp16)[name = tensor<string, []>("op_7435_cast_fp16")];
            tensor<int32, [4]> var_7438_begin_0 = const()[name = tensor<string, []>("op_7438_begin_0"), val = tensor<int32, [4]>([0, 0, 0, 0])];
            tensor<int32, [4]> var_7438_end_0 = const()[name = tensor<string, []>("op_7438_end_0"), val = tensor<int32, [4]>([1, 1, 1, 1500])];
            tensor<bool, [4]> var_7438_end_mask_0 = const()[name = tensor<string, []>("op_7438_end_mask_0"), val = tensor<bool, [4]>([true, true, false, true])];
            tensor<bool, [4]> var_7438_squeeze_mask_0 = const()[name = tensor<string, []>("op_7438_squeeze_mask_0"), val = tensor<bool, [4]>([false, false, true, false])];
            tensor<fp16, [1, 1, 1500]> var_7438_cast_fp16 = slice_by_index(begin = var_7438_begin_0, end = var_7438_end_0, end_mask = var_7438_end_mask_0, squeeze_mask = var_7438_squeeze_mask_0, x = var_7435_cast_fp16)[name = tensor<string, []>("op_7438_cast_fp16")];
            tensor<int32, [4]> var_7453_begin_0 = const()[name = tensor<string, []>("op_7453_begin_0"), val = tensor<int32, [4]>([0, 5, 0, 0])];
            tensor<int32, [4]> var_7453_end_0 = const()[name = tensor<string, []>("op_7453_end_0"), val = tensor<int32, [4]>([1, 6, 1, 1500])];
            tensor<bool, [4]> var_7453_end_mask_0 = const()[name = tensor<string, []>("op_7453_end_mask_0"), val = tensor<bool, [4]>([true, false, true, true])];
            tensor<fp16, [1, 1, 1, 1500]> var_7453_cast_fp16 = slice_by_index(begin = var_7453_begin_0, end = var_7453_end_0, end_mask = var_7453_end_mask_0, x = obj_363_cast_fp16)[name = tensor<string, []>("op_7453_cast_fp16")];
            tensor<int32, [4]> var_7456_begin_0 = const()[name = tensor<string, []>("op_7456_begin_0"), val = tensor<int32, [4]>([0, 0, 0, 0])];
            tensor<int32, [4]> var_7456_end_0 = const()[name = tensor<string, []>("op_7456_end_0"), val = tensor<int32, [4]>([1, 1, 1, 1500])];
            tensor<bool, [4]> var_7456_end_mask_0 = const()[name = tensor<string, []>("op_7456_end_mask_0"), val = tensor<bool, [4]>([true, true, false, true])];
            tensor<bool, [4]> var_7456_squeeze_mask_0 = const()[name = tensor<string, []>("op_7456_squeeze_mask_0"), val = tensor<bool, [4]>([false, false, true, false])];
            tensor<fp16, [1, 1, 1500]> var_7456_cast_fp16 = slice_by_index(begin = var_7456_begin_0, end = var_7456_end_0, end_mask = var_7456_end_mask_0, squeeze_mask = var_7456_squeeze_mask_0, x = var_7453_cast_fp16)[name = tensor<string, []>("op_7456_cast_fp16")];
            tensor<int32, [4]> var_7471_begin_0 = const()[name = tensor<string, []>("op_7471_begin_0"), val = tensor<int32, [4]>([0, 1, 0, 0])];
            tensor<int32, [4]> var_7471_end_0 = const()[name = tensor<string, []>("op_7471_end_0"), val = tensor<int32, [4]>([1, 2, 1, 1500])];
            tensor<bool, [4]> var_7471_end_mask_0 = const()[name = tensor<string, []>("op_7471_end_mask_0"), val = tensor<bool, [4]>([true, false, true, true])];
            tensor<fp16, [1, 1, 1, 1500]> var_7471_cast_fp16 = slice_by_index(begin = var_7471_begin_0, end = var_7471_end_0, end_mask = var_7471_end_mask_0, x = obj_377_cast_fp16)[name = tensor<string, []>("op_7471_cast_fp16")];
            tensor<int32, [4]> var_7474_begin_0 = const()[name = tensor<string, []>("op_7474_begin_0"), val = tensor<int32, [4]>([0, 0, 0, 0])];
            tensor<int32, [4]> var_7474_end_0 = const()[name = tensor<string, []>("op_7474_end_0"), val = tensor<int32, [4]>([1, 1, 1, 1500])];
            tensor<bool, [4]> var_7474_end_mask_0 = const()[name = tensor<string, []>("op_7474_end_mask_0"), val = tensor<bool, [4]>([true, true, false, true])];
            tensor<bool, [4]> var_7474_squeeze_mask_0 = const()[name = tensor<string, []>("op_7474_squeeze_mask_0"), val = tensor<bool, [4]>([false, false, true, false])];
            tensor<fp16, [1, 1, 1500]> var_7474_cast_fp16 = slice_by_index(begin = var_7474_begin_0, end = var_7474_end_0, end_mask = var_7474_end_mask_0, squeeze_mask = var_7474_squeeze_mask_0, x = var_7471_cast_fp16)[name = tensor<string, []>("op_7474_cast_fp16")];
            tensor<int32, [4]> var_7489_begin_0 = const()[name = tensor<string, []>("op_7489_begin_0"), val = tensor<int32, [4]>([0, 12, 0, 0])];
            tensor<int32, [4]> var_7489_end_0 = const()[name = tensor<string, []>("op_7489_end_0"), val = tensor<int32, [4]>([1, 13, 1, 1500])];
            tensor<bool, [4]> var_7489_end_mask_0 = const()[name = tensor<string, []>("op_7489_end_mask_0"), val = tensor<bool, [4]>([true, false, true, true])];
            tensor<fp16, [1, 1, 1, 1500]> var_7489_cast_fp16 = slice_by_index(begin = var_7489_begin_0, end = var_7489_end_0, end_mask = var_7489_end_mask_0, x = obj_377_cast_fp16)[name = tensor<string, []>("op_7489_cast_fp16")];
            tensor<int32, [4]> var_7492_begin_0 = const()[name = tensor<string, []>("op_7492_begin_0"), val = tensor<int32, [4]>([0, 0, 0, 0])];
            tensor<int32, [4]> var_7492_end_0 = const()[name = tensor<string, []>("op_7492_end_0"), val = tensor<int32, [4]>([1, 1, 1, 1500])];
            tensor<bool, [4]> var_7492_end_mask_0 = const()[name = tensor<string, []>("op_7492_end_mask_0"), val = tensor<bool, [4]>([true, true, false, true])];
            tensor<bool, [4]> var_7492_squeeze_mask_0 = const()[name = tensor<string, []>("op_7492_squeeze_mask_0"), val = tensor<bool, [4]>([false, false, true, false])];
            tensor<fp16, [1, 1, 1500]> var_7492_cast_fp16 = slice_by_index(begin = var_7492_begin_0, end = var_7492_end_0, end_mask = var_7492_end_mask_0, squeeze_mask = var_7492_squeeze_mask_0, x = var_7489_cast_fp16)[name = tensor<string, []>("op_7492_cast_fp16")];
            tensor<int32, [4]> var_7507_begin_0 = const()[name = tensor<string, []>("op_7507_begin_0"), val = tensor<int32, [4]>([0, 15, 0, 0])];
            tensor<int32, [4]> var_7507_end_0 = const()[name = tensor<string, []>("op_7507_end_0"), val = tensor<int32, [4]>([1, 16, 1, 1500])];
            tensor<bool, [4]> var_7507_end_mask_0 = const()[name = tensor<string, []>("op_7507_end_mask_0"), val = tensor<bool, [4]>([true, false, true, true])];
            tensor<fp16, [1, 1, 1, 1500]> var_7507_cast_fp16 = slice_by_index(begin = var_7507_begin_0, end = var_7507_end_0, end_mask = var_7507_end_mask_0, x = obj_391_cast_fp16)[name = tensor<string, []>("op_7507_cast_fp16")];
            tensor<int32, [4]> var_7510_begin_0 = const()[name = tensor<string, []>("op_7510_begin_0"), val = tensor<int32, [4]>([0, 0, 0, 0])];
            tensor<int32, [4]> var_7510_end_0 = const()[name = tensor<string, []>("op_7510_end_0"), val = tensor<int32, [4]>([1, 1, 1, 1500])];
            tensor<bool, [4]> var_7510_end_mask_0 = const()[name = tensor<string, []>("op_7510_end_mask_0"), val = tensor<bool, [4]>([true, true, false, true])];
            tensor<bool, [4]> var_7510_squeeze_mask_0 = const()[name = tensor<string, []>("op_7510_squeeze_mask_0"), val = tensor<bool, [4]>([false, false, true, false])];
            tensor<fp16, [1, 1, 1500]> var_7510_cast_fp16 = slice_by_index(begin = var_7510_begin_0, end = var_7510_end_0, end_mask = var_7510_end_mask_0, squeeze_mask = var_7510_squeeze_mask_0, x = var_7507_cast_fp16)[name = tensor<string, []>("op_7510_cast_fp16")];
            tensor<int32, []> var_7517 = const()[name = tensor<string, []>("op_7517"), val = tensor<int32, []>(1)];
            tensor<bool, []> var_7518_interleave_0 = const()[name = tensor<string, []>("op_7518_interleave_0"), val = tensor<bool, []>(false)];
            tensor<fp16, [1, 23, 1500]> var_7518_cast_fp16 = concat(axis = var_7517, interleave = var_7518_interleave_0, values = (var_7114_cast_fp16, var_7132_cast_fp16, var_7150_cast_fp16, var_7168_cast_fp16, var_7186_cast_fp16, var_7204_cast_fp16, var_7222_cast_fp16, var_7240_cast_fp16, var_7258_cast_fp16, var_7276_cast_fp16, var_7294_cast_fp16, var_7312_cast_fp16, var_7330_cast_fp16, var_7348_cast_fp16, var_7366_cast_fp16, var_7384_cast_fp16, var_7402_cast_fp16, var_7420_cast_fp16, var_7438_cast_fp16, var_7456_cast_fp16, var_7474_cast_fp16, var_7492_cast_fp16, var_7510_cast_fp16))[name = tensor<string, []>("op_7518_cast_fp16")];
            tensor<int32, [1]> var_7520 = const()[name = tensor<string, []>("op_7520"), val = tensor<int32, [1]>([1])];
            tensor<bool, []> var_7521 = const()[name = tensor<string, []>("op_7521"), val = tensor<bool, []>(false)];
            tensor<fp16, [1, 1500]> alignment_heads_weights = reduce_mean(axes = var_7520, keep_dims = var_7521, x = var_7518_cast_fp16)[name = tensor<string, []>("obj_cast_fp16")];
        } -> (logits, key_cache_updates, value_cache_updates, alignment_heads_weights);
}